trained_custom/checkpoints/old_epidenet_b_512samples_patient2_leaveout1/epidenet_b_v2.3_qat_best.pth.tar (torch, 27295 bytes, 10 tensors)

block1_conv1d_bn_relu_1.op.weight f4 [4, 1, 4]
0.7721066 4.1004457 -4.7187138 -4.1766706 -3.5622241 1.7456436 -0.9673855 6.569968
-2.6691685 2.2125564 -3.695555 -2.1768713 -2.9225683 -2.0541348 -1.2601936 0.161595
00000000: c7a8 453f da36 8340 b4ff 96c0 49a7 85c0
00000010: 7bfb 63c0 4071 df3f 93a6 77bf 2e3d d240
00000020: a8d3 2ac0 869a 0d40 f983 6cc0 dc51 0bc0
00000030: 5c0b 3bc0 f276 03c0 064e a1bf 2979 253e

block1_conv1d_bn_relu_1.op.bias f4 [4]
-0.21754603 0.30787262 -1.1066012 -0.5905597
00000000: 63c4 5ebe 7ba1 9d3e 1ca5 8dbf ec2e 17bf

block2_conv1d_bn_relu_1.op.weight f4 [16, 4, 9]
0.10056706 0.45487922 -0.36797103 0.4570716 -0.14441568 0.03257256 0.72508806 -0.5746767
-0.35834098 -0.17079183 -0.20929654 0.7753907 -0.38507345 -0.18801677 -0.3405095 -0.57471895
-0.3679746 0.8582424 0.15423176 0.15575631 -0.21298099 -0.46614552 0.052575562 -0.732028
-0.46253815 -0.31987602 0.47838002 0.25124928 -0.50791323 -0.2675695 0.29451945 0.61838275
0.17903371 0.09669589 0.5181083 -0.3741203 0.07801895 -0.3308171 -0.29851404 -0.22459248
0.18619186 0.16182567 -0.26230267 0.11840834 0.22069994 -0.06526056 0.0038483485 0.086764365
0.25074023 0.3938833 -0.33853883 -0.16643697 0.14916807 0.34629446 0.36432686 0.3710306
0.0807022 -0.37029368 0.036470607 -0.266754 -0.40094873 0.36738962 0.31322342 -0.4230715
0.0780625 -0.07448873 -0.07433758 -0.19594814 0.1580605 -0.2583984 0.14584589 0.20568301
0.27997744 0.14757976 -0.37199458 -0.23338579 0.2055242 0.088522226 -0.28493658 -0.20642275
0.37062013 0.26291987 -0.15779956 -0.08345109 -0.3527933 0.0042920522 -0.27283525 -0.28168118
-0.013000444 0.06848652 -0.15288858 0.22756054 -0.23113337 0.3468937 0.27075627 -0.311853
-0.089175805 0.023035772 0.0662663 0.09027973 0.15292692 0.02293723 -0.18015127 0.1920991
-0.3532664 -0.21717514 -0.08741071 -0.17192373 -0.085732676 -0.22137782 -0.05118311 0.07090418
-0.17965992 -0.00890089 0.21471089 -0.022801334 0.0116068525 -0.038384356 0.046243697 0.1707634
0.26045364 0.17204751 0.26521593 -0.02146744 -0.27141523 -0.14570715 0.20081574 0.008782536
-0.13136232 -0.20161265 -0.25624287 -0.22945753 -0.042273298 0.16046602 0.15530753 -0.25954193
0.1874717 -0.21144964 -0.047671106 -0.10748867 -0.04931408 -0.04133025 -0.2396956 -0.23424575
-0.08784522 0.006012489 -0.25749725 0.27042672 -0.5168102 -0.021488704 0.54410726 -0.27261406
0.5305057 0.20515437 -0.58186966 0.3742883 -0.09475528 -0.28913504 0.4922989 -0.503543
0.060485315 -0.15504408 0.4284461 0.16140579 0.30317646 0.24879953 -0.11551206 -0.11041667
-0.48775575 0.3023759 0.460801 0.4076286 -0.43691185 0.040759534 -0.3922001 -0.29621443
-0.33054334 0.22094056 -0.37948287 -0.03112607 0.058549944 0.521821 -0.6207753 -0.5502391
-0.5000396 0.4894665 -0.3754554 0.6387486 0.22250754 0.082147196 0.010661685 -0.12294554
0.1231448 -0.14524974 0.062569454 0.24341458 -0.5935587 -0.37589276 0.66100466 -0.65809613
-0.10296707 0.738655 0.22074853 -0.06906168 -0.80138963 0.33406976 -0.6372655 -0.19959521
-0.27294275 -0.15310109 -0.032701455 0.592991 0.0061762845 0.5911502 0.41742796 -0.5704464
0.46565136 -0.4673745 -0.25856623 0.27372918 0.256237 0.5419155 -0.324787 -0.05691843
0.3404721 -0.7160941 0.6376286 -0.55409425 0.065533444 -0.12923905 -0.41230983 0.02645517
0.6856317 -0.34294546 -0.3923372 -0.21672913 -0.69678813 0.38128835 -0.35906914 -0.5292482
-0.50475204 0.38741755 0.3669661 0.6199264 0.3370437 -0.19893228 -0.1770293 0.2309778
0.6062789 0.14521013 -0.4246158 -0.40214717 -0.5148162 0.29201767 -0.28346115 -0.50873065
00000000: 1af6 cd3d eee5 e83e b366 bcbe 4a05 ea3e
00000010: b4e1 13be ce6a 053d 5f9f 393f 031e 13bf
00000020: 7878 b7be 0ee4 2ebe d551 56be 0180 463f
00000030: 5928 c5be 7887 40be 4357 aebe c820 13bf
00000040: 2b67 bcbe c6b5 5b3f eeee 1d3e 957e 1f3e
00000050: b017 5abe a0aa eebe 7959 573d 3066 3bbf
00000060: cdd1 ecbe cac6 a3be 3aee f43e bfa3 803e
00000070: 9a06 02bf dffe 88be 41cb 963e 554e 1e3f
00000080: 9d54 373e 7f08 c63d bfa2 043f b28c bfbe
00000090: 66c8 9f3d dc60 a9be d5d6 98be 92fb 65be
000000a0: 14a9 3e3e a1b5 253e 894c 86be 1280 f23d
000000b0: 2aff 613e 54a7 85bd 9334 7c3b 84b1 b13d
000000c0: 0661 803e 12ab c93e f654 adbe 746e 2abe
000000d0: 84bf 183e 824d b13e 0d89 ba3e b9f7 bd3e
000000e0: 3247 a53d 2297 bdbe 3462 153d fb93 88be
000000f0: 2749 cdbe 7e1a bc3e d25e a03e d49c d8be
00000100: 3bdf 9f3d 8c8d 98bd 4d3e 98bd a1a6 48be
00000110: 9dda 213e cc4c 84be a058 153e 919e 523e
00000120: 3459 8f3e 261f 173e 1376 bebe affc 6ebe
00000130: f074 523e 244b b53d 35e3 91be 7c60 53be
00000140: ecc1 bd3e 6f9d 863e 3596 21be 68e8 aabd
00000150: 53a1 b4be 58a4 8c3b 10b1 8bbe 8438 90be
00000160: d0ff 54bc a942 8c3d d38e 1cbe a105 693e
00000170: 3aae 6cbe 0d9c b13e 91a0 8a3e 32ab 9fbe
00000180: cea1 b6bd 84b5 bc3c a0b6 873d 94e4 b83d
00000190: e098 1c3e dce6 bb3c 9379 38be a0b5 443e
000001a0: 55df b4be 2963 5ebe 6304 b3bd c60c 30be
000001b0: 9d94 afbd deb0 62be 61a5 51bd 3636 913d
000001c0: c5f8 37be 0ad5 11bc 2cdd 5b3e ddc9 babc
000001d0: ab2a 3e3c ea38 1dbd 086a 3d3d 9adc 2e3e
000001e0: 2e5a 853e 392d 303e 62ca 873e 7cdc afbc
000001f0: f0f6 8abe 4134 15be a4a2 4d3e a0e4 0f3c
00000200: d883 06be 8c73 4ebe 4432 83be eaf6 6abe
00000210: c426 2dbd 3451 243e f008 1f3e aee2 84be
00000220: 95f8 3f3e 4186 58be c742 43bd 0523 dcbd
00000230: 90fd 49bd e949 29bd c372 75be 1ede 6fbe
00000240: 32e8 b3bd 6a04 c53b aed6 83be 5f75 8a3e
00000250: ac4d 04bf 1409 b0bc 9d4a 0b3f 1294 8bbe
00000260: 39cf 073f fd13 523e 69f5 14bf b7a2 bf3e
00000270: 0e0f c2bd 8209 94be 9a0e fc3e 32e8 00bf
00000280: 73bf 773d e0c3 1ebe 4a5d db3e 8f47 253e
00000290: f239 9b3e 4ec5 7e3e 9691 ecbd 2322 e2bd
000002a0: 1fbb f9be 04d1 9a3e 1cee eb3e b2b4 d03e
000002b0: e9b2 dfbe 78f3 263d 74ce c8be 6ba9 97be
000002c0: fa3c a9be 3e3e 623e 944b c2be 1afc febc
000002d0: 11d2 6f3d 1096 053f 21eb 1ebf 78dc 0cbf
000002e0: 9802 00bf 5a9b fa3e b13b c0be 0785 233f
000002f0: 04d9 633e ca3c a83d 59ae 2e3c dfca fbbd
00000300: 5733 fc3d 59bc 14be 6a24 803d ac41 793e
00000310: 77f3 17bf 0475 c0be 9a37 293f fd78 28bf
00000320: 66e0 d2bd 7e18 3d3f e70b 623e 3670 8dbd
00000330: df27 4dbf 310b ab3e d523 23bf b062 4cbe
00000340: 27bf 8bbe 88c6 1cbe f6f1 05bd 42ce 173f
00000350: 6e62 ca3b 9f55 173f 1eb9 d53e c608 12bf
00000360: db69 ee3e b64b efbe cb62 84be 3b26 8c3e
00000370: 7f31 833e f9ba 0a3f 7b4a a6be 4d23 69bd
00000380: 5c52 ae3e f151 37bf a13b 233f 1fd9 0dbf
00000390: 6636 863d 3e57 04be 461a d3be 83b8 d83c
000003a0: 8f85 2f3f 8c96 afbe 6ce0 c8be 3eee 5dbe
000003b0: b560 32bf 3a38 c33e e9d7 b7be cf7c 07bf
000003c0: 6e37 01bf 985b c63e fbe2 bb3e 7fb3 1e3f
000003d0: fe90 ac3e e7b4 4bbe 2b47 35be 7285 6c3e
000003e0: 1835 1b3f f7b1 143e 3e67 d9be 3ce6 cdbe
000003f0: ffca 03bf 5783 953e d221 91be 2c3c 02bf

block2_conv1d_bn_relu_1.op.bias f4 [16]
0.20415658 -0.0511 0.22828335 0.1938939 0.09469777 0.17130157 0.14452955 0.1519622
-0.24844989 0.19574171 -0.1091057 0.24558412 0.16915677 -0.26208156 0.19759093 0.047904123
00000000: 6c0e 513e 3c4e 51bd 1cc3 693e 1f8c 463e
00000010: e8f0 c13d ae69 2f3e 8eff 133e fb9b 1b3e
00000020: a669 7ebe 8470 483e cf72 dfbd 677a 7b3e
00000030: 6f37 2d3e 8e2f 86be 4755 4a3e 1d37 443d

block6_dense.op.weight f4 [2, 16]
0.40508443 0.045009423 0.25263387 0.3597561 0.31195676 0.218529 0.4360377 0.21647607
0.000649387 0.45581564 0.18596964 -0.09309125 0.109638326 -0.05271776 0.4185798 0.13249993
-0.42903936 -0.16928858 -0.008427713 -0.07720587 -0.10612613 -0.16185297 -0.13492018 -0.24357043
-0.21421301 -0.45619842 -0.3155079 -0.045412634 -0.3306323 -0.07950826 -0.12239005 -0.15597843
00000000: 3a67 cf3e cd5b 383d 3a59 813e f431 b83e
00000010: ccb8 9f3e 11c6 5f3e 5540 df3e e7ab 5d3e
00000020: a03b 2a3a ab60 e93e d36e 3e3e a0a6 bebd
00000030: 0f8a e03d 94ee 57bd 1750 d63e 10ae 073e
00000040: 0cab dbbe fc59 2dbe 6414 0abc 1c1e 9ebd
00000050: a858 d9bd c9bc 25be 8428 0abe 876a 79be
00000060: a85a 5bbe d792 e9be 408a a1be 9902 3abd
00000070: a348 a9be 3ad5 a2bd a2a7 fabd cfb8 1fbe

momentum_buffer f4 [4, 1, 4]
0.0010224283 0.0043562045 -0.0044335793 -0.0038877225 -0.0035519365 0.0017561247 -0.00095686637 0.0065665767
-0.0026995752 0.0021822224 -0.0037264405 -0.0022076024 -0.0025458203 -0.0016773628 -0.00088758906 0.0005207518
00000000: 0003 863a 7ebe 8e3b 8f47 91bb 29c9 7ebb
00000010: 9bc7 68bb c42d e63a 37d6 7aba 702c d73b
00000020: 5beb 30bb 9e03 0f3b 4c37 74bb 6cad 10bb
00000030: c7d7 26bb f5da dbba 18ad 68ba 1083 083a

momentum_buffer f4 [4]
-0.0020217837 0.00024349589 -0.0009417316 -0.0028314285
00000000: e77f 04bb ee52 7f39 8ade 76ba 7d8f 39bb

momentum_buffer f4 [16, 4, 9]
5.4467673e-05 0.00040301878 -0.00041576318 0.00040542998 -0.00019426148 -1.700346e-05 0.00067335786 -0.0006217754
-0.00040410383 -0.00017097687 -0.00020951804 0.0007751317 -0.00038523274 -0.00018818234 -0.0003406901 -0.0005748757
-0.00036817256 0.0008566107 0.00015364552 0.00015520843 -0.00021348127 -0.00046673042 5.1945215e-05 -0.0007325672
-0.00046317026 -0.0003204388 0.00047784738 0.00021769106 -0.0005413833 -0.0003010745 0.00025710365 0.00057984167
0.00014253016 5.851052e-05 0.00048141298 -0.00040586866 7.742427e-05 -0.0003313795 -0.0002990914 -0.00022522538
0.00018545236 0.00016097161 -0.00026322406 0.000117346935 0.00021956894 -6.532695e-05 3.7696727e-06 8.6676824e-05
0.00025066538 0.0003938389 -0.00033856364 -0.00016644815 0.0001491596 0.0003454475 0.00036432856 0.0003710323
8.070209e-05 -0.0003702978 3.646583e-05 -0.00026677537 -0.00040100145 0.0003672846 0.00031307305 -0.0004233368
7.7796685e-05 -7.47593e-05 -7.465769e-05 -0.0001963506 0.0001574995 -0.00025905014 0.00014504204 0.00020469898
0.00027890538 0.00014663077 -0.00037286105 -0.00023427003 0.00020460109 8.764703e-05 -0.00028578285 -0.0002072953
0.0003696848 0.00026291556 -0.00015780768 -8.345936e-05 -0.00035280274 4.283723e-06 -0.00027284588 -0.0002816926
-1.3009158e-05 6.839769e-05 -0.00015290538 0.00022754747 -0.0002311452 0.00034688762 0.0002707495 -0.0003118604
-8.917948e-05 2.303283e-05 6.626078e-05 8.9556655e-05 0.0001521941 2.2283668e-05 -0.00018075113 0.00019144276
-0.00035389565 -0.00021775717 -8.799338e-05 -0.00017257665 -8.614756e-05 -0.00022174911 -5.176577e-05 7.045776e-05
-0.00018010799 -9.393479e-06 0.00021416701 -2.3217175e-05 1.1132803e-05 -3.8418326e-05 4.6198475e-05 0.000170708
0.00026039817 0.00017199293 0.00026516884 -2.1751988e-05 -0.00027143647 -0.00014572371 0.00020081349 8.778928e-06
-0.00013136577 -0.00020161695 -0.00025624703 -0.00022946172 -4.2277796e-05 0.0001604634 0.00015530446 -0.00025973364
0.00018731109 -0.00021160419 -4.7836093e-05 -0.00010765896 -4.951471e-05 -4.1587333e-05 -0.00023988241 -0.00023445764
-9.019958e-05 3.831396e-06 -0.00025952948 0.00026843022 -0.00051870244 -2.36909e-05 0.000541572 -0.0002750827
0.0005277239 0.00020509856 -0.00058192736 0.00037421152 -9.482701e-05 -0.00028920543 0.0004922359 -0.00050358655
6.0425937e-05 -0.00015509207 0.0004284192 0.00016138951 0.0003031651 0.00024878955 -0.000115524104 -0.000110431116
-0.00048778547 0.0003023337 0.0004607334 0.0004059051 -0.00043821387 3.9640905e-05 -0.00039316487 -0.00029707715
-0.00033157485 0.00021941442 -0.00038109627 -3.2989698e-05 4.103919e-05 0.0005006153 -0.0006387448 -0.0005687134
-0.00051931525 0.00046897776 -0.0003953711 0.00061908946 0.00020402364 8.205927e-05 1.0558952e-05 -0.00012306041
0.0001230464 -0.00014533731 6.250135e-05 0.0002426849 -0.0005936716 -0.000375941 0.00066083483 -0.00065824226
-0.00010311004 0.0007384739 0.00022051675 -6.936607e-05 -0.00080172246 0.0003337331 -0.0006375138 -0.00021193674
-0.00028656016 -0.00016613268 -4.542227e-05 0.0005792547 -8.70897e-06 0.00057568046 0.00040239966 -0.0005840063
0.0004485516 -0.00048190512 -0.000272799 0.00025867997 0.00024058524 0.00052624644 -0.00033909825 -7.1262715e-05
0.00032591473 -0.00071614573 0.00063755503 -0.0005541673 6.5472384e-05 -0.00012931289 -0.00041238015 2.6364703e-05
0.0006847469 -0.0003430118 -0.00039252394 -0.0002168732 -0.0006969323 0.00038112578 -0.00035925957 -0.00052945333
-0.00050492486 0.00038723607 0.0003667818 0.0006082304 0.0003259029 -0.00020892362 -0.00018737066 0.00021960454
0.00059434527 0.0001342982 -0.0004345756 -0.00041226402 -0.00052183034 0.00027941747 -0.00029283922 -0.00051827915
00000000: 3874 6438 444c d339 cafa d9b9 e48f d439
00000010: abb2 4bb9 a7a2 8eb7 4884 303a a4fe 22ba
00000020: e6dd d3b9 4148 33b9 12b2 5bb9 3532 4b3a
00000030: 10f9 c9b9 d052 45b9 a79e b2b9 41b3 16ba
00000040: 4907 c1b9 2c8e 603a e81b 2139 72bf 2239
00000050: f1d9 5fb9 7fb3 f4b9 c0df 5938 c109 40ba
00000060: a9d5 f2b9 9100 a8b9 9787 fa39 0044 6439
00000070: 9eeb 0dba 89d9 9db9 decb 8639 8400 183a
00000080: 2674 1539 3169 7538 2866 fc39 c5ca d4b9
00000090: d75e a238 01bd adb9 5ecf 9cb9 7a2a 6cb9
000000a0: fd75 4239 7dca 2839 5601 8ab9 2818 f638
000000b0: 173c 6639 2400 89b8 7cfa 7c36 44c6 b538
000000c0: bd6b 8339 2a7c ce39 3e81 b1b9 9688 2eb9
000000d0: ba67 1c39 2e1d b539 5a03 bf39 1d87 c239
000000e0: 9b3e a938 8824 c2b9 e3f2 1838 fcdd 8bb9
000000f0: 813d d2b9 1b90 c039 f423 a439 4ef3 ddb9
00000100: c726 a338 18c8 9cb8 8b91 9cb8 76e3 4db9
00000110: 7326 2539 1fd1 87b9 6d16 1839 77a4 5639
00000120: 0c3a 9239 e6c0 1939 907c c3b9 62a6 75b9
00000130: 308a 5639 24cf b738 20d5 95b9 695d 59b9
00000140: 41d2 c139 eed7 8939 2d79 25b9 e706 afb8
00000150: 62f8 b8b9 e6bc 8f36 c10c 8fb9 24b0 93b9
00000160: e841 5ab7 bb70 8f38 3a55 20b9 cf99 6e39
00000170: 915f 72b9 78de b539 62f3 8d39 3281 a3b9
00000180: de05 bbb8 a036 c137 7cf5 8a38 5dd0 bb38
00000190: 4b96 1f39 d0ed ba37 0388 3db9 06be 4839
000001a0: 128b b9b9 bf55 64b9 1689 b8b8 b1f5 34b9
000001b0: 1eaa b4b8 5385 68b9 131f 59b8 b9c2 9338
000001c0: 5fdb 3cb9 af98 1db7 0592 6039 81c2 c2b7
000001d0: 06c7 3a37 5d23 21b8 3cc5 4138 1400 3339
000001e0: 0d86 8839 0059 3439 5c06 8b39 0a78 b6b7
000001f0: 964f 8eb9 69cd 18b9 7691 5239 3549 1337
00000200: 3bbf 09b9 2369 53b9 e558 86b9 a99b 70b9
00000210: 7053 31b8 1142 2839 39d9 2239 dc2c 88b9
00000220: f068 4439 11e2 5db9 9da3 48b8 f7c6 e1b8
00000230: 04ae 4fb8 0f6e 2eb8 f288 7bb9 bed8 75b9
00000240: 8829 bdb8 718f 8036 7511 88b9 18bc 8c39
00000250: 88f9 07ba d2bb c6b7 48f8 0d3a fa38 90b9
00000260: f456 0a3a ba0f 5739 7c8c 18ba d231 c439
00000270: dddd c6b8 7fa0 97b9 6409 013a 1f03 04ba
00000280: db71 7d38 36a0 22b9 749d e039 ab3a 2939
00000290: 22f2 9e39 f86f 8239 8845 f2b8 4197 e7b8
000002a0: 75bd ffb9 8b82 9e39 978e f139 a9cf d439
000002b0: 12c0 e5b9 1944 2638 b221 ceb9 05c1 9bb9
000002c0: 39d7 adb9 9c12 6639 e0cd c7b9 6b5e 0ab8
000002d0: 7f21 2c38 b93b 033a 7071 27ba b615 15ba
000002e0: a822 08ba 21e1 f539 d049 cfb9 644a 223a
000002f0: 2eef 5539 3c17 ac38 5b26 3137 c709 01b9
00000300: 0406 0139 b065 18b9 2813 8338 3b79 7e39
00000310: a0a0 1bba f219 c5b9 e03b 2d3a e48d 2cba
00000320: c83c d8b8 2596 413a 843a 6739 a078 91b8
00000330: af2a 52ba e6f8 ae39 d41e 27ba 563b 5eb9
00000340: 743d 96b9 e733 2eb9 cb83 3eb8 20d9 173a
00000350: be1c 12b7 43e9 163a 2bf9 d239 0018 19ba
00000360: 942b eb39 36a8 fcb9 7606 8fb9 709f 8739
00000370: 9c45 7c39 cdf3 093a ffc8 b1b9 e172 95b8
00000380: 89df aa39 babb 3bba 9821 273a 8a45 11ba
00000390: 384e 8938 2a98 07b9 ba34 d8b9 c529 dd37
000003a0: 9680 333a 44d6 b3b9 accb cdb9 7568 63b9
000003b0: 56b2 36ba d6d1 c739 015b bcb9 03cb 0aba
000003c0: ef5c 04ba f205 cb39 9f4c c039 a771 1f3a
000003d0: f2dd aa39 8212 5bb9 ee78 44b9 a545 6639
000003e0: d6cd 1b3a 66d2 0c39 c0d7 e3b9 2425 d8b9
000003f0: 71cb 08ba c77e 9239 3788 99b9 20dd 07ba

momentum_buffer f4 [16]
6.614948e-05 -5.3724158e-05 0.00022566447 0.00019175324 8.6884655e-05 0.00011712851 0.00010207702 0.000121201985
-0.00031568087 4.464802e-05 -0.0002158459 0.0002297353 5.6558536e-05 -0.00026387928 0.00015646298 -4.727594e-06
00000000: bbb9 8a38 e055 61b8 58a0 6c39 5e11 4939
00000010: d835 b638 e4a2 f538 2f12 d638 d22d fe38
00000020: f881 a5b9 7244 3b38 b154 62b9 1ae5 7039
00000030: 4439 6d38 4759 8ab9 3610 2439 b9a1 9eb6

momentum_buffer f4 [2, 16]
0.00040504272 4.499498e-05 0.0002526102 0.00035974226 0.0003119374 0.00021849864 0.00043599698 0.00021645238
6.371289e-07 0.00045577652 0.00018594982 -9.311833e-05 0.00010960804 -5.2727286e-05 0.00041854716 0.00013247761
-0.00032143254 -0.00016881645 1.6958977e-05 -7.6364915e-05 -0.00010353866 -0.00010917319 -1.1100471e-05 -0.00023754817
-0.00018957203 -0.0003706995 -0.0002658423 1.6057113e-05 -0.00027767516 -7.830251e-05 -5.7619312e-05 -0.00012876003
00000000: ea5b d439 feb8 3c38 c470 8439 ca9b bc39
00000010: 878b a339 c81c 6539 8696 e439 7ef7 6239
00000020: 2a07 2b35 4af5 ee39 86fb 4239 8648 c3b8
00000030: 5edd e538 7e27 5db8 7370 db39 b0e9 0a39
00000040: f285 a8b9 5204 31b9 2043 8e37 1a26 a0b8
00000050: e522 d9b8 e9f3 e4b8 293c 3ab7 5a16 79b9
00000060: dbc7 46b9 725a c2b9 c060 8bb9 63b2 8637
00000070: ee94 91b9 5736 a4b8 44ac 71b8 c203 07b9
