trained_custom/checkpoints/old_epidenet_b_512samples_patient2_leaveout1/epidenet_b_v3.1_qat_best-q.pth.tar (torch, 66911 bytes, 18 tensors)

block1_conv1d_bn_relu_1.op.weight f4 [4, 1, 4]
0	0x00000000	0.0
1	0x422c0000	43.0
2	0xc2800000	-64.0
3	0xc2640000	-57.0
4	0xc2340000	-45.0
5	0x41e80000	29.0
6	0xc0400000	-3.0
7	0x42b20000	89.0
8	0xc1b00000	-22.0
9	0x427c0000	63.0
10	0xc2940000	-74.0
11	0xc2400000	-48.0
12	0xc2340000	-45.0
13	0xc1f80000	-31.0
14	0xc1980000	-19.0
15	0x40000000	2.0

block1_conv1d_bn_relu_1.op.bias f4 [4]
0	0xc5080000	-2176.0
1	0x44f00000	1920.0
2	0xc4f00000	-1920.0
3	0xc5080000	-2176.0

block2_conv1d_bn_relu_1.op.weight f4 [16, 4, 9]
0	0x41880000	17.0
1	0x42240000	41.0
2	0xc1400000	-12.0
3	0x42140000	37.0
4	0xc1000000	-8.0
5	0x40a00000	5.0
6	0x42380000	46.0
7	0xc23c0000	-47.0
8	0xc2000000	-32.0
9	0xc1600000	-14.0
10	0xc1a80000	-21.0
11	0x422c0000	43.0
12	0xc2080000	-34.0
13	0xc1c00000	-24.0
14	0xc2100000	-36.0
15	0xc2400000	-48.0
16	0xc1f00000	-30.0
17	0x422c0000	43.0
18	0x41a80000	21.0
19	0x41b80000	23.0
20	0x3f800000	1.0
21	0xc1d80000	-27.0
22	0x41000000	8.0
23	0xc2400000	-48.0
24	0xc2140000	-37.0
25	0xc1d80000	-27.0
26	0x42000000	32.0
27	0x41e00000	28.0
28	0xc1c00000	-24.0
29	0xc0400000	-3.0
30	0x42000000	32.0
31	0x42480000	50.0
32	0x41a00000	20.0
33	0x40c00000	6.0
34	0x42080000	34.0
35	0xc1f00000	-30.0
36	0x41200000	10.0
37	0xc2280000	-42.0
38	0xc2140000	-37.0
39	0xc1e00000	-28.0
40	0x41c00000	24.0
41	0x41a80000	21.0
42	0xc2000000	-32.0
43	0x41800000	16.0
44	0x41e80000	29.0
45	0xc1100000	-9.0
46	0x00000000	0.0
47	0x41300000	11.0
48	0x42000000	32.0
49	0x42480000	50.0
50	0xc22c0000	-43.0
51	0xc1a80000	-21.0
52	0x41980000	19.0
53	0x422c0000	43.0
54	0x42380000	46.0
55	0x423c0000	47.0
56	0x41200000	10.0
57	0xc23c0000	-47.0
58	0x40a00000	5.0
59	0xc2080000	-34.0
60	0xc2480000	-50.0
61	0x423c0000	47.0
62	0x42200000	40.0
63	0xc2540000	-53.0
64	0x41200000	10.0
65	0xc1100000	-9.0
66	0xc1100000	-9.0
67	0xc1c80000	-25.0
68	0x41a00000	20.0
69	0xc2000000	-32.0
70	0x41a00000	20.0
71	0x41d80000	27.0
72	0x420c0000	35.0
73	0x41900000	18.0
74	0xc2400000	-48.0
75	0xc1f80000	-31.0
76	0x41c00000	24.0
77	0x41300000	11.0
78	0xc2140000	-37.0
79	0xc1d80000	-27.0
80	0x42380000	46.0
81	0x42040000	33.0
82	0xc1a00000	-20.0
83	0xc1300000	-11.0
84	0xc2340000	-45.0
85	0xbf800000	-1.0
86	0xc2100000	-36.0
87	0xc2140000	-37.0
88	0xc0000000	-2.0
89	0x41000000	8.0
90	0xc1980000	-19.0
91	0x41e80000	29.0
92	0xc1e80000	-29.0
93	0x42300000	44.0
94	0x42040000	33.0
95	0xc2200000	-40.0
96	0xc1400000	-12.0
97	0x40400000	3.0
98	0x40e00000	7.0
99	0x41400000	12.0
100	0x41980000	19.0
101	0x40400000	3.0
102	0xc1b80000	-23.0
103	0x41b80000	23.0
104	0xc2380000	-46.0
105	0xc1e00000	-28.0
106	0xc1400000	-12.0
107	0xc1b80000	-23.0
108	0xc1300000	-11.0
109	0xc1d00000	-26.0
110	0xc0e00000	-7.0
111	0x40e00000	7.0
112	0xc1a80000	-21.0
113	0xc0000000	-2.0
114	0x41b00000	22.0
115	0xc0800000	-4.0
116	0x00000000	0.0
117	0xc0000000	-2.0
118	0x40e00000	7.0
119	0x41a80000	21.0
120	0x41f80000	31.0
121	0x41a80000	21.0
122	0x41f80000	31.0
123	0xbf800000	-1.0
124	0xc1e00000	-28.0
125	0xc1600000	-14.0
126	0x41b00000	22.0
127	0x00000000	0.0
128	0xc1800000	-16.0
129	0xc1c00000	-24.0
130	0xc1f00000	-30.0
131	0xc1d80000	-27.0
132	0xc0e00000	-7.0
133	0x41880000	17.0
134	0x41880000	17.0
135	0xc1f80000	-31.0
136	0x41a00000	20.0
137	0xc1c80000	-25.0
138	0xc0e00000	-7.0
139	0xc1500000	-13.0
140	0xc0c00000	-6.0
141	0xc0e00000	-7.0
142	0xc1e80000	-29.0
143	0xc1e00000	-28.0
144	0xc1300000	-11.0
145	0x3f800000	1.0
146	0xc2080000	-34.0
147	0x41e00000	28.0
148	0xc2840000	-66.0
149	0xc0a00000	-5.0
150	0x42800000	64.0
151	0xc1f00000	-30.0
152	0x42840000	66.0
153	0x41c80000	25.0
154	0xc2860000	-67.0
155	0x42340000	45.0
156	0xc1200000	-10.0
157	0xc2080000	-34.0
158	0x42680000	58.0
159	0xc2700000	-60.0
160	0x40e00000	7.0
161	0xc1800000	-16.0
162	0x42540000	53.0
163	0x41a00000	20.0
164	0x420c0000	35.0
165	0x41d00000	26.0
166	0xc1900000	-18.0
167	0xc1700000	-15.0
168	0xc2740000	-61.0
169	0x42200000	40.0
170	0x42680000	58.0
171	0x424c0000	51.0
172	0xc2500000	-52.0
173	0x40400000	3.0
174	0xc2500000	-52.0
175	0xc2200000	-40.0
176	0xc22c0000	-43.0
177	0x41c80000	25.0
178	0xc2300000	-44.0
179	0xbf800000	-1.0
180	0x40000000	2.0
181	0x424c0000	51.0
182	0xc27c0000	-63.0
183	0xc2680000	-58.0
184	0xc2440000	-49.0
185	0x425c0000	55.0
186	0xc1f80000	-31.0
187	0x42840000	66.0
188	0x41d80000	27.0
189	0x41200000	10.0
190	0xbf800000	-1.0
191	0xc1880000	-17.0
192	0x41100000	9.0
193	0xc1a00000	-20.0
194	0xc0000000	-2.0
195	0x41000000	8.0
196	0xc2820000	-65.0
197	0xc2300000	-44.0
198	0x42800000	64.0
199	0xc2880000	-68.0
200	0xc1000000	-8.0
201	0x429c0000	78.0
202	0x41d80000	27.0
203	0x00000000	0.0
204	0xc2900000	-72.0
205	0x42180000	38.0
206	0xc2700000	-60.0
207	0xc1c00000	-24.0
208	0xc1e80000	-29.0
209	0xc1600000	-14.0
210	0xbf800000	-1.0
211	0x42820000	65.0
212	0x41000000	8.0
213	0x428e0000	71.0
214	0x423c0000	47.0
215	0xc2580000	-54.0
216	0x41f80000	31.0
217	0xc2500000	-52.0
218	0xc1f80000	-31.0
219	0x41980000	19.0
220	0x41b00000	22.0
221	0x42500000	52.0
222	0xc1c80000	-25.0
223	0xc0000000	-2.0
224	0x420c0000	35.0
225	0xc28a0000	-69.0
226	0x424c0000	51.0
227	0xc2700000	-60.0
228	0x3f800000	1.0
229	0xc1400000	-12.0
230	0xc2140000	-37.0
231	0x41200000	10.0
232	0x42700000	60.0
233	0xc1a80000	-21.0
234	0xc22c0000	-43.0
235	0xc1d80000	-27.0
236	0xc2900000	-72.0
237	0x41f80000	31.0
238	0xc2100000	-36.0
239	0xc2480000	-50.0
240	0xc22c0000	-43.0
241	0x42200000	40.0
242	0x42100000	36.0
243	0x42580000	54.0
244	0x41c80000	25.0
245	0xc1c80000	-25.0
246	0xc1a80000	-21.0
247	0x41980000	19.0
248	0x42640000	57.0
249	0x41900000	18.0
250	0xc20c0000	-35.0
251	0xc2100000	-36.0
252	0xc2480000	-50.0
253	0x41300000	11.0
254	0xc1e80000	-29.0
255	0xc2380000	-46.0

block2_conv1d_bn_relu_1.op.bias f4 [16]
0	0xc3800000	-256.0
1	0xc4e00000	-1792.0
2	0x45700000	3840.0
3	0x45580000	3456.0
4	0x44800000	1024.0
5	0x44400000	768.0
6	0x45780000	3968.0
7	0x45940000	4736.0
8	0xc58c0000	-4480.0
9	0xc4a00000	-1280.0
10	0xc5840000	-4224.0
11	0x45380000	2944.0
12	0x45100000	2304.0
13	0xc5300000	-2816.0
14	0x45300000	2816.0
15	0xc4200000	-640.0

block2_conv1d_bn_relu_2.op.weight f4 [16, 16, 8]
0	0x425c0000	55.0
1	0xc1f00000	-30.0
2	0x41b80000	23.0
3	0x42640000	57.0
4	0x42000000	32.0
5	0x41000000	8.0
6	0x42600000	56.0
7	0x41100000	9.0
8	0xc1e80000	-29.0
9	0x42820000	65.0
10	0x41900000	18.0
11	0xc2800000	-64.0
12	0xc1900000	-18.0
13	0xc2300000	-44.0
14	0x42700000	60.0
15	0xc1200000	-10.0
16	0xc2780000	-62.0
17	0xc0a00000	-5.0
18	0x42240000	41.0
19	0x41880000	17.0
20	0x41a00000	20.0
21	0x40a00000	5.0
22	0x41c00000	24.0
23	0xc1900000	-18.0
24	0xc1d80000	-27.0
25	0xc2780000	-62.0
26	0xc2480000	-50.0
27	0x41e80000	29.0
28	0xc2200000	-40.0
29	0x41200000	10.0
30	0x41b00000	22.0
31	0x40c00000	6.0
32	0xc2280000	-42.0
33	0x42820000	65.0
34	0xc2180000	-38.0
35	0x425c0000	55.0
36	0xc2540000	-53.0
37	0xc1700000	-15.0
38	0x42180000	38.0
39	0xc1d00000	-26.0
40	0x42600000	56.0
41	0xc23c0000	-47.0
42	0xc2600000	-56.0
43	0xc1f00000	-30.0
44	0x41300000	11.0
45	0x42780000	62.0
46	0xc1f80000	-31.0
47	0x41c80000	25.0
48	0xc1880000	-17.0
49	0xc1700000	-15.0
50	0x42440000	49.0
51	0xc24c0000	-51.0
52	0x40e00000	7.0
53	0x427c0000	63.0
54	0xc1200000	-10.0
55	0x42500000	52.0
56	0xc1b00000	-22.0
57	0x42500000	52.0
58	0xc2840000	-66.0
59	0xc1300000	-11.0
60	0xc1400000	-12.0
61	0x41a80000	21.0
62	0x41d00000	26.0
63	0x424c0000	51.0
64	0xc1200000	-10.0
65	0xc0800000	-4.0
66	0x42340000	45.0
67	0xc1980000	-19.0
68	0x42680000	58.0
69	0xc2300000	-44.0
70	0xc0c00000	-6.0
71	0xc0000000	-2.0
72	0x41e80000	29.0
73	0x42340000	45.0
74	0xc1300000	-11.0
75	0xc25c0000	-55.0
76	0x42080000	34.0
77	0x41a80000	21.0
78	0x41e00000	28.0
79	0xc2200000	-40.0
80	0x42280000	42.0
81	0x42780000	62.0
82	0x40a00000	5.0
83	0xc27c0000	-63.0
84	0x42400000	48.0
85	0xc2440000	-49.0
86	0x41800000	16.0
87	0x41300000	11.0
88	0xc1f80000	-31.0
89	0x41b80000	23.0
90	0xc2700000	-60.0
91	0x41800000	16.0
92	0xc2280000	-42.0
93	0xc0e00000	-7.0
94	0x41000000	8.0
95	0x42640000	57.0
96	0xc2000000	-32.0
97	0x42280000	42.0
98	0xc1100000	-9.0
99	0xc2040000	-33.0
100	0xc2700000	-60.0
101	0xc2780000	-62.0
102	0x42820000	65.0
103	0xc1880000	-17.0
104	0x40400000	3.0
105	0x41900000	18.0
106	0x42380000	46.0
107	0x42680000	58.0
108	0x425c0000	55.0
109	0xc2440000	-49.0
110	0xc1200000	-10.0
111	0xc21c0000	-39.0
112	0xc21c0000	-39.0
113	0x41700000	15.0
114	0x42780000	62.0
115	0xc25c0000	-55.0
116	0x421c0000	39.0
117	0xc2100000	-36.0
118	0xc1600000	-14.0
119	0x42500000	52.0
120	0xc1600000	-14.0
121	0x40e00000	7.0
122	0xc2380000	-46.0
123	0x42680000	58.0
124	0xc1000000	-8.0
125	0xc2400000	-48.0
126	0x41a80000	21.0
127	0xc2380000	-46.0
128	0xc2500000	-52.0
129	0x40800000	4.0
130	0x42540000	53.0
131	0xc1980000	-19.0
132	0x41f80000	31.0
133	0x42640000	57.0
134	0x42300000	44.0
135	0xc2100000	-36.0
136	0xc0e00000	-7.0
137	0xc1a80000	-21.0
138	0xc2540000	-53.0
139	0x3f800000	1.0
140	0x424c0000	51.0
141	0x42600000	56.0
142	0x40c00000	6.0
143	0x41700000	15.0
144	0xc1e00000	-28.0
145	0x42500000	52.0
146	0xc1e00000	-28.0
147	0xc23c0000	-47.0
148	0x41300000	11.0
149	0x42240000	41.0
150	0xc2700000	-60.0
151	0x42700000	60.0
152	0x41b80000	23.0
153	0xc2400000	-48.0
154	0xc1700000	-15.0
155	0x42680000	58.0
156	0xc24c0000	-51.0
157	0xc1980000	-19.0
158	0x41b00000	22.0
159	0xc2680000	-58.0
160	0x42100000	36.0
161	0x420c0000	35.0
162	0x42240000	41.0
163	0xc22c0000	-43.0
164	0x42820000	65.0
165	0xc2200000	-40.0
166	0x42840000	66.0
167	0xc2820000	-65.0
168	0xc2700000	-60.0
169	0x42200000	40.0
170	0x40c00000	6.0
171	0x40400000	3.0
172	0xc2140000	-37.0
173	0xc1e00000	-28.0
174	0xc1a00000	-20.0
175	0xc2840000	-66.0
176	0x40800000	4.0
177	0x41500000	13.0
178	0xbf800000	-1.0
179	0x41a00000	20.0
180	0x427c0000	63.0
181	0x41900000	18.0
182	0xc1c80000	-25.0
183	0xc1e00000	-28.0
184	0xc22c0000	-43.0
185	0xc23c0000	-47.0
186	0xc1300000	-11.0
187	0xc1400000	-12.0
188	0x41f00000	30.0
189	0xc1e80000	-29.0
190	0x42540000	53.0
191	0xc2380000	-46.0
192	0xbf800000	-1.0
193	0x426c0000	59.0
194	0x42840000	66.0
195	0xc2180000	-38.0
196	0x41400000	12.0
197	0x41000000	8.0
198	0xc1f80000	-31.0
199	0xc1b80000	-23.0
200	0x41880000	17.0
201	0xc2400000	-48.0
202	0x41200000	10.0
203	0x41e00000	28.0
204	0xc1d80000	-27.0
205	0x425c0000	55.0
206	0xc0a00000	-5.0
207	0x41f00000	30.0
208	0x42820000	65.0
209	0xc1a80000	-21.0
210	0x42100000	36.0
211	0xc1980000	-19.0
212	0xc1100000	-9.0
213	0xc1300000	-11.0
214	0x00000000	0.0
215	0xc1c80000	-25.0
216	0x41700000	15.0
217	0x40400000	3.0
218	0x42280000	42.0
219	0xc1600000	-14.0
220	0x40c00000	6.0
221	0xc1c80000	-25.0
222	0xc25c0000	-55.0
223	0x41d80000	27.0
224	0x41100000	9.0
225	0xc1c80000	-25.0
226	0xc1b00000	-22.0
227	0x41900000	18.0
228	0xc1300000	-11.0
229	0x42340000	45.0
230	0x40800000	4.0
231	0x41c80000	25.0
232	0x41f00000	30.0
233	0xc1800000	-16.0
234	0x41e80000	29.0
235	0x42440000	49.0
236	0x40800000	4.0
237	0x41600000	14.0
238	0x40800000	4.0
239	0x423c0000	47.0
240	0xc1e80000	-29.0
241	0xc2100000	-36.0
242	0x41f00000	30.0
243	0xc2680000	-58.0
244	0x00000000	0.0
245	0xc1f80000	-31.0
246	0x422c0000	43.0
247	0xc27c0000	-63.0
248	0x421c0000	39.0
249	0x42800000	64.0
250	0x41500000	13.0
251	0xc0a00000	-5.0
252	0x42820000	65.0
253	0xc1e80000	-29.0
254	0xc0c00000	-6.0
255	0xc1f00000	-30.0

block2_conv1d_bn_relu_2.op.bias f4 [16]
0	0xc5480000	-3200.0
1	0xc4c00000	-1536.0
2	0xc4400000	-768.0
3	0x46100000	9216.0
4	0x46560000	13696.0
5	0xc5000000	-2048.0
6	0xc5200000	-2560.0
7	0x44b00000	1408.0
8	0xc5480000	-3200.0
9	0xc4900000	-1152.0
10	0x44d00000	1664.0
11	0xc5a80000	-5376.0
12	0xc5080000	-2176.0
13	0x44000000	512.0
14	0x45780000	3968.0
15	0x44f00000	1920.0

block3_conv1d_bn_relu_1.op.weight f4 [16, 16, 8]
0	0x41980000	19.0
1	0x40400000	3.0
2	0xc0800000	-4.0
3	0x41b00000	22.0
4	0xc1e00000	-28.0
5	0xc1700000	-15.0
6	0xc1700000	-15.0
7	0x41c80000	25.0
8	0xc1f00000	-30.0
9	0x40400000	3.0
10	0xc1f80000	-31.0
11	0xc0000000	-2.0
12	0x41200000	10.0
13	0xc1100000	-9.0
14	0x41e00000	28.0
15	0xc0000000	-2.0
16	0xc1700000	-15.0
17	0x41000000	8.0
18	0x41880000	17.0
19	0x00000000	0.0
20	0x41d80000	27.0
21	0xc1980000	-19.0
22	0x41400000	12.0
23	0x41900000	18.0
24	0x41880000	17.0
25	0x40000000	2.0
26	0x41300000	11.0
27	0xc1b00000	-22.0
28	0xc1b00000	-22.0
29	0x00000000	0.0
30	0xc0000000	-2.0
31	0x41c80000	25.0
32	0x41b80000	23.0
33	0x41a80000	21.0
34	0xc1600000	-14.0
35	0xc1c00000	-24.0
36	0xc1e80000	-29.0
37	0x41300000	11.0
38	0xc1e80000	-29.0
39	0xc1f80000	-31.0
40	0xc1700000	-15.0
41	0xc1c80000	-25.0
42	0xc1300000	-11.0
43	0xc1980000	-19.0
44	0xc1700000	-15.0
45	0x41f00000	30.0
46	0xc0a00000	-5.0
47	0x41d80000	27.0
48	0x00000000	0.0
49	0xc0a00000	-5.0
50	0xc1200000	-10.0
51	0xc1b80000	-23.0
52	0xc1d00000	-26.0
53	0x41a00000	20.0
54	0xc1400000	-12.0
55	0xc2000000	-32.0
56	0x41e00000	28.0
57	0x00000000	0.0
58	0xc1a80000	-21.0
59	0xc1d00000	-26.0
60	0xc1d80000	-27.0
61	0xc1e00000	-28.0
62	0x41d00000	26.0
63	0x41a00000	20.0
64	0x40400000	3.0
65	0xc1d00000	-26.0
66	0xc1000000	-8.0
67	0xc1f00000	-30.0
68	0x41200000	10.0
69	0xc1000000	-8.0
70	0xc0c00000	-6.0
71	0xc1200000	-10.0
72	0x41700000	15.0
73	0x41900000	18.0
74	0x41000000	8.0
75	0xc0400000	-3.0
76	0xc0000000	-2.0
77	0x00000000	0.0
78	0xc1b00000	-22.0
79	0x42000000	32.0
80	0xc1400000	-12.0
81	0x41a00000	20.0
82	0xc1800000	-16.0
83	0x40000000	2.0
84	0x41300000	11.0
85	0xc1d80000	-27.0
86	0x41700000	15.0
87	0xc1b80000	-23.0
88	0x40800000	4.0
89	0xc0c00000	-6.0
90	0x41880000	17.0
91	0x41f00000	30.0
92	0x40e00000	7.0
93	0xbf800000	-1.0
94	0xc1880000	-17.0
95	0x41300000	11.0
96	0xc1800000	-16.0
97	0x41400000	12.0
98	0xc1600000	-14.0
99	0x41a00000	20.0
100	0x41b00000	22.0
101	0x41880000	17.0
102	0xbf800000	-1.0
103	0x41400000	12.0
104	0xc1e00000	-28.0
105	0x41c80000	25.0
106	0xc1100000	-9.0
107	0x41200000	10.0
108	0xc0e00000	-7.0
109	0xc1400000	-12.0
110	0xc1800000	-16.0
111	0x41900000	18.0
112	0xc1700000	-15.0
113	0xc0400000	-3.0
114	0x41900000	18.0
115	0x40a00000	5.0
116	0xc1c00000	-24.0
117	0xc1e80000	-29.0
118	0xc1500000	-13.0
119	0x41f80000	31.0
120	0xc1b00000	-22.0
121	0x41900000	18.0
122	0x41b80000	23.0
123	0xc1400000	-12.0
124	0xc1500000	-13.0
125	0xc1b00000	-22.0
126	0x40a00000	5.0
127	0xc0800000	-4.0
128	0x40400000	3.0
129	0x41600000	14.0
130	0x41500000	13.0
131	0xc1000000	-8.0
132	0x40400000	3.0
133	0x41000000	8.0
134	0x40000000	2.0
135	0x40e00000	7.0
136	0xc1200000	-10.0
137	0x41c80000	25.0
138	0xbf800000	-1.0
139	0xc0000000	-2.0
140	0xc1c00000	-24.0
141	0xc1980000	-19.0
142	0x40400000	3.0
143	0xc0400000	-3.0
144	0xc1500000	-13.0
145	0x41800000	16.0
146	0xbf800000	-1.0
147	0x41300000	11.0
148	0x41c80000	25.0
149	0xc1300000	-11.0
150	0xc1500000	-13.0
151	0xc0a00000	-5.0
152	0xc0000000	-2.0
153	0xc1600000	-14.0
154	0xc0e00000	-7.0
155	0xbf800000	-1.0
156	0x41400000	12.0
157	0x41c80000	25.0
158	0x41a00000	20.0
159	0x40000000	2.0
160	0xbf800000	-1.0
161	0x40e00000	7.0
162	0xbf800000	-1.0
163	0xc0400000	-3.0
164	0x41200000	10.0
165	0xc1b00000	-22.0
166	0xc1c00000	-24.0
167	0x00000000	0.0
168	0xc0e00000	-7.0
169	0xc1500000	-13.0
170	0xc1c00000	-24.0
171	0x41a00000	20.0
172	0x00000000	0.0
173	0xc1600000	-14.0
174	0xc1300000	-11.0
175	0x41000000	8.0
176	0xc1980000	-19.0
177	0x40400000	3.0
178	0x3f800000	1.0
179	0x41300000	11.0
180	0x41500000	13.0
181	0xc1880000	-17.0
182	0x41500000	13.0
183	0x41b00000	22.0
184	0x40400000	3.0
185	0x41600000	14.0
186	0xc1200000	-10.0
187	0x40c00000	6.0
188	0x41100000	9.0
189	0xc1400000	-12.0
190	0x41980000	19.0
191	0xc1d00000	-26.0
192	0xc1200000	-10.0
193	0xc1800000	-16.0
194	0xc1800000	-16.0
195	0xc1800000	-16.0
196	0xc1d80000	-27.0
197	0x40800000	4.0
198	0xc0c00000	-6.0
199	0xc1b80000	-23.0
200	0x00000000	0.0
201	0xc0800000	-4.0
202	0x41500000	13.0
203	0xc1a80000	-21.0
204	0xc0e00000	-7.0
205	0x40c00000	6.0
206	0x41300000	11.0
207	0x40000000	2.0
208	0x41100000	9.0
209	0x41e80000	29.0
210	0xc1000000	-8.0
211	0x41a00000	20.0
212	0x41c80000	25.0
213	0xc1c00000	-24.0
214	0x41000000	8.0
215	0x41880000	17.0
216	0xc0400000	-3.0
217	0x41800000	16.0
218	0x3f800000	1.0
219	0x41a80000	21.0
220	0x3f800000	1.0
221	0xc1880000	-17.0
222	0x41b00000	22.0
223	0x41100000	9.0
224	0x41c80000	25.0
225	0x41000000	8.0
226	0x41880000	17.0
227	0x41980000	19.0
228	0x40c00000	6.0
229	0xc0a00000	-5.0
230	0x40e00000	7.0
231	0xc1900000	-18.0
232	0x40400000	3.0
233	0xc0e00000	-7.0
234	0x40400000	3.0
235	0xc1a80000	-21.0
236	0x41900000	18.0
237	0xc1c80000	-25.0
238	0x41500000	13.0
239	0x41a00000	20.0
240	0xc1d00000	-26.0
241	0x41c80000	25.0
242	0xc1a00000	-20.0
243	0xc0a00000	-5.0
244	0x41700000	15.0
245	0xc1100000	-9.0
246	0x41c00000	24.0
247	0xc1500000	-13.0
248	0xc0400000	-3.0
249	0xc1900000	-18.0
250	0xc1500000	-13.0
251	0x41d80000	27.0
252	0x41a00000	20.0
253	0x40000000	2.0
254	0x40400000	3.0
255	0xc1b80000	-23.0

block3_conv1d_bn_relu_1.op.bias f4 [16]
0	0x46080000	8704.0
1	0xc5080000	-2176.0
2	0xc5bc0000	-6016.0
3	0x459c0000	4992.0
4	0xc4600000	-896.0
5	0x44800000	1024.0
6	0x45f00000	7680.0
7	0x45b40000	5760.0
8	0xc4200000	-640.0
9	0xc4800000	-1024.0
10	0xc3000000	-128.0
11	0xc4600000	-896.0
12	0x458c0000	4480.0
13	0x45200000	2560.0
14	0x00000000	0.0
15	0x45cc0000	6528.0

block6_dense.op.weight f4 [2, 16]
0	0x42100000	36.0
1	0x3f800000	1.0
2	0x42940000	74.0
3	0x42b20000	89.0
4	0xc1900000	-18.0
5	0x425c0000	55.0
6	0x41100000	9.0
7	0x41400000	12.0
8	0x41d00000	26.0
9	0x42000000	32.0
10	0xc0800000	-4.0
11	0x42280000	42.0
12	0x42aa0000	85.0
13	0x41c80000	25.0
14	0x42080000	34.0
15	0x42640000	57.0
16	0xc2880000	-68.0
17	0x3f800000	1.0
18	0x41c80000	25.0
19	0xc2440000	-49.0
20	0xc1d80000	-27.0
21	0x41800000	16.0
22	0x41880000	17.0
23	0xc2b60000	-91.0
24	0xc27c0000	-63.0
25	0xc2d40000	-106.0
26	0x40e00000	7.0
27	0x41880000	17.0
28	0xc2840000	-66.0
29	0xc1600000	-14.0
30	0xc1a80000	-21.0
31	0xc2ca0000	-101.0

momentum_buffer f4 [4, 1, 4]
0	0xbc3a5e8d	-0.011375082
1	0xbc550a1a	-0.013002897
2	0xbcc6e8bd	-0.0242809
3	0xbcd30513	-0.025759256
4	0x3d4d6d17	0.050152864
5	0x3d493a8d	0.049128104
6	0x3d2d4fff	0.04231262
7	0x3d37f898	0.04491481
8	0x3a9efe79	0.0012130282
9	0x3bb9cc8f	0.0056701372
10	0xbb850c0b	-0.0040602735
11	0xbb5473b5	-0.00324176
12	0xbc4ad940	-0.012380898
13	0xbc3b5e58	-0.0114360675
14	0xbc10ab86	-0.008829957
15	0xbbb06b19	-0.005383861

momentum_buffer f4 [4]
0	0x3da7f982	0.08201887
1	0xbeb237d5	-0.3480822
2	0xbb969266	-0.004595089
3	0x3d22bb2a	0.039729275

momentum_buffer f4 [16, 4, 9]
0	0x3b6ca118	0.0036106762
1	0x3b762dca	0.0037563914
2	0x3b41e43d	0.0029585504
3	0x3b40dfed	0.0029430345
4	0x3afaea48	0.0019143308
5	0x3abda652	0.0014469123
6	0x3a92dc33	0.001120454
7	0x38e316ce	0.00010828451
8	0x38ff730d	0.000121807774
9	0x3b2ab905	0.0026050222
10	0x3b1ec718	0.0024227556
11	0x3b390753	0.0028233125
12	0x3b0ce004	0.0021495828
13	0x3b123155	0.0022307236
14	0x3af33d43	0.0018557686
15	0x3ae39522	0.0017363171
16	0x3b077f59	0.002067527
17	0x3b41407a	0.0029487894
18	0x3b7d3d90	0.003864143
19	0x3b7f61be	0.003896817
20	0x3b5ffafe	0.0034176703
21	0x3b360e46	0.0027779504
22	0x3b1e7146	0.0024176403
23	0x3ab46c40	0.0013765171
24	0x3a54e344	0.00081210234
25	0x3a0d2271	0.00053838553
26	0x3a503352	0.00079422176
27	0x3b6cf2fa	0.0036155568
28	0x3b5e5a48	0.0033928324
29	0x3b62a600	0.0034583807
30	0x3b5c9278	0.0033656638
31	0x3b48a4bf	0.0030615774
32	0x3b07de8b	0.0020732011
33	0x3aaac860	0.0013029687
34	0x3a9664fa	0.0011474185
35	0x39b77800	0.00034993887
36	0x3a3fd15c	0.0007317269
37	0xb8924aeb	-6.975777e-05
38	0xb93f1e44	-0.00018226454
39	0x389ed0c6	7.572914e-05
40	0x39d2e955	0.00040228167
41	0x3a70f085	0.00091911136
42	0x3a244286	0.0006266016
43	0x3a647318	0.000871466
44	0x3a752f2c	0.00093530375
45	0x3bcdda0f	0.006282098
46	0x3bd893b6	0.0066094054
47	0x3bcb0f68	0.006196905
48	0x3ba40465	0.0050054067
49	0x3b942fd8	0.004522305
50	0x3bbd7d74	0.0057827774
51	0x3bd5a219	0.0065195677
52	0x3bb08d93	0.0053879707
53	0x3bb94f11	0.0056551774
54	0x3a8faea6	0.0010962083
55	0x3a27f950	0.0006407695
56	0x397cb760	0.00024100905
57	0x36ed8a08	7.0792194e-06
58	0x39d21187	0.0004006738
59	0x3a2a7b7e	0.0006503387
60	0x3a10a134	0.0005517185
61	0x3a95125a	0.0011373267
62	0x3a91fe3b	0.0011138389
63	0x39913adc	0.0002770041
64	0x39d01e83	0.00039695585
65	0x37f99a38	2.9754927e-05
66	0x3943fc39	0.0001869061
67	0x392185a6	0.00015403944
68	0x3a599262	0.0008299706
69	0x3a569d6a	0.00081869087
70	0x3a609f13	0.0008568626
71	0x3a7ae161	0.0009570327
72	0x3a1e922f	0.0006049005
73	0x39b836f2	0.00035136152
74	0xb9af0f35	-0.0003338993
75	0xb9a015c4	-0.00030533795
76	0x39336900	0.00017109886
77	0xb719d10b	-9.168182e-06
78	0xb9ba99fa	-0.00035591406
79	0xb94252a2	-0.00018532065
80	0x39f2facc	0.00046344695
81	0xb94ff951	-0.00019833936
82	0xb9c5ba36	-0.00037713506
83	0xb92e3cf9	-0.00016616647
84	0xba0a4bc4	-0.0005275572
85	0xb92b7531	-0.00016351488
86	0xb9916fc9	-0.00027739842
87	0xb952ddba	-0.0002010976
88	0xb848a12b	-4.7833815e-05
89	0xb8808642	-6.128523e-05
90	0x394412f9	0.00018699084
91	0x39deaa19	0.00042469872
92	0xb944739b	-0.00018735083
93	0x398a1869	0.00026339598
94	0x393c2d0c	0.00017945858
95	0xb9e68fe2	-0.0004397622
96	0xb97005ca	-0.0002289034
97	0x370e2d14	8.474355e-06
98	0x3927670e	0.00015964752
99	0x39c53c59	0.0003761973
100	0x398e8619	0.0002718426
101	0x39095d60	0.00013100123
102	0xb983feca	-0.000251761
103	0x3922b204	0.0001551584
104	0xb9d52193	-0.0004065154
105	0xb9ad9df5	-0.00033114819
106	0xb9395605	-0.0001767502
107	0xb8f9ba56	-0.00011907953
108	0xb9b5e74c	-0.0003469534
109	0xb9bb44ee	-0.00035718776
110	0xb9b16c9b	-0.00033840988
111	0xb9ebcfa0	-0.00044977386
112	0xb9739cf1	-0.00023232751
113	0xb92e0287	-0.00016594875
114	0xb8d9249f	-0.000103541875
115	0xba0b173b	-0.0005305891
116	0x380b4420	3.320363e-05
117	0xbc01d24e	-0.007923676
118	0xbc039e1f	-0.0080333045
119	0xbc0b0ffd	-0.008487699
120	0xbc0d858f	-0.0086378
121	0xbc10efa6	-0.008846199
122	0xbc098376	-0.008393159
123	0xbc054378	-0.008133762
124	0xbbfae0e3	-0.007656203
125	0xbc05ed0f	-0.008174195
126	0xb95a5dac	-0.00020824996
127	0xb94931b8	-0.00019187375
128	0xba02de09	-0.0004992192
129	0xba480597	-0.00076302275
130	0xb9b84927	-0.00035149718
131	0xb9f33221	-0.0004638592
132	0xb9f07a65	-0.00045867558
133	0xba0fe0f0	-0.00054885354
134	0xb7511498	-1.2462166e-05
135	0xba1ce790	-0.0005985433
136	0xb94ea133	-0.00019705742
137	0xb9c4ea22	-0.00037558476
138	0xba0ffc25	-0.00054925896
139	0xb95e6857	-0.0002121044
140	0xb94c62e2	-0.00019491793
141	0xb9a0695f	-0.00030596086
142	0xba7a4c2a	-0.00095480925
143	0xb9b997ff	-0.00035399196
144	0xb8825b93	-6.21594e-05
145	0x3936758b	0.0001740066
146	0xb98c785a	-0.0002679255
147	0x39bf74f4	0.00036517496
148	0xba09039c	-0.0005226673
149	0x38843fc0	6.306125e-05
150	0x39c4046d	0.0003738733
151	0xba2ed52e	-0.00066693395
152	0xb93846d9	-0.00017574
153	0xb9803202	-0.0002445132
154	0xba85d7e2	-0.0010211433
155	0xb9cb18f0	-0.00038737757
156	0xba4473cc	-0.0007494062
157	0xba526d9f	-0.0008027199
158	0xb97fcd30	-0.00024395133
159	0xbaa7aaf5	-0.0012792038
160	0xba429096	-0.00074220577
161	0xba9be999	-0.0011895179
162	0x398a28c0	0.00026351772
163	0x393396a0	0.00017126882
164	0x39406d6c	0.0001835131
165	0x39980ddf	0.00029002034
166	0xb96302da	-0.00021649469
167	0xb9042c5b	-0.00012605025
168	0xba367485	-0.0006960112
169	0xb937c656	-0.00017526126
170	0xb98bbe8f	-0.00026654123
171	0x3988cc2a	0.00026092055
172	0xb9d79d7d	-0.00041125334
173	0xb828b9f2	-4.0227496e-05
174	0xb9b9b10c	-0.0003541786
175	0xb9e6991f	-0.00043983103
176	0xb999f2bd	-0.00029363288
177	0xb81a9c44	-3.6861995e-05
178	0xba1918dd	-0.0005840192
179	0xba4a6715	-0.0007721049
180	0x3987bdc9	0.00025890608
181	0x3a937a9c	0.001125175
182	0x39962cd4	0.0002864363
183	0x3a2df427	0.0006635808
184	0x3a4bb710	0.0007771114
185	0x3b005c6f	0.0019586345
186	0x3a765449	0.0009396715
187	0x3b0144c0	0.0019724816
188	0x3a8e35dd	0.0010849793
189	0x3abb66b3	0.0014297575
190	0x3aa5f3f8	0.0012661209
191	0x3a8dff01	0.0010833443
192	0x3ab7cfc7	0.0014023714
193	0x3a9c4071	0.001192106
194	0x3aa82043	0.0012826998
195	0x3aa6b236	0.0012717906
196	0x3a194e35	0.00058481406
197	0x3a45f5cd	0.0007551581
198	0x3a4bc90e	0.0007773795
199	0x39968054	0.0002870584
200	0x3a597a04	0.0008296075
201	0x3af2f820	0.0018537082
202	0x3ac1c084	0.0014782106
203	0x3ad76e52	0.0016436076
204	0x3a4f2cdc	0.0007903108
205	0x3af7bcbf	0.0018900855
206	0x3a16456d	0.0005732391
207	0xb84e9aa0	-4.9258233e-05
208	0x39cd2e17	0.00039134987
209	0x3a3b6d10	0.00071497355
210	0x3a789763	0.00094830076
211	0x3ae561c8	0.0017500455
212	0x3abffa88	0.0014646808
213	0x3b05f0d5	0.0020437737
214	0x3af7fb84	0.0018919562
215	0x3a36451d	0.00069530477
216	0x374a61f5	1.2062946e-05
217	0xba0fd84f	-0.00054872496
218	0xb9d00f1b	-0.00039684106
219	0xb8879390	-6.464787e-05
220	0xb88bf10e	-6.6729364e-05
221	0x398fa859	0.00027400514
222	0xba0a1732	-0.00052677386
223	0xba062f9f	-0.00051187904
224	0xb8ce8160	-9.8469434e-05
225	0xbb6ce3c3	-0.0036146499
226	0xbb377b22	-0.0027996977
227	0xbb3fe02c	-0.0029277904
228	0xbb21a8d6	-0.0024667284
229	0xbb42522e	-0.0029651034
230	0xbb7cfca5	-0.0038602736
231	0xbb871e15	-0.004123459
232	0xbb9b3d60	-0.004737541
233	0xbb7e6686	-0.0038818433
234	0xba4a318d	-0.0007713072
235	0xba0350af	-0.0005009276
236	0xba6448ed	-0.00087083766
237	0xb916c66d	-0.00014379034
238	0xba2604fe	-0.00063331414
239	0xba18833d	-0.0005817896
240	0xba310901	-0.0006753356
241	0xb93123fe	-0.00016893444
242	0xb8a06e98	-7.649994e-05
243	0xb890f58c	-6.912192e-05
244	0xb9361ef1	-0.00017368399
245	0xba0abee3	-0.00052927266
246	0xba0b2a55	-0.0005308737
247	0xb94ba16e	-0.00019419726
248	0x3948c00c	0.0001914503
249	0xb95f602d	-0.00021302766
250	0xba247813	-0.0006273996
251	0xba15aea0	-0.000570992
252	0xba55eb07	-0.0008160327
253	0xba49d1ba	-0.0007698793
254	0xbac56c53	-0.001506219
255	0xbab504dd	-0.0013810653

momentum_buffer f4 [16]
0	0x3ba4a986	0.0050250916
1	0x3c51622e	0.0127797555
2	0xba85075d	-0.0010149289
3	0xbcab7974	-0.020931937
4	0xbb08038d	-0.002075407
5	0x3b1ca8d0	0.002390433
6	0xbbf76860	-0.0075502843
7	0xbcf45a76	-0.029828291
8	0xbb858f3d	-0.004075913
9	0x3b475581	0.0030415955
10	0x3c128961	0.0089438865
11	0x3b208faf	0.0024499705
12	0xbb236416	-0.0024931482
13	0xbcf97bb8	-0.030454502
14	0x3ab15b96	0.0013531323
15	0x3c4d0daf	0.012515469

momentum_buffer f4 [16, 16, 8]
0	0x39b6a388	0.00034835585
1	0x3806b346	3.211505e-05
2	0x396c4065	0.00022530703
3	0x39bef05d	0.0003641871
4	0x39559d7f	0.00020371935
5	0x3908741c	0.00013013225
6	0x39d6023f	0.00040818934
7	0x39602506	0.00021376097
8	0x39c82c6f	0.00038180078
9	0x3a82880f	0.0009958762
10	0x3a5489cc	0.00081076915
11	0x39285662	0.00016053909
12	0x39f8742f	0.0004738881
13	0x39ddff36	0.00042342552
14	0x3a65cea2	0.00087664474
15	0x3a2be533	0.00065572857
16	0xb95c3fa4	-0.00021004543
17	0x386b575b	5.6109722e-05
18	0x39715fff	0.00023019312
19	0x39011e85	0.00012313768
20	0x38fef8f4	0.00012158035
21	0x38987073	7.26887e-05
22	0x39175785	0.00014433086
23	0xb80c01da	-3.3380325e-05
24	0x39be556d	0.0003630327
25	0x3921ee9f	0.0001544305
26	0x3976c278	0.00023532833
27	0x3a177e82	0.0005779044
28	0x39bf87ac	0.00036531442
29	0x3a1b3b65	0.0005921631
30	0x3a29b9e8	0.00064745406
31	0x3a134abe	0.00056187424
32	0xb7e1cb30	-2.6916707e-05
33	0x39fb1c54	0.00047895557
34	0xb8791f5e	-5.939544e-05
35	0x39eebdb7	0.00045536246
36	0xb89e2b47	-7.542088e-05
37	0x38699282	5.5687975e-05
38	0x39e978f5	0.00044531343
39	0x3774a324	1.45815175e-05
40	0x39a8d7e8	0.0003220432
41	0xb9291e67	-0.00016128422
42	0xb88e4c3c	-6.7852874e-05
43	0xb7e074c0	-2.6757247e-05
44	0x3948b15b	0.00019139556
45	0x39c8697b	0.00038225562
46	0x379dd19c	1.8813465e-05
47	0x395153b5	0.00019962977
48	0x363c61ec	2.807118e-06
49	0x38172868	3.6038837e-05
50	0x39a6bfaf	0.00031804803
51	0xb90f474f	-0.00013664107
52	0x38c3d74a	9.338425e-05
53	0x399febad	0.00030502435
54	0x38cac1de	9.668221e-05
55	0x398fedb5	0.0002745219
56	0x39980d4e	0.00029001612
57	0x3a46b78a	0.000758045
58	0x39059df6	0.00012742713
59	0x39d2184f	0.00040072433
60	0x39ac4723	0.00032859397
61	0x3a1513b1	0.0005686833
62	0x3a17c464	0.00057894574
63	0x3a532679	0.0008054744
64	0x3a43528a	0.0007450959
65	0x3a57ef16	0.00082372257
66	0x3a9cf527	0.0011974917
67	0x3a58e266	0.0008273482
68	0x3a815c4f	0.0009869429
69	0x3a231cfa	0.00062222744
70	0x3a3bb152	0.00071599067
71	0x3a6f5a4f	0.00091305835
72	0x39c35c24	0.00037261948
73	0x39f20d6b	0.00046167834
74	0x3936fd36	0.00017451201
75	0x37fcbedf	3.0129622e-05
76	0x3a02035c	0.0004959607
77	0x39b6c2c4	0.00034858857
78	0x39cac72e	0.00038676843
79	0x37a1ab91	1.9272587e-05
80	0x3a1f236b	0.00060706463
81	0x3a32499d	0.00068011304
82	0x39c9aa5b	0.00038464632
83	0x3923c888	0.00015619595
84	0x3a2d52a2	0.00066117395
85	0x392175f2	0.00015398095
86	0x39eae58d	0.00044802987
87	0x39e9b1e4	0.00044573762
88	0xb8fce79c	-0.00012059437
89	0x39166088	0.00014341075
90	0xb9348cce	-0.00017218592
91	0x38aabb8a	8.1411636e-05
92	0xb918c9be	-0.00014571004
93	0xb5d13b7d	-1.5589027e-06
94	0x38a067f4	7.648757e-05
95	0x398a4b02	0.00026377296
96	0xb724aca0	-9.815354e-06
97	0x39ab268d	0.00032644384
98	0x391ad9db	0.00014767742
99	0x373b4570	1.1162236e-05
100	0xb9013afd	-0.00012324374
101	0xb89d702a	-7.5072356e-05
102	0x39d95bf0	0.00041457964
103	0x388eba76	6.805819e-05
104	0x3a8c6e90	0.0010714103
105	0x3a924443	0.001115926
106	0x3aabcffa	0.0013108246
107	0x3abf523a	0.0014596649
108	0x3ac05e24	0.0014676494
109	0x3a60e8eb	0.00085796294
110	0x3a7e8c61	0.0009710249
111	0x3a6ee664	0.00091133104
112	0xb8e9c0df	-0.00011146231
113	0x388b99fe	6.65672e-05
114	0x39937dd8	0.00028131786
115	0xb94e0481	-0.00019647369
116	0x393b0ea7	0.00017839168
117	0xb9064b72	-0.00012807341
118	0xb819f586	-3.6706704e-05
119	0x397f4375	0.00024343825
120	0x394602e3	0.00018883827
121	0x3981c483	0.0002475121
122	0x35ca75b0	1.5084424e-06
123	0x3a176e74	0.00057766517
124	0x39b192d8	0.00033869478
125	0xb6ed3a22	-7.069918e-06
126	0x399c60ef	0.0002982686
127	0xb7ce1848	-2.456842e-05
128	0xb9d6d1b8	-0.00040973513
129	0xb926e612	-0.00015916702
130	0x372027a2	9.545971e-06
131	0xb982e25e	-0.0002496419
132	0xb897bc61	-7.2353294e-05
133	0xb78f8d1e	-1.7112641e-05
134	0xb87a806e	-5.9724254e-05
135	0xb9bf5dfa	-0.00036500377
136	0xbaf48686	-0.0018655814
137	0xbaef8783	-0.0018274639
138	0xbad24b12	-0.0016044101
139	0xbabe6721	-0.0014526584
140	0xbafe8539	-0.0019418366
141	0xbae9974d	-0.001782158
142	0xbabd7367	-0.0014453948
143	0xbac2efb3	-0.0014872461
144	0xb98b5b39	-0.00026580112
145	0x382b9e12	4.091679e-05
146	0xb96d9baa	-0.0002266007
147	0xb9837757	-0.00025075182
148	0xb884de8e	-6.3357045e-05
149	0x38b97f53	8.8452034e-05
150	0xb99e0e5c	-0.00030146807
151	0x3923860b	0.00015594826
152	0xbb0ef66c	-0.002181436
153	0xbb1a0028	-0.0023498628
154	0xbb198102	-0.0023422842
155	0xbb1133d0	-0.0022156127
156	0xbb2541da	-0.0025216253
157	0xbb1db28a	-0.0024062716
158	0xbb1f13a6	-0.0024273186
159	0xbb16fb29	-0.0023037887
160	0xb96f24ef	-0.00022806575
161	0xb938ef07	-0.00017636652
162	0xb9126fc6	-0.00013965284
163	0xb9c12fa8	-0.00036847335
164	0xb9412ae7	-0.00018421897
165	0xb9c9a494	-0.00038460328
166	0xb947cb05	-0.0001905375
167	0xb9e0c919	-0.0004287444
168	0xb9be2871	-0.00036269755
169	0xb8bc0b79	-8.9666755e-05
170	0xb95abb2c	-0.00020859827
171	0xb9552599	-0.00020327269
172	0xb99c9807	-0.00029867908
173	0xb996f772	-0.0002879459
174	0xb976bd67	-0.00023530946
175	0xb9c97302	-0.00038423395
176	0xb9a0c5e7	-0.00030665027
177	0xb9b97689	-0.00035374265
178	0xb9a2fe0f	-0.00031088336
179	0xb94dedd1	-0.00019638917
180	0xb89b5e1a	-7.408504e-05
181	0xba06d3e7	-0.000514327
182	0xb981712f	-0.00024689126
183	0xb9af5ae8	-0.00033446332
184	0xbb0e655c	-0.0021727895
185	0xbb093e22	-0.0020941575
186	0xbb099fcd	-0.002099979
187	0xbb07ba02	-0.0020710235
188	0xbb1388ce	-0.0022511962
189	0xbb1bdd4f	-0.0023783033
190	0xbb0823bc	-0.0020773252
191	0xbaefdd2a	-0.0018300165
192	0xba9df503	-0.0012051169
193	0xba8c8565	-0.0010720907
194	0xba80f4da	-0.0009838596
195	0xba993760	-0.0011689477
196	0xba8a8575	-0.0010568338
197	0xbab566a4	-0.0013839793
198	0xbac920a8	-0.0015344815
199	0xbab14d4f	-0.0013527068
200	0xb989a60f	-0.000262544
201	0xb9eafb47	-0.00044819174
202	0xb99f1f43	-0.00030350135
203	0xb9629990	-0.00021610246
204	0xb9bcb7e4	-0.00035995163
205	0xb95f869b	-0.00021317082
206	0xb9d5f159	-0.00040806344
207	0xb9bfd7f1	-0.00036591248
208	0xb8fb3a1f	-0.000119794386
209	0xb9ef2b2d	-0.000456178
210	0xb985db1f	-0.00025530995
211	0xba193e40	-0.0005845763
212	0xba0726ae	-0.0005155605
213	0xba0aca85	-0.000529446
214	0xba1302c4	-0.0005608017
215	0xba48ea9a	-0.0007664353
216	0xb906a4be	-0.00012840607
217	0xb974c7c7	-0.00023344076
218	0xb806792c	-3.206094e-05
219	0xb95a8c19	-0.0002084229
220	0xb94f8bf4	-0.00019793195
221	0xb9b85cf2	-0.00035164464
222	0xb995da0d	-0.00028581955
223	0x3810f8c2	3.456395e-05
224	0xb9377356	-0.00017495206
225	0xb99317f7	-0.0002805588
226	0xb989dbe1	-0.000262945
227	0xb862f7d0	-5.4113392e-05
228	0xb9308f0d	-0.00016837959
229	0xb79b6f98	-1.8529405e-05
230	0xb913666a	-0.00014057165
231	0xb87068e9	-5.7318164e-05
232	0xbb2c3e2e	-0.002628218
233	0xbb39fba6	-0.0028378754
234	0xbb3ec4a7	-0.0029108913
235	0xbb3a0246	-0.0028382703
236	0xbb2aae35	-0.0026043777
237	0xbb4a739f	-0.003089167
238	0xbb505dd0	-0.0031794198
239	0xbb3f85d0	-0.0029224046
240	0xb91a9897	-0.00014743429
241	0xb9393283	-0.00017661792
242	0x388808b0	6.4866035e-05
243	0xb98a5b2e	-0.00026389345
244	0xb7ea62e4	-2.7941023e-05
245	0xb931140c	-0.00016887503
246	0x38d46bb0	0.00010129006
247	0xb9967539	-0.00028697567
248	0xba181c2e	-0.0005802539
249	0xb9c08a5c	-0.0003672418
250	0xba0cf9b3	-0.0005377784
251	0xba0f4fb3	-0.0005466893
252	0xb97d755a	-0.00024171677
253	0xba100146	-0.0005493354
254	0xba838ec5	-0.0010037055
255	0xba66587e	-0.000878699

momentum_buffer f4 [16]
0	0x3aff73d3	0.0019489474
1	0xbbdbfcbf	-0.0067134793
2	0xbc25b906	-0.010114914
3	0xbc69b633	-0.014264631
4	0xbcc83cde	-0.024443086
5	0xbc5e17b2	-0.013555454
6	0x3c22ad79	0.009929054
7	0x3ac9db7b	0.0015400493
8	0x3b2dcebb	0.0026520926
9	0xbc41a2b0	-0.011818573
10	0xbc86e78e	-0.016467836
11	0x3b68a505	0.003549875
12	0x3bad9a58	0.00529794
13	0x3a2a39c9	0.0006493596
14	0xbbc08ae2	-0.005875931
15	0xb9750010	-0.00023365044

momentum_buffer f4 [16, 16, 8]
0	0xb9f8d99b	-0.00047464375
1	0xba471bb0	-0.00075953733
2	0xba8096cc	-0.0009810566
3	0xba30b57e	-0.00067409116
4	0xba819bfc	-0.0009888406
5	0xba81ca5b	-0.0009902226
6	0xba7deb93	-0.00096862874
7	0xb9fb4495	-0.00047925548
8	0xba95301a	-0.0011382133
9	0xba8e9977	-0.0010879476
10	0xbac7ad4f	-0.0015234145
11	0xbaa595c5	-0.0012633136
12	0xba8f1f17	-0.00109193
13	0xbab55f0e	-0.0013837533
14	0xba904b03	-0.0011008683
15	0xba9d4f66	-0.0012001812
16	0xbb9b4edf	-0.004739627
17	0xbba82c00	-0.0051321983
18	0xbbb987c9	-0.005661939
19	0xbbba9ee7	-0.005695212
20	0xbbb9b02b	-0.005666753
21	0xbbbef71c	-0.0058277976
22	0xbbb1c53e	-0.0054251244
23	0xbb9d5366	-0.0048012016
24	0xbb5bea86	-0.0033556535
25	0xbb7d5549	-0.003865557
26	0xbb8ae1b1	-0.0042383303
27	0xbb8dbcdf	-0.0043254937
28	0xbb8fabe8	-0.0043845065
29	0xbb8b2230	-0.004246019
30	0xbb823083	-0.003973068
31	0xbb5e773f	-0.0033945588
32	0xbb0f9417	-0.0021908337
33	0xbb22b5f2	-0.0024827686
34	0xbb3fbc80	-0.0029256642
35	0xbb457c6b	-0.0030133973
36	0xbb3efa4d	-0.002914089
37	0xbb45e5fe	-0.00301969
38	0xbb3e617d	-0.0029049807
39	0xbb3e0708	-0.002899589
40	0xbba1bc09	-0.0049357456
41	0xbbb58027	-0.0055389586
42	0xbbc703cf	-0.006073452
43	0xbbc5deea	-0.0060385363
44	0xbbbfb514	-0.0058504436
45	0xbbb74bbb	-0.0055937446
46	0xbbb02bd4	-0.0053763185
47	0xbb9ad2f3	-0.004724854
48	0xbaaa98d9	-0.0013015523
49	0xbacaa38c	-0.0015460118
50	0xbae8b29a	-0.0017753423
51	0xbaf38383	-0.0018578622
52	0xbafdd85a	-0.0019366846
53	0xbaccf0dd	-0.0015635748
54	0xbaf29c2d	-0.0018509679
55	0xbae94df4	-0.0017799721
56	0xb8da8236	-0.00010419304
57	0xb9c09e3a	-0.00036738982
58	0xba216e63	-0.00061581115
59	0xba0bb67b	-0.0005329621
60	0xba1eb982	-0.00060548645
61	0xba109d8d	-0.0005516641
62	0xb93e811e	-0.00018167912
63	0xb8b88f12	-8.8004526e-05
64	0xb99095a7	-0.0002757732
65	0xba0cda04	-0.0005373063
66	0xb9d4766a	-0.00040524016
67	0xb9c14b86	-0.00036868098
68	0xb9088322	-0.00013018821
69	0xb99d817b	-0.00030041844
70	0xb9a4f39e	-0.00031462027
71	0xb94fe244	-0.00019825349
72	0xbb6ed656	-0.0036443672
73	0xbb7f7551	-0.0038979838
74	0xbb925ef7	-0.004466887
75	0xbb943222	-0.004522578
76	0xbb90c3d6	-0.0044178767
77	0xbb912387	-0.004429284
78	0xbb8b91b1	-0.004259311
79	0xbb6cd5db	-0.003613821
80	0xbbaf3d32	-0.005347871
81	0xbbbbd3ef	-0.0057320516
82	0xbbdb6b7c	-0.0066961627
83	0xbbd3b621	-0.0064609204
84	0xbbd70fae	-0.0065631485
85	0xbbdbb09d	-0.0067044036
86	0xbbc84ca0	-0.00611265
87	0xbbbd50e2	-0.0057774642
88	0xb9e03330	-0.00042762747
89	0xb9f588fe	-0.0004683211
90	0xb9dfce02	-0.00042687362
91	0xb970935c	-0.00022943079
92	0xb9f33604	-0.00046388817
93	0xba055290	-0.000508585
94	0xba152beb	-0.0005690443
95	0xb9d14fb8	-0.00039922982
96	0xba85f62c	-0.001022046
97	0xba85f43a	-0.001021988
98	0xbaa34e64	-0.0012459275
99	0xba9662c4	-0.0011473526
100	0xba8e55a3	-0.0010859262
101	0xba9d2f0e	-0.0011992173
102	0xba9fbc67	-0.0012186886
103	0xba7c1438	-0.000961605
104	0xba0ec6b8	-0.00054464815
105	0xb9baccc7	-0.00035629256
106	0xba2e872e	-0.00066577166
107	0xba16617d	-0.0005736573
108	0xba14208e	-0.0005650603
109	0xba54b8dc	-0.00081147044
110	0xba3afce1	-0.0007133019
111	0xb9b8b7bd	-0.0003523211
112	0xbb95b970	-0.004569225
113	0xbba1c607	-0.004936937
114	0xbbaf18de	-0.0053435406
115	0xbbb249d6	-0.005440931
116	0xbbb775a9	-0.005598743
117	0xbbb8c110	-0.005638249
118	0xbba56939	-0.005047944
119	0xbb8fe921	-0.004391805
120	0xb980d10e	-0.0002456982
121	0xb745f2c0	-1.1798635e-05
122	0xb7a55ce2	-1.9712785e-05
123	0xb98940bd	-0.0002617891
124	0xb9755bd8	-0.00023399235
125	0xb9b1e668	-0.00033931737
126	0xb932f5c9	-0.00017066965
127	0xb8cc90fe	-9.754485e-05
128	0x374640ec	1.18168355e-05
129	0x38c595a7	9.421567e-05
130	0x38bde5e7	9.055045e-05
131	0xb897a7c7	-7.231492e-05
132	0x370ff528	8.580544e-06
133	0x3846be8c	4.738434e-05
134	0x36c064a0	5.73376e-06
135	0x384794fe	4.7584057e-05
136	0xb8c625d0	-9.448419e-05
137	0x39359031	0.0001731522
138	0xb7f504da	-2.9208535e-05
139	0xb8115bbb	-3.4656125e-05
140	0xb9564e92	-0.000204379
141	0xb92e32c5	-0.00016612846
142	0x35c697a4	1.4796283e-06
143	0xb81c8efe	-3.732647e-05
144	0xb93fbba8	-0.00018285087
145	0x37ebf78d	2.8129458e-05
146	0xb8e64860	-0.000109807355
147	0xb73b77d7	-1.1173971e-05
148	0x38d25676	0.00010029685
149	0xb93f7569	-0.00018258918
150	0xb9483d81	-0.00019096398
151	0xb901cc4e	-0.00012378508
152	0xb895054b	-7.1058595e-05
153	0xb9347a47	-0.0001721169
154	0xb8f0df90	-0.000114857336
155	0xb88faff1	-6.851543e-05
156	0x38078c5b	3.2317224e-05
157	0x39093306	0.00013084346
158	0x38b91329	8.825056e-05
159	0xb834029a	-4.2917767e-05
160	0xb8429ae9	-4.6397476e-05
161	0x374dcaa3	1.2266132e-05
162	0xb861fc33	-5.387906e-05
163	0xb893b8f3	-7.043956e-05
164	0x38049c76	3.1616968e-05
165	0xb9630428	-0.00021649955
166	0xb96de69f	-0.00022687994
167	0xb82e0f52	-4.14991e-05
168	0xb91114b5	-0.00013835992
169	0xb949e3e8	-0.00019253755
170	0xb997b7c1	-0.00028937872
171	0x388a608a	6.5983346e-05
172	0xb8c48e6c	-9.3725364e-05
173	0xb9569673	-0.00020464677
174	0xb93a67eb	-0.00017777055
175	0xb7c44dec	-2.3401306e-05
176	0xb93725dc	-0.00017466344
177	0xb6611644	-3.3540573e-06
178	0xb7b7798c	-2.18719e-05
179	0x387420f2	5.8204816e-05
180	0x38985842	7.264364e-05
181	0xb925f091	-0.00015825244
182	0x38a4eb0a	7.863909e-05
183	0x391d3692	0.00014993016
184	0x37882783	1.6230862e-05
185	0x38e0c5b5	0.00010717978
186	0xb8b896f8	-8.801924e-05
187	0x381b1d26	3.6982026e-05
188	0x3881a918	6.1826955e-05
189	0xb8cb1e76	-9.685468e-05
190	0x391289ff	0.00013975053
191	0xb955e181	-0.0002039727
192	0xb8aaab84	-8.138179e-05
193	0xb9096993	-0.00013104668
194	0xb9066d79	-0.00012820018
195	0xb90999d8	-0.0001312265
196	0xb95bd7a3	-0.00020965798
197	0x38022749	3.1031002e-05
198	0xb841bab7	-4.6188678e-05
199	0xb93eb952	-0.00018188849
200	0xb8796940	-5.9464248e-05
201	0xb8de5abd	-0.00010602686
202	0x37c62fae	2.3625642e-05
203	0xb973d686	-0.00023254202
204	0xb902a86e	-0.00012460511
205	0xb7ea1a03	-2.7907086e-05
206	0x378a6dd8	1.6502032e-05
207	0xb857445b	-5.1323655e-05
208	0xb7a0cc75	-1.9168694e-05
209	0x3905dfd0	0.00012767245
210	0xb933fa85	-0.00017164096
211	0x384eac44	4.9274662e-05
212	0x38bb3c26	8.9280584e-05
213	0xb997bedf	-0.00028943174
214	0xb835b2f2	-4.332042e-05
215	0x3812807c	3.4928773e-05
216	0xb81066e8	-3.4428114e-05
217	0x38edbf34	0.00011336655
218	0x351c3788	5.819534e-07
219	0x39248486	0.00015689628
220	0xb58f7a23	-1.0689877e-06
221	0xb9120256	-0.00013924515
222	0x392e121a	0.00016600676
223	0x3884aad8	6.3260726e-05
224	0x393a1941	0.0001774775
225	0x3839f6a4	4.433714e-05
226	0x38dd54cb	0.00010553895
227	0x3902efc8	0.00012487092
228	0x37db4b7a	2.6141981e-05
229	0xb87576f1	-5.8523325e-05
230	0x3821c3ce	3.856775e-05
231	0xb927ad66	-0.00015990957
232	0x3758ec57	1.292963e-05
233	0xb88990db	-6.5596505e-05
234	0x378c7a17	1.6746153e-05
235	0xb935e54d	-0.00017346926
236	0x3908f204	0.00013060129
237	0xb9524fa9	-0.00020056836
238	0x38cd780e	9.797524e-05
239	0x391d74f6	0.00015016258
240	0xb98fc351	-0.00027420608
241	0x38e7030e	0.00011015507
242	0xb982f86c	-0.0002498062
243	0xb9042201	-0.00012601168
244	0x38013c21	3.0811996e-05
245	0xb923af10	-0.00015610107
246	0x38d4520c	0.0001012423
247	0xb93efb32	-0.0001821339
248	0xb7bd1266	-2.2539123e-05
249	0xb91310f5	-0.0001402533
250	0xb8d6da94	-0.000102450285
251	0x395c27e3	0.00020995694
252	0x3924336d	0.00015659416
253	0x376e32e7	1.4197757e-05
254	0x37b402a8	2.1458909e-05
255	0xb93eb249	-0.00018186228

momentum_buffer f4 [16]
0	0xbc57e500	-0.013177156
1	0xb9b57c08	-0.0003461542
2	0xbcc3ef14	-0.023917712
3	0xbd193dda	-0.037412502
4	0x393a77a8	0.00017782918
5	0xb97ac8c5	-0.0002391665
6	0x3951783b	0.00019976583
7	0xbbcfec97	-0.0063453424
8	0xbb908ece	-0.004411555
9	0xbc1351c2	-0.008991661
10	0x39a57a51	0.00031562385
11	0xbaa13f41	-0.0012302176
12	0xbd115b7f	-0.035487648
13	0xb9d24078	-0.00040102354
14	0xbc637fa5	-0.013885413
15	0xbcd48fdc	-0.025947504

momentum_buffer f4 [2, 16]
0	0xbc6993a9	-0.014256396
1	0xbbfde783	-0.0077485456
2	0xbc4bbf60	-0.012435764
3	0xbd1fc438	-0.03900549
4	0xba897b87	-0.0010489085
5	0x38bb20dc	8.9229754e-05
6	0xb8bc9ce8	-8.993765e-05
7	0xbd0e26d2	-0.03470499
8	0xbb645927	-0.0034843178
9	0xbd46a6a8	-0.04849878
10	0xbab37295	-0.0013690764
11	0xbaadae3e	-0.0013250781
12	0xbd218bed	-0.039440084
13	0xb990490c	-0.00027520244
14	0xbc807dd6	-0.015685003
15	0xbd2392a6	-0.039934777
16	0xb8fcd176	-0.000120553115
17	0x3b23dcc1	0.0025003406
18	0x3b4996d5	0.003076007
19	0x3b096fc0	0.002097115
20	0x39db1a0d	0.00041790344
21	0x38e6f3e8	0.00011012686
22	0x38b4988c	8.611483e-05
23	0x3a5775cd	0.0008219153
24	0x3b052c86	0.0020320727
25	0x3b0784f3	0.002067861
26	0x3a877f74	0.0010337667
27	0x3a8c27b5	0.0010692986
28	0x3b1be06a	0.0023784884
29	0x38bf1f49	9.113417e-05
30	0x3b036df7	0.0020054558
31	0x3b3214a9	0.002717296
