trained_custom/checkpoints/old_epidenet_b_512samples_patient2_leaveout1/epidenet_b_v2.2_qat_best.pth.tar (torch, 48431 bytes, 14 tensors)

block1_conv1d_bn_relu_1.op.weight f4 [4, 1, 4]
0.077486284 2.9077835 -4.268827 -3.7967954 -3.458663 1.698351 -0.48105225 6.0813584
-0.8471761 4.8051023 -5.173675 -3.2620034 -2.8518596 -1.9690627 -1.2236353 0.12304069
00000000: 21b1 9e3d 2019 3a40 3b9a 88c0 b2fe 72c0
00000010: bc5a 5dc0 9163 d93f 7b4c f6be 7d9a c240
00000020: 88e0 58bf 66c3 9940 bf8e a5c0 aac4 50c0
00000030: de84 36c0 3f0a fcbf 15a0 9cbf c2fc fb3d

block1_conv1d_bn_relu_1.op.bias f4 [4]
-0.4570647 0.3338325 -0.663507 -0.9814039
00000000: 6204 eabe 18ec aa3e 98db 29bf 493d 7bbf

block2_conv1d_bn_relu_1.op.weight f4 [16, 4, 9]
0.08669137 0.27410555 -0.12618494 0.2865259 -0.05206387 0.04292518 0.36601454 -0.3738395
-0.25469714 -0.13600822 -0.18544823 0.31729797 -0.29793656 -0.2140371 -0.3092806 -0.39542276
-0.2659236 0.3391783 0.124280594 0.14143461 -0.01796817 -0.21835674 0.080597036 -0.37365285
-0.2873433 -0.20820664 0.25147575 0.16877371 -0.23942748 -0.06883053 0.2374834 0.40820438
0.16598052 0.059339814 0.27077228 -0.237191 0.07461184 -0.32212067 -0.29764768 -0.2321022
0.1670119 0.14753973 -0.27233845 0.097569056 0.1925177 -0.06367697 0.007385977 0.08556561
0.26052436 0.39419094 -0.32233545 -0.15686478 0.14612485 0.36489442 0.3586544 0.36342096
0.072391376 -0.37792078 0.018367581 -0.2777071 -0.41149306 0.34167606 0.28118083 -0.41753986
0.08053896 -0.07208262 -0.080657735 -0.20696935 0.1397203 -0.26992556 0.12767537 0.17967269
0.24981524 0.123379126 -0.40163994 -0.24725199 0.21310747 0.0898765 -0.3000427 -0.20412293
0.42075405 0.25982034 -0.15922533 -0.068814814 -0.35143882 0.014447493 -0.26299104 -0.2837827
-0.029872704 0.06349224 -0.18508564 0.2147611 -0.25154206 0.35255003 0.2829357 -0.31572017
-0.09438068 0.034223963 0.10895523 0.062938236 0.12185926 -0.0071358965 -0.19922592 0.19643036
-0.35782698 -0.23131292 -0.08884749 -0.13631034 -0.08394938 -0.20006047 -0.055599045 0.04335703
-0.16239674 -0.010869234 0.1741012 -0.033923723 0.0042820587 -0.033634063 0.03368508 0.13965008
0.21460593 0.13592276 0.22031847 -0.035091218 -0.23637103 -0.12343289 0.16675726 -0.0019935644
-0.12490247 -0.1953318 -0.231772 -0.20467252 -0.050385877 0.12531778 0.12923168 -0.23489912
0.15099992 -0.1938935 -0.059392326 -0.10528536 -0.047957387 -0.047737714 -0.22694983 -0.21520346
-0.13870078 -0.024106905 -0.24907862 0.18261814 -0.4314028 -0.047947783 0.41122296 -0.24019334
0.3981989 0.14149943 -0.49592087 0.28070104 -0.111753084 -0.27178937 0.34496626 -0.423512
0.028976034 -0.09632605 0.27499598 0.10489716 0.19543912 0.16881615 -0.11674118 -0.116259865
-0.40365413 0.21502544 0.3466005 0.27975708 -0.3714887 -0.0016457463 -0.33591396 -0.25885454
-0.2863704 0.14997004 -0.3101419 -0.04892806 0.045791194 0.39014435 -0.45230636 -0.44425854
-0.44736278 0.3936249 -0.3149342 0.46896437 0.119206205 0.017724121 -0.023051778 -0.16137633
0.042633858 -0.1656635 -0.015401216 0.017729808 -0.481532 -0.32388675 0.5292739 -0.51950467
-0.026218822 0.60109586 0.14661837 -0.02256853 -0.6249807 0.25705048 -0.5392878 -0.16727105
-0.20792091 -0.07574481 0.0071027074 0.4423599 0.028611653 0.47712445 0.313764 -0.49281588
0.21475798 -0.34044152 -0.22428058 0.12617381 0.13923942 0.36317575 -0.168696 -0.0038468817
0.22199258 -0.49285218 0.38325316 -0.41143906 0.0103543615 -0.1115577 -0.292368 0.02956332
0.36732355 -0.23467787 -0.29659387 -0.17417201 -0.5016263 0.2077452 -0.25879815 -0.3363427
-0.2938831 0.27922073 0.2308475 0.33922297 0.1812262 -0.18546833 -0.15991285 0.11422201
0.38811842 0.119708896 -0.24079481 -0.25380304 -0.4297163 0.122977704 -0.2290006 -0.3785122
00000000: 3f8b b13d 9057 8c3e a036 01be 86b3 923e
00000010: ed40 55bd 50d2 2f3d 4266 bb3e e467 bfbe
00000020: aa67 82be bd45 0bbe 24e6 3dbe e174 a23e
00000030: 248b 98be 8b2c 5bbe 075a 9ebe da74 cabe
00000040: 2327 88be c7a8 ad3e d386 fe3d 3cd4 103e
00000050: fc31 93bc e998 5fbe 0f10 a53d 6d4f bfbe
00000060: a91e 93be 1f34 55be 6ec1 803e 04d3 2c3e
00000070: 7a2c 75be 05f7 8cbd d92e 733e 2a00 d13e
00000080: ccf6 293e 4e0e 733d aaa2 8a3e 33e2 72be
00000090: 18ce 983d 00ed a4be 4765 98be 33ac 6dbe
000000a0: 2b05 2b3e a814 173e f26f 8bbe 49d2 c73d
000000b0: 5c23 453e 1269 82bd 1106 f23b 063d af3d
000000c0: 7363 853e 65d3 c93e 2709 a5be 29a1 20be
000000d0: c1a1 153e 71d3 ba3e 8da1 b73e 5012 ba3e
000000e0: ee41 943d d57e c1be 9c77 963c a02f 8ebe
000000f0: 38af d2be 2af0 ae3e eff6 8f3e c9c7 d5be
00000100: 9cf1 a43d 0da0 93bd e22f a5bd c6ef 53be
00000110: d712 0f3e af33 8abe 55bd 023e 1efc 373e
00000120: 91cf 7f3e 32ae fc3d c0a3 cdbe a02f 7dbe
00000130: d838 5a3e 2c11 b83d 329f 99be 9a05 51be
00000140: 136d d73e 2c07 853e f70b 23be c8ee 8cbd
00000150: caef b3be 2db5 6c3c c3a6 86be f74b 91be
00000160: 9ab7 f4bc 3808 823d 1787 3dbe 55ea 5b3e
00000170: 1fca 80be 7081 b43e f3dc 903e 13a6 a1be
00000180: a84a c1bd 6d2e 0c3d eb23 df3d c3e5 803d
00000190: 5991 f93d 3dd4 e9bb e101 4cbe 0a25 493e
000001a0: 1935 b7be 4bdd 6cbe acf5 b5bd f094 0bbe
000001b0: a7ed abbd a7dc 4cbe d3bb 63bd 2497 313d
000001c0: 554b 26be df14 32bc 9647 323e 9af3 0abd
000001d0: 8350 8c3b dfc3 09bd 5ef9 093d 6e00 0f3e
000001e0: a8c1 5b3e 562f 0b3e 2a9b 613e cfbb 0fbd
000001f0: 3f0b 72be 62ca fcbd 6ac2 2a3e 76a6 02bb
00000200: decc ffbd 0f05 48be a455 6dbe ac95 51be
00000210: 6c61 4ebd 4e53 003e 4f55 043e 6589 70be
00000220: b99f 1a3e 058c 46be 5e45 73bd da9f d7bd
00000230: f76e 44bd 9f88 43bd 8965 68be 4c5e 5cbe
00000240: 9407 0ebe d87b c5bc 770e 7fbe 4000 3b3e
00000250: d4e0 dcbe e564 44bd d18b d23e 3ef5 75be
00000260: bae0 cb3e 3ae5 103e 57e9 fdbe 0cb8 8f3e
00000270: cdde e4bd fa27 8bbe 6b9f b03e 91d6 d8be
00000280: 265f ed3c 9846 c5bd 46cc 8c3e 52d4 d63d
00000290: 3121 483e 24de 2c3e 0016 efbd a719 eebd
000002a0: c1ab cebe a12f 5c3e 9f75 b13e 523c 8f3e
000002b0: c433 bebe 15b6 d7ba eafc abbe 9588 84be
000002c0: 249f 92be bf91 193e ebca 9ebe ca68 48bd
000002d0: 8c8f 3b3d 00c1 c73e b394 e7be db75 e3be
000002e0: bc0c e5be 3489 c93e 0e3f a1be 191c f03e
000002f0: 6222 f43d 2d32 913c 15d7 bcbc d63f 25be
00000300: d7a0 2e3d b1a3 29be 6255 7cbc 1a3e 913c
00000310: 5d8b f6be 7cd4 a5be 7f7e 073f 42fe 04bf
00000320: dbc8 d6bc 6be1 193f 2023 163e a3e1 b8bc
00000330: bcfe 1fbf 1f9c 833e c40e 0abf 1a49 2bbe
00000340: 38e9 54be 1820 9bbd d4bd e83b ff7c e23e
00000350: fc62 ea3c a849 f43e ada5 a03e 5d52 fcbe
00000360: 84e9 5b3e 5a4e aebe cfa9 65be b533 013e
00000370: c794 0e3e 2cf2 b93e a5be 2cbe f71b 7cbb
00000380: 0652 633e 1f57 fcbe c239 c43e 24a8 d2be
00000390: 57a5 293c 5d78 e4bd 42b1 95be c72e f23c
000003a0: d511 bc3e 654f 70be 27db 97be 265a 32be
000003b0: 956a 00bf 28bb 543e 3181 84be 1c35 acbe
000003c0: d877 96be 05f6 8e3e 4963 6c3e a2ae ad3e
000003d0: 5c93 393e 69eb 3dbe 32c0 23be 3bed e93d
000003e0: 75b7 c63e f029 f53d ea92 76be 79f2 81be
000003f0: c603 dcbe bcdb fb3d 227f 6abe 5acc c1be

block2_conv1d_bn_relu_1.op.bias f4 [16]
0.10785993 -0.039202064 0.24523036 0.2112524 0.22932674 0.19826144 0.22140278 0.21830793
-0.28422388 0.1618311 -0.23372447 0.27009407 0.04523367 -0.25649276 0.26029283 0.13475117
00000000: abe5 dc3d 5892 20bd ab1d 7b3e 8d52 583e
00000010: a1d4 6a3e 0c05 4b3e 69b7 623e 1d8c 5f3e
00000020: cb85 91be 0db7 253e 7855 6fbe c549 8a3e
00000030: f146 393d 0553 83be 1a45 853e 36fc 093e

block2_conv1d_bn_relu_2.op.weight f4 [16, 16, 8]
0.22175261 -0.29611385 0.056762855 0.25231114 0.10869038 0.025373582 0.34482086 -0.0066279513
-0.13626923 0.40294188 0.1287413 -0.3312956 -0.082479104 -0.2506845 0.37971064 -0.10626697
-0.4424334 0.049229246 0.28167766 0.0025677169 0.07001746 0.07908105 0.19568773 -0.15240738
-0.09555514 -0.31937572 -0.22548184 0.25463998 -0.19516313 0.08121576 0.12509385 0.010266508
-0.26432747 0.42784172 -0.22676496 0.40593755 -0.35159528 -0.13057195 0.24585056 -0.2281921
0.27589792 -0.36975327 -0.3222484 -0.21561538 0.062355828 0.3762972 -0.19402252 0.15093495
-0.11207044 -0.10678516 0.3412856 -0.37793037 0.000915672 0.40458968 -0.026415056 0.29314727
-0.13267106 0.49332637 -0.3618966 -0.0371886 -0.02500345 0.1515845 0.16375007 0.33977145
-0.14435445 -0.08358938 0.13415329 -0.22931959 0.32910877 -0.25857177 -0.0078744795 -0.03769557
0.09068379 0.23856804 -0.090171844 -0.3700476 0.21960737 0.08319051 0.15241213 -0.23994936
0.17307122 0.29641348 -0.011227409 -0.42900237 0.235009 -0.2975782 0.13219202 0.120303564
-0.19624802 0.20330262 -0.3485839 0.0962005 -0.33089423 -0.103736706 0.04909347 0.45342386
-0.30594537 0.1685544 -0.07595718 -0.2731101 -0.43141198 -0.40532023 0.36021498 -0.12297261
-0.037433118 0.07248876 0.24320993 0.27997386 0.25567085 -0.3377988 -0.06961311 -0.17101692
-0.24523641 0.047977973 0.43523756 -0.32224438 0.2609352 -0.27050024 -0.08935937 0.4047169
-0.09193349 0.030926554 -0.2851043 0.34908572 -0.0023794586 -0.33890024 0.08596731 -0.32280678
-0.35973984 0.00082527864 0.32159206 -0.13923708 0.19303918 0.36196488 0.28516904 -0.23642766
-0.078688234 -0.15383437 -0.38464114 -0.05282467 0.3007172 0.32368726 -0.012672612 0.046635658
-0.16476724 0.34903908 -0.17921159 -0.30696732 0.096717976 0.2852096 -0.3898935 0.38392267
0.16264756 -0.29133546 -0.08179479 0.37885928 -0.32683972 -0.13016976 0.14196882 -0.38126445
0.23756056 0.22378117 0.260183 -0.2819808 0.42568251 -0.26971808 0.4315053 -0.42424473
-0.4000106 0.27598503 0.04965952 0.023258397 -0.23712456 -0.14805461 -0.12892292 -0.42249197
0.03184018 0.09616836 -0.0056119384 0.13355604 0.41338673 0.15395139 -0.16794614 -0.1781644
-0.25201717 -0.28263494 -0.052751977 -0.06922103 0.21803603 -0.17497493 0.3387029 -0.2944994
-0.09865047 0.282056 0.332071 -0.33387306 -0.0030113757 -0.022869486 -0.2648693 -0.20998845
0.105802506 -0.30135494 0.07495585 0.18575475 -0.18246563 0.34767812 -0.04093344 0.19227491
0.33736283 -0.21407947 0.15222651 -0.188624 -0.12117678 -0.12694623 -0.050017286 -0.19870782
0.10885234 0.032744978 0.2890196 -0.08913282 0.04719711 -0.12958153 -0.33997452 0.18345223
0.009470024 -0.19778179 -0.182339 0.06692163 -0.119331434 0.2614025 -0.01523646 0.12290686
0.10114542 -0.19202755 0.09806205 0.22608319 -0.06884348 0.004143619 -0.05644324 0.22972517
-0.18595727 -0.21739508 0.23628035 -0.3526219 0.0012812074 -0.16872038 0.32395464 -0.38459808
0.26994747 0.41133568 0.06658509 -0.02749527 0.41059956 -0.20948723 -0.046218842 -0.18825977
00000000: 1e13 633e 3c9c 97be 2b80 683d ed2e 813e
00000010: 1099 de3d 42dc cf3c 5c8c b03e 492f d9bb
00000020: 298a 0bbe 664e ce3e c2d4 033e 949f a9be
00000030: ceea a8bd b859 80be 6f69 c23e 7fa2 d9bd
00000040: a186 e2be 9ba4 493d 0e38 903e 2447 283b
00000050: 5065 8f3d 3ff5 a13d 5d62 483e ae10 1cbe
00000060: 6ab2 c3bd 3785 a3be b6e4 66be 2c60 823e
00000070: d8d8 47be 7354 a63d 9a18 003e db34 283c
00000080: ee55 87be 120e db3e 1335 68be 0cd7 cf3e
00000090: 4c04 b4be a7b4 05be 40c0 7b3e 31ab 69be
000000a0: 7e42 8d3e 4d50 bdbe befd a4be 47ca 5cbe
000000b0: d368 7f3d 07aa c03e d7ad 46be b18e 1a3e
000000c0: 3085 e5bd 2eb2 dabd fcbc ae3e 1780 c1be
000000d0: b509 703a 6126 cf3e 6364 d8bc 6617 963e
000000e0: ecda 07be 4695 fc3e 834a b9be 1353 18bd
000000f0: 09d4 ccbc f838 1b3e 19ae 273e 86f6 ad3e
00000100: a7d1 13be e930 abbd 7b5f 093e c1d2 6abe
00000110: f280 a83e 8563 84be f603 01bc ac66 1abd
00000120: 6cb8 b93d 2e4b 743e 04ac b8bd e176 bdbe
00000130: c1e0 603e c95f aa3d ed11 1c3e 49b5 75be
00000140: 9539 313e 82c3 973e 2bf3 37bc 33a6 dbbe
00000150: 33a6 703e 2b5c 98be 585d 073e b761 f63d
00000160: 3ef5 48be 902e 503e 9779 b2be c504 c53d
00000170: f86a a9be e973 d4bd 3c16 493d 2c27 e83e
00000180: dfa4 9cbe 8699 2c3e 708f 9bbd 16d5 8bbe
00000190: 08e2 dcbe 2286 cfbe 196e b83e 10d9 fbbd
000001a0: 7853 19bd fd74 943d 060c 793e bc58 8f3e
000001b0: 4ae7 823e f7f3 acbe 5191 8ebd 0f1f 2fbe
000001c0: 411f 7bbe 8d84 443d 75d7 de3e 37fd a4be
000001d0: 4c99 853e 027f 8abe 0c02 b7bd 0e37 cf3e
000001e0: a047 bcbd af59 fd3c 31f9 91be 5dbb b23e
000001f0: b1f0 1bbb 5584 adbe a10f b03d ee46 a5be
00000200: d22f b8be 8357 583a b7a7 a43e 2a94 0ebe
00000210: 10ac 453e 7653 b93e ad01 923e 181a 72be
00000220: 4c27 a1bd c286 1dbe afef c4be ae5e 58bd
00000230: 9bf7 993e 56ba a53e caa0 4fbc 0805 3f3d
00000240: beb8 28be 40b5 b23e 3e83 37be d22a 9dbe
00000250: 1314 c63d fe06 923e 1fa0 c7be 8391 c43e
00000260: 158d 263e ec29 95be 0784 a7bd d8f9 c13e
00000270: 8957 a7be 394b 05be 4660 113e 1835 c3be
00000280: 1343 733e e426 653e b536 853e ca5f 90be
00000290: 0ff3 d93e 7d18 8abe 43ee dc3e 9b36 d9be
000002a0: 30ce ccbe e94d 8d3e c867 4b3d 6588 be3c
000002b0: c8d0 72be a19b 17be 5f04 04be de50 d8be
000002c0: d96a 023d ebf3 c43d 5ae4 b7bb eac2 083e
000002d0: 6da7 d33e 6fa5 1d3e 13fa 2bbe ba70 36be
000002e0: 6508 81be 87b5 90be 7512 58bd c1c3 8dbd
000002f0: d644 5f3e a12c 33be 776a ad3e a0c8 96be
00000300: 4209 cabd a569 903e 3605 aa3e 69f1 aabe
00000310: 805a 45bb ca58 bbbc f39c 87be 3607 57be
00000320: fcae d83d 324b 9abe 7482 993d 7e36 3e3e
00000330: 45d8 3abe de02 b23e d3a9 27bd b7e3 443e
00000340: d2ba ac3e a637 5bbe 44e1 1b3e a626 41be
00000350: 882b f8bd 31fe 01be edde 4cbd 107a 4bbe
00000360: faed de3d 991f 063d 61fa 933e 458b b6bd
00000370: c251 413d 05b1 04be 2411 aebe e7da 3b3e
00000380: 2928 1b3c 4f87 4abe 13b7 3abe 350e 893d
00000390: 0a64 f4bd 8cd6 853e 58a2 79bc 98b6 fb3d
000003a0: 5425 cf3d dfa2 44be c2d4 c83d 5a82 673e
000003b0: cffd 8cbd 32c7 873b 0731 67bd 133d 6b3e
000003c0: 956b 3ebe d19c 5ebe 7af3 713e dc8a b4be
000003d0: 30ee a73a 09c5 2cbe 62dd a53e 0aea c4be
000003e0: 8e36 8a3e 979a d23e c35d 883d c33d e1bc
000003f0: 1b3a d23e d283 56be f84f 3dbd 2bc7 40be

block2_conv1d_bn_relu_2.op.bias f4 [16]
0.09031856 0.057519697 -0.084029555 0.12722394 0.054996107 -0.13932528 -0.07239144 0.1721506
-0.14507844 -0.21043925 -0.0866877 0.004493458 0.17340848 0.15332301 0.09602285 0.09521756
00000000: f0f8 b83d c699 6b3d b017 acbd fe46 023e
00000010: 9943 613d 49ab 0ebe f741 94bd 3f48 303e
00000020: 718f 14be 637d 57be 5289 b1bd dc3d 933b
00000030: fe91 313e b500 1d3e a1a7 c43d 6d01 c33d

block6_dense.op.weight f4 [2, 16]
0.4044193 0.19744597 0.13759223 0.42470938 -0.073601484 0.08169491 0.01519482 0.44104877
-0.10659356 0.2151958 -0.11536462 0.23792881 0.32803124 0.09352397 0.46073315 0.16740483
-0.38016662 -0.10511214 -0.030513093 -0.23531252 0.069348946 -0.3546727 -0.02113983 -0.08478052
-0.011020683 -0.19148956 -0.054872368 -0.44391832 -0.4323904 -0.16790682 -0.25046486 0.017968394
00000000: 0c10 cf3e 472f 4a3e fae4 0c3e 8273 d93e
00000010: 60bc 96bd a94f a73d b2f3 783c 25d1 e13e
00000020: b94d dabd 4a5c 5c3e 4944 ecbd 9ca3 733e
00000030: b6f3 a73e 7f89 bf3d 37e5 eb3e 2c6c 2b3e
00000040: 33a5 c2be 0945 d7bd 98f6 f9bc c4f5 70be
00000050: d206 8e3d a997 b5be 702d adbc 69a1 adbd
00000060: 1890 34bc d715 44be d9c1 60bd 4349 e3be
00000070: 4662 ddbe c4ef 2bbe ee3c 80be 7432 933c

momentum_buffer f4 [4, 1, 4]
0.006128576 0.009390504 0.0030012405 0.0036772648 -0.005309713 9.706374e-05 -0.0018520692 0.004642491
-0.0041332976 0.0016187986 -0.0080642365 -0.0060907793 -0.008857424 -0.007987355 -0.006863484 -0.0049226
00000000: 39d2 c83b a1da 193c 76b0 443b 44fe 703b
00000010: 1afd adbb b38e cb38 21c1 f2ba 0a20 983b
00000020: 9d70 87bb de2d d43a dc1f 04bc 2995 c7bb
00000030: bb1e 11bc 65dd 02bc 14e7 e0bb c34d a1bb

momentum_buffer f4 [4]
-0.03993201 0.019894902 0.014776194 0.028214902
00000000: bf8f 23bd a2fa a23c d917 723c f022 e73c

momentum_buffer f4 [16, 4, 9]
0.00064357254 0.0008709336 0.00054310646 0.0009689283 0.00061290787 0.0007806184 0.0010765783 0.0003447837
0.00040877188 -0.00010293276 -0.00017349709 0.0003193388 -0.00028430187 -0.00018074301 -0.00024153602 -0.00033631217
-0.00019319053 0.000260399 0.0002558857 0.00030875602 0.00024139951 6.709164e-05 0.00036798054 -7.6271135e-06
3.2078802e-05 8.6433545e-05 0.0004990861 0.00030263426 -8.661614e-05 0.00012628474 0.00049930735 0.0007037062
0.0005161354 0.00037688503 0.00054581475 9.445295e-06 0.00025064696 -0.00018133625 -0.00014791923 -0.00010657817
0.00033329622 0.00040782598 0.00012728244 0.00048323043 0.00064408523 0.00021829829 0.00031271568 0.00036687055
0.0005375936 0.00058470917 -8.1466365e-05 6.331875e-05 0.0003396294 0.00042573793 0.00042422686 0.0004059547
0.0001228998 -0.00035976374 7.489664e-06 -0.00021141615 -0.00021187968 0.00050852 0.00047235738 -0.00031578378
9.752108e-05 -5.3161275e-05 -4.922106e-05 -0.0002427031 0.00016141786 -0.00010895823 0.00029709493 0.0003430921
-0.0006362016 -0.0008237406 -0.0012793761 -0.0012986502 -0.0008744037 -0.00079622405 -0.000979611 -0.0010355418
-0.00070162915 -1.836874e-05 -0.000342915 -0.00022872265 -0.00048351 -0.00016754401 -0.00038222602 -0.0004150068
-0.00017090864 -0.0002716475 -0.00062074955 -0.0002699008 -0.0006359392 -0.00012686756 -0.00021071018 -0.0006012069
-0.00026214862 -0.0002795525 -0.00040726067 -0.00033118768 -0.0002873474 -0.00037925967 -0.00058848097 -0.00024678416
-0.00062769145 -0.0003627785 -0.0002917489 -0.000527822 -0.00038689788 -0.00043785464 -0.00022519605 -0.00015362987
-0.0003908211 -0.000315586 -0.0002017653 -0.0004239304 -0.00051325874 -0.0004015202 -0.00037432509 -0.00027829703
-0.00021190062 -0.0002489011 -0.00013451377 -0.0002977452 -0.00040848402 -0.00028446378 0.0001158105 -1.1365573e-05
-0.00011460475 -0.00019528707 -0.00024067753 -0.00025336913 -0.00013047493 4.6176072e-05 -8.572074e-06 -0.00025711258
0.00013826962 -0.00019091644 -5.888022e-05 -0.000104281855 -6.150773e-05 -9.202748e-05 -0.00028654307 -0.0003029484
-0.0018242069 -0.0015843675 -0.0017770671 -0.0013260735 -0.0018798091 -0.0017097042 -0.0015079295 -0.0022256596
-0.0017923182 -0.00034396196 -0.0008263154 -0.00012527718 -0.00046706732 -0.00055285246 6.382288e-06 -0.000692829
-0.00029755261 -0.00048603633 -0.00030371197 -0.0003075756 -0.00018896173 -0.00011265956 -0.00038686898 -0.0005131514
-0.00096220133 -0.00047061226 -0.00050705305 -0.00023056148 -0.00068739353 -0.00025243324 -0.000514469 -0.00038357754
-0.00050650554 -0.00024568697 -0.00083330023 -0.00074881676 -0.00013529864 0.00034592094 -0.00043957355 -0.00040351515
-0.00042331245 0.00025406101 -0.0004088987 0.0003509022 0.00028576577 -2.7354887e-05 -0.00010459449 -0.00021378018
9.845999e-06 -0.00020157028 -6.692364e-05 -2.857392e-05 -0.0005008548 -0.00035571292 0.00039554594 -0.0005676463
-5.6338e-05 0.00054847077 8.568788e-05 -0.0002187109 -0.00079121266 0.00014356314 -0.00039730995 -0.0002741881
-0.00028432492 -0.00011576676 -4.9944218e-05 0.00037086583 -0.00010361339 0.0002724576 0.00014875531 -0.00041823715
-0.0001647746 -0.0006020132 -0.00041798284 -0.00025222806 -0.0004130601 -0.00023506778 -0.0005589705 -0.00036592167
6.206386e-05 -0.0004878426 0.00032643427 -0.00038507042 1.1306441e-05 -0.000101256795 -0.0003068844 -3.495385e-05
0.0001577552 -0.00020174352 -0.000466078 -0.0002404509 -0.0004937829 5.4291864e-05 -0.0005182526 -0.0006424414
-0.00047940057 9.349403e-05 0.00012422774 0.00020608152 5.654207e-05 -0.00016104814 -0.0002149869 -9.195091e-05
9.5782176e-05 -0.00012675131 -0.00040137512 -0.00036417108 -0.00030051585 0.00018630343 -9.424615e-05 -0.00018482677
00000000: 6cb5 283a 5d4f 643a 425f 0e3a adff 7d3a
00000010: 8dab 203a 6aa2 4c3a f91b 8d3a 16c4 b439
00000020: 6f50 d639 9bdd d7b8 c5ec 35b9 ee6c a739
00000030: 5a0e 95b9 d585 3db9 d544 7db9 0e53 b0b9
00000040: 3093 4ab9 2a86 8839 6628 8639 88e0 a139
00000050: 3020 7d39 8db3 8c38 83ed c039 68ec ffb6
00000060: 5a8c 0638 a843 b538 1ad5 023a e2aa 9e39
00000070: b0a5 b5b8 4d6b 0439 f3e3 023a ec78 383a
00000080: 434d 073a a798 c539 0215 0f3a 3c77 1e37
00000090: 4469 8339 1425 3eb9 c41a 1bb9 b882 dfb8
000000a0: 43be ae39 7ad1 d539 1f77 0539 175a fd39
000000b0: d4d7 283a 00e7 6439 fdf3 a339 8858 c039
000000c0: 4ced 0c3a 2b47 193a ecd8 aab8 ffc9 8438
000000d0: 4910 b239 9435 df39 c46a de39 51d6 d439
000000e0: aade 0039 ac9e bcb9 b94f fb36 97af 5db9
000000f0: 052c 5eb9 334e 053a bca6 f739 c88f a5b9
00000100: 3b84 cc38 7cf9 5eb8 b672 4eb8 1e7e 7eb9
00000110: 4742 2939 8180 e4b8 68c3 9b39 0be1 b339
00000120: c4c6 26ba 4cf0 57ba bdb0 a7ba 7837 aaba
00000130: 3d38 65ba b1b9 50ba 4a66 80ba 04bb 87ba
00000140: 89ed 37ba 9216 9ab7 46c9 b3b9 45d5 6fb9
00000150: 9d7f fdb9 c1ae 2fb9 8265 c8b9 4595 d9b9
00000160: f035 33b9 e96b 8eb9 ccb9 22ba 7981 8db9
00000170: 28b5 26ba c007 05b9 15f2 5cb9 509a 1dba
00000180: fe70 89b9 e790 92b9 9a85 d5b9 42a3 adb9
00000190: 1da7 96b9 5fd7 c6b9 4a44 1aba cf62 81b9
000001a0: a98b 24ba 4e33 beb9 e0f5 98b9 895d 0aba
000001b0: 8ed8 cab9 db8f e5b9 9b22 6cb9 b417 21b9
000001c0: 1fe7 ccb9 3c75 a5b9 f690 53b9 fa42 deb9
000001d0: 368c 06ba 2183 d2b9 1041 c4b9 65e8 91b9
000001e0: a431 5eb9 f17e 82b9 440c 0db9 af1a 9cb9
000001f0: cc29 d6b9 1524 95b9 4adf f238 c4ae 3eb7
00000200: f557 f0b8 f9c5 4cb9 625e 7cb9 a1d6 84b9
00000210: 19d0 08b9 2ead 4138 c7d0 0fb7 11cd 86b9
00000220: 78fc 1039 be30 48b9 28f6 76b8 e5b1 dab8
00000230: b6fd 80b8 e1fe c0b8 293b 96b9 0cd5 9eb9
00000240: 3a1a efba 8daa cfba 7aec e8ba a5cf adba
00000250: ed63 f6ba 2718 e0ba b8a5 c5ba 5fdc 11bb
00000260: 38ec eaba cb55 b4b9 169d 58ba d65c 03b9
00000270: b7e0 f4b9 4ded 10ba 7027 d636 f89e 35ba
00000280: d600 9cb9 b1d2 feb9 883b 9fb9 1942 a1b9
00000290: 0724 46b9 a443 ecb8 add4 cab9 0285 06ba
000002a0: 3d3c 7cba 82bc f6b9 c1eb 04ba e0c2 71b9
000002b0: 3332 34ba 0459 84b9 6edd 06ba e81a c9b9
000002c0: 03c7 04ba 8ccf 80b9 d571 5aba 3e4c 44ba
000002d0: f4de 0db9 b95c b539 9076 e6b9 e38e d3b9
000002e0: 09f0 ddb9 7e33 8539 7461 d6b9 4cf9 b739
000002f0: d5d2 9539 2c78 e5b7 bd59 dbb8 2e2a 60b9
00000300: 3e30 2537 9c5c 53b9 5b59 8cb8 07b2 efb7
00000310: cc4b 03ba fb7e bab9 4761 cf39 19ce 14ba
00000320: 784c 6cb8 40c7 0f3a 55b3 b338 c355 65b9
00000330: 6269 4fba 7089 1639 0a4e d0b9 e7c0 8fb9
00000340: 7211 95b9 cec7 f2b8 327b 51b8 c570 c239
00000350: 044b d9b8 a4d8 8e39 33fb 1b39 d746 dbb9
00000360: 58c7 2cb9 6cd0 1dba b524 dbb9 7a3d 84b9
00000370: fd8f d8b9 877c 76b9 e087 12ba 2dd9 bfb9
00000380: 4828 8238 20c5 ffb9 4425 ab39 47e3 c9b9
00000390: cbb0 3d37 d459 d4b8 54e5 a0b9 699b 12b8
000003a0: 176b 2539 1d8b 53b9 ee5b f4b9 8c21 7cb9
000003b0: 3671 01ba 72b7 6338 58db 07ba 8369 28ba
000003c0: 0e58 fbb9 3a12 c438 2143 0239 9617 5839
000003d0: 9627 6d38 08df 28b9 1b6e 61b9 c5d5 c0b8
000003e0: aade c838 8ce8 04b9 a86f d2b9 37ee beb9
000003f0: 8e8e 9db9 725a 4339 04a6 c5b8 0fce 41b9

momentum_buffer f4 [16]
0.0017600348 0.0011020771 -0.0018057792 -0.0016467047 -0.0053505544 0.0002690595 -0.00031257595 0.0015648769
0.0020383603 -0.00018961032 -0.002063425 -0.008011555 -0.00016177683 -0.00053007965 0.00087026577 0.002571034
00000000: f8b0 e63a 9273 903a e5af ecba 3ed6 d7ba
00000010: b453 afbb 8e10 8d39 3ce1 a3b9 8e1c cd3a
00000020: 0396 053b 22d2 46b9 873a 07bb e642 03bc
00000030: a3a2 29b9 0bf5 0aba 8c22 643a cb7e 283b

momentum_buffer f4 [16, 16, 8]
-0.00046462374 -0.0009477619 -0.0005915933 -0.00040259847 -0.0004979472 -0.0006419526 -0.00039604222 -0.00072362757
-0.00032281052 0.000104335486 -0.00017782426 -0.0005511394 -0.00030246054 -0.00047159725 7.976727e-05 -0.0003624023
-0.00092137855 -0.0005155833 -0.0002912099 -0.00047209018 -0.0004046373 -0.00046688426 -0.00037838073 -0.00064252754
-0.00045080404 -0.0006868689 -0.00058965664 -0.00013853343 -0.0005845854 -0.00034268879 -0.0003076592 -0.00037742459
-0.0007326482 -0.00012394055 -0.00073385204 -0.00015876393 -0.00079967774 -0.0005849718 -0.00028554644 -0.00070031424
-7.442401e-05 -0.0006246928 -0.000649346 -0.0005423027 -0.0003130214 -3.1275616e-05 -0.00059031666 -0.00018016601
-0.0007130902 -0.00075360655 -0.00034218573 -0.0010005386 -0.00065319403 -0.00029072363 -0.00073479133 -0.0003719454
-0.00027969573 0.00028151434 -0.00056117977 -0.0001812833 -0.00016259715 -1.6322578e-05 -1.0921447e-05 0.00015926623
-0.0005773878 -0.00051445526 -0.00036908558 -0.0006964869 -8.3589934e-05 -0.0006163171 -0.00040622728 -0.00048066286
-0.0003688928 -0.00029871438 -0.0006294015 -0.00085272524 -0.0003433111 -0.00040955862 -0.00035899773 -0.0007159612
-0.0010157295 -0.00089132873 -0.0011013674 -0.0015364641 -0.0009324725 -0.001446011 -0.0010141109 -0.0010243654
-0.00094944634 -0.0006722633 -0.0011965407 -0.0007331335 -0.0011177189 -0.0008739105 -0.0007667799 -0.00042824083
-0.00092485105 -0.0004949543 -0.00080922234 -0.0008969532 -0.0010066886 -0.0010354717 -0.00034869753 -0.0007295217
-0.0004986154 -0.0003852126 -0.00019266861 -0.00020406434 -0.00024276621 -0.0007805004 -0.00050251064 -0.00059445936
-0.00068141974 -0.00037465847 -2.5456313e-05 -0.00078583 -0.0002029101 -0.0006930078 -0.00053222664 -0.00010694404
-0.00029395075 -0.00017754469 -0.00049195497 0.0001317001 -0.00021556999 -0.0005014393 -0.00010104532 -0.00052816764
-0.000626275 -0.0002462664 5.8604975e-05 -0.00042633706 -0.00013262323 1.7210436e-05 -4.0268533e-05 -0.0005200391
-0.00017212998 -0.00024822223 -0.00044713373 -0.00012131844 0.00017692058 0.00021517042 -8.067699e-05 -3.4813595e-05
-0.00037728553 0.00013779207 -0.0003522814 -0.00048056943 -0.00011068776 8.4876345e-05 -0.00054592494 0.00020484597
1.3332012e-05 -0.00042841176 -0.00021619434 0.0002513439 -0.00044185793 -0.00024208947 3.254643e-05 -0.0004774338
-9.918549e-07 1.9096806e-06 4.6101122e-05 -0.0004802495 0.00024188732 -0.00042804886 0.000277792 -0.00054882333
-0.0005123827 0.000104497514 -0.00011964294 -0.0001225298 -0.00036747925 -0.00025189397 -0.00019392466 -0.0004928538
-0.00021721041 -0.00016736604 -0.00026618075 -0.00014266388 0.0001260614 -0.00012585778 -0.00038608132 -0.0003819536
-0.00032603362 -0.0003439617 -0.00011107414 -0.0001235748 0.00016726 -0.00021783673 0.00030637733 -0.00032287676
-0.00028664112 6.374944e-05 0.00012501395 -0.00048475547 -0.00014372755 -0.00018918721 -0.00041692474 -0.0003470277
-9.270408e-05 -0.0004975291 -0.00013328962 -4.0572806e-05 -0.0003632608 0.00013016046 -0.00024056288 -2.1679753e-05
-0.000114989365 -0.0006593659 -0.0003126817 -0.00067360874 -0.000581679 -0.0005829981 -0.00051599793 -0.0006407602
-0.00020542972 -0.00028021482 -3.4876197e-05 -0.0003846189 -0.0002618043 -0.00048383087 -0.00067669066 -0.00012777533
-0.0002207084 -0.00045502058 -0.0004267015 -0.00018805327 -0.00041520887 -5.8090463e-05 -0.00028709054 -0.00016421928
-5.082535e-05 -0.00034156934 -7.6027354e-05 5.583172e-05 -0.00022326088 -0.00016811914 -0.00022758033 7.921313e-05
-0.00034157967 -0.00039030507 2.553375e-05 -0.0005335931 -0.0001731845 -0.00035542986 0.00012824193 -0.00053272664
0.00015706396 0.00029752127 -3.3434007e-05 -0.00012651458 0.00033774006 -0.0002688919 -0.000115825984 -0.00024360347
00000000: be98 f3b9 3973 78ba 2815 1bba da13 d3b9
00000010: ac88 02ba b648 28ba e3a3 cfb9 d3b1 3dba
00000020: e53e a9b9 b0ce da38 5676 3ab9 577a 10ba
00000030: 9193 9eb9 b640 f7b9 ba48 a738 d000 beb9
00000040: ab88 71ba 3628 07ba 88ad 98b9 df82 f7b9
00000050: 8025 d4b9 25c8 f4b9 6761 c6b9 4b6f 28ba
00000060: e559 ecb9 fe0e 34ba 3093 1aba 4943 11b9
00000070: dd3e 19ba e9aa b3b9 524d a1b9 12e1 c5b9
00000080: 300f 40ba 0af6 01b9 fa5f 40ba de79 26b9
00000090: 77a1 51ba cb58 19ba 65b5 95b9 4b95 37ba
000000a0: 1614 9cb8 6dc2 23ba df38 2aba 5129 0eba
000000b0: 051d a4b9 f02d 03b8 7bbf 1aba f2ea 3cb9
000000c0: acee 3aba ae8d 45ba 6467 b3b9 8124 83ba
000000d0: 1c3b 2bba 446c 98b9 039f 40ba ab01 c3b9
000000e0: 20a4 92b9 3798 9339 231c 13ba de16 3eb9
000000f0: d77e 2ab9 78ec 88b7 423b 37b7 b400 2739
00000100: d75b 17ba 82dc 06ba d481 c1b9 7294 36ba
00000110: 014d afb8 5790 21ba e7fa d4b9 7a01 fcb9
00000120: f467 c1b9 c49c 9cb9 6bfe 24ba 6c89 5fba
00000130: 70fe b3b9 07ba d6b9 dc37 bcb9 58af 3bba
00000140: 3a22 85ba 0fa8 69ba c25b 90ba 2e63 c9ba
00000150: 2c71 74ba 1488 bdba eaeb 84ba 0044 86ba
00000160: 44e4 78ba d43a 30ba 3ed5 9cba c22f 40ba
00000170: 6c80 92ba 2417 65ba ba01 49ba 8385 e0b9
00000180: b471 72ba d2bf 01ba fe21 54ba 8321 6bba
00000190: ddf2 83ba aab8 87ba 64d1 b6b9 5f3d 3fba
000001a0: 83b5 02ba 5cf6 c9b9 1607 4ab9 1bfa 55b9
000001b0: 0f8f 7eb9 7f9a 4cba ebba 03ba 7ed5 1bba
000001c0: 4ea1 32ba cf6d c4b9 048b d5b7 2900 4eba
000001d0: 44c4 54b9 f7aa 35ba 2085 0bba 2547 e0b8
000001e0: 671d 9ab9 4a2b 3ab9 8af6 00ba fa18 0a39
000001f0: a10a 62b9 0673 03ba 4be8 d3b8 bb74 0aba
00000200: 9b2c 24ba 511d 81b9 9dce 7538 fe85 dfb9
00000210: c710 0bb9 215f 9037 02e6 28b8 3c53 08ba
00000220: ca7d 34b9 d323 82b9 466d eab9 576c feb8
00000230: c283 3939 5f9f 6139 2131 a9b8 d004 12b8
00000240: 68ce c5b9 477c 1039 69b2 b8b9 f0f4 fbb9
00000250: 0a21 e8b8 a4ff b138 671c 0fba eccb 5639
00000260: 8eac 5f37 749c e0b9 3ab2 62b9 cfc6 8339
00000270: 2ba9 e7b9 66d9 7db9 7782 0838 1450 fab9
00000280: e01f 85b5 1028 0036 b45c 4138 ffc9 fbb9
00000290: 22a3 7d39 bf6b e0b9 9ca4 9139 e9de 0fba
000002a0: 6c51 06ba ad25 db38 d0e8 fab8 587b 00b9
000002b0: 3baa c0b9 a310 84b9 4158 4bb9 dc32 01ba
000002c0: fac2 63b9 fb7e 2fb9 2d8e 8bb9 0b98 15b9
000002d0: 592f 0439 b1f8 03b9 f56a cab9 f240 c8b9
000002e0: 7eef aab9 c255 b4b9 7af0 e8b8 dc93 01b9
000002f0: 8462 2f39 1a6b 64b9 45a1 a039 c947 a9b9
00000300: 5248 96b9 38b1 8538 2d16 0339 c726 feb9
00000310: 92b5 16b9 8e60 46b9 b196 dab9 45f1 b5b9
00000320: 206a c2b8 9d6c 02ba a9c3 0bb9 b82c 2ab8
00000330: 0a74 beb9 af7b 0839 9b3f 7cb9 eadc b5b7
00000340: 7226 f1b8 4cd9 2cba 6def a3b9 1e95 30ba
00000350: d17b 18ba 57d4 18ba 0944 07ba b0f8 27ba
00000360: 9f68 57b9 cce9 92b9 0848 12b8 ada6 c9b9
00000370: c742 89b9 aeaa fdb9 f163 31ba 6efb 05b9
00000380: f66d 67b9 d48f eeb9 e8b6 dfb9 2a30 45b9
00000390: 64b0 d9b9 29a6 73b8 a484 96b9 4732 2cb9
000003a0: 4e2d 55b8 a914 b3b9 e070 9fb8 da2c 6a38
000003b0: 231b 6ab9 2349 30b9 a1a2 6eb9 3a1f a638
000003c0: 0c16 b3b9 dca1 ccb9 5031 d637 d4e0 0bba
000003d0: dc98 35b9 fd58 bab9 ae78 0639 aea6 0bba
000003e0: 89b1 2439 a1fc 9b39 7e3b 0cb8 00a9 04b9
000003f0: b412 b139 0ffa 8cb9 9ae7 f2b8 cf6f 7fb9

momentum_buffer f4 [16]
-0.00359101 -0.001319501 -0.00048043605 -0.0030943898 0.00025195436 -0.0017959387 -0.00016549938 -0.002882279
0.00026001132 -0.0020826038 0.00015483909 -0.0027715308 -0.0032789044 -0.0007136418 -0.003721323 -0.00050953985
00000000: 2757 6bbb 1bf3 acba 09e3 fbb9 3fcb 4abb
00000010: be18 8439 b465 ebba e789 2db9 9ee4 3cbb
00000020: 2152 8839 4b7c 08bb 4d5c 2239 92a2 35bb
00000030: e3e2 56bb b113 3bba 71e1 73bb a492 05ba

momentum_buffer f4 [2, 16]
-0.0005096157 -0.0006341608 -0.0002683717 -0.0006636228 -0.00051579793 -0.0014793563 -0.0005936124 -0.0005554747
-0.0015633017 -0.002041354 -0.0008301883 -0.0014890675 -0.0007786955 -0.00060443475 -0.00042535103 -0.00022890852
4.9104e-05 0.00027710383 0.00021645022 0.00026682188 0.00037587027 0.0004159028 0.00037699298 0.00041678653
0.0007484276 0.0008219677 0.00041582918 0.0003062564 8.349372e-05 0.00020508864 0.00019963665 0.00018250402
00000000: bb97 05ba d03d 26ba 3db4 8cb9 f9f6 2dba
00000010: 9d36 07ba f6e6 c1ba a79c 1bba 479d 11ba
00000020: b3e7 ccba 3dc8 05bb fea0 59ba d02c c3ba
00000030: 5f21 4cba ee72 1eba a601 dfb9 2a07 70b9
00000040: 05f5 4d38 3f48 9139 eaf6 6239 3ae4 8b39
00000050: 7410 c539 870d da39 24a7 c539 2484 da39
00000060: 2032 443a 5279 573a a603 da39 0a91 a039
00000070: 5919 af38 100d 5739 8e55 5139 8d5e 3f39
