trained_custom/checkpoints/old_epidenet_b_512samples_patient2_leaveout1/epidenet_b_v1.2_qat_best.pth.tar (torch, 22559 bytes, 10 tensors)

block1_conv1d_bn_relu_1.op.weight f4 [4, 1, 4]
000000 08 ce 20 be 44 93 1b 40 6a 1e 80 c0 db 32 61 c0
       -0.15703595 2.4308634 -4.0037127 -3.518729
000010 36 d7 a6 c0 57 c9 66 3f 64 69 96 bf 5b ad c2 40
       -5.213771 0.9015097 -1.1750913 6.0836616
000020 28 87 76 bf 7f 11 94 40 8d 34 97 c0 49 64 55 c0
       -0.9629998 4.6271358 -4.725165 -3.334246
000030 c7 60 3d c0 fa 5f 03 c0 5e bd 9a bf 7c 35 80 3e
       -2.9590318 -2.052733 -1.208904 0.25040805

block1_conv1d_bn_relu_1.op.bias f4 [4]
000000 b4 08 36 bf 8e e7 59 3f 17 16 2c bf 82 c8 4c bf
       -0.7110703 0.8511895 -0.67221206 -0.7999345

block1_conv1d_bn_relu_2.op.weight f4 [4, 4, 2]
000000 68 9d 12 3f ef a8 fa 3f 65 bc 33 bf 7c 33 10 40
       0.5727143 1.9582804 -0.7020934 2.2531424
000010 5b c0 62 bf 83 f8 a9 bd 79 7d e4 3f 2f 29 54 c0
       -0.8857476 -0.08299353 1.7850791 -3.3150136
000020 07 dd aa be 3c 4b 0e be f0 a6 87 be 76 db 7e 3e
       -0.33371755 -0.13895887 -0.2649455 0.24888405
000030 b2 a9 af be 3d bc 78 be a3 ef bc be ab 49 f9 be
       -0.34309155 -0.24290557 -0.36901578 -0.48689017
000040 1e 99 53 bf dd 3b ba 3f be 0e 74 3f ae c2 83 3f
       -0.82655513 1.4549519 0.95334995 1.0293787
000050 24 9a 76 3e 6c d1 5a bf 7c 47 08 3f a6 42 b1 bf
       0.24082237 -0.854758 0.53234076 -1.3848464
000060 97 e6 2a bf 7f bf f4 be 25 92 1c 3f 80 de 10 3f
       -0.667581 -0.4780235 0.611605 0.5658951
000070 a7 a9 d2 be 46 d3 22 bd 0b 13 13 3f f7 70 66 3f
       -0.4114506 -0.039752267 0.5745093 0.9001612

block1_conv1d_bn_relu_2.op.bias f4 [4]
000000 1d 43 10 bd 36 93 0c 3d 5a 00 ed 3c d7 9c a3 bc
       -0.035220254 0.03432008 0.028930832 -0.019972248

block6_dense.op.weight f4 [2, 4]
000000 0f 75 17 3f 5c f6 2c be 58 f8 46 3e af c5 7d 3e
       0.5916299 -0.16890854 0.19430673 0.24782442
000010 ae e9 45 be ba 83 20 bc bf 9c 41 bf 69 7e 8e be
       -0.19327423 -0.009797031 -0.756298 -0.27830818

momentum_buffer f4 [4, 1, 4]
000000 88 1e 25 b9 78 4f 1f 3b 0b 30 83 bb 48 95 66 bb
       -0.00015747 0.0024308842 -0.00400353 -0.0035184193
000010 cb a7 aa bb 8c f0 6d 3a ef 3b 99 ba ba 8b c7 3b
       -0.0052079908 0.0009076677 -0.0011690835 0.0060896548
000020 d3 7f 7c ba 31 9e 97 3b 32 d7 9a bb 82 86 5a bb
       -0.00096320844 0.004627012 -0.0047253603 -0.0033344333
000030 40 6b 41 bb 90 06 06 bb 1a 7d 9d ba 31 e3 86 39
       -0.002951339 -0.002045069 -0.0012015433 0.00025727742

momentum_buffer f4 [4]
000000 e5 a3 3b ba 34 6d 53 3a 99 ea 2f ba f1 13 5f ba
       -0.0007157906 0.0008065284 -0.0006710678 -0.00085097464

momentum_buffer f4 [4, 4, 2]
000000 5f 2b 16 3a d3 57 00 3b 58 3b 38 ba 58 9f 13 3b
       0.00057285087 0.0019583597 -0.0007027886 0.0022525396
000010 3b 2a 68 ba 62 e6 ad b8 71 fd e9 3a ca 3e 59 bb
       -0.00088563905 -8.292195e-05 0.0017852021 -0.0033148997
000020 b3 85 ae b9 f6 18 11 b9 2c 4b 64 b9 c1 a4 9f 39
       -0.0003328748 -0.00013837576 -0.00021771778 0.00030449594
000030 ba dc b3 b9 43 ad 7e b9 81 4e c1 b9 dc 0a ff b9
       -0.00034305995 -0.00024287873 -0.0003687032 -0.0004864548
000040 86 ae 58 ba f7 b4 be 3a dd de 79 3a f3 e6 86 3a
       -0.0008265752 0.0014549781 0.00095318054 0.0010292217
000050 51 84 7c 39 7c 11 60 ba 17 8a 0b 3a 60 85 b5 ba
       0.00024081884 -0.0008547527 0.0005323006 -0.0013848953
000060 a0 3e 2f ba bb fa fa b9 6d d7 1c 3a 96 c1 10 3a
       -0.0006685052 -0.00047870525 0.00059830287 0.00055220106
000070 a2 cc d7 b9 e1 3b 27 b8 88 4b 16 3a a3 b0 6b 3a
       -0.0004116046 -3.987167e-05 0.0005733301 0.00089908595

momentum_buffer f4 [4]
000000 42 fd 18 b8 5f f2 d2 38 b4 1b ef 37 bd c1 19 b8
       -3.647549e-05 0.000100587255 2.850392e-05 -3.6658475e-05

momentum_buffer f4 [2, 4]
000000 7c 6e fc 39 3c 9a 37 b9 b2 63 b0 38 e6 42 11 39
       0.00048147503 -0.00017509697 8.410904e-05 0.00013853199
000010 4a 91 4a b9 d2 f1 23 b7 0a 3b 46 ba 57 de 91 b9
       -0.00019318346 -9.77186e-06 -0.0007561898 -0.0002782221
