trained_custom/checkpoints/old_epidenet_b_512samples_patient2_leaveout1/epidenet_b_v1.2_qat_best-q.pth.tar (torch, 17695 bytes, 10 tensors)

block1_conv1d_bn_relu_1.op.weight f4 [4, 1, 4]
00000000: 0000 40c0 0000 1c42 0000 80c2 0000 60c2
00000010: 0000 a6c2 0000 6041 0000 98c1 0000 c242
00000020: 0000 70c1 0000 9442 0000 98c2 0000 54c2
00000030: 0000 3cc2 0000 04c2 0000 98c1 0000 8040
-3.0 39.0 -64.0 -56.0 -83.0 14.0 -19.0 97.0
-15.0 74.0 -76.0 -53.0 -47.0 -33.0 -19.0 4.0

block1_conv1d_bn_relu_1.op.bias f4 [4]
00000000: 0000 b0c4 0000 e044 0000 b0c4 0000 d0c4
-1408.0 1792.0 -1408.0 -1664.0

block1_conv1d_bn_relu_2.op.weight f4 [4, 4, 2]
00000000: 0000 9041 0000 7c42 0000 b0c1 0000 9042
00000010: 0000 e0c1 0000 40c0 0000 6442 0000 d4c2
00000020: 0000 30c1 0000 80c0 0000 00c1 0000 0041
00000030: 0000 30c1 0000 00c1 0000 40c1 0000 80c1
00000040: 0000 d0c1 0000 3c42 0000 f841 0000 0442
00000050: 0000 0041 0000 d8c1 0000 8841 0000 30c2
00000060: 0000 a8c1 0000 70c1 0000 a041 0000 9041
00000070: 0000 50c1 0000 80bf 0000 9041 0000 e841
18.0 63.0 -22.0 72.0 -28.0 -3.0 57.0 -106.0
-11.0 -4.0 -8.0 8.0 -11.0 -8.0 -12.0 -16.0
-26.0 47.0 31.0 33.0 8.0 -27.0 17.0 -44.0
-21.0 -15.0 20.0 18.0 -13.0 -1.0 18.0 29.0

block1_conv1d_bn_relu_2.op.bias f4 [4]
00000000: 0000 00c3 0000 0043 0000 0043 0000 00c3
-128.0 128.0 128.0 -128.0

block6_dense.op.weight f4 [2, 4]
00000000: 0000 9842 0000 b0c1 0000 c841 0000 0042
00000010: 0000 c8c1 0000 80bf 0000 c2c2 0000 10c2
76.0 -22.0 25.0 32.0 -25.0 -1.0 -97.0 -36.0

momentum_buffer f4 [4, 1, 4]
00000000: 881e 25b9 784f 1f3b 0b30 83bb 4895 66bb
00000010: cba7 aabb 8cf0 6d3a ef3b 99ba ba8b c73b
00000020: d37f 7cba 319e 973b 32d7 9abb 8286 5abb
00000030: 406b 41bb 9006 06bb 1a7d 9dba 31e3 8639
-0.00015747 0.0024308842 -0.00400353 -0.0035184193 -0.0052079908 0.0009076677 -0.0011690835 0.0060896548
-0.00096320844 0.004627012 -0.0047253603 -0.0033344333 -0.002951339 -0.002045069 -0.0012015433 0.00025727742

momentum_buffer f4 [4]
00000000: e5a3 3bba 346d 533a 99ea 2fba f113 5fba
-0.0007157906 0.0008065284 -0.0006710678 -0.00085097464

momentum_buffer f4 [4, 4, 2]
00000000: 5f2b 163a d357 003b 583b 38ba 589f 133b
00000010: 3b2a 68ba 62e6 adb8 71fd e93a ca3e 59bb
00000020: b385 aeb9 f618 11b9 2c4b 64b9 c1a4 9f39
00000030: badc b3b9 43ad 7eb9 814e c1b9 dc0a ffb9
00000040: 86ae 58ba f7b4 be3a ddde 793a f3e6 863a
00000050: 5184 7c39 7c11 60ba 178a 0b3a 6085 b5ba
00000060: a03e 2fba bbfa fab9 6dd7 1c3a 96c1 103a
00000070: a2cc d7b9 e13b 27b8 884b 163a a3b0 6b3a
0.00057285087 0.0019583597 -0.0007027886 0.0022525396 -0.00088563905 -8.292195e-05 0.0017852021 -0.0033148997
-0.0003328748 -0.00013837576 -0.00021771778 0.00030449594 -0.00034305995 -0.00024287873 -0.0003687032 -0.0004864548
-0.0008265752 0.0014549781 0.00095318054 0.0010292217 0.00024081884 -0.0008547527 0.0005323006 -0.0013848953
-0.0006685052 -0.00047870525 0.00059830287 0.00055220106 -0.0004116046 -3.987167e-05 0.0005733301 0.00089908595

momentum_buffer f4 [4]
00000000: 42fd 18b8 5ff2 d238 b41b ef37 bdc1 19b8
-3.647549e-05 0.000100587255 2.850392e-05 -3.6658475e-05

momentum_buffer f4 [2, 4]
00000000: 7c6e fc39 3c9a 37b9 b263 b038 e642 1139
00000010: 4a91 4ab9 d2f1 23b7 0a3b 46ba 57de 91b9
0.00048147503 -0.00017509697 8.410904e-05 0.00013853199 -0.00019318346 -9.77186e-06 -0.0007561898 -0.0002782221
