trained_custom/checkpoints/old_epidenet_b_512samples_patient2_leaveout1/epidenet_b_v2.1_qat_best-q.pth.tar (torch, 84543 bytes, 34 tensors)

block1_conv1d_bn_relu_1.op.weight f4 [4, 1, 4]
000000 00 00 00 00 00 00 2c 42 00 00 82 c2 00 00 68 c2
       0.0 43.0 -65.0 -58.0
000010 00 00 40 c2 00 00 e0 41 00 00 a0 c0 00 00 b8 42
       -48.0 28.0 -5.0 92.0
000020 00 00 b0 c1 00 00 84 42 00 00 98 c2 00 00 40 c2
       -22.0 66.0 -76.0 -48.0
000030 00 00 38 c2 00 00 00 c2 00 00 a0 c1 00 00 00 40
       -46.0 -32.0 -20.0 2.0

block1_conv1d_bn_relu_1.op.bias f4 [4]
000000 00 00 b0 c4 00 00 90 44 00 00 b0 c4 00 00 f0 c4
       -1408.0 1152.0 -1408.0 -1920.0

block1_conv1d_bn_relu_2.op.weight f4 [4, 4, 2]
000000 00 00 20 42 00 00 bc 42 00 00 b8 c1 00 00 b6 42
       40.0 94.0 -23.0 91.0
000010 00 00 a8 c1 00 00 20 41 00 00 ca 42 00 00 dc c2
       -21.0 10.0 101.0 -110.0
000020 00 00 b0 c1 00 00 10 c1 00 00 50 c1 00 00 f0 41
       -22.0 -9.0 -13.0 30.0
000030 00 00 b8 c1 00 00 80 c1 00 00 c0 c1 00 00 04 c2
       -23.0 -16.0 -24.0 -33.0
000040 00 00 38 c2 00 00 86 42 00 00 0c 42 00 00 18 42
       -46.0 67.0 35.0 38.0
000050 00 00 80 40 00 00 20 c2 00 00 60 41 00 00 92 c2
       4.0 -40.0 14.0 -73.0
000060 00 00 34 c2 00 00 00 c2 00 00 24 42 00 00 14 42
       -45.0 -32.0 41.0 37.0
000070 00 00 d8 c1 00 00 80 bf 00 00 28 42 00 00 82 42
       -27.0 -1.0 42.0 65.0

block1_conv1d_bn_relu_2.op.bias f4 [4]
000000 00 00 d0 c4 00 00 60 44 00 00 00 43 00 00 80 c4
       -1664.0 896.0 128.0 -1024.0

block2_conv1d_bn_relu_1.op.weight f4 [16, 4, 9]
000000 00 00 60 41 00 00 90 c2 00 00 7c c2 00 00 3c c2
       14.0 -72.0 -63.0 -47.0
000010 00 00 1c 42 00 00 08 42 00 00 5c c2 00 00 e8 41
       39.0 34.0 -55.0 29.0
000020 00 00 40 42 00 00 40 c1 00 00 00 40 00 00 a0 41
       48.0 -12.0 2.0 20.0
000030 00 00 64 42 00 00 b0 42 00 00 8a c2 00 00 04 c2
       57.0 88.0 -69.0 -33.0
000040 00 00 10 42 00 00 94 42 00 00 9a 42 00 00 9a 42
       36.0 74.0 77.0 77.0
000050 00 00 90 41 00 00 9a c2 00 00 30 41 00 00 60 c2
       18.0 -77.0 11.0 -56.0
000060 00 00 aa c2 00 00 a4 42 00 00 86 42 00 00 b8 c2
       -85.0 82.0 67.0 -92.0
000070 00 00 60 41 00 00 70 c1 00 00 50 c1 00 00 24 c2
       14.0 -15.0 -13.0 -41.0
000080 00 00 08 42 00 00 5c c2 00 00 08 42 00 00 30 42
       34.0 -55.0 34.0 44.0
000090 00 00 92 42 00 00 18 42 00 00 d2 c2 00 00 86 c2
       73.0 38.0 -105.0 -67.0
0000a0 00 00 5c 42 00 00 d0 41 00 00 9e c2 00 00 7c c2
       55.0 26.0 -79.0 -63.0
0000b0 00 00 c8 42 00 00 8c 42 00 00 40 c2 00 00 d8 c1
       100.0 70.0 -48.0 -27.0
0000c0 00 00 c0 c2 00 00 80 3f 00 00 9a c2 00 00 9e c2
       -96.0 1.0 -77.0 -79.0
0000d0 00 00 00 00 00 00 a0 41 00 00 30 c2 00 00 64 42
       0.0 20.0 -44.0 57.0
0000e0 00 00 88 c2 00 00 c4 42 00 00 96 42 00 00 ac c2
       -68.0 98.0 75.0 -86.0
0000f0 00 00 a8 c1 00 00 40 41 00 00 b0 41 00 00 b0 41
       -21.0 12.0 22.0 22.0
000100 00 00 18 42 00 00 80 3f 00 00 44 c2 00 00 50 42
       38.0 1.0 -49.0 52.0
000110 00 00 c2 c2 00 00 60 c2 00 00 b8 c1 00 00 40 c2
       -97.0 -56.0 -23.0 -48.0
000120 00 00 90 c1 00 00 2c c2 00 00 40 c1 00 00 30 41
       -18.0 -43.0 -12.0 11.0
000130 00 00 08 c2 00 00 40 c0 00 00 14 42 00 00 e0 c0
       -34.0 -3.0 37.0 -7.0
000140 00 00 00 00 00 00 a0 c0 00 00 20 41 00 00 04 42
       0.0 -5.0 10.0 33.0
000150 00 00 48 42 00 00 08 42 00 00 48 42 00 00 80 c0
       50.0 34.0 50.0 -4.0
000160 00 00 40 c2 00 00 c8 c1 00 00 0c 42 00 00 80 bf
       -48.0 -25.0 35.0 -1.0
000170 00 00 d8 c1 00 00 24 c2 00 00 44 c2 00 00 30 c2
       -27.0 -41.0 -49.0 -44.0
000180 00 00 30 c1 00 00 e0 41 00 00 e8 41 00 00 4c c2
       -11.0 28.0 29.0 -51.0
000190 00 00 04 42 00 00 28 c2 00 00 40 c1 00 00 a8 c1
       33.0 -42.0 -12.0 -21.0
0001a0 00 00 20 c1 00 00 20 c1 00 00 40 c2 00 00 38 c2
       -10.0 -10.0 -48.0 -46.0
0001b0 00 00 a0 c1 00 00 40 40 00 00 5c c2 00 00 58 42
       -20.0 3.0 -55.0 54.0
0001c0 00 00 e4 c2 00 00 e0 c0 00 00 e2 42 00 00 50 c2
       -114.0 -7.0 113.0 -52.0
0001d0 00 00 e6 42 00 00 3c 42 00 00 ea c2 00 00 96 42
       115.0 47.0 -117.0 75.0
0001e0 00 00 90 c1 00 00 60 c2 00 00 ce 42 00 00 da c2
       -18.0 -56.0 103.0 -109.0
0001f0 00 00 70 41 00 00 c0 c1 00 00 bc 42 00 00 0c 42
       15.0 -24.0 94.0 35.0
000200 00 00 50 42 00 00 30 42 00 00 d0 c1 00 00 c0 c1
       52.0 44.0 -26.0 -24.0
000210 00 00 de c2 00 00 8e 42 00 00 d4 42 00 00 b2 42
       -111.0 71.0 106.0 89.0
000220 00 00 b2 c2 00 00 00 00 00 00 ae c2 00 00 84 c2
       -89.0 0.0 -87.0 -66.0
000230 00 00 92 c2 00 00 2c 42 00 00 94 c2 00 00 80 bf
       -73.0 43.0 -74.0 -1.0
000240 00 00 c0 40 00 00 9e 42 00 00 bc c2 00 00 aa c2
       6.0 79.0 -94.0 -85.0
000250 00 00 8e c2 00 00 ac 42 00 00 3c c2 00 00 d8 42
       -71.0 86.0 -47.0 108.0
000260 00 00 30 42 00 00 80 41 00 00 00 c0 00 00 c8 c1
       44.0 16.0 -2.0 -25.0
000270 00 00 70 41 00 00 e8 c1 00 00 80 bf 00 00 80 41
       15.0 -29.0 -1.0 16.0
000280 00 00 be c2 00 00 80 c2 00 00 ca 42 00 00 cc c2
       -95.0 -64.0 101.0 -102.0
000290 00 00 30 c1 00 00 f4 42 00 00 30 42 00 00 00 40
       -11.0 122.0 44.0 2.0
0002a0 00 00 da c2 00 00 84 42 00 00 ac c2 00 00 08 c2
       -109.0 66.0 -86.0 -34.0
0002b0 00 00 2c c2 00 00 a0 c1 00 00 80 3f 00 00 cc 42
       -43.0 -20.0 1.0 102.0
0002c0 00 00 60 41 00 00 d8 42 00 00 9e 42 00 00 9a c2
       14.0 108.0 79.0 -77.0
0002d0 00 00 68 42 00 00 9c c2 00 00 30 c2 00 00 2c 42
       58.0 -78.0 -44.0 43.0
0002e0 00 00 3c 42 00 00 c4 42 00 00 f0 c1 00 00 20 41
       47.0 98.0 -30.0 10.0
0002f0 00 00 7c 42 00 00 de c2 00 00 ae 42 00 00 be c2
       63.0 -111.0 87.0 -95.0
000300 00 00 80 40 00 00 90 c1 00 00 70 c2 00 00 70 41
       4.0 -18.0 -60.0 15.0
000310 00 00 c4 42 00 00 18 c2 00 00 74 c2 00 00 14 c2
       98.0 -38.0 -61.0 -37.0
000320 00 00 dc c2 00 00 70 42 00 00 4c c2 00 00 8e c2
       -110.0 60.0 -51.0 -71.0
000330 00 00 84 c2 00 00 8e 42 00 00 68 42 00 00 c4 42
       -66.0 71.0 58.0 98.0
000340 00 00 44 42 00 00 00 c2 00 00 c8 c1 00 00 2c 42
       49.0 -32.0 -25.0 43.0
000350 00 00 d6 42 00 00 14 42 00 00 40 c2 00 00 5c c2
       107.0 37.0 -48.0 -55.0
000360 00 00 be c2 00 00 c0 41 00 00 5c c2 00 00 ac c2
       -95.0 24.0 -55.0 -86.0
000370 00 00 bc 42 00 00 84 c2 00 00 30 c1 00 00 f8 41
       94.0 -66.0 -11.0 31.0
000380 00 00 a0 40 00 00 8a c2 00 00 a2 c2 00 00 a6 42
       5.0 -69.0 -81.0 83.0
000390 00 00 90 41 00 00 a4 42 00 00 10 c2 00 00 f8 41
       18.0 82.0 -36.0 31.0
0003a0 00 00 b8 c1 00 00 c0 c0 00 00 78 c2 00 00 18 42
       -23.0 -6.0 -62.0 38.0
0003b0 00 00 18 42 00 00 00 40 00 00 b8 c1 00 00 82 c2
       38.0 2.0 -23.0 -65.0
0003c0 00 00 92 42 00 00 92 c2 00 00 1c 42 00 00 04 c2
       73.0 -73.0 39.0 -33.0
0003d0 00 00 34 c2 00 00 b0 41 00 00 44 c2 00 00 d8 41
       -45.0 22.0 -49.0 27.0
0003e0 00 00 a0 41 00 00 94 c2 00 00 98 41 00 00 2c 42
       20.0 -74.0 19.0 43.0
0003f0 00 00 d0 41 00 00 e0 c0 00 00 50 c2 00 00 10 c1
       26.0 -7.0 -52.0 -9.0

block2_conv1d_bn_relu_1.op.bias f4 [16]
000000 00 00 c0 c4 00 00 f4 45 00 00 d0 45 00 00 e0 44
       -1536.0 7808.0 6656.0 1792.0
000010 00 00 b0 c4 00 00 a0 c4 00 00 b0 45 00 00 0c c6
       -1408.0 -1280.0 5632.0 -8960.0
000020 00 00 48 c5 00 00 dc c5 00 00 ec 45 00 00 c0 44
       -3200.0 -7040.0 7552.0 1536.0
000030 00 00 16 c6 00 00 c4 45 00 00 f0 c4 00 00 18 c5
       -9600.0 6272.0 -1920.0 -2432.0

block2_conv1d_bn_relu_2.op.weight f4 [16, 16, 8]
000000 00 00 80 c2 00 00 a0 c1 00 00 2c 42 00 00 14 c2
       -64.0 -20.0 43.0 -37.0
000010 00 00 64 42 00 00 68 c2 00 00 84 c2 00 00 14 c2
       57.0 -58.0 -66.0 -37.0
000020 00 00 30 41 00 00 86 42 00 00 20 c2 00 00 f0 41
       11.0 67.0 -40.0 30.0
000030 00 00 d0 c1 00 00 60 c1 00 00 70 42 00 00 7c c2
       -26.0 -14.0 60.0 -63.0
000040 00 00 a0 40 00 00 8e 42 00 00 70 c1 00 00 70 42
       5.0 71.0 -15.0 60.0
000050 00 00 c8 c1 00 00 80 42 00 00 96 c2 00 00 20 c1
       -25.0 64.0 -75.0 -10.0
000060 00 00 90 c1 00 00 c0 41 00 00 c8 41 00 00 64 42
       -18.0 24.0 25.0 57.0
000070 00 00 88 c1 00 00 e0 c0 00 00 6c 42 00 00 c8 c1
       -17.0 -7.0 59.0 -25.0
000080 00 00 8a 42 00 00 64 c2 00 00 20 c1 00 00 c0 c0
       69.0 -57.0 -10.0 -6.0
000090 00 00 10 42 00 00 3c 42 00 00 40 c1 00 00 86 c2
       36.0 47.0 -12.0 -67.0
0000a0 00 00 18 42 00 00 c0 41 00 00 00 42 00 00 50 c2
       38.0 24.0 32.0 -52.0
0000b0 00 00 3c 42 00 00 86 42 00 00 c0 40 00 00 96 c2
       47.0 67.0 6.0 -75.0
0000c0 00 00 60 42 00 00 70 c2 00 00 90 41 00 00 20 41
       56.0 -60.0 18.0 10.0
0000d0 00 00 28 c2 00 00 00 42 00 00 96 c2 00 00 a8 41
       -42.0 32.0 -75.0 21.0
0000e0 00 00 40 c2 00 00 00 c1 00 00 20 41 00 00 84 42
       -48.0 -8.0 10.0 66.0
0000f0 00 00 1c c2 00 00 38 42 00 00 30 c1 00 00 18 c2
       -39.0 46.0 -11.0 -38.0
000100 00 00 8a c2 00 00 94 c2 00 00 98 42 00 00 b0 c1
       -69.0 -74.0 76.0 -22.0
000110 00 00 a0 40 00 00 90 41 00 00 50 42 00 00 82 42
       5.0 18.0 52.0 65.0
000120 00 00 80 42 00 00 64 c2 00 00 40 c1 00 00 40 c2
       64.0 -57.0 -12.0 -48.0
000130 00 00 3c c2 00 00 88 41 00 00 8e 42 00 00 82 c2
       -47.0 17.0 71.0 -65.0
000140 00 00 38 42 00 00 3c c2 00 00 88 c1 00 00 64 42
       46.0 -47.0 -17.0 57.0
000150 00 00 b8 c1 00 00 a0 40 00 00 74 c2 00 00 86 42
       -23.0 5.0 -61.0 67.0
000160 00 00 00 c1 00 00 6c c2 00 00 d0 41 00 00 5c c2
       -8.0 -59.0 26.0 -55.0
000170 00 00 78 c2 00 00 40 40 00 00 80 42 00 00 b0 c1
       -62.0 3.0 64.0 -22.0
000180 00 00 20 42 00 00 8c 42 00 00 5c 42 00 00 24 c2
       40.0 70.0 55.0 -41.0
000190 00 00 c0 c0 00 00 d0 c1 00 00 84 c2 00 00 00 00
       -6.0 -26.0 -66.0 0.0
0001a0 00 00 70 42 00 00 7c 42 00 00 c0 40 00 00 60 41
       60.0 63.0 6.0 14.0
0001b0 00 00 10 c2 00 00 44 42 00 00 10 c2 00 00 64 c2
       -36.0 49.0 -36.0 -57.0
0001c0 00 00 10 41 00 00 3c 42 00 00 92 c2 00 00 8a 42
       9.0 47.0 -73.0 69.0
0001d0 00 00 b8 41 00 00 64 c2 00 00 98 c1 00 00 86 42
       23.0 -57.0 -19.0 67.0
0001e0 00 00 70 c2 00 00 b0 c1 00 00 d8 41 00 00 8a c2
       -60.0 -22.0 27.0 -69.0
0001f0 00 00 30 42 00 00 04 42 00 00 3c 42 00 00 54 c2
       44.0 33.0 47.0 -53.0
000200 00 00 64 42 00 00 08 c2 00 00 70 42 00 00 60 c2
       57.0 -34.0 60.0 -56.0
000210 00 00 48 c2 00 00 18 42 00 00 00 41 00 00 40 40
       -50.0 38.0 8.0 3.0
000220 00 00 00 c2 00 00 c0 c1 00 00 88 c1 00 00 64 c2
       -32.0 -24.0 -17.0 -57.0
000230 00 00 80 40 00 00 30 41 00 00 80 bf 00 00 90 41
       4.0 11.0 -1.0 18.0
000240 00 00 58 42 00 00 70 41 00 00 b0 c1 00 00 c0 c1
       54.0 15.0 -22.0 -24.0
000250 00 00 14 c2 00 00 24 c2 00 00 10 c1 00 00 20 c1
       -37.0 -41.0 -9.0 -10.0
000260 00 00 c0 41 00 00 b8 c1 00 00 3c 42 00 00 1c c2
       24.0 -23.0 47.0 -39.0
000270 00 00 80 3f 00 00 58 42 00 00 68 42 00 00 08 c2
       1.0 54.0 58.0 -34.0
000280 00 00 40 41 00 00 10 41 00 00 d0 c1 00 00 98 c1
       12.0 9.0 -26.0 -19.0
000290 00 00 60 41 00 00 20 c2 00 00 10 41 00 00 c8 41
       14.0 -40.0 9.0 25.0
0002a0 00 00 c0 c1 00 00 34 42 00 00 e0 c0 00 00 c0 41
       -24.0 45.0 -7.0 24.0
0002b0 00 00 6c 42 00 00 88 c1 00 00 f0 41 00 00 98 c1
       59.0 -17.0 30.0 -19.0
0002c0 00 00 00 c1 00 00 10 c1 00 00 00 c0 00 00 b8 c1
       -8.0 -9.0 -2.0 -23.0
0002d0 00 00 60 41 00 00 40 40 00 00 14 42 00 00 40 c1
       14.0 3.0 37.0 -12.0
0002e0 00 00 a0 40 00 00 a8 c1 00 00 34 c2 00 00 d8 41
       5.0 -21.0 -45.0 27.0
0002f0 00 00 00 41 00 00 b8 c1 00 00 a0 c1 00 00 80 41
       8.0 -23.0 -20.0 16.0
000300 00 00 20 c1 00 00 28 42 00 00 00 41 00 00 c8 41
       -10.0 42.0 8.0 25.0
000310 00 00 c0 41 00 00 70 c1 00 00 c0 41 00 00 2c 42
       24.0 -15.0 24.0 43.0
000320 00 00 40 40 00 00 40 41 00 00 00 40 00 00 2c 42
       3.0 12.0 2.0 43.0
000330 00 00 b0 c1 00 00 f8 c1 00 00 c8 41 00 00 50 c2
       -22.0 -31.0 25.0 -52.0
000340 00 00 00 00 00 00 d0 c1 00 00 10 42 00 00 64 c2
       0.0 -26.0 36.0 -57.0
000350 00 00 00 42 00 00 68 42 00 00 50 41 00 00 40 c0
       32.0 58.0 13.0 -3.0
000360 00 00 5c 42 00 00 c0 c1 00 00 40 c0 00 00 a8 c1
       55.0 -24.0 -3.0 -21.0
000370 00 00 80 c0 00 00 80 41 00 00 c0 40 00 00 30 c1
       -4.0 16.0 6.0 -11.0
000380 00 00 60 c2 00 00 40 40 00 00 00 00 00 00 30 41
       -56.0 3.0 0.0 11.0
000390 00 00 3c 42 00 00 68 42 00 00 08 c2 00 00 a0 c0
       47.0 58.0 -34.0 -5.0
0003a0 00 00 c0 c1 00 00 5c c2 00 00 20 c2 00 00 54 42
       -24.0 -55.0 -40.0 53.0
0003b0 00 00 f8 41 00 00 e8 41 00 00 0c 42 00 00 34 c2
       31.0 29.0 35.0 -45.0
0003c0 00 00 40 40 00 00 58 42 00 00 f0 c1 00 00 5c 42
       3.0 54.0 -30.0 55.0
0003d0 00 00 88 41 00 00 24 42 00 00 c8 c1 00 00 d8 41
       17.0 41.0 -25.0 27.0
0003e0 00 00 4c c2 00 00 80 bf 00 00 b0 41 00 00 80 41
       -51.0 -1.0 22.0 16.0
0003f0 00 00 34 42 00 00 68 42 00 00 68 42 00 00 28 42
       45.0 58.0 58.0 42.0

block2_conv1d_bn_relu_2.op.bias f4 [16]
000000 00 00 00 c4 00 00 a8 c5 00 00 98 45 00 00 a4 45
       -512.0 -5376.0 4864.0 5248.0
000010 00 00 00 c4 00 00 a0 c5 00 00 d0 45 00 00 98 45
       -512.0 -5120.0 6656.0 4864.0
000020 00 00 b0 c4 00 00 58 c5 00 00 84 45 00 00 f0 44
       -1408.0 -3456.0 4224.0 1920.0
000030 00 00 40 c4 00 00 8c 45 00 00 fc 45 00 00 90 c4
       -768.0 4480.0 8064.0 -1152.0

block2_conv1d_bn_relu_3.op.weight f4 [16, 16, 3]
000000 00 00 28 c2 00 00 90 41 00 00 28 c2 00 00 34 c2
       -42.0 18.0 -42.0 -45.0
000010 00 00 b0 c1 00 00 18 c2 00 00 a8 c1 00 00 f0 c1
       -22.0 -38.0 -21.0 -30.0
000020 00 00 b0 c1 00 00 2c 42 00 00 20 c1 00 00 18 42
       -22.0 43.0 -10.0 38.0
000030 00 00 80 3f 00 00 a0 c0 00 00 50 c1 00 00 00 c2
       1.0 -5.0 -13.0 -32.0
000040 00 00 10 c2 00 00 00 42 00 00 70 c1 00 00 2c c2
       -36.0 32.0 -15.0 -43.0
000050 00 00 2c 42 00 00 80 3f 00 00 f8 c1 00 00 14 c2
       43.0 1.0 -31.0 -37.0
000060 00 00 14 c2 00 00 18 c2 00 00 24 42 00 00 04 42
       -37.0 -38.0 41.0 33.0
000070 00 00 80 40 00 00 18 c2 00 00 30 c1 00 00 38 c2
       4.0 -38.0 -11.0 -46.0
000080 00 00 50 41 00 00 40 c1 00 00 20 c1 00 00 80 c1
       13.0 -12.0 -10.0 -16.0
000090 00 00 a0 41 00 00 d0 41 00 00 10 41 00 00 e0 c0
       20.0 26.0 9.0 -7.0
0000a0 00 00 80 c0 00 00 00 00 00 00 10 c2 00 00 2c 42
       -4.0 0.0 -36.0 43.0
0000b0 00 00 90 c1 00 00 c8 41 00 00 d8 c1 00 00 80 3f
       -18.0 25.0 -27.0 1.0
0000c0 00 00 b0 41 00 00 68 c2 00 00 d0 41 00 00 4c c2
       22.0 -58.0 26.0 -51.0
0000d0 00 00 40 40 00 00 88 c1 00 00 00 42 00 00 64 42
       3.0 -17.0 32.0 57.0
0000e0 00 00 80 41 00 00 00 00 00 00 f0 c1 00 00 c8 41
       16.0 0.0 -30.0 25.0
0000f0 00 00 0c c2 00 00 b0 41 00 00 e8 c1 00 00 10 42
       -35.0 22.0 -29.0 36.0
000100 00 00 2c 42 00 00 08 42 00 00 00 c0 00 00 e0 41
       43.0 34.0 -2.0 28.0
000110 00 00 68 c2 00 00 40 42 00 00 a0 c1 00 00 a8 41
       -58.0 48.0 -20.0 21.0
000120 00 00 30 c1 00 00 b0 c1 00 00 f8 c1 00 00 18 42
       -11.0 -22.0 -31.0 38.0
000130 00 00 10 c2 00 00 60 c1 00 00 f0 41 00 00 c0 40
       -36.0 -14.0 30.0 6.0
000140 00 00 60 c2 00 00 78 c2 00 00 e8 c1 00 00 64 42
       -56.0 -62.0 -29.0 57.0
000150 00 00 3c c2 00 00 08 42 00 00 3c 42 00 00 f0 c1
       -47.0 34.0 47.0 -30.0
000160 00 00 e8 c1 00 00 38 c2 00 00 10 41 00 00 30 c1
       -29.0 -46.0 9.0 -11.0
000170 00 00 c0 40 00 00 e0 41 00 00 c8 41 00 00 a8 c1
       6.0 28.0 25.0 -21.0
000180 00 00 40 40 00 00 30 41 00 00 80 3f 00 00 10 41
       3.0 11.0 1.0 9.0
000190 00 00 90 c1 00 00 18 42 00 00 c0 c0 00 00 e0 c0
       -18.0 38.0 -6.0 -7.0
0001a0 00 00 2c c2 00 00 0c c2 00 00 80 3f 00 00 e0 c0
       -43.0 -35.0 1.0 -7.0
0001b0 00 00 c8 c1 00 00 c0 41 00 00 c0 c0 00 00 90 41
       -25.0 24.0 -6.0 18.0
0001c0 00 00 20 42 00 00 b0 c1 00 00 c8 c1 00 00 10 c1
       40.0 -22.0 -25.0 -9.0
0001d0 00 00 80 c0 00 00 c0 c1 00 00 40 c1 00 00 80 bf
       -4.0 -24.0 -12.0 -1.0
0001e0 00 00 a8 41 00 00 30 42 00 00 14 42 00 00 80 40
       21.0 44.0 37.0 4.0
0001f0 00 00 80 c0 00 00 40 41 00 00 00 c0 00 00 e0 c0
       -4.0 12.0 -2.0 -7.0
000200 00 00 80 41 00 00 20 c2 00 00 24 c2 00 00 00 00
       16.0 -40.0 -41.0 0.0
000210 00 00 70 c1 00 00 c8 c1 00 00 34 c2 00 00 f0 41
       -15.0 -25.0 -45.0 30.0
000220 00 00 00 c0 00 00 d8 c1 00 00 a0 c1 00 00 40 41
       -2.0 -27.0 -20.0 12.0
000230 00 00 0c c2 00 00 00 40 00 00 80 bf 00 00 70 41
       -35.0 2.0 -1.0 15.0
000240 00 00 b8 41 00 00 20 c2 00 00 c8 41 00 00 28 42
       23.0 -40.0 25.0 42.0
000250 00 00 80 3f 00 00 e8 41 00 00 a8 c1 00 00 50 41
       1.0 29.0 -21.0 13.0
000260 00 00 60 41 00 00 e0 c1 00 00 18 42 00 00 6c c2
       14.0 -28.0 38.0 -59.0
000270 00 00 b8 c1 00 00 0c c2 00 00 0c c2 00 00 14 c2
       -23.0 -35.0 -35.0 -37.0
000280 00 00 64 c2 00 00 20 41 00 00 20 c1 00 00 50 c2
       -57.0 10.0 -10.0 -52.0
000290 00 00 00 00 00 00 10 c1 00 00 f0 41 00 00 2c c2
       0.0 -9.0 30.0 -43.0
0002a0 00 00 90 c1 00 00 40 41 00 00 b8 41 00 00 80 40
       -18.0 12.0 23.0 4.0
0002b0 00 00 80 41 00 00 68 42 00 00 b8 c1 00 00 3c 42
       16.0 58.0 -23.0 47.0
0002c0 00 00 44 42 00 00 64 c2 00 00 60 41 00 00 04 42
       49.0 -57.0 14.0 33.0
0002d0 00 00 30 c1 00 00 04 42 00 00 00 00 00 00 40 42
       -11.0 33.0 0.0 48.0
0002e0 00 00 40 40 00 00 1c c2 00 00 3c 42 00 00 60 41
       3.0 -39.0 47.0 14.0
0002f0 00 00 50 42 00 00 70 41 00 00 e0 41 00 00 0c 42
       52.0 15.0 28.0 35.0
000300 00 00 60 41 00 00 80 c1 00 00 70 41 00 00 3c c2
       14.0 -16.0 15.0 -47.0
000310 00 00 80 3f 00 00 b8 c1 00 00 a0 40 00 00 4c c2
       1.0 -23.0 5.0 -51.0
000320 00 00 24 42 00 00 84 c2 00 00 f0 41 00 00 2c 42
       41.0 -66.0 30.0 43.0
000330 00 00 7c c2 00 00 70 42 00 00 4c c2 00 00 70 c1
       -63.0 60.0 -51.0 -15.0
000340 00 00 08 42 00 00 b8 c1 00 00 82 42 00 00 d8 c1
       34.0 -23.0 65.0 -27.0
000350 00 00 40 c1 00 00 30 c2 00 00 e0 c1 00 00 92 42
       -12.0 -44.0 -28.0 73.0
000360 00 00 4c 42 00 00 a0 40 00 00 a0 40 00 00 6c c2
       51.0 5.0 5.0 -59.0
000370 00 00 48 42 00 00 30 c1 00 00 08 c2 00 00 54 c2
       50.0 -11.0 -34.0 -53.0
000380 00 00 74 42 00 00 f8 41 00 00 20 42 00 00 e0 40
       61.0 31.0 40.0 7.0
000390 00 00 28 c2 00 00 e8 41 00 00 10 41 00 00 b8 41
       -42.0 29.0 9.0 23.0
0003a0 00 00 90 c1 00 00 f0 c1 00 00 64 42 00 00 b8 41
       -18.0 -30.0 57.0 23.0
0003b0 00 00 04 c2 00 00 c0 40 00 00 50 c1 00 00 00 c1
       -33.0 6.0 -13.0 -8.0
0003c0 00 00 90 41 00 00 c0 c1 00 00 e0 41 00 00 a0 41
       18.0 -24.0 28.0 20.0
0003d0 00 00 00 00 00 00 40 c1 00 00 c0 40 00 00 a0 c1
       0.0 -12.0 6.0 -20.0
0003e0 00 00 98 41 00 00 80 c1 00 00 c0 40 00 00 f0 c1
       19.0 -16.0 6.0 -30.0
0003f0 00 00 70 41 00 00 a0 41 00 00 b8 41 00 00 00 40
       15.0 20.0 23.0 2.0

block2_conv1d_bn_relu_3.op.bias f4 [16]
000000 00 00 90 45 00 00 40 44 00 00 f0 44 00 00 f0 c4
       4608.0 768.0 1920.0 -1920.0
000010 00 00 80 43 00 00 20 c4 00 00 10 c5 00 00 40 c5
       256.0 -640.0 -2304.0 -3072.0
000020 00 00 c0 c3 00 00 a8 45 00 00 f0 c4 00 00 b4 45
       -384.0 5376.0 -1920.0 5760.0
000030 00 00 08 c5 00 00 08 45 00 00 d0 c4 00 00 c4 45
       -2176.0 2176.0 -1664.0 6272.0

block2_conv1d_bn_relu_4.op.weight f4 [16, 16, 3]
000000 00 00 0c c2 00 00 a8 41 00 00 c0 c1 00 00 00 c1
       -35.0 21.0 -24.0 -8.0
000010 00 00 90 41 00 00 10 c1 00 00 10 c1 00 00 d0 c1
       18.0 -9.0 -9.0 -26.0
000020 00 00 0c c2 00 00 98 41 00 00 10 c1 00 00 e0 41
       -35.0 19.0 -9.0 28.0
000030 00 00 40 40 00 00 00 00 00 00 18 c2 00 00 40 40
       3.0 0.0 -38.0 3.0
000040 00 00 00 c1 00 00 b8 c1 00 00 20 c1 00 00 40 40
       -8.0 -23.0 -10.0 3.0
000050 00 00 f8 c1 00 00 00 41 00 00 e8 41 00 00 e0 40
       -31.0 8.0 29.0 7.0
000060 00 00 18 42 00 00 b0 41 00 00 08 c2 00 00 80 c1
       38.0 22.0 -34.0 -16.0
000070 00 00 30 c1 00 00 20 41 00 00 00 40 00 00 0c 42
       -11.0 10.0 2.0 35.0
000080 00 00 c0 40 00 00 d8 c1 00 00 70 c1 00 00 10 c2
       6.0 -27.0 -15.0 -36.0
000090 00 00 40 c1 00 00 b0 41 00 00 80 3f 00 00 20 c2
       -12.0 22.0 1.0 -40.0
0000a0 00 00 10 c2 00 00 70 41 00 00 0c c2 00 00 f8 c1
       -36.0 15.0 -35.0 -31.0
0000b0 00 00 b8 c1 00 00 20 42 00 00 50 c1 00 00 90 c1
       -23.0 40.0 -13.0 -18.0
0000c0 00 00 18 c2 00 00 0c 42 00 00 10 c1 00 00 20 41
       -38.0 35.0 -9.0 10.0
0000d0 00 00 50 41 00 00 80 41 00 00 0c 42 00 00 80 40
       13.0 16.0 35.0 4.0
0000e0 00 00 00 41 00 00 40 c0 00 00 28 c2 00 00 40 c1
       8.0 -3.0 -42.0 -12.0
0000f0 00 00 48 42 00 00 18 c2 00 00 04 c2 00 00 50 c2
       50.0 -38.0 -33.0 -52.0
000100 00 00 a0 40 00 00 40 c2 00 00 d8 c1 00 00 48 42
       5.0 -48.0 -27.0 50.0
000110 00 00 b8 41 00 00 e0 41 00 00 10 41 00 00 34 c2
       23.0 28.0 9.0 -45.0
000120 00 00 d0 c1 00 00 2c c2 00 00 08 c2 00 00 88 41
       -26.0 -43.0 -34.0 17.0
000130 00 00 70 c1 00 00 50 42 00 00 18 c2 00 00 2c c2
       -15.0 52.0 -38.0 -43.0
000140 00 00 5c 42 00 00 3c c2 00 00 38 42 00 00 70 41
       55.0 -47.0 46.0 15.0
000150 00 00 3c c2 00 00 40 42 00 00 60 c1 00 00 b0 c1
       -47.0 48.0 -14.0 -22.0
000160 00 00 28 c2 00 00 34 c2 00 00 50 41 00 00 4c c2
       -42.0 -45.0 13.0 -51.0
000170 00 00 c0 41 00 00 50 c1 00 00 a0 41 00 00 60 c1
       24.0 -13.0 20.0 -14.0
000180 00 00 40 41 00 00 00 c0 00 00 10 41 00 00 60 c1
       12.0 -2.0 9.0 -14.0
000190 00 00 c0 c1 00 00 00 40 00 00 a8 c1 00 00 a8 c1
       -24.0 2.0 -21.0 -21.0
0001a0 00 00 00 c2 00 00 40 c1 00 00 c8 c1 00 00 d8 41
       -32.0 -12.0 -25.0 27.0
0001b0 00 00 c0 41 00 00 20 41 00 00 e0 41 00 00 90 41
       24.0 10.0 28.0 18.0
0001c0 00 00 00 c2 00 00 40 c0 00 00 a0 c0 00 00 a8 c1
       -32.0 -3.0 -5.0 -21.0
0001d0 00 00 20 41 00 00 30 c1 00 00 88 c1 00 00 00 00
       10.0 -11.0 -17.0 0.0
0001e0 00 00 b0 c1 00 00 e0 41 00 00 b8 41 00 00 08 42
       -22.0 28.0 23.0 34.0
0001f0 00 00 e0 c0 00 00 30 41 00 00 00 00 00 00 e0 c1
       -7.0 11.0 0.0 -28.0
000200 00 00 70 41 00 00 c0 c1 00 00 60 c1 00 00 80 c1
       15.0 -24.0 -14.0 -16.0
000210 00 00 04 c2 00 00 80 3f 00 00 a0 40 00 00 80 bf
       -33.0 1.0 5.0 -1.0
000220 00 00 d0 41 00 00 80 bf 00 00 c0 c0 00 00 90 c1
       26.0 -1.0 -6.0 -18.0
000230 00 00 a0 c1 00 00 a0 c0 00 00 a8 c1 00 00 b0 c1
       -20.0 -5.0 -21.0 -22.0
000240 00 00 00 c1 00 00 40 c1 00 00 10 c2 00 00 08 42
       -8.0 -12.0 -36.0 34.0
000250 00 00 4c 42 00 00 24 c2 00 00 c8 41 00 00 e0 c1
       51.0 -41.0 25.0 -28.0
000260 00 00 80 c0 00 00 54 42 00 00 c0 40 00 00 60 c2
       -4.0 53.0 6.0 -56.0
000270 00 00 5c 42 00 00 80 bf 00 00 f0 c1 00 00 e0 c1
       55.0 -1.0 -30.0 -28.0
000280 00 00 58 42 00 00 00 40 00 00 14 42 00 00 20 42
       54.0 2.0 37.0 40.0
000290 00 00 b0 c1 00 00 e0 40 00 00 0c c2 00 00 4c 42
       -22.0 7.0 -35.0 51.0
0002a0 00 00 f0 c1 00 00 28 42 00 00 98 41 00 00 20 42
       -30.0 42.0 19.0 40.0
0002b0 00 00 20 c2 00 00 00 00 00 00 00 42 00 00 40 c0
       -40.0 0.0 32.0 -3.0
0002c0 00 00 40 c0 00 00 e8 41 00 00 38 c2 00 00 50 c1
       -3.0 29.0 -46.0 -13.0
0002d0 00 00 c8 41 00 00 c8 41 00 00 50 42 00 00 20 c1
       25.0 25.0 52.0 -10.0
0002e0 00 00 80 41 00 00 e8 c1 00 00 30 c1 00 00 f8 c1
       16.0 -29.0 -11.0 -31.0
0002f0 00 00 38 42 00 00 00 00 00 00 c0 41 00 00 0c 42
       46.0 0.0 24.0 35.0
000300 00 00 30 41 00 00 a0 40 00 00 80 c0 00 00 40 c2
       11.0 5.0 -4.0 -48.0
000310 00 00 20 41 00 00 60 c1 00 00 38 c2 00 00 5c 42
       10.0 -14.0 -46.0 55.0
000320 00 00 a0 c0 00 00 e8 c1 00 00 68 c2 00 00 5c c2
       -5.0 -29.0 -58.0 -55.0
000330 00 00 a8 41 00 00 d0 c1 00 00 c8 c1 00 00 00 c2
       21.0 -26.0 -25.0 -32.0
000340 00 00 40 42 00 00 50 c1 00 00 1c 42 00 00 40 42
       48.0 -13.0 39.0 48.0
000350 00 00 2c c2 00 00 24 42 00 00 40 c1 00 00 58 42
       -43.0 41.0 -12.0 54.0
000360 00 00 f0 41 00 00 64 c2 00 00 30 41 00 00 a8 41
       30.0 -57.0 11.0 21.0
000370 00 00 a8 c1 00 00 28 42 00 00 3c c2 00 00 90 c1
       -21.0 42.0 -47.0 -18.0
000380 00 00 54 42 00 00 60 42 00 00 e0 41 00 00 0c c2
       53.0 56.0 28.0 -35.0
000390 00 00 48 c2 00 00 38 c2 00 00 70 c1 00 00 00 42
       -50.0 -46.0 -15.0 32.0
0003a0 00 00 98 41 00 00 00 c1 00 00 54 42 00 00 30 42
       19.0 -8.0 53.0 44.0
0003b0 00 00 d8 c1 00 00 c8 c1 00 00 00 c0 00 00 40 41
       -27.0 -25.0 -2.0 12.0
0003c0 00 00 a0 c0 00 00 00 42 00 00 6c 42 00 00 70 c1
       -5.0 32.0 59.0 -15.0
0003d0 00 00 10 42 00 00 20 41 00 00 10 42 00 00 18 42
       36.0 10.0 36.0 38.0
0003e0 00 00 98 c1 00 00 04 c2 00 00 00 42 00 00 50 c2
       -19.0 -33.0 32.0 -52.0
0003f0 00 00 28 42 00 00 60 c2 00 00 68 42 00 00 f8 41
       42.0 -56.0 58.0 31.0

block2_conv1d_bn_relu_4.op.bias f4 [16]
000000 00 00 40 45 00 00 38 45 00 00 08 45 00 00 50 c5
       3072.0 2944.0 2176.0 -3328.0
000010 00 00 00 44 00 00 c0 c4 00 00 30 45 00 00 70 c5
       512.0 -1536.0 2816.0 -3840.0
000020 00 00 80 c3 00 00 b0 44 00 00 b0 c4 00 00 18 45
       -256.0 1408.0 -1408.0 2432.0
000030 00 00 80 c4 00 00 00 45 00 00 28 45 00 00 b0 c4
       -1024.0 2048.0 2688.0 -1408.0

block2_conv1d_bn_relu_5.op.weight f4 [16, 16, 3]
000000 00 00 70 c2 00 00 60 41 00 00 68 c2 00 00 80 40
       -60.0 14.0 -58.0 4.0
000010 00 00 0c 42 00 00 80 c1 00 00 20 42 00 00 98 41
       35.0 -16.0 40.0 19.0
000020 00 00 74 c2 00 00 40 41 00 00 30 42 00 00 b8 c1
       -61.0 12.0 44.0 -23.0
000030 00 00 80 40 00 00 00 41 00 00 a0 40 00 00 88 41
       4.0 8.0 5.0 17.0
000040 00 00 98 c2 00 00 5c 42 00 00 f0 41 00 00 e0 40
       -76.0 55.0 30.0 7.0
000050 00 00 50 41 00 00 74 c2 00 00 b8 c1 00 00 80 c0
       13.0 -61.0 -23.0 -4.0
000060 00 00 80 41 00 00 30 c2 00 00 10 41 00 00 b8 c1
       16.0 -44.0 9.0 -23.0
000070 00 00 58 42 00 00 82 c2 00 00 c0 40 00 00 3c 42
       54.0 -65.0 6.0 47.0
000080 00 00 70 c2 00 00 00 00 00 00 10 42 00 00 00 42
       -60.0 0.0 36.0 32.0
000090 00 00 00 41 00 00 08 42 00 00 58 c2 00 00 7c 42
       8.0 34.0 -54.0 63.0
0000a0 00 00 80 3f 00 00 34 42 00 00 50 41 00 00 30 c1
       1.0 45.0 13.0 -11.0
0000b0 00 00 f8 41 00 00 88 42 00 00 94 42 00 00 82 c2
       31.0 68.0 74.0 -65.0
0000c0 00 00 80 40 00 00 18 c2 00 00 f8 41 00 00 18 42
       4.0 -38.0 31.0 38.0
0000d0 00 00 1c c2 00 00 80 c0 00 00 18 42 00 00 10 42
       -39.0 -4.0 38.0 36.0
0000e0 00 00 1c c2 00 00 04 42 00 00 30 c1 00 00 40 c2
       -39.0 33.0 -11.0 -48.0
0000f0 00 00 10 41 00 00 d0 41 00 00 f0 41 00 00 10 c2
       9.0 26.0 30.0 -36.0
000100 00 00 28 c2 00 00 04 c2 00 00 e8 41 00 00 38 c2
       -42.0 -33.0 29.0 -46.0
000110 00 00 00 c0 00 00 70 c1 00 00 a8 41 00 00 e0 40
       -2.0 -15.0 21.0 7.0
000120 00 00 e8 c1 00 00 a0 40 00 00 40 42 00 00 20 41
       -29.0 5.0 48.0 10.0
000130 00 00 e0 c1 00 00 00 40 00 00 44 c2 00 00 0c c2
       -28.0 2.0 -49.0 -35.0
000140 00 00 20 c1 00 00 04 c2 00 00 34 42 00 00 40 41
       -10.0 -33.0 45.0 12.0
000150 00 00 28 42 00 00 30 c1 00 00 10 c1 00 00 88 41
       42.0 -11.0 -9.0 17.0
000160 00 00 98 c1 00 00 88 c1 00 00 54 c2 00 00 14 42
       -19.0 -17.0 -53.0 37.0
000170 00 00 40 42 00 00 50 c2 00 00 80 c1 00 00 18 c2
       48.0 -52.0 -16.0 -38.0
000180 00 00 88 c1 00 00 04 42 00 00 c0 41 00 00 80 c0
       -17.0 33.0 24.0 -4.0
000190 00 00 a0 41 00 00 50 41 00 00 b8 41 00 00 10 c2
       20.0 13.0 23.0 -36.0
0001a0 00 00 60 41 00 00 24 c2 00 00 e8 c1 00 00 80 c1
       14.0 -41.0 -29.0 -16.0
0001b0 00 00 40 c0 00 00 28 c2 00 00 80 3f 00 00 c0 40
       -3.0 -42.0 1.0 6.0
0001c0 00 00 70 c1 00 00 40 41 00 00 24 42 00 00 10 c1
       -15.0 12.0 41.0 -9.0
0001d0 00 00 b8 c1 00 00 1c c2 00 00 00 c2 00 00 c0 c1
       -23.0 -39.0 -32.0 -24.0
0001e0 00 00 00 c2 00 00 60 c1 00 00 c0 41 00 00 50 41
       -32.0 -14.0 24.0 13.0
0001f0 00 00 24 42 00 00 30 42 00 00 80 c1 00 00 88 c1
       41.0 44.0 -16.0 -17.0
000200 00 00 c0 40 00 00 0c c2 00 00 c8 41 00 00 00 c1
       6.0 -35.0 25.0 -8.0
000210 00 00 18 c2 00 00 0c c2 00 00 e0 c1 00 00 10 41
       -38.0 -35.0 -28.0 9.0
000220 00 00 0c 42 00 00 10 42 00 00 20 c1 00 00 c8 c1
       35.0 36.0 -10.0 -25.0
000230 00 00 a8 c1 00 00 e8 c1 00 00 40 c1 00 00 20 c2
       -21.0 -29.0 -12.0 -40.0
000240 00 00 00 42 00 00 78 c2 00 00 18 c2 00 00 24 42
       32.0 -62.0 -38.0 41.0
000250 00 00 3c c2 00 00 80 41 00 00 40 42 00 00 7c 42
       -47.0 16.0 48.0 63.0
000260 00 00 00 42 00 00 88 c1 00 00 08 42 00 00 00 c0
       32.0 -17.0 34.0 -2.0
000270 00 00 90 c1 00 00 80 3f 00 00 88 41 00 00 2c 42
       -18.0 1.0 17.0 43.0
000280 00 00 d8 41 00 00 08 42 00 00 20 41 00 00 40 c0
       27.0 34.0 10.0 -3.0
000290 00 00 c8 41 00 00 60 41 00 00 70 c2 00 00 40 41
       25.0 14.0 -60.0 12.0
0002a0 00 00 f8 c1 00 00 00 c2 00 00 b8 41 00 00 30 41
       -31.0 -32.0 23.0 11.0
0002b0 00 00 40 41 00 00 e8 c1 00 00 f8 41 00 00 78 42
       12.0 -29.0 31.0 62.0
0002c0 00 00 20 41 00 00 c8 41 00 00 5c c2 00 00 18 42
       10.0 25.0 -55.0 38.0
0002d0 00 00 a8 41 00 00 c8 41 00 00 e0 41 00 00 a0 c1
       21.0 25.0 28.0 -20.0
0002e0 00 00 e0 c0 00 00 7c 42 00 00 34 42 00 00 34 c2
       -7.0 63.0 45.0 -45.0
0002f0 00 00 4c 42 00 00 80 42 00 00 10 41 00 00 4c c2
       51.0 64.0 9.0 -51.0
000300 00 00 20 41 00 00 40 c1 00 00 1c 42 00 00 4c c2
       10.0 -12.0 39.0 -51.0
000310 00 00 40 41 00 00 a0 c0 00 00 40 40 00 00 20 42
       12.0 -5.0 3.0 40.0
000320 00 00 c0 40 00 00 34 c2 00 00 04 c2 00 00 c0 c1
       6.0 -45.0 -33.0 -24.0
000330 00 00 80 40 00 00 70 41 00 00 60 c1 00 00 a8 c1
       4.0 15.0 -14.0 -21.0
000340 00 00 98 41 00 00 60 c2 00 00 04 42 00 00 30 c1
       19.0 -56.0 33.0 -11.0
000350 00 00 24 42 00 00 04 42 00 00 00 40 00 00 40 41
       41.0 33.0 2.0 12.0
000360 00 00 00 c2 00 00 0c 42 00 00 c8 41 00 00 a0 c0
       -32.0 35.0 25.0 -5.0
000370 00 00 b0 41 00 00 00 c1 00 00 1c 42 00 00 90 41
       22.0 -8.0 39.0 18.0
000380 00 00 08 42 00 00 38 c2 00 00 54 42 00 00 a8 41
       34.0 -46.0 53.0 21.0
000390 00 00 b8 41 00 00 60 41 00 00 24 42 00 00 4c 42
       23.0 14.0 41.0 51.0
0003a0 00 00 00 00 00 00 28 c2 00 00 40 42 00 00 80 c1
       0.0 -42.0 48.0 -16.0
0003b0 00 00 d8 c1 00 00 f0 41 00 00 d8 41 00 00 c0 40
       -27.0 30.0 27.0 6.0
0003c0 00 00 80 c0 00 00 20 c1 00 00 48 42 00 00 e8 41
       -4.0 -10.0 50.0 29.0
0003d0 00 00 f0 41 00 00 0c 42 00 00 e0 c1 00 00 30 41
       30.0 35.0 -28.0 11.0
0003e0 00 00 34 c2 00 00 00 42 00 00 4c c2 00 00 4c c2
       -45.0 32.0 -51.0 -51.0
0003f0 00 00 50 c2 00 00 f8 41 00 00 80 40 00 00 80 bf
       -52.0 31.0 4.0 -1.0

block2_conv1d_bn_relu_5.op.bias f4 [16]
000000 00 00 e0 c4 00 00 10 45 00 00 40 45 00 00 a0 c5
       -1792.0 2304.0 3072.0 -5120.0
000010 00 00 58 c5 00 00 50 45 00 00 00 45 00 00 60 c4
       -3456.0 3328.0 2048.0 -896.0
000020 00 00 98 45 00 00 20 45 00 00 e0 c4 00 00 80 c4
       4864.0 2560.0 -1792.0 -1024.0
000030 00 00 a0 44 00 00 90 45 00 00 68 45 00 00 78 45
       1280.0 4608.0 3712.0 3968.0

block2_conv1d_bn_relu_6.op.weight f4 [16, 16, 2]
000000 00 00 00 40 00 00 f0 c1 00 00 08 42 00 00 80 3f
       2.0 -30.0 34.0 1.0
000010 00 00 90 41 00 00 40 c2 00 00 d8 c1 00 00 60 42
       18.0 -48.0 -27.0 56.0
000020 00 00 00 41 00 00 c8 41 00 00 7c c2 00 00 f8 c1
       8.0 25.0 -63.0 -31.0
000030 00 00 00 c0 00 00 00 c1 00 00 40 42 00 00 b0 c1
       -2.0 -8.0 48.0 -22.0
000040 00 00 78 42 00 00 70 c1 00 00 e8 41 00 00 4c c2
       62.0 -15.0 29.0 -51.0
000050 00 00 50 41 00 00 90 c2 00 00 78 c2 00 00 38 c2
       13.0 -72.0 -62.0 -46.0
000060 00 00 a8 41 00 00 c0 40 00 00 00 41 00 00 00 c1
       21.0 6.0 8.0 -8.0
000070 00 00 80 42 00 00 8c 42 00 00 00 42 00 00 68 42
       64.0 70.0 32.0 58.0
000080 00 00 a0 c0 00 00 d0 c1 00 00 c0 40 00 00 34 42
       -5.0 -26.0 6.0 45.0
000090 00 00 e0 c0 00 00 58 c2 00 00 c8 41 00 00 90 c1
       -7.0 -54.0 25.0 -18.0
0000a0 00 00 1c c2 00 00 34 42 00 00 40 40 00 00 20 c2
       -39.0 45.0 3.0 -40.0
0000b0 00 00 44 c2 00 00 86 42 00 00 48 42 00 00 58 c2
       -49.0 67.0 50.0 -54.0
0000c0 00 00 40 40 00 00 80 bf 00 00 0c 42 00 00 74 c2
       3.0 -1.0 35.0 -61.0
0000d0 00 00 00 00 00 00 d0 41 00 00 1c 42 00 00 e0 40
       0.0 26.0 39.0 7.0
0000e0 00 00 00 c2 00 00 86 c2 00 00 28 42 00 00 80 42
       -32.0 -67.0 42.0 64.0
0000f0 00 00 a0 c1 00 00 7c c2 00 00 90 41 00 00 5c c2
       -20.0 -63.0 18.0 -55.0
000100 00 00 28 c2 00 00 80 41 00 00 00 c1 00 00 e0 c0
       -42.0 16.0 -8.0 -7.0
000110 00 00 54 42 00 00 50 c1 00 00 10 42 00 00 b0 c1
       53.0 -13.0 36.0 -22.0
000120 00 00 30 42 00 00 70 41 00 00 74 42 00 00 a0 41
       44.0 15.0 61.0 20.0
000130 00 00 b8 c1 00 00 c0 41 00 00 50 42 00 00 20 41
       -23.0 24.0 52.0 10.0
000140 00 00 04 42 00 00 2c c2 00 00 08 42 00 00 58 c2
       33.0 -43.0 34.0 -54.0
000150 00 00 50 42 00 00 b0 41 00 00 c0 40 00 00 58 c2
       52.0 22.0 6.0 -54.0
000160 00 00 44 42 00 00 18 42 00 00 68 42 00 00 a8 41
       49.0 38.0 58.0 21.0
000170 00 00 c0 41 00 00 98 c1 00 00 d0 c1 00 00 b0 41
       24.0 -19.0 -26.0 22.0
000180 00 00 e0 41 00 00 80 c0 00 00 40 41 00 00 e0 41
       28.0 -4.0 12.0 28.0
000190 00 00 96 c2 00 00 88 c2 00 00 b8 c1 00 00 54 42
       -75.0 -68.0 -23.0 53.0
0001a0 00 00 10 42 00 00 9a c2 00 00 b8 c1 00 00 e0 c0
       36.0 -77.0 -23.0 -7.0
0001b0 00 00 c8 41 00 00 80 42 00 00 40 40 00 00 6c c2
       25.0 64.0 3.0 -59.0
0001c0 00 00 80 40 00 00 f0 c1 00 00 44 c2 00 00 34 42
       4.0 -30.0 -49.0 45.0
0001d0 00 00 50 c1 00 00 0c 42 00 00 74 42 00 00 00 41
       -13.0 35.0 61.0 8.0
0001e0 00 00 38 42 00 00 14 c2 00 00 30 42 00 00 80 40
       46.0 -37.0 44.0 4.0
0001f0 00 00 4c 42 00 00 96 42 00 00 70 c2 00 00 9a 42
       51.0 75.0 -60.0 77.0
000200 00 00 44 42 00 00 48 c2 00 00 88 41 00 00 54 c2
       49.0 -50.0 17.0 -53.0
000210 00 00 b8 41 00 00 50 41 00 00 70 c2 00 00 b0 41
       23.0 13.0 -60.0 22.0
000220 00 00 88 c1 00 00 78 42 00 00 74 42 00 00 b8 41
       -17.0 62.0 61.0 23.0
000230 00 00 40 42 00 00 a8 41 00 00 64 42 00 00 10 c1
       48.0 21.0 57.0 -9.0
000240 00 00 80 41 00 00 00 c1 00 00 80 bf 00 00 a0 c1
       16.0 -8.0 -1.0 -20.0
000250 00 00 c8 c1 00 00 24 42 00 00 b8 41 00 00 f0 c1
       -25.0 41.0 23.0 -30.0
000260 00 00 58 c2 00 00 04 42 00 00 68 c2 00 00 00 00
       -54.0 33.0 -58.0 0.0
000270 00 00 5c c2 00 00 70 42 00 00 48 42 00 00 60 c2
       -55.0 60.0 50.0 -56.0
000280 00 00 88 c2 00 00 28 c2 00 00 c0 41 00 00 14 c2
       -68.0 -42.0 24.0 -37.0
000290 00 00 98 c1 00 00 90 c1 00 00 a0 41 00 00 18 c2
       -19.0 -18.0 20.0 -38.0
0002a0 00 00 30 42 00 00 74 c2 00 00 60 c1 00 00 8a 42
       44.0 -61.0 -14.0 69.0
0002b0 00 00 30 c2 00 00 84 42 00 00 1c 42 00 00 d0 c1
       -44.0 66.0 39.0 -26.0
0002c0 00 00 e8 41 00 00 68 c2 00 00 80 40 00 00 b0 41
       29.0 -58.0 4.0 22.0
0002d0 00 00 96 42 00 00 34 c2 00 00 44 c2 00 00 1c c2
       75.0 -45.0 -49.0 -39.0
0002e0 00 00 96 c2 00 00 f8 41 00 00 86 c2 00 00 b8 c1
       -75.0 31.0 -67.0 -23.0
0002f0 00 00 14 c2 00 00 c0 40 00 00 d0 41 00 00 6c c2
       -37.0 6.0 26.0 -59.0
000300 00 00 90 c1 00 00 e0 c0 00 00 18 c2 00 00 60 41
       -18.0 -7.0 -38.0 14.0
000310 00 00 b8 41 00 00 40 c2 00 00 60 42 00 00 4c 42
       23.0 -48.0 56.0 51.0
000320 00 00 90 c1 00 00 30 41 00 00 00 41 00 00 00 c1
       -18.0 11.0 8.0 -8.0
000330 00 00 30 c2 00 00 54 42 00 00 14 42 00 00 54 c2
       -44.0 53.0 37.0 -53.0
000340 00 00 50 c2 00 00 74 42 00 00 40 41 00 00 50 c1
       -52.0 61.0 12.0 -13.0
000350 00 00 34 42 00 00 b8 41 00 00 e8 41 00 00 5c 42
       45.0 23.0 29.0 55.0
000360 00 00 80 c0 00 00 82 42 00 00 44 c2 00 00 28 c2
       -4.0 65.0 -49.0 -42.0
000370 00 00 10 41 00 00 e0 c0 00 00 24 42 00 00 80 c1
       9.0 -7.0 41.0 -16.0
000380 00 00 88 41 00 00 98 c1 00 00 6c 42 00 00 20 c1
       17.0 -19.0 59.0 -10.0
000390 00 00 80 40 00 00 78 42 00 00 8e 42 00 00 84 42
       4.0 62.0 71.0 66.0
0003a0 00 00 8c c2 00 00 24 c2 00 00 70 c1 00 00 e0 c0
       -70.0 -41.0 -15.0 -7.0
0003b0 00 00 2c 42 00 00 c8 41 00 00 c0 c0 00 00 00 40
       43.0 25.0 -6.0 2.0
0003c0 00 00 40 41 00 00 8a 42 00 00 2c 42 00 00 0c c2
       12.0 69.0 43.0 -35.0
0003d0 00 00 14 c2 00 00 f8 41 00 00 80 c0 00 00 3c c2
       -37.0 31.0 -4.0 -47.0
0003e0 00 00 90 c2 00 00 80 41 00 00 c0 c1 00 00 14 c2
       -72.0 16.0 -24.0 -37.0
0003f0 00 00 10 41 00 00 b2 42 00 00 6c 42 00 00 0c 42
       9.0 89.0 59.0 35.0

block2_conv1d_bn_relu_6.op.bias f4 [16]
000000 00 00 40 c4 00 00 08 45 00 00 78 c5 00 00 f0 c4
       -768.0 2176.0 -3968.0 -1920.0
000010 00 00 80 c4 00 00 9c 45 00 00 08 c5 00 00 40 c5
       -1024.0 4992.0 -2176.0 -3072.0
000020 00 00 58 45 00 00 08 c5 00 00 10 c5 00 00 00 43
       3456.0 -2176.0 -2304.0 128.0
000030 00 00 a0 44 00 00 c0 44 00 00 00 00 00 00 00 00
       1280.0 1536.0 0.0 0.0

block6_dense.op.weight f4 [2, 16]
000000 00 00 68 42 00 00 d6 42 00 00 d6 42 00 00 00 c0
       58.0 107.0 107.0 -2.0
000010 00 00 88 42 00 00 b8 42 00 00 a0 c1 00 00 b4 42
       68.0 92.0 -20.0 90.0
000020 00 00 40 40 00 00 c0 c0 00 00 80 41 00 00 b8 41
       3.0 -6.0 16.0 23.0
000030 00 00 c0 41 00 00 70 42 00 00 8c 42 00 00 96 42
       24.0 60.0 70.0 75.0
000040 00 00 20 41 00 00 a6 c2 00 00 d2 c2 00 00 b2 c2
       10.0 -83.0 -105.0 -89.0
000050 00 00 9a c2 00 00 8e c2 00 00 a0 c0 00 00 ae c2
       -77.0 -71.0 -5.0 -87.0
000060 00 00 a8 c2 00 00 80 bf 00 00 9c c2 00 00 e0 c1
       -84.0 -1.0 -78.0 -28.0
000070 00 00 b8 c2 00 00 40 c1 00 00 00 40 00 00 be c2
       -92.0 -12.0 2.0 -95.0

momentum_buffer f4 [4, 1, 4]
000000 92 e4 4b ba f2 ff 9b 3b 9a 91 9a 3a c0 03 66 3b
       -0.0007777895 0.0047607357 0.001179266 0.003509745
000010 15 55 db bc e6 14 a9 bc 30 9a b6 bc 67 02 95 bc
       -0.026773969 -0.020639848 -0.02229032 -0.018189622
000020 7b 0d 9c bb fe 0b 97 3a 9b 55 00 bc 5c 6b e6 bb
       -0.004762349 0.001152396 -0.00783291 -0.007031841
000030 8a e5 34 bb c0 7d 64 bb c7 70 19 bb 9a 8f 15 3b
       -0.0027602636 -0.0034864992 -0.0023413168 0.002282119

momentum_buffer f4 [4]
000000 6f 42 c9 bc 7c a0 79 3e 88 0f be 3c a0 82 ae bb
       -0.02456781 0.24377626 0.023200765 -0.0053256303

momentum_buffer f4 [4, 4, 2]
000000 a3 90 d7 ba 4a c6 df ba e9 de ba 3b 64 32 94 3b
       -0.0016446303 -0.0017072645 0.0057028425 0.0045226086
000010 19 4e 09 bb 86 b9 28 bb aa b8 30 3b 60 15 9b ba
       -0.002095109 -0.0025745346 0.0026965537 -0.0011831932
000020 54 1d d2 b8 7a 35 25 b8 00 f0 03 b7 5c 9e 9f b9
       -0.00010019043 -3.938887e-05 -7.864088e-06 -0.0003044483
000030 ec 40 ef b7 c3 91 83 38 46 46 3f 39 16 39 72 ba
       -2.8521252e-05 6.273717e-05 0.00018241358 -0.0009240074
000040 50 6d af ba e2 14 41 ba 99 1a a3 ba de e3 05 bb
       -0.0013384018 -0.00073654775 -0.001244384 -0.002043001
000050 68 44 53 ba fc cc 22 bb 50 cb 67 b8 78 6d 75 ba
       -0.00080592046 -0.0024841418 -5.526404e-05 -0.00093623204
000060 ca d1 85 ba 14 52 81 ba 39 62 b5 3b f0 34 ac 3b
       -0.0010209617 -0.000986638 0.0055353907 0.005255334
000070 07 6c 69 ba 26 6f 14 ba 6c df 0d 3a 2a bb c5 3a
       -0.0008904342 -0.00056623144 0.00054120156 0.0015085686

momentum_buffer f4 [4]
000000 32 ae 1d 3c b9 43 65 3c 93 00 12 bc 6a 19 d6 3c
       0.009624051 0.013993197 -0.00891127 0.026135165

momentum_buffer f4 [16, 4, 9]
000000 54 19 a0 3a e7 a2 d3 39 da 75 45 3a 87 ba 80 3a
       0.001221458 0.00040366428 0.0007532515 0.0009821214
000010 04 1d 92 3a 45 d1 db 3a b4 f3 a8 3a 54 e6 97 3a
       0.0011147563 0.0016770741 0.0012890012 0.0011589029
000020 46 be b3 3a e2 56 da 39 2a 02 32 3a 28 86 21 3a
       0.0013713322 0.00041644933 0.00067904836 0.00061616534
000030 0f 92 1b 3a 99 8d 25 3a 4b 16 25 39 98 b6 ed 39
       0.0005934545 0.000631535 0.00015743931 0.00045340206
000040 43 d8 4d 3a c6 f1 8b 3a de 75 87 3a 16 95 bc 3a
       0.0007852355 0.0010676912 0.001033481 0.0014387693
000050 ba f6 7e 3a 66 52 ce 39 96 c1 ad 39 2b 59 1a 3a
       0.0009726096 0.00039352773 0.00033141364 0.0005887921
000060 a8 dc d6 39 22 33 e8 3a ac 59 e0 3a f6 73 9f 39
       0.00040981662 0.0017715434 0.0017116568 0.0003041324
000070 8c bb 54 3a 72 5e 6a 3a 20 2e 51 3a f4 b5 39 39
       0.0008115105 0.0008940465 0.00079795904 0.00017710758
000080 ad b6 75 3a 9a 9f 06 3a 7d ee dd 3a 67 6d 95 3a
       0.0009373229 0.0005135477 0.0016932037 0.0011400402
000090 2e 4c 01 bb 7c e4 fd ba f4 dc c6 ba 5a 64 e6 ba
       -0.0019729245 -0.0019370462 -0.001517205 -0.0017577515
0000a0 c2 7c e0 ba cb 67 8f ba 51 88 99 ba 62 0a 1e ba
       -0.0017127024 -0.0010940967 -0.0011713599 -0.0006028769
0000b0 51 f5 65 ba 68 65 30 b9 5f 7a 8a b9 6a 90 c1 b9
       -0.0008772212 -0.00016822445 -0.00026412585 -0.00036919425
0000c0 34 5d 4a ba f4 38 44 b9 4b 54 c6 b9 3d 6d 2b ba
       -0.0007719577 -0.00018713233 -0.00037828306 -0.000653941
0000d0 14 c8 58 ba e7 e5 34 ba 37 cd c9 ba 21 1c 84 ba
       -0.000826956 -0.0006900713 -0.0015396242 -0.0010079184
0000e0 90 77 9c ba 62 e3 1f ba 4a da 02 ba 1b a9 0e ba
       -0.0011937488 -0.00060992513 -0.0004991634 -0.0005442069
0000f0 98 be 65 ba eb 12 b0 ba 09 eb c4 ba 7c 1d cb ba
       -0.00087640574 -0.0013433372 -0.0015023659 -0.0015496458
000100 b8 0d c0 ba 31 7a 9f ba bf 16 b2 ba 01 90 88 ba
       -0.0014652526 -0.0012167153 -0.0013587101 -0.0010418893
000110 2f 8d aa ba 94 0f bd ba c1 4e a4 ba 89 87 e2 ba
       -0.0013012047 -0.0014424198 -0.0012535678 -0.0017282824
000120 ea d6 e7 b9 1c 05 4d ba 1e 7f f5 b9 50 1e df b9
       -0.00044219877 -0.0007820891 -0.0004682475 -0.0004255646
000130 53 16 89 ba 20 54 73 ba 1b 6d 1d ba 02 fe fa b9
       -0.0010458924 -0.000928225 -0.00060053327 -0.00047872966
000140 e7 76 c2 b9 09 69 98 b8 88 e4 26 b8 fd 6c 83 38
       -0.00037091153 -7.267489e-05 -3.979032e-05 6.2668674e-05
000150 ee 4d c6 38 ab 3a 98 38 4d 66 35 39 0a 87 48 38
       9.455891e-05 7.2588526e-05 0.00017299615 4.780948e-05
000160 f7 20 a3 b9 21 77 42 b9 ae 45 fa b7 bf 19 bd b9
       -0.00031114343 -0.0001854566 -2.983477e-05 -0.00036068071
000170 77 fb 93 b9 c1 d4 b3 b9 5c ca f1 b9 38 42 c9 b9
       -0.0002822538 -0.00034300055 -0.00046117872 -0.00038387044
000180 0d 0b c4 38 1e 47 2d b8 f2 28 29 38 fe 71 b2 b9
       9.348067e-05 -4.1312647e-05 4.0330873e-05 -0.00034035736
000190 a4 ac 6a b9 ab 7a 99 b9 69 89 48 b9 a7 8f 52 b9
       -0.00022380293 -0.0002927383 -0.00019124676 -0.00020080675
0001a0 0e 75 cf b9 a3 b7 36 38 40 17 d6 b9 26 ca a2 b9
       -0.0003956933 4.3563206e-05 -0.00040834583 -0.0003104966
0001b0 c3 23 5f bb f0 c1 38 bb a3 cc fe ba 2f 82 0c bb
       -0.0034048415 -0.0028191768 -0.0019439649 -0.00214399
0001c0 46 02 fd ba c0 bc 04 bb 43 0d cd ba 78 98 ab ba
       -0.0019303046 -0.0020254105 -0.0015644211 -0.0013091704
0001d0 3b f2 de ba 26 68 56 ba 48 bb 5c ba b7 d1 01 ba
       -0.0017009446 -0.00081789715 -0.0008420241 -0.00049522094
0001e0 d6 c8 60 ba 5c 27 83 ba 12 fe dd b9 c6 27 87 ba
       -0.0008574849 -0.0010006237 -0.00042341702 -0.0010311536
0001f0 7f 32 f0 b9 51 1c 6c ba a6 e2 32 bb 5d b0 d4 ba
       -0.0004581399 -0.0009006905 -0.0027295738 -0.0016226877
000200 ca 43 df ba cf 48 01 bb 16 03 c5 ba 7a 8a e1 ba
       -0.0017033753 -0.0019727235 -0.0015030827 -0.0017207407
000210 63 03 19 bb 16 64 2a ba 6e f0 81 ba 10 5c 37 bb
       -0.0023347966 -0.00064998993 -0.0009913573 -0.0027978458
000220 d1 9b 38 bb a0 d4 c9 ba f5 08 20 bb e6 31 cb ba
       -0.0028169046 -0.001539845 -0.0024419401 -0.0015502542
000230 ed a4 f3 ba a6 11 02 bb ad 50 67 ba df 5d ba ba
       -0.001858858 -0.0019846945 -0.00088239723 -0.001421865
000240 87 85 c6 ba 0d c9 79 ba f9 56 b2 ba 38 7a a6 ba
       -0.0015145995 -0.0009528555 -0.0013606242 -0.0012701219
000250 9b 69 ef ba 8a 19 45 ba 39 9f 55 ba 1b ea 82 ba
       -0.0018265726 -0.0007518759 -0.0008149031 -0.0009987982
000260 ee c3 c7 38 80 47 96 b9 60 db a8 36 a8 04 40 38
       9.525554e-05 -0.000286635 5.0323288e-06 4.5780704e-05
000270 42 77 3f b9 a0 c3 b8 b8 e6 04 0e 39 96 c2 06 b9
       -0.00018259606 -8.810242e-05 0.00013544 -0.00012851725
000280 1b 1a 68 ba 2d 91 41 ba 6b dd 95 ba 6d 4f ae ba
       -0.00088539877 -0.00073839986 -0.0011433786 -0.0013298817
000290 30 3e 0e ba 8e 9b c8 b9 01 bc ef b9 2a 2d 4e b9
       -0.0005426137 -0.0003826287 -0.00045725706 -0.00019662516
0002a0 3a 7d 8f ba 4b 67 d9 ba bf 5e a9 ba 03 a4 0a bb
       -0.0010947355 -0.001658657 -0.0012921913 -0.0021154888
0002b0 09 2f a3 ba d8 79 94 ba cc fe 88 ba 38 a9 7a ba
       -0.0012449931 -0.0011327816 -0.0010451912 -0.0009561959
0002c0 e7 7e 4c ba c7 84 06 ba 9c 83 cb ba cc 79 95 ba
       -0.00078008923 -0.00051314797 -0.0015526894 -0.0011404096
0002d0 7e 19 42 bb 18 65 82 bb c4 0d 1e bb fa 84 28 bb
       -0.0029617245 -0.0039793365 -0.0024117092 -0.0025714026
0002e0 10 c3 2f bb 28 0e c7 ba a8 1e e9 ba fc 4f 62 ba
       -0.0026819147 -0.0015186714 -0.0017785626 -0.00086331344
0002f0 f2 c8 b6 39 3c 3f 85 ba d7 81 36 b9 52 aa 45 ba
       0.0003486346 -0.001016594 -0.00017405242 -0.00075403333
000300 ae ba 0a ba d4 bc d1 b9 f6 84 e6 b9 58 1c 04 b8
       -0.00052920997 -0.00040004274 -0.00043968082 -3.149765e-05
000310 60 c8 99 39 8c d9 ef b8 9c cd 30 bb de 07 6d bb
       0.00029331725 -0.00011436929 -0.0026978021 -0.003616802
000320 e4 b2 36 bb 60 5a 23 bb 7a ef 38 bb 2e 57 e9 ba
       -0.0027877623 -0.0024925694 -0.002821891 -0.0017802471
000330 c0 d2 da ba 4f f9 57 ba c4 cc 80 39 eb 45 23 bb
       -0.0016694888 -0.0008238749 0.00024566625 -0.00249135
000340 56 c4 89 bb 32 67 50 bb e2 2a 51 bb cc 93 62 bb
       -0.0042043133 -0.003179979 -0.003191643 -0.0034572957
000350 bc ba 11 bb 08 d0 e6 ba e2 36 d4 ba 39 33 1a ba
       -0.0022236547 -0.0017609606 -0.0016190673 -0.00058822666
000360 c8 3c 95 b9 9e 15 01 b8 27 f8 17 ba 05 6b 48 ba
       -0.0002846478 -3.077613e-05 -0.00057971705 -0.00076453417
000370 5f c5 05 ba c1 40 10 ba 72 99 b9 b9 57 e5 52 ba
       -0.0005102958 -0.0005502813 -0.00035400275 -0.00080450386
000380 5b 1d 44 ba 1c ec 95 b9 a2 03 29 ba 40 8b 33 35
       -0.0007481181 -0.0002859541 -0.000644738 6.688533e-07
000390 75 01 d6 b8 86 ef 07 3a d4 b0 a9 38 5c e1 7d 38
       -0.000102045866 0.0005185533 8.091485e-05 6.0529783e-05
0003a0 2e 7a f4 b8 15 40 cc 38 69 08 36 b9 98 3b b2 b9
       -0.000116575844 9.739414e-05 -0.00017360006 -0.00033995206
0003b0 13 02 25 ba 26 54 ad b9 a8 26 cd b8 8c 5e 68 39
       -0.00062945596 -0.00033059827 -9.782362e-05 0.00022160466
0003c0 ae 25 38 38 a6 ce 07 ba dc 1e 53 39 68 e1 85 b7
       4.390411e-05 -0.00051806343 0.00020134024 -1.5959798e-05
0003d0 a1 1b 08 ba 77 88 02 ba dd 5e e3 b9 50 3f a9 b6
       -0.00051921053 -0.00049794413 -0.00043367493 -5.043963e-06
0003e0 52 5b 7d 39 be 8c 3c ba 19 66 87 b9 c4 19 26 b8
       0.0002416198 -0.0007192603 -0.00025825275 -3.960148e-05
0003f0 8d f4 7e ba 8a ff bd ba 65 ec 3d ba d0 bc d2 37
       -0.0009725772 -0.0014495712 -0.00072450034 2.5121873e-05

momentum_buffer f4 [16]
000000 c9 26 55 3b 32 62 0a bb fc d1 11 ba bc 32 a2 bb
       0.0032524338 -0.0021115658 -0.0005562601 -0.0049498957
000010 e8 59 ab b8 e0 64 0b 39 cc 10 2e ba c0 19 b1 38
       -8.170662e-05 0.00013293652 -0.0006640076 8.444814e-05
000020 21 00 01 bb 08 49 76 3b af 7a 57 3b d4 25 30 3b
       -0.0019683915 0.003758015 0.0032879522 0.0026878016
000030 ee b0 f4 39 14 fa c4 b9 2e 38 f9 ba 1a b2 27 3b
       0.0004667113 -0.00037570356 -0.0019013935 0.0025588335
