trained_custom/checkpoints/old_epidenet_b_512samples_patient2_leaveout1/epidenet_b_v1.1_qat_best.pth.tar (torch, 17615 bytes, 6 tensors)

block1_conv1d_bn_relu_1.op.weight f4 [4, 1, 3]
0	0x3fe9697c	1.8235316
1	0x410f7887	8.966926
2	0xc144c7d7	-12.298789
3	0xc0aa5ff8	-5.324215
4	0xc02f0fba	-2.7353349
5	0x4020ea86	2.5143142
6	0xbea20243	-0.3164235
7	0x40d233aa	6.5688066
8	0xbf7f2c40	-0.99676895
9	0x3f17becc	0.5927551
10	0xc05913b7	-3.3918283
11	0xc00ea4f0	-2.228817

block1_conv1d_bn_relu_1.op.bias f4 [4]
0	0x3f4dbf66	0.80370176
1	0xbd75e78c	-0.060035273
2	0x3fe69a87	1.8015908
3	0xbf55242a	-0.83258307

block6_dense.op.weight f4 [2, 4]
0	0x3f20b727	0.6277947
1	0x3f2ebd81	0.6825791
2	0x3c2f2023	0.010688814
3	0x3dad2904	0.08455089
4	0xbec72388	-0.38894296
5	0xbdb2a537	-0.087229185
6	0xbf13e889	-0.57776695
7	0x3d6569d4	0.05600913

momentum_buffer f4 [4, 1, 3]
0	0x3bb625b7	0.005558695
1	0x3c512851	0.01276596
2	0xbc076ba8	-0.008265413
3	0x3ba07c41	0.0048976247
4	0x3bed7d5a	0.007247609
5	0x3c3e3b3e	0.011610804
6	0x3c68a12c	0.014198583
7	0x3caab237	0.020836933
8	0x3c6090f1	0.013706432
9	0xbb43de05	-0.0029886973
10	0xbbfe72f5	-0.007765169
11	0xbbd8eaaa	-0.006619771

momentum_buffer f4 [4]
0	0xbd16c08a	-0.036804713
1	0xbd86afba	-0.06576486
2	0xbdabbdf9	-0.08385844
3	0x3cb38dbd	0.021918172

momentum_buffer f4 [2, 4]
0	0x3a246be9	0.00062721834
1	0x3a32d11b	0.000682132
2	0x372d1a01	1.0317658e-05
3	0x38b117aa	8.4444255e-05
4	0x3d8f4ca8	0.06997043
5	0x3d737c74	0.05944486
6	0x3d8cb440	0.068703175
7	0x3ba2e714	0.0049713943
