trained_custom/checkpoints/old_epidenet_b_512samples_patient2_leaveout1/epidenet_b_v2.1_qat_best.pth.tar (torch, 94527 bytes, 34 tensors)

block1_conv1d_bn_relu_1.op.weight f4 [4, 1, 4]
-0.017872406 2.6610978 -4.0591435 -3.6268277 -3.009249 1.776952 -0.29993707 5.7728596
-1.3757328 4.141093 -4.729147 -3.010668 -2.855997 -1.9827158 -1.2304884 0.107531965
00000000: 2769 92bc 6d4f 2a40 81e4 81c0 f21d 68c0
00000010: 8997 40c0 2a73 e33f 5a91 99be 44bb b840
00000020: 0318 b0bf d583 8440 2c55 97c0 c9ae 40c0
00000030: a8c8 36c0 a2c9 fdbf a580 9dbf b839 dc3d

block1_conv1d_bn_relu_1.op.bias f4 [4]
-0.66440576 0.56007665 -0.6713222 -0.9096791
00000000: 7f16 2abf 2f61 0f3f c6db 2bbf bbe0 68bf

block1_conv1d_bn_relu_2.op.weight f4 [4, 4, 2]
0.61752427 1.4629697 -0.35189486 1.4170843 -0.32976818 0.15839167 1.5816907 -1.7152263
-0.34232065 -0.13653992 -0.20968708 0.4705776 -0.35247183 -0.24937108 -0.37902036 -0.5094129
-0.71804863 1.0531349 0.5489295 0.5991855 0.064020954 -0.63246465 0.21854153 -1.1456723
-0.7010486 -0.4943487 0.63294244 0.5841912 -0.4237672 -0.01643856 0.6563804 1.0118003
00000000: 1216 1e3f 9742 bb3f 902b b4be 0563 b53f
00000010: 60d7 a8be 6d31 223e d774 ca3f 898c dbbf
00000020: a744 afbe 1fd1 0bbe 36b8 56be 8cef f03e
00000030: 3077 b4be 225b 7fbe f50e c2be e268 02bf
00000040: 09d2 37bf 20cd 863f a586 0c3f 3964 193f
00000050: 6b1d 833d 34e9 21bf 5ac9 5f3e 64a5 92bf
00000060: ec77 33bf 461b fdbe 8408 223f 8e8d 153f
00000070: 04f8 d8be 29aa 86bc 8c08 283f ac82 813f

block1_conv1d_bn_relu_2.op.bias f4 [4]
-0.20322737 0.11054073 0.020178923 -0.119329676
00000000: d61a 50be 2e63 e23d 454e a53c 1e63 f4bd

block2_conv1d_bn_relu_1.op.weight f4 [16, 4, 9]
0.053721827 -0.2827061 -0.24452326 -0.1836172 0.15163112 0.1324788 -0.21602072 0.11511351
0.1893756 -0.04580046 0.009003768 0.07994705 0.22239794 0.34538695 -0.27012345 -0.13056226
0.14247529 0.28907356 0.30244857 0.30042177 0.06840348 -0.29955417 0.042565316 -0.21778537
-0.33244276 0.32174796 0.26163977 -0.35917854 0.053693246 -0.059723325 -0.05168413 -0.15856235
0.13450599 -0.21601288 0.13372174 0.17242622 0.28351393 0.14979519 -0.41096503 -0.261064
0.21590696 0.10020853 -0.3093635 -0.24477516 0.38901857 0.2722194 -0.18867835 -0.106362686
-0.37464216 0.0020203278 -0.30040693 -0.30701822 0.00015553355 0.07983445 -0.17137696 0.22112411
-0.2650918 0.38345888 0.2924247 -0.33400327 -0.0831582 0.048292316 0.08593794 0.085294016
0.14658657 0.005746214 -0.1923115 0.20383877 -0.3806331 -0.22021623 -0.09148612 -0.187754
-0.07220893 -0.16961367 -0.04659919 0.04168454 -0.13445 -0.0105044665 0.1460193 -0.027371006
0.0016666899 -0.02035699 0.03973304 0.12913936 0.1947267 0.13217786 0.19627014 -0.016170064
-0.18612492 -0.09642255 0.13829727 -0.0032648523 -0.10612666 -0.16042529 -0.19115011 -0.17342001
-0.04360865 0.11025124 0.11326665 -0.20024769 0.12896556 -0.16329749 -0.045860585 -0.08176122
-0.038248844 -0.040376622 -0.18802835 -0.17847225 -0.077324845 0.013465106 -0.21400227 0.20927855
-0.44390765 -0.025881065 0.4417855 -0.20315519 0.4506751 0.18534857 -0.45655444 0.2937924
-0.07089665 -0.21745262 0.40387824 -0.4243323 0.057817 -0.09406477 0.36866346 0.13848366
0.20238028 0.17197078 -0.10322059 -0.09244644 -0.4322715 0.27849427 0.41213003 0.3457241
-0.34709546 0.0016306634 -0.33807728 -0.25662872 -0.2839431 0.16941948 -0.28789645 -0.0040364545
0.021801826 0.30700824 -0.36727467 -0.33048838 -0.276947 0.33510306 -0.18358049 0.42139232
0.171661 0.060581718 -0.0065972665 -0.09901303 0.058620308 -0.11261171 -0.004614558 0.060939014
-0.37122235 -0.24829532 0.39403015 -0.39724302 -0.043090977 0.47535944 0.17244829 0.009176471
-0.4240667 0.2564069 -0.33590505 -0.13143781 -0.16709174 -0.07915555 0.004222578 0.39704242
0.056467835 0.4236716 0.3072868 -0.30040905 0.22593607 -0.30382836 -0.17319632 0.1670594
0.18322359 0.38263708 -0.11809094 0.03726441 0.24585252 -0.43194264 0.34081605 -0.37093797
0.015088582 -0.06956083 -0.2343636 0.058232274 0.38183206 -0.14717399 -0.23754407 -0.14502281
-0.4314128 0.23317786 -0.1981385 -0.2790715 -0.25885397 0.2789767 0.22823162 0.38278487
0.19103561 -0.12588881 -0.098532155 0.16809502 0.4170937 0.14513776 -0.1882856 -0.21623875
-0.36921304 0.09284976 -0.21365193 -0.3368082 0.3665437 -0.25867364 -0.043900825 0.12074464
0.01835318 -0.27028245 -0.314887 0.32547396 0.06925641 0.3208839 -0.13940288 0.12203765
-0.08969254 -0.022819296 -0.24230759 0.15024287 0.1467945 0.006564189 -0.089071 -0.2519757
0.28695697 -0.28707308 0.15384124 -0.12821637 -0.17748432 0.087881655 -0.1921957 0.104535915
0.07757695 -0.2884095 0.07316947 0.16715066 0.10184662 -0.028214322 -0.20442314 -0.035401154
00000000: 6b0b 5c3d dbbe 90be 4e64 7abe 2606 3cbe
00000010: 3045 1b3e 86a8 073e 8934 5dbe a2c0 eb3d
00000020: adeb 413e 4399 3bbd 8a84 133c 47bb a33d
00000030: 49bc 633e 8fd6 b03e 9f4d 8abe 1db2 05be
00000040: 0be5 113e 7301 943e 8ada 9a3e e2d0 993e
00000050: 2017 8c3d 2a5f 99be f858 2e3d 2103 5fbe
00000060: f035 aabe 26bc a43e a6f5 853e 40e6 b7be
00000070: 73ed 5b3d 72a0 74bd bdb2 53bd 2b5e 22be
00000080: f0bb 093e 7b32 5dbe 5aee 083e 8090 303e
00000090: bd28 913e e963 193e 026a d2be 2eaa 85be
000000a0: b716 5d3e 213a cd3d e564 9ebe 57a6 7abe
000000b0: 712d c73e 5760 8b3e e634 41be aed4 d9bd
000000c0: 19d1 bfbe 7a67 043b f0ce 99be 7e31 9dbe
000000d0: b816 2339 3e80 a33d 717d 2fbe 5c6e 623e
000000e0: 1dba 87be b954 c43e b1b8 953e 7a02 abbe
000000f0: d94e aabd 2ace 453d 3b00 b03d a1ae ae3d
00000100: ca1a 163e bd4a bc3b 4eed 44be 1cbb 503e
00000110: 57e2 c2be 5d80 61be 135d bbbd 9642 40be
00000120: 47e2 93bd 35af 2dbe cbde 3ebd 69bd 2a3d
00000130: 43ad 09be ed1a 2cbc 1586 153e 2939 e0bc
00000140: d574 da3a b4c3 a6bc 1dbf 223d 1c3d 043e
00000150: 7066 473e a259 073e 0afb 483e 1577 84bc
00000160: 8897 3ebe 3079 c5bd cd9d 0d3e 22f7 55bb
00000170: ef58 d9bd 8746 24be dbbc 43be 0495 31be
00000180: fc9e 32bd 67cb e13d 58f8 e73d bb0d 4dbe
00000190: 8c0f 043e 7537 27be 4fd8 3bbd 6d72 a7bd
000001a0: d2aa 1cbd f561 25bd 818a 40be 6ec1 36be
000001b0: 7d5c 9ebd bf9c 5c3c 6923 5bbe 1e4d 563e
000001c0: dd47 e3be 8704 d4bc b631 e23e ea07 50be
000001d0: e3be e63e 04cc 3d3e 81c1 e9be f56b 963e
000001e0: 4332 91bd e6ab 5ebe 21c9 ce3e 1542 d9be
000001f0: 85d1 6c3d 08a5 c0bd 75c1 bc3e a9ce 0d3e
00000200: c73c 4f3e 1c19 303e 5165 d3bd 8f54 bdbd
00000210: b152 ddbe cd96 8e3e b502 d33e c002 b13e
00000220: 7fb6 b1be fcbb d53a 7718 adbe d764 83be
00000230: fd60 91be 4d7c 2d3e 2a67 93be 3c44 84bb
00000240: be99 b23c 2f30 9d3e 6d0b bcbe c635 a9be
00000250: ffcb 8dbe a192 ab3e 86fc 3bbe bcc0 d73e
00000260: e7c7 2f3e 8924 783d e22d d8bb 58c7 cabd
00000270: d91b 703d f8a0 e6bd b835 97bb 309b 793d
00000280: db10 bebe 2141 7ebe 52be c93e 7063 cbbe
00000290: 2a80 30bd 5062 f33e 4996 303e e958 163c
000002a0: 451f d9be c447 833e bffb abbe a297 06be
000002b0: 191a 2bbe 4e1c a2bd 8d5d 8a3b 2549 cb3e
000002c0: d14a 673d 7ceb d83e b254 9d3e 37cf 99be
000002d0: c95b 673e 648f 9bbe 605a 31be 9f11 2b3e
000002e0: f79e 3b3e 02e9 c33e aad9 f1bd 91a2 183d
000002f0: c3c0 7b3e 9627 ddbe 717f ae3e 95eb bdbe
00000300: 1a36 773c e975 8ebd 03fd 6fbe f784 6e3d
00000310: 7e7f c33e c7b4 16be c13e 73be dc80 14be
00000320: 23e2 dcbe 2dc6 6e3e d2e4 4abe 76e2 8ebe
00000330: 8288 84be 09d6 8e3e 8db5 693e 61fc c33e
00000340: d79e 433e ffe8 00be 3acb c9bd 1a21 2c3e
00000350: 4e8d d53e fe9e 143e f1cd 40be b16d 5dbe
00000360: 7e09 bdbe 0428 be3d 92c7 5abe 2072 acbe
00000370: 9eab bb3e df70 84be 5ad1 33bd f748 f73d
00000380: 6859 963c 7662 8abe de38 a1be 86a4 a63e
00000390: 4ed6 8d3d e54a a43e a1bf 0ebe e0ee f93d
000003a0: b9b0 b7bd 88ef babc 7b1f 78be 44d9 193e
000003b0: 4c51 163e 6918 d73b db6a b6bd f502 81be
000003c0: 06ec 923e 3efb 92be 8f88 1d3e 274b 03be
000003d0: 73be 35be 4cfb b33d f3ce 44be ed16 d63d
000003e0: aae0 9e3d 69aa 93be e0d9 953d 8b29 2b3e
000003f0: f694 d03d b921 e7bc 4d54 51be cd00 11bd

block2_conv1d_bn_relu_1.op.bias f4 [16]
-0.046663918 0.23867212 0.20319146 0.053761937 -0.044510126 -0.03834295 0.17178483 -0.27362773
-0.09870797 -0.21477771 0.22922727 0.04724273 -0.2931165 0.19134729 -0.058145035 -0.0738347
00000000: aa22 3fbd 7766 743e 6c11 503e 7a35 5c3d
00000010: 4050 36bd 7f0d 1dbd 5de8 2f3e ef18 8cbe
00000020: 6727 cabd b0ee 5bbe 8eba 6a3e 9881 413d
00000030: 5e13 96be 8bf0 433e 7d29 6ebd a636 97bd

block2_conv1d_bn_relu_2.op.weight f4 [16, 16, 8]
-0.25171772 -0.07961498 0.16978502 -0.14471184 0.22278793 -0.22725993 -0.25743714 -0.14383528
0.041785367 0.26003692 -0.15552445 0.118619844 -0.10117498 -0.053789224 0.23622194 -0.24542037
0.019362021 0.2768871 -0.058342475 0.23450491 -0.09955378 0.24830672 -0.29492185 -0.040978722
-0.07221297 0.09282902 0.098360136 0.2234832 -0.06526665 -0.025779499 0.22984134 -0.09754718
0.27135193 -0.22278745 -0.03898226 -0.023848902 0.1417019 0.18210481 -0.048486434 -0.26147008
0.14829612 0.09395668 0.124578334 -0.20205766 0.18536116 0.26342782 0.02215537 -0.29204792
0.2198373 -0.2350309 0.069587685 0.040056817 -0.16380197 0.124696486 -0.2910889 0.08039319
-0.18670225 -0.030074552 0.04014753 0.25667825 -0.15224554 0.18063681 -0.04471814 -0.14994735
-0.26832876 -0.28942508 0.29702386 -0.08653428 0.017888777 0.070639655 0.20304173 0.2535872
0.25129932 -0.22427718 -0.046564505 -0.18721296 -0.18550138 0.06638647 0.27697766 -0.2548419
0.17901644 -0.18189763 -0.065343514 0.22078986 -0.089318626 0.018122926 -0.23642541 0.26092234
-0.032421313 -0.23010065 0.1031786 -0.21537885 -0.24128205 0.0108349975 0.24979492 -0.087241404
0.15539348 0.2721231 0.21599267 -0.15916082 -0.02367831 -0.103209905 -0.25588366 0.0018076574
0.23513223 0.24746305 0.022470655 0.05516673 -0.14160344 0.19196825 -0.14220907 -0.22278748
0.03377053 0.18342607 -0.2847498 0.27086714 0.09077851 -0.22134356 -0.07330977 0.26268226
-0.2352287 -0.08768285 0.106395006 -0.2696768 0.17306498 0.12869002 0.18449466 -0.2081496
0.22266912 -0.13297096 0.23314449 -0.2195753 -0.19707659 0.14675368 0.029676622 0.01197237
-0.12359484 -0.09467908 -0.067076415 -0.2223703 0.017109867 0.0440066 -0.002168934 0.069408834
0.21170281 0.05830904 -0.08437114 -0.09450594 -0.14561465 -0.15960824 -0.036792528 -0.039142866
0.09298908 -0.08932449 0.18292607 -0.15172489 0.0019811105 0.21035041 0.22679034 -0.13194993
0.046096638 0.033363022 -0.10216687 -0.0755831 0.053998154 -0.15488411 0.0336763 0.09849128
-0.092702985 0.17476127 -0.026537262 0.09517617 0.2317702 -0.06457319 0.11677629 -0.07508456
-0.029861268 -0.035174657 -0.006935556 -0.089289896 0.053968217 0.011762932 0.1447967 -0.048418164
0.020651355 -0.08072162 -0.17619897 0.10628421 0.03140648 -0.09005203 -0.07734139 0.062373742
-0.04065993 0.16290568 0.03008265 0.09574981 0.09288966 -0.058820706 0.09269169 0.16960229
0.010429522 0.045930695 0.007921732 0.1673463 -0.08658306 -0.12121975 0.09648129 -0.2042063
0.00039983142 -0.09997091 0.14022689 -0.22155222 0.12311018 0.22782288 0.04945865 -0.011960053
0.21597695 -0.09372509 -0.010548422 -0.08130252 -0.017277889 0.06168569 0.022502217 -0.043901786
-0.2172759 0.013424 0.00095958874 0.044375956 0.18430722 0.22677068 -0.13314712 -0.019187016
-0.09360138 -0.21309835 -0.15641138 0.20559712 0.12009446 0.11232443 0.13706282 -0.17540608
0.0102464855 0.21225083 -0.117475964 0.21658675 0.06767348 0.16208097 -0.09753384 0.10604192
-0.19940414 -0.0052566463 0.084825985 0.06256409 0.17388937 0.22545864 0.22702473 0.16401799
00000000: 25e1 80be 2e0d a3bd 20dc 2d3e 572f 14be
00000010: 8522 643e d4b6 68be cdce 83be 8e49 13be
00000020: 2227 2b3d 8f23 853e cd41 1fbe f6ee f23d
00000030: d434 cfbd 1752 5cbd 2ae4 713e 7a4f 7bbe
00000040: 1a9d 9e3c 25c4 8d3e 85f8 6ebd 0e22 703e
00000050: dae2 cbbd 1e44 7e3e ffff 96be 4ed9 27bd
00000060: 65e4 93bd 241d be3d 0a71 c93d c8d8 643e
00000070: 85aa 85bd 872f d3bc 875b 6b3e d1c6 c7bd
00000080: a4ee 8a3e 6522 64be ddab 1fbd c65e c3bc
00000090: 4e1a 113e af79 3a3e b699 46bd 68df 85be
000000a0: f0da 173e 5c6c c03d ed22 ff3d 34e8 4ebe
000000b0: 51cf 3d3e 03e0 863e 2e7f b53c 4e87 95be
000000c0: 071d 613e f1ab 70be fd83 8e3d 9e12 243d
000000d0: b4bb 27be df60 ff3d 9b09 95be 2fa5 a43d
000000e0: e02e 3fbe e85e f6bc bd71 243d 556b 833e
000000f0: 41e6 1bbe dbf8 383e 5e2a 37bd cc8b 19be
00000100: 6362 89be 862f 94be 8313 983e e238 b1bd
00000110: 7c8b 923c 86ab 903d 2cea 4f3e 2ed6 813e
00000120: 4eaa 803e eba8 65be 6cba 3ebd c1b4 3fbe
00000130: 13f4 3dbe a1f5 873d 04d0 8d3e a37a 82be
00000140: 1650 373e 5f43 3abe d2d2 85bd bd16 623e
00000150: afec b6bd 8876 943c 8119 72be 9d97 853e
00000160: 36cc 04bd 819f 6bbe 4d4f d33d 468c 5cbe
00000170: a412 77be 4685 313c 3dca 7f3e 9fab b2bd
00000180: 781f 1f3e b853 8b3e 2f2d 5d3e 0efb 22be
00000190: 04f9 c1bc b75f d3bd 2f03 83be ebee ec3a
000001a0: 81c6 703e f466 7d3e 6114 b83c 82f6 613d
000001b0: 7e00 11be 5393 443e 419f 11be 6722 64be
000001c0: f852 0a3d 0bd4 3b3e baca 91be 19af 8a3e
000001d0: 15ea b93d e3a7 62be 6f23 96bd 4a7e 863e
000001e0: cbdf 70be 1193 b3bd a0e5 d93d 1413 8abe
000001f0: f237 313e 51c7 033e 2bec 3c3e 2b25 55be
00000200: 6003 643e 8a29 08be 6ebd 6e3e 59d8 60be
00000210: 72ce 49be 9946 163e 631c f33c c227 443c
00000220: 4b1f fdbd 1be7 c1bd 5c5f 89bd 0ab5 63be
00000230: fe29 8c3c 4440 343d ad24 0ebb 3826 8e3d
00000240: 9fc8 583e 76d5 6e3d c7ca acbd 558c c1bd
00000250: 021c 15be 5870 23be c3b3 16bd 4554 20bd
00000260: 0f71 be3d c2ef b6bd f950 3b3e c55d 1bbe
00000270: 85d5 013b 1966 573e ba3b 683e e21d 07be
00000280: d4cf 3c3d aaa7 083d dd3c d1bd 50cb 9abd
00000290: 2b2d 5d3d f199 1ebe 29f0 093d ccb5 c93d
000002a0: 10db bdbd 9ef4 323e ac64 d9bc b9eb c23d
000002b0: 2b55 6d3e f33e 84bd 6828 ef3d efc5 99bd
000002c0: 9e9f f4bc 4d13 10bd a943 e3bb 9fdd b6bd
000002d0: c70d 5d3d 50b9 403c 9645 143e 2052 46bd
000002e0: 082d a93c 6051 a5bd 816d 34be 89ab d93d
000002f0: 15a4 003d 336d b8bd 2a65 9ebd 9c7b 7f3d
00000300: 078b 26bd bfd0 263e e46f f63c 7a18 c43d
00000310: ef3c be3d fbed 70bd 24d5 bd3d 39ac 2d3e
00000320: 96e0 2a3c d321 3c3d 27ca 013c d45c 2b3e
00000330: 7652 b1bd 0f42 f8bd fc97 c53d 751b 51be
00000340: 77a0 d139 8cbd ccbd a397 0f3e 96de 62be
00000350: 3121 fc3d 674a 693e 2795 4a3d 19f4 43bc
00000360: 1029 5d3e f1f2 bfbd 4ad3 2cbc f081 a6bd
00000370: 5c8a 8dbc 22aa 7c3d 9256 b83c 5cd2 33bd
00000380: 937d 5ebe 56f0 5b3c e98c 7b3a 90c3 353d
00000390: 08bb 3c3e 9336 683e b857 08be 172e 9dbc
000003a0: 15b2 bfbd 7436 5abe 4e2a 20be 0d88 523e
000003b0: 16f4 f53d 5a0a e63d 325a 0c3e a79d 33be
000003c0: e0e0 273c 4858 593e 3d97 f0bd ebc8 5d3e
000003d0: 6598 8a3d 8ef8 253e d2bf c7bd 822c d93d
000003e0: 9930 4cbe f23f acbb 3fb9 ad3d 9a21 803d
000003f0: 0e10 323e a1de 663e 2c79 683e 55f4 273e

block2_conv1d_bn_relu_2.op.bias f4 [16]
-0.013887577 -0.16271321 0.14998688 0.1595156 -0.01713518 -0.15472841 0.20474087 0.15010566
-0.044180065 -0.10593112 0.12707229 0.06047526 -0.022418093 0.13864829 0.24728486 -0.035637777
00000000: b888 63bc 4b9e 26be 2996 193e 0f58 233e
00000010: 145f 8cbc 2071 1ebe 97a7 513e 4cb5 193e
00000020: 28f6 34bd 6af2 d8bd 3d1f 023e e8b4 773d
00000030: 26a6 b7bc d1f9 0d3e 3e38 7d3e ebf8 11bd

block2_conv1d_bn_relu_3.op.weight f4 [16, 16, 3]
-0.33086562 0.14116146 -0.3273269 -0.35334435 -0.17284682 -0.29714525 -0.16314413 -0.23510632
-0.17477578 0.33599874 -0.08091994 0.2999693 0.009328503 -0.036655415 -0.098665446 -0.24631771
-0.27753294 0.25358263 -0.11526908 -0.33506602 0.33428252 0.0061417613 -0.23973806 -0.29061598
-0.28896424 -0.30066055 0.32386178 0.25473693 0.029850382 -0.2990687 -0.08683014 -0.35557172
0.10213146 -0.09239055 -0.0742962 -0.12367967 0.15668812 0.20541486 0.07182478 -0.054387305
-0.034557957 0.0032829628 -0.28287843 0.33339173 -0.14374205 0.19340716 -0.20974632 0.0062472923
0.17231941 -0.44926572 0.20127779 -0.3969473 0.019651905 -0.13127132 0.25263104 0.44772902
0.122469425 -0.0020624737 -0.23155981 0.19630048 -0.27521423 0.17566751 -0.22820461 0.28340232
0.33296767 0.26183322 -0.013953756 0.2188111 -0.45181474 0.3734264 -0.15926927 0.16395321
-0.08280263 -0.17002928 -0.24220769 0.29327917 -0.2850743 -0.11197775 0.23677108 0.050569344
-0.43453917 -0.48072037 -0.22826105 0.44265884 -0.3688249 0.2671092 0.3637275 -0.23519248
-0.23011874 -0.36003265 0.070420414 -0.08850552 0.0432832 0.21585926 0.1933511 -0.16334362
0.025994401 0.082153596 0.0052780337 0.06759494 -0.14132132 0.30017897 -0.044283826 -0.052674424
-0.33623806 -0.2767797 0.008234647 -0.054499235 -0.19268346 0.18649763 -0.044470206 0.14040421
0.31256822 -0.1679789 -0.19494662 -0.069895744 -0.028889595 -0.18544738 -0.09409134 -0.0076764203
0.16726373 0.34311143 0.28786385 0.031944886 -0.029554304 0.091691166 -0.014289107 -0.05197034
0.124352746 -0.3123993 -0.32002965 -0.0038493897 -0.11943574 -0.19640182 -0.34822744 0.2370274
-0.019158253 -0.2109899 -0.15307732 0.09391222 -0.2717239 0.013856389 -0.0096229 0.11989704
0.18291527 -0.3122554 0.19203712 0.3297652 0.0066384883 0.22851534 -0.16362068 0.09957627
0.11040797 -0.21721895 0.2947169 -0.4646082 -0.17967373 -0.26969042 -0.2759494 -0.2875345
-0.44730422 0.074323334 -0.0763072 -0.40389076 -0.0005045352 -0.06893134 0.23386236 -0.3397857
-0.13720387 0.09600376 0.18268538 0.03283142 0.122490026 0.45576 -0.17744538 0.3700524
0.3855248 -0.44436583 0.109276846 0.25822663 -0.08655279 0.25751337 0.0029107688 0.3719987
0.024961807 -0.30226225 0.36795816 0.10741512 0.40425462 0.11844889 0.22206624 0.27478814
0.105822444 -0.12164941 0.120581456 -0.36482778 0.007985784 -0.18000904 0.04045789 -0.40016228
0.32327285 -0.5129891 0.23199117 0.3390988 -0.49493247 0.46836513 -0.39576367 -0.11507081
0.26826027 -0.17641464 0.51105434 -0.21257046 -0.09012935 -0.3404794 -0.21968465 0.56814104
0.3952199 0.035980962 0.0394569 -0.46452907 0.39428848 -0.08785308 -0.26487243 -0.41574648
0.47361717 0.24521267 0.31467035 0.052613594 -0.32941988 0.22329058 0.06817782 0.17803037
-0.14097211 -0.23314898 0.44745657 0.18317823 -0.2543809 0.049373496 -0.09941958 -0.059741493
0.13734691 -0.18839027 0.21485 0.15989439 0.0018881364 -0.09310096 0.04621264 -0.15959959
0.15177916 -0.12671001 0.043505777 -0.23467025 0.11925651 0.15682822 0.17578219 0.01809769
00000000: 3867 a9be a18c 103e 6497 a7be 8de9 b4be
00000010: c2fe 30be 6c23 98be 410f 27be b6bf 70be
00000020: 6cf8 32be 0708 ac3e 5ab9 a5bd 9395 993e
00000030: 94d6 183c fd23 16bd 1c11 cabd b63a 7cbe
00000040: cc18 8ebe 95d5 813e 3212 ecbd c68d abbe
00000050: 1427 ab3e d440 c93b e57d 75be 9ecb 94be
00000060: 1ff3 93be 2ef0 99be 36d1 a53e e16c 823e
00000070: ca88 f43c 881f 99be 00d4 b1bd 7f0d b6be
00000080: 4d2a d13d 4237 bdbd 9b28 98bd c44b fdbd
00000090: da72 203e 4658 523e df18 933d 39c5 5ebd
000000a0: a58c 0dbd fa26 573b 71d5 90be 52b2 aa3e
000000b0: 1e31 13be 870c 463e bdc7 56be 16b6 cc3b
000000c0: 8074 303e 2806 e6be c41b 4e3e ad3c cbbe
000000d0: 08fd a03c fd6b 06be db58 813e bd3c e53e
000000e0: 40d1 fa3d 912a 07bb 041e 6dbe fe02 493e
000000f0: e1e8 8cbe 2fe2 333e 78ae 69be 1c1a 913e
00000100: bd7a aa3e 010f 863e 4b9e 64bc 0410 603e
00000110: 4354 e7be bf31 bf3e 7c17 23be 5ae3 273e
00000120: 6d94 a9bd 281c 2ebe 4b05 78be b028 963e
00000130: 42f5 91be 9754 e5bd 1e74 723e cd21 4f3d
00000140: eb7b debe fb20 f6be 44bd 69be 2ea4 e23e
00000150: 9ed6 bcbe 89c2 883e 7e3a ba3e 4cd6 70be
00000160: 3fa4 6bbe 3356 b8be 9438 903d 6242 b5bd
00000170: ba49 313d 360a 5d3e d5fd 453e 8d43 27be
00000180: 36f2 d43c 2540 a83d 5bf3 ac3b 376f 8a3d
00000190: 89b6 10be 0fb1 993e f562 35bd 23c1 57bd
000001a0: 6527 acbe 12b6 8dbe 9dea 063c 973a 5fbd
000001b0: d04e 45be 3cf9 3e3e 6426 36bd 1fc6 0f3e
000001c0: f108 a03e a902 2cbe 16a0 47be 8025 8fbd
000001d0: dfa9 ecbc ebe5 3dbe f6b2 c0bd 7b8a fbbb
000001e0: 2f47 2b3e 4dac af3e e462 933e a4d8 023d
000001f0: de1b f2bc 94c8 bb3d dc1c 6abc dade 54bd
00000200: a7ac fe3d cdf2 9fbe edda a3be 0b46 7cbb
00000210: ba9a f4bd 8f1d 49be de4a b2be 50b7 723e
00000220: c5f1 9cbc bd0d 58be 4dc0 1cbe 0d55 c03d
00000230: 651f 8bbe e805 633c 5ea9 1dbc 948c f53d
00000240: 244e 3b3e f1df 9fbe 61a5 443e fcd6 a83e
00000250: ad87 d93b edff 693e 2e8c 27be a5ee cb3d
00000260: 931d e23d a56e 5ebe 22e5 963e 20e1 edbe
00000270: 64fc 37be dd14 8abe 3d49 8dbe b937 93be
00000280: 0f05 e5be d536 983d f346 9cbd c5ca cebe
00000290: c942 04ba e02b 8dbd 9d79 6f3e 64f8 adbe
000002a0: 2c7f 0cbe 9f9d c43d e011 3b3e 3d7a 063d
000002b0: 0ddc fa3d 6059 e93e 3eb4 35be 8277 bd3e
000002c0: 8263 c53e eb83 e3be 8acc df3d 4836 843e
000002d0: 9742 b1bd cbd8 833e 99c2 3e3b 9d76 be3e
000002e0: b47c cc3c 1ec2 9abe 0365 bc3e 75fc db3d
000002f0: 76fa ce3e 5595 f23d 5565 633e 08b1 8c3e
00000300: 70b9 d83d 5323 f9bd 69f3 f63d b5ca babe
00000310: ced6 023c 4a54 38be 2cb7 253d 12e2 ccbe
00000320: 0584 a53e 4153 03bf 188f 6d3e 5c9e ad3e
00000330: ca67 fdbe 8ecd ef3e 89a1 cabe 3faa ebbd
00000340: 6959 893e 0aa6 34be 75d4 023f 12ac 59be
00000350: bd95 b8bd 5153 aebe 03f5 60be b171 113f
00000360: 435a ca3e c660 133d 8f9d 213d c1d6 edbe
00000370: 2ee0 c93e 51ec b3bd 5c9d 87be b9dc d4be
00000380: f37d f23e 0819 7b3e 791c a13e 5a81 573d
00000390: b9a9 a8be 49a6 643e d0a0 8b3d 984d 363e
000003a0: fe5a 10be 9bbe 6ebe 0719 e53e 1393 3b3e
000003b0: 373e 82be dd3b 4a3d 7e9c cbbd 7fb3 74bd
000003c0: aba4 0c3e 61e9 40be a301 5c3e 5bbb 233e
000003d0: 587b f73a b7ab bebd 7749 3d3d 136e 23be
000003e0: ff6b 1b3e 45c0 01be 1d33 323d 664d 70be
000003f0: c23c f43d 9497 203e 3f00 343e 9b41 943c

block2_conv1d_bn_relu_3.op.bias f4 [16]
0.27953818 0.050598387 0.11602451 -0.11477311 0.014334273 -0.042928122 -0.13732785 -0.18679884
-0.024616536 0.33036658 -0.11511593 0.35037553 -0.13344371 0.13056666 -0.10208168 0.38035697
00000000: a11f 8f3e 4140 4f3d 429e ed3d 2a0e ebbd
00000010: 4cda 6a3c 66d5 2fbd ac9f 0cbe 3248 3fbe
00000020: 9ea8 c9bc cf25 a93e e7c1 ebbd 6c64 b33e
00000030: 78a5 08be 44b3 053e 3310 d1bd 26be c23e

block2_conv1d_bn_relu_4.op.weight f4 [16, 16, 3]
-0.27129108 0.16192365 -0.19030584 -0.06536255 0.13838777 -0.06778616 -0.07146031 -0.20685692
-0.27125654 0.15040368 -0.07249475 0.21992654 0.025174813 0.0036292553 -0.29570976 0.019745968
-0.061538227 -0.17838939 -0.079253405 0.020602103 -0.23897712 0.064810395 0.22703691 0.05159485
0.29656687 0.16915533 -0.26668122 -0.12568411 -0.08228365 0.075063825 0.014014905 0.27153242
0.045338344 -0.20792904 -0.11714779 -0.27796638 -0.09011702 0.17128205 0.011638211 -0.31022403
-0.28468025 0.11895162 -0.27611426 -0.24489164 -0.18231325 0.31314763 -0.09776278 -0.14402829
-0.294984 0.27174482 -0.072659984 0.077592425 0.09804655 0.1262744 0.27532095 0.033570986
0.05969054 -0.020559026 -0.33033141 -0.09375115 0.38844585 -0.2975879 -0.25771096 -0.40770322
0.037758607 -0.37160343 -0.20901446 0.38976157 0.17668042 0.22168949 0.0676401 -0.3517658
-0.20039007 -0.3347539 -0.26174796 0.13020875 -0.11974896 0.40684023 -0.29505807 -0.3373916
0.432329 -0.36723462 0.36118937 0.11656587 -0.36359724 0.37211022 -0.10777279 -0.17536652
-0.3243714 -0.35367426 0.10470918 -0.39821082 0.18968835 -0.10116847 0.15952213 -0.10791879
0.09437907 -0.013404205 0.07355158 -0.10637417 -0.19025043 0.01795193 -0.16562565 -0.16259678
-0.25067636 -0.09637845 -0.19148308 0.2113877 0.18700932 0.07882488 0.21968672 0.14271627
-0.24828143 -0.02284341 -0.038480982 -0.1644745 0.07803367 -0.08332894 -0.13142475 -0.002121405
-0.1737202 0.21551487 0.18078034 0.26668984 -0.052480407 0.0846971 0.002479519 -0.21878348
0.11997001 -0.18748832 -0.107980266 -0.12662093 -0.2614085 0.005646946 0.04083144 -0.010027168
0.20181954 -0.0053017493 -0.048274267 -0.14356405 -0.15253124 -0.038872898 -0.16052668 -0.17433095
-0.06475227 -0.09498038 -0.2831837 0.26788113 0.39542538 -0.32047182 0.19890405 -0.21875912
-0.030901691 0.4114286 0.04902771 -0.4397335 0.42625466 -0.006169423 -0.23442419 -0.21778947
0.42493916 0.014085193 0.28744623 0.3135635 -0.17414396 0.053004235 -0.27253163 0.40205935
-0.23630929 0.32433364 0.1451483 0.31266382 -0.3146068 0.0009246131 0.24631958 -0.026480082
-0.02248485 0.2295491 -0.35575685 -0.10137994 0.1956614 0.19377615 0.40586 -0.07801605
0.12606919 -0.22839957 -0.08982293 -0.244872 0.36120355 0.003873366 0.18952087 0.2719331
0.087920226 0.039839294 -0.030699786 -0.37618193 0.07715634 -0.10981894 -0.3612988 0.42999458
-0.04216162 -0.22654688 -0.44945553 -0.4268383 0.16766742 -0.20144491 -0.19294523 -0.24971026
0.37460157 -0.09904728 0.30721268 0.3737958 -0.335932 0.32362032 -0.09026488 0.42371565
0.23064184 -0.44422224 0.08464641 0.1644845 -0.16313253 0.33130327 -0.36360872 -0.13692716
0.41562703 0.43995145 0.21554285 -0.2753346 -0.38956317 -0.36260563 -0.118815035 0.24845977
0.14466691 -0.05971014 0.41172263 0.34639767 -0.21420829 -0.1975902 -0.012952123 0.09409844
-0.03793062 0.25367737 0.4593106 -0.12026647 0.28463525 0.081731424 0.28110364 0.2961808
-0.14944473 -0.26060346 0.2466677 -0.4081965 0.32826748 -0.43481252 0.45366588 0.24355027
00000000: aae6 8abe 50cf 253e 89df 42be cddc 85bd
00000010: 86b5 0d3e 78d3 8abd c859 92bd 4dd2 53be
00000020: 23e2 8abe 6c03 1a3e 2178 94bd 6c34 613e
00000030: 693b ce3c cdd8 6d3b 4567 97be 4cc2 a13c
00000040: 820f 7cbd b5ab 36be 9c4f a2bd bec5 a83c
00000050: 6bb6 74be 50bb 843d 5d7c 683e 1f55 533d
00000060: 9dd7 973e 0e37 2d3e 718a 88be 56b3 00be
00000070: 5584 a8bd 10bb 993d c69e 653c 4c06 8b3e
00000080: b3b4 393d 5aeb 54be 2eeb efbd 9c51 8ebe
00000090: 468f b8bd 9064 2f3e 32ae 3e3c afd5 9ebe
000000a0: 9cc1 91be e89c f33d d95e 8dbe e0c4 7abe
000000b0: 53b0 3abe e354 a03e da37 c8bd 277c 13be
000000c0: 2508 97be 2322 8b3e c2ce 94bd c7e8 9e3d
000000d0: a1cc c83d 144e 013e def6 8c3e bb81 093d
000000e0: 117e 743d 676b a8bc 3321 a9be 9a00 c0bd
000000f0: 60e2 c63e 715d 98be b1f2 83be 7abe d0be
00000100: c5a8 1a3d ce42 bebe e307 56be d48e c73e
00000110: b6eb 343e 9202 633e e586 8a3d a61a b4be
00000120: 0e33 4dbe dd64 abbe d403 86be 7155 053e
00000130: f13e f5bd 5d4d d03e da11 97be 97be acbe
00000140: 3a5a dd3e 2d06 bcbe d0ed b83e 16ba ee3d
00000150: 6b29 babe 3b85 be3e fbb7 dcbd 4893 33be
00000160: 0214 a6be cb14 b5be c471 d63d 4ae2 cbbe
00000170: aa3d 423e 6a31 cfbd c559 233e 8704 ddbd
00000180: d049 c13d 509d 5bbc 36a2 963d b3da d9bd
00000190: 02d1 42be ed0f 933c c599 29be c57f 26be
000001a0: a758 80be 1162 c5bd 2414 44be 0476 583e
000001b0: 5f7f 3f3e f06e a13d 8ef5 603e 3724 123e
000001c0: 7d3d 7ebe 1a22 bbbc 3c9e 1dbd 016c 28be
000001d0: 1ed0 9f3d 5da8 aabd 3694 06be 4507 0bbb
000001e0: b5e3 31be eeaf 5c3e 7b1e 393e 928b 883e
000001f0: b2f5 56bd ac75 ad3d 6d7f 223b c708 60be
00000200: d6b2 f53d f0fc 3fbe c224 ddbd eba8 01be
00000210: 56d7 85be 040a b93b de3e 273d fe48 24bc
00000220: c8a9 4e3e 4cba adbb 3dbb 45bd 7402 13be
00000230: 2631 1cbe 3039 1fbd 1b61 24be d083 32be
00000240: d79c 84bd 1385 c2bd 74fd 90be b727 893e
00000250: 3275 ca3e e214 a4be 81ad 4b3e 6402 60be
00000260: 8b25 fdbc c5a6 d23e 48d1 483d c024 e1be
00000270: 0d3e da3e df28 cabb e50c 70be 3404 5fbe
00000280: a091 d93e 95c5 663c 272c 933e 658b a03e
00000290: cb52 32be f81a 593d 4489 8bbe b9da cd3e
000002a0: 10fb 71be 0f0f a63e c2a1 143e 7915 a03e
000002b0: 2414 a1be bc61 723a 333b 7c3e c2ec d8bc
000002c0: 2632 b8bc eb0e 6b3e c325 b6be 49a0 cfbd
000002d0: 765b 483e 416d 463e e2cc cf3e e1c6 9fbd
000002e0: 4818 013e 94e1 69be 16f5 b7bd babf 7abe
000002f0: acef b83e 4cd8 7d3b c211 423e d13a 8b3e
00000300: 850f b43d 872e 233d 1e7e fbbc eb9a c0be
00000310: 2504 9e3d c1e8 e0bd 28fc b8be 4028 dc3e
00000320: aab1 2cbd e8fb 67be 091f e6be 8d8a dabe
00000330: 02b1 2b3e 9347 4ebe 6f93 45be 0cb4 7fbe
00000340: c7cb bf3e 4dd9 cabd fb4a 9d3e 2a62 bf3e
00000350: 47ff abbe 90b1 a53e cbdc b8bd 42f1 d83e
00000360: 602d 6c3e 1971 e3be 195b ad3d a06e 283e
00000370: 370c 27be 95a0 a93e ec2a babe a236 0cbe
00000380: 11cd d43e 5141 e13e 44b7 5c3e a8f8 8cbe
00000390: d374 c7be 72a7 b9be 4c55 f3bd 3d6c 7e3e
000003a0: 9023 143e 9f92 74bd 4fcd d23e 095b b13e
000003b0: 6b59 5bbe 1655 4abe 2435 54bc afb6 c03d
000003c0: 235d 1bbd 00e2 813e c22a eb3e 444e f6bd
000003d0: b6bb 913e ce62 a73d d1ec 8f3e 03a5 973e
000003e0: 0a08 19be d16d 85be 7596 7c3e 22ff d0be
000003f0: ad12 a83e bf9f debe e546 e83e 3e65 793e

block2_conv1d_bn_relu_4.op.bias f4 [16]
0.18443522 0.17616263 0.13085584 -0.20053297 0.031477217 -0.09210075 0.16994452 -0.23627143
-0.0140609285 0.08779364 -0.084580764 0.15169528 -0.06624616 0.12629569 0.16762812 -0.084101446
00000000: 96dc 3c3e fa63 343e 13ff 053e 8458 4dbe
00000010: 41ee 003d 519f bcbd f005 2e3e 23f1 71be
00000020: cf5f 66bc 27cd b33d ae38 adbd 0256 1b3e
00000030: 11ac 87bd a853 013e b5a6 2b3e 613d acbd

block2_conv1d_bn_relu_5.op.weight f4 [16, 16, 3]
-0.47193548 0.107749544 -0.45675865 0.030729529 0.2720548 -0.12702659 0.3153131 0.15153342
-0.47459364 0.09057071 0.34586778 -0.17582005 0.030633586 0.061267473 0.038881928 0.13651495
-0.59750885 0.42863172 0.23190363 0.056707583 0.10451331 -0.47940162 -0.18075012 -0.034893252
0.12668237 -0.3426636 0.07233534 -0.18247405 0.41836104 -0.5097321 0.048543092 0.36744907
-0.46861574 -0.0012261677 0.28032914 0.24770007 0.06457474 0.26618925 -0.4254772 0.4929984
0.009376304 0.34995311 0.10441464 -0.088341035 0.24479868 0.5293666 0.580941 -0.50414413
0.033378065 -0.29651794 0.24112003 0.29776514 -0.3072142 -0.034343548 0.2999904 0.27860266
-0.30599606 0.2586643 -0.08455113 -0.3748504 0.07105685 0.20580907 0.23432936 -0.28060424
-0.32445318 -0.25578535 0.22383833 -0.35658777 -0.018896738 -0.12072625 0.16776788 0.0579768
-0.22495958 0.041550342 0.37443528 0.07524757 -0.21850869 0.012648977 -0.38212705 -0.26985922
-0.07879507 -0.25802967 0.3548158 0.09567427 0.33143505 -0.0855771 -0.06964554 0.13632321
-0.1453303 -0.13504596 -0.41334176 0.29294145 0.37369058 -0.40577126 -0.12192109 -0.29975593
-0.13354176 0.25897044 0.18621172 -0.03483825 0.15331946 0.09864756 0.17897505 -0.2783913
0.11211847 -0.3174175 -0.22490294 -0.12736043 -0.026242334 -0.32795632 0.005197474 0.04962955
-0.11680134 0.09384706 0.32299167 -0.06690054 -0.18358673 -0.30364445 -0.24971734 -0.18673441
-0.25220883 -0.11235409 0.18843667 0.10082032 0.3164384 0.34577543 -0.124943905 -0.13365251
0.04850528 -0.27434492 0.19243631 -0.06595087 -0.2932957 -0.2742748 -0.21613902 0.070332766
0.27084726 0.2796485 -0.08148178 -0.196528 -0.161827 -0.22593893 -0.0913988 -0.3120406
0.25386173 -0.4810464 -0.29930893 0.32300678 -0.36347395 0.12558813 0.378467 0.4956278
0.2527142 -0.13144276 0.26722687 -0.01924206 -0.14342682 0.011700502 0.1323188 0.33391687
0.21231093 0.26175246 0.07942269 -0.023876194 0.19518338 0.11074494 -0.46816903 0.09232473
-0.23936778 -0.24768251 0.17588307 0.084658764 0.093919285 -0.22759539 0.24223693 0.48502308
0.080649175 0.19837447 -0.4299787 0.2983859 0.16413899 0.19557162 0.21634188 -0.15719163
-0.05781429 0.4939346 0.348929 -0.35317022 0.40103573 0.49681494 0.06873433 -0.39568335
0.079896875 -0.094787344 0.30702868 -0.39456484 0.09203222 -0.04070821 0.023990458 0.31453344
0.04345859 -0.3505809 -0.25956392 -0.19027308 0.028913407 0.11613126 -0.10690923 -0.16289587
0.14731346 -0.43370286 0.2556183 -0.085410714 0.318013 0.25924712 0.013097437 0.09560785
-0.2481125 0.2743429 0.19475532 -0.03815477 0.16971351 -0.058974724 0.30487135 0.1411363
0.2630925 -0.362224 0.41139567 0.16760233 0.18050186 0.11136493 0.32042825 0.4004116
-0.0021411297 -0.32819194 0.3740778 -0.12535356 -0.20775282 0.23449443 0.21450773 0.047459025
-0.031219784 -0.07673399 0.38756973 0.2303616 0.23718424 0.26981354 -0.21738009 0.08630558
-0.35406354 0.24897775 -0.40023673 -0.39693558 -0.40561983 0.2414034 0.033162713 -0.006019342
00000000: 87a1 f1be cbab dc3d 45dc e9be 7ebc fb3c
00000010: c44a 8b3e 4213 02be b870 a13e 942b 1b3e
00000020: f0fd f2be 237d b93d 9515 b13e 2c0a 34be
00000030: 49f3 fa3c 9af3 7a3d a842 1f3d 93ca 0b3e
00000040: 57f6 18bf 9e75 db3e 2578 6d3e 3646 683d
00000050: 130b d63d 2174 f5be 8f16 39be 3aec 0ebd
00000060: 06b9 013e 9a71 afbe 8d24 943d 7ada 3abe
00000070: 6b33 d63e ce7d 02bf 1fd5 463d 4922 bc3e
00000080: 67ee efbe 5cb7 a0ba 4d87 8f3e 16a5 7d3e
00000090: c33f 843d f549 883e 26d8 d9be 496a fc3e
000000a0: 129f 193c 0e2d b33e 58d7 d53d 25ec b4bd
000000b0: 81ac 7a3e 9284 073f 8db8 143f 970f 01bf
000000c0: 70b7 083d 33d1 97be 2be8 763e ac74 983e
000000d0: 2e4b 9dbe d2ab 0cbd 5798 993e 02a5 8e3e
000000e0: 84ab 9cbe a66f 843e 2529 adbd 64ec bfbe
000000f0: 4186 913d 9dbf 523e 09f4 6f3e 5cab 8fbe
00000100: ba1e a6be 4cf6 82be e035 653e ac92 b6be
00000110: 55cd 9abc 533f f7bd 58cb 2b3e 1579 6d3d
00000120: ce5b 66be b130 2a3d fbb5 bf3e 661b 9a3d
00000130: bec0 5fbe a83d 4f3c 28a6 c3be fd2a 8abe
00000140: 4f5f a1bd 771c 84be 6baa b53e dff0 c33d
00000150: dbb1 a93e 0c43 afbd 52a2 8ebd 5098 0b3e
00000160: 77d1 14be 7d49 0abe 88a1 d3be 6cfc 953e
00000170: 5f54 bf3e 40c1 cfbe c4b1 f9bd 9c79 99be
00000180: 2cbf 08be c697 843e 49ae 3e3e 8eb2 0ebd
00000190: c7ff 1c3e bb07 ca3d 3c45 373e 4e89 8ebe
000001a0: 5e9e e53d 8c84 a2be f54c 66be c66a 02be
000001b0: 2afa d6bc e4e9 a7be 924f aa3b 5b48 4b3d
000001c0: 8a35 efbd e332 c03d 2a5f a53e 2603 89bd
000001d0: 29fe 3bbe 4977 9bbe e7b5 7fbe 4e37 3fbe
000001e0: 8421 81be e719 e6bd 8bf5 403e e27a ce3d
000001f0: 3704 a23e 7a09 b13e 97e2 ffbd 34dc 08be
00000200: 79ad 463d f076 8cbe 060e 453e 4011 87bd
00000210: db2a 96be bf6d 8cbe 8c53 5dbe a00a 903d
00000220: 7eac 8a3e 172e 8f3e ebdf a6bd a33e 49be
00000230: fab5 25be 895c 67be 4b2f bbbd c9c3 9fbe
00000240: 2afa 813e b74b f6be 053f 99be 2561 a53e
00000250: 4219 babe 2d9a 003e 6dc6 c13e edc2 fd3e
00000260: c163 813e ee98 06be f6d1 883e 86a1 9dbc
00000270: 7bde 12be 76b3 3f3c 947e 073e 27f7 aa3e
00000280: 0968 593e 6b04 863e 5da8 a23d 0298 c3bc
00000290: 27de 473e 3ece e23d dab3 efbe bf14 bd3d
000002a0: d41c 75be 7ca0 7dbe b11a 343e 9361 ad3d
000002b0: c158 c03d c40e 69be f50c 783e f254 f83e
000002c0: 652b a53d ad22 4b3e 2b26 dcbe 09c6 983e
000002d0: 0d14 283e ed43 483e ba88 5d3e d8f6 20be
000002e0: adce 6cbd ffe4 fc3e d2a6 b23e bad2 b4be
000002f0: 8e54 cd3e 875e fe3e 96c4 8c3d 0297 cabe
00000300: f9a0 a33d de1f c2bd dd32 9d3e 6704 cabe
00000310: 637b bc3d a7bd 26bd a387 c43c 870a a13e
00000320: a201 323d 577f b3be 90e5 84be f2d6 42be
00000330: cfdb ec3c 3ad6 ed3d 3af3 dabd 2dce 26be
00000340: 57d9 163e 4d0e debe 67e0 823e d0eb aebd
00000350: 9ad2 a23e 0abc 843e a296 563c 0cce c33d
00000360: 3411 7ebe ac76 8c3e f06d 473e 2d48 1cbd
00000370: 61c9 2d3e 7b8f 71bd 1918 9c3e 0986 103e
00000380: 0fb4 863e 6d75 b9be 74a2 d23e f29f 2b3e
00000390: 7bd5 383e 4c13 e43d 2c0f a43e c002 cd3e
000003a0: 3252 0cbb c608 a8be 2087 bf3e af5c 00be
000003b0: 28bd 54be 4f1f 703e eaa7 5b3e 6564 423d
000003c0: a2c0 ffbc b626 9dbd 8a6f c63e e9e3 6b3e
000003d0: 6de0 723e 0025 8a3e e398 5ebe fbc0 b03d
000003e0: d147 b5be 06f4 7e3e d4eb ccbe 243b cbbe
000003f0: 67ad cfbe 7432 773e a0d5 073d e73d c5bb

block2_conv1d_bn_relu_5.op.bias f4 [16]
-0.109509826 0.14021838 0.18607323 -0.3088124 -0.21016559 0.20032293 0.12438283 -0.05235005
0.2978935 0.15796995 -0.10595354 -0.06590007 0.07677948 0.28005528 0.22789097 0.24080227
00000000: b046 e0bd 6895 0f3e fb89 3e3e a91c 9ebe
00000010: a635 57be 7421 4d3e 6dbc fe3d 026d 56bd
00000020: 7f85 983e e0c2 213e 2bfe d8bd 9ef6 86bd
00000030: 8f3e 9d3d 6863 8f3e 405c 693e df94 763e

block2_conv1d_bn_relu_6.op.weight f4 [16, 16, 2]
0.016978543 -0.23766859 0.26849 0.011649166 0.1412573 -0.3780841 -0.21261115 0.43657112
0.05945149 0.19792415 -0.48967466 -0.24120593 -0.01803738 -0.061505795 0.37669256 -0.16961117
0.48369852 -0.118014865 0.2249947 -0.39828765 0.10523932 -0.5623133 -0.4858226 -0.35687712
0.16120441 0.046047136 0.066199824 -0.066246465 0.496613 0.5506393 0.24706545 0.45149967
-0.042062968 -0.20303452 0.048660617 0.3504455 -0.053744577 -0.4240135 0.19745582 -0.14451028
-0.30750346 0.34893072 0.024872066 -0.3088518 -0.38451228 0.5270682 0.3871567 -0.42169026
0.020955687 -0.008234022 0.27301767 -0.47340938 0.00063197565 0.20107628 0.3013386 0.055605575
-0.25332773 -0.52015805 0.3275592 0.49787346 -0.15855412 -0.494129 0.14052634 -0.43089014
-0.32496965 0.12664966 -0.06541484 -0.052989375 0.4170439 -0.10398811 0.28109878 -0.17149432
0.33992365 0.113741875 0.48011008 0.1572012 -0.17849122 0.18975991 0.40995616 0.07528442
0.2589418 -0.33947033 0.26405945 -0.42483157 0.40400523 0.17178504 0.047565416 -0.4195815
0.3799797 0.29675934 0.45170918 0.16330127 0.18888517 -0.14716034 -0.20626393 0.1732943
0.21705368 -0.028296899 0.09487683 0.21722746 -0.5853645 -0.53380066 -0.18182467 0.41191044
0.28366265 -0.60045516 -0.18283962 -0.056523237 0.19802557 0.49970332 0.023372142 -0.45967928
0.032789167 -0.23308045 -0.38115636 0.34888434 -0.10448604 0.27145624 0.47565904 0.05890908
0.35799694 -0.2917171 0.343086 0.02835175 0.39700493 0.58698714 -0.46724436 0.598095
0.38378352 -0.38761565 0.1356625 -0.41713095 0.17981397 0.1024684 -0.46876144 0.1715427
-0.13240491 0.48366717 0.48026824 0.178165 0.37448543 0.16747473 0.44839814 -0.071885176
0.12347252 -0.060804814 -0.008341622 -0.15362607 -0.19261906 0.31661394 0.18101633 -0.23106095
-0.4216983 0.25778708 -0.45482495 -0.0011872796 -0.4312311 0.46731234 0.38799104 -0.43431324
-0.5298124 -0.32924733 0.18498193 -0.29278228 -0.15163846 -0.14296599 0.15370727 -0.29507196
0.34235466 -0.474105 -0.10867069 0.5390136 -0.34734258 0.51475 0.30761904 -0.20028846
0.22879758 -0.45136717 0.027651584 0.17300461 0.58415693 -0.35386294 -0.38404682 -0.3014333
-0.5898192 0.23999575 -0.5271596 -0.1772328 -0.2876273 0.043028153 0.20437384 -0.45984507
-0.14241715 -0.051457636 -0.29697546 0.11055944 0.17940639 -0.3788758 0.43768832 0.39531562
-0.14315964 0.08456889 0.06100185 -0.064937785 -0.34637463 0.41332334 0.2864853 -0.41161138
-0.40901917 0.4798626 0.09016743 -0.10296704 0.34959593 0.17692132 0.22478184 0.42679283
-0.03080568 0.5106694 -0.38349485 -0.3265366 0.07059122 -0.050901674 0.31732723 -0.12630078
0.13044818 -0.14541735 0.4633459 -0.07467123 0.028402269 0.4849855 0.5529681 0.51825607
-0.5448595 -0.3186894 -0.11568704 -0.055103473 0.33691114 0.19342408 -0.046178546 0.013918574
0.09558927 0.5405038 0.3385445 -0.27488625 -0.2858324 0.24314032 -0.033999007 -0.37002838
-0.56591606 0.12117409 -0.1842047 -0.2923662 0.07173769 0.69519997 0.4638406 0.27132115
00000000: 9616 8b3c 655f 73be 8577 893e 25dc 3e3c
00000010: c1a5 103e 3d94 c1be bdb6 59be 4086 df3e
00000020: 6883 733d a1ac 4a3e a3b6 fabe b0fe 76be
00000030: 21c3 93bc 80ed 7bbd d9dd c03e 8dae 2dbe
00000040: 55a7 f73e c7b1 f1bd 0365 663e 5cec cbbe
00000050: b687 d73d c4f3 0fbf bdbd f8be 99b8 b6be
00000060: c512 253e ec9b 3c3d c693 873d 3aac 87bd
00000070: 0f44 fe3e b2f6 0c3f bafe 7c3e f72a e73e
00000080: 384a 2cbd 48e8 4fbe 5b50 473d 986d b33e
00000090: 4623 5cbd 4c18 d9be dc31 4a3e 81fa 13be
000000a0: 1871 9dbe 0ca7 b23e 81c0 cb3c d321 9ebe
000000b0: cbde c4be f1ed 063f 6739 c63e c9e7 d7be
000000c0: 43ab ab3c fee7 06bc f9c8 8b3e b762 f2be
000000d0: 2bab 253a f1e6 4d3e 0e49 9a3e acc2 633d
000000e0: 2cb4 81be 1429 05bf d7b5 a73e 45e9 fe3e
000000f0: 035c 22be 7afe fcbe 23e6 0f3e a29d dcbe
00000100: 6c62 a6be 73b0 013e 37f8 85bd 630b 59bd
00000110: c786 d53e b8f7 d4bd 2eec 8f3e 359c 2fbe
00000120: 790a ae3e 80f1 e83d fdd0 f53e 5af9 203e
00000130: 67c6 36be 6c50 423e c6e5 d13e b82e 9a3d
00000140: 0594 843e 0ecf adbe cd32 873e 8683 d9be
00000150: c6d9 ce3e 6be8 2f3e f4d3 423d 63d3 d6be
00000160: b38c c23e d7f0 973e 6d46 e73e 7338 273e
00000170: 1d6b 413e 33b1 16be da36 53be 1074 313e
00000180: 5243 5e3e e6ce e7bc c94e c23d e070 5e3e
00000190: 73da 15bf 29a7 08bf 3f30 3abe ede5 d23e
000001a0: 3b3c 913e 6eb7 19bf 4f3a 3bbe e984 67bd
000001b0: 37c7 4a3e 1dd9 ff3e ef76 bf3c 155b ebbe
000001c0: ef4d 063d a4ac 6ebe ed26 c3be f8a0 b23e
000001d0: c7fc d5bd 50fc 8a3e 9589 f33e a64a 713d
000001e0: 604b b73e f25b 95be f8a8 af3e ee41 e83c
000001f0: 3b44 cb3e ca44 163f a73a efbe c11c 193f
00000200: 467f c43e 8f75 c6be 1ceb 0a3e 3092 d5be
00000210: 2721 383e f4da d13d 8001 f0be e4a8 2f3e
00000220: 2795 07be 39a3 f73e b8e5 f53e e370 363e
00000230: 8ebc bf3e 7f7e 2b3e 7194 e53e 8938 93bd
00000240: 29df fc3d 780e 79bd 4cab 08bc 2750 1dbe
00000250: ee3d 45be 391b a23e 585c 393e 3e9b 6cbe
00000260: d7e8 d7be abfc 833e d1de e8be 7e9e 9bba
00000270: 53ca dcbe 9043 ef3e c3a6 c63e 4e5e debe
00000280: c9a1 07bf 1b93 a8be e76b 3d3e 8fe7 95be
00000290: 1d47 1bbe ad65 12be 7065 1d3e ac13 97be
000002a0: 1c49 af3e e4bd f2be bd8e debd ccfc 093f
000002b0: e3d6 b1be a8c6 033f 3e80 9d3e 6b18 4dbe
000002c0: ea49 6a3e 9919 e7be 9385 e23c 1f28 313e
000002d0: 4f8b 153f 862d b5be c9a1 c4be 7755 9abe
000002e0: 64fe 16bf 72c1 753e eef3 06bf 847c 35be
000002f0: e343 93be 4a3e 303d 6047 513e d070 ebbe
00000300: cdd5 11be 3ec5 52bd 2b0d 98be fd6c e23d
00000310: 4fb6 373e 02fc c1be af18 e03e cf66 ca3e
00000320: 7198 12be 7432 ad3d 13dd 793d 1afe 84bd
00000330: 0458 b1be 1e9f d33e 34ae 923e babe d2be
00000340: f66a d1be 8db0 f53e b4a9 b83d 62e0 d2bd
00000350: 3dfe b23e dd2a 353e 362d 663e 9784 da3e
00000360: 325c fcbc 3bbb 023f 7059 c4be ce2f a7be
00000370: 2192 903d 467e 50bd b778 a23e fe54 01be
00000380: 3594 053e 49e8 14be ac3b ed3e 3bed 98bd
00000390: e0ab e83c 0550 f83e 518f 0d3f 6eac 043f
000003a0: ea7b 0bbf 422b a3be 54ed ecbd 2eb4 61bd
000003b0: 9e7f ac3e f610 463e b725 3dbd bb0a 643c
000003c0: 4fc4 c33d 755e 0a3f b455 ad3e e4bd 8cbe
000003d0: a058 92be c7f9 783e 8b42 0bbd 5c74 bdbe
000003e0: e0df 10bf 1f2a f83d 28a0 3cbe 06b1 95be
000003f0: 36eb 923d a0f8 313f 847c ed3e 9bea 8a3e

block2_conv1d_bn_relu_6.op.bias f4 [16]
-0.045371994 0.1312061 -0.24042088 -0.11709638 -0.064733885 0.30486178 -0.13509107 -0.18411995
0.21120717 -0.13436072 -0.14412712 0.005943299 0.078542314 0.094237216 0.00048601255 0.0032515903
00000000: fcd7 39bd e45a 063e e430 76be 3ad0 efbd
00000010: 3393 84bd d816 9c3e 5055 0abe f189 3cbe
00000020: b146 583e db95 09be 0f96 13be 01c0 c23b
00000030: cbda a03d 71ff c03d 80cf fe39 a218 553b

block6_dense.op.weight f4 [2, 16]
0.22630218 0.41860992 0.4197782 -0.009046291 0.26645178 0.3575558 -0.07839279 0.35107368
0.012041247 -0.023901604 0.06262932 0.08930324 0.093780994 0.23548833 0.2715428 0.2910715
0.03721992 -0.32521787 -0.40952545 -0.34903973 -0.30056942 -0.27785662 -0.019238923 -0.3394765
-0.32880315 -0.0034702627 -0.30280325 -0.110497355 -0.35785347 -0.046068277 0.007366308 -0.3726152
00000000: c2bb 673e 0a54 d63e 2bed d63e e536 14bc
00000010: 5e6c 883e 8e11 b73e 668c a0bd eebf b33e
00000020: a748 453c 4ccd c3bc cd43 803d 9ee4 b63d
00000030: 4010 c03d da23 713e a807 8b3e 5307 953e
00000040: ea73 183d f582 a6be 52ad d1be 56b5 b2be
00000050: 3ce4 99be 3943 8ebe f29a 9dbc ddcf adbe
00000060: e358 a8be 596d 63bb 0709 9bbe 704c e2bd
00000070: 9238 b7be 17b2 3cbd 1261 f13b 6bc7 bebe

momentum_buffer f4 [4, 1, 4]
-0.0007777895 0.0047607357 0.001179266 0.003509745 -0.026773969 -0.020639848 -0.02229032 -0.018189622
-0.004762349 0.001152396 -0.00783291 -0.007031841 -0.0027602636 -0.0034864992 -0.0023413168 0.002282119
00000000: 92e4 4bba f2ff 9b3b 9a91 9a3a c003 663b
00000010: 1555 dbbc e614 a9bc 309a b6bc 6702 95bc
00000020: 7b0d 9cbb fe0b 973a 9b55 00bc 5c6b e6bb
00000030: 8ae5 34bb c07d 64bb c770 19bb 9a8f 153b

momentum_buffer f4 [4]
-0.02456781 0.24377626 0.023200765 -0.0053256303
00000000: 6f42 c9bc 7ca0 793e 880f be3c a082 aebb

momentum_buffer f4 [4, 4, 2]
-0.0016446303 -0.0017072645 0.0057028425 0.0045226086 -0.002095109 -0.0025745346 0.0026965537 -0.0011831932
-0.00010019043 -3.938887e-05 -7.864088e-06 -0.0003044483 -2.8521252e-05 6.273717e-05 0.00018241358 -0.0009240074
-0.0013384018 -0.00073654775 -0.001244384 -0.002043001 -0.00080592046 -0.0024841418 -5.526404e-05 -0.00093623204
-0.0010209617 -0.000986638 0.0055353907 0.005255334 -0.0008904342 -0.00056623144 0.00054120156 0.0015085686
00000000: a390 d7ba 4ac6 dfba e9de ba3b 6432 943b
00000010: 194e 09bb 86b9 28bb aab8 303b 6015 9bba
00000020: 541d d2b8 7a35 25b8 00f0 03b7 5c9e 9fb9
00000030: ec40 efb7 c391 8338 4646 3f39 1639 72ba
00000040: 506d afba e214 41ba 991a a3ba dee3 05bb
00000050: 6844 53ba fccc 22bb 50cb 67b8 786d 75ba
00000060: cad1 85ba 1452 81ba 3962 b53b f034 ac3b
00000070: 076c 69ba 266f 14ba 6cdf 0d3a 2abb c53a

momentum_buffer f4 [4]
0.009624051 0.013993197 -0.00891127 0.026135165
00000000: 32ae 1d3c b943 653c 9300 12bc 6a19 d63c

momentum_buffer f4 [16, 4, 9]
0.001221458 0.00040366428 0.0007532515 0.0009821214 0.0011147563 0.0016770741 0.0012890012 0.0011589029
0.0013713322 0.00041644933 0.00067904836 0.00061616534 0.0005934545 0.000631535 0.00015743931 0.00045340206
0.0007852355 0.0010676912 0.001033481 0.0014387693 0.0009726096 0.00039352773 0.00033141364 0.0005887921
0.00040981662 0.0017715434 0.0017116568 0.0003041324 0.0008115105 0.0008940465 0.00079795904 0.00017710758
0.0009373229 0.0005135477 0.0016932037 0.0011400402 -0.0019729245 -0.0019370462 -0.001517205 -0.0017577515
-0.0017127024 -0.0010940967 -0.0011713599 -0.0006028769 -0.0008772212 -0.00016822445 -0.00026412585 -0.00036919425
-0.0007719577 -0.00018713233 -0.00037828306 -0.000653941 -0.000826956 -0.0006900713 -0.0015396242 -0.0010079184
-0.0011937488 -0.00060992513 -0.0004991634 -0.0005442069 -0.00087640574 -0.0013433372 -0.0015023659 -0.0015496458
-0.0014652526 -0.0012167153 -0.0013587101 -0.0010418893 -0.0013012047 -0.0014424198 -0.0012535678 -0.0017282824
-0.00044219877 -0.0007820891 -0.0004682475 -0.0004255646 -0.0010458924 -0.000928225 -0.00060053327 -0.00047872966
-0.00037091153 -7.267489e-05 -3.979032e-05 6.2668674e-05 9.455891e-05 7.2588526e-05 0.00017299615 4.780948e-05
-0.00031114343 -0.0001854566 -2.983477e-05 -0.00036068071 -0.0002822538 -0.00034300055 -0.00046117872 -0.00038387044
9.348067e-05 -4.1312647e-05 4.0330873e-05 -0.00034035736 -0.00022380293 -0.0002927383 -0.00019124676 -0.00020080675
-0.0003956933 4.3563206e-05 -0.00040834583 -0.0003104966 -0.0034048415 -0.0028191768 -0.0019439649 -0.00214399
-0.0019303046 -0.0020254105 -0.0015644211 -0.0013091704 -0.0017009446 -0.00081789715 -0.0008420241 -0.00049522094
-0.0008574849 -0.0010006237 -0.00042341702 -0.0010311536 -0.0004581399 -0.0009006905 -0.0027295738 -0.0016226877
-0.0017033753 -0.0019727235 -0.0015030827 -0.0017207407 -0.0023347966 -0.00064998993 -0.0009913573 -0.0027978458
-0.0028169046 -0.001539845 -0.0024419401 -0.0015502542 -0.001858858 -0.0019846945 -0.00088239723 -0.001421865
-0.0015145995 -0.0009528555 -0.0013606242 -0.0012701219 -0.0018265726 -0.0007518759 -0.0008149031 -0.0009987982
9.525554e-05 -0.000286635 5.0323288e-06 4.5780704e-05 -0.00018259606 -8.810242e-05 0.00013544 -0.00012851725
-0.00088539877 -0.00073839986 -0.0011433786 -0.0013298817 -0.0005426137 -0.0003826287 -0.00045725706 -0.00019662516
-0.0010947355 -0.001658657 -0.0012921913 -0.0021154888 -0.0012449931 -0.0011327816 -0.0010451912 -0.0009561959
-0.00078008923 -0.00051314797 -0.0015526894 -0.0011404096 -0.0029617245 -0.0039793365 -0.0024117092 -0.0025714026
-0.0026819147 -0.0015186714 -0.0017785626 -0.00086331344 0.0003486346 -0.001016594 -0.00017405242 -0.00075403333
-0.00052920997 -0.00040004274 -0.00043968082 -3.149765e-05 0.00029331725 -0.00011436929 -0.0026978021 -0.003616802
-0.0027877623 -0.0024925694 -0.002821891 -0.0017802471 -0.0016694888 -0.0008238749 0.00024566625 -0.00249135
-0.0042043133 -0.003179979 -0.003191643 -0.0034572957 -0.0022236547 -0.0017609606 -0.0016190673 -0.00058822666
-0.0002846478 -3.077613e-05 -0.00057971705 -0.00076453417 -0.0005102958 -0.0005502813 -0.00035400275 -0.00080450386
-0.0007481181 -0.0002859541 -0.000644738 6.688533e-07 -0.000102045866 0.0005185533 8.091485e-05 6.0529783e-05
-0.000116575844 9.739414e-05 -0.00017360006 -0.00033995206 -0.00062945596 -0.00033059827 -9.782362e-05 0.00022160466
4.390411e-05 -0.00051806343 0.00020134024 -1.5959798e-05 -0.00051921053 -0.00049794413 -0.00043367493 -5.043963e-06
0.0002416198 -0.0007192603 -0.00025825275 -3.960148e-05 -0.0009725772 -0.0014495712 -0.00072450034 2.5121873e-05
00000000: 5419 a03a e7a2 d339 da75 453a 87ba 803a
00000010: 041d 923a 45d1 db3a b4f3 a83a 54e6 973a
00000020: 46be b33a e256 da39 2a02 323a 2886 213a
00000030: 0f92 1b3a 998d 253a 4b16 2539 98b6 ed39
00000040: 43d8 4d3a c6f1 8b3a de75 873a 1695 bc3a
00000050: baf6 7e3a 6652 ce39 96c1 ad39 2b59 1a3a
00000060: a8dc d639 2233 e83a ac59 e03a f673 9f39
00000070: 8cbb 543a 725e 6a3a 202e 513a f4b5 3939
00000080: adb6 753a 9a9f 063a 7dee dd3a 676d 953a
00000090: 2e4c 01bb 7ce4 fdba f4dc c6ba 5a64 e6ba
000000a0: c27c e0ba cb67 8fba 5188 99ba 620a 1eba
000000b0: 51f5 65ba 6865 30b9 5f7a 8ab9 6a90 c1b9
000000c0: 345d 4aba f438 44b9 4b54 c6b9 3d6d 2bba
000000d0: 14c8 58ba e7e5 34ba 37cd c9ba 211c 84ba
000000e0: 9077 9cba 62e3 1fba 4ada 02ba 1ba9 0eba
000000f0: 98be 65ba eb12 b0ba 09eb c4ba 7c1d cbba
00000100: b80d c0ba 317a 9fba bf16 b2ba 0190 88ba
00000110: 2f8d aaba 940f bdba c14e a4ba 8987 e2ba
00000120: ead6 e7b9 1c05 4dba 1e7f f5b9 501e dfb9
00000130: 5316 89ba 2054 73ba 1b6d 1dba 02fe fab9
00000140: e776 c2b9 0969 98b8 88e4 26b8 fd6c 8338
00000150: ee4d c638 ab3a 9838 4d66 3539 0a87 4838
00000160: f720 a3b9 2177 42b9 ae45 fab7 bf19 bdb9
00000170: 77fb 93b9 c1d4 b3b9 5cca f1b9 3842 c9b9
00000180: 0d0b c438 1e47 2db8 f228 2938 fe71 b2b9
00000190: a4ac 6ab9 ab7a 99b9 6989 48b9 a78f 52b9
000001a0: 0e75 cfb9 a3b7 3638 4017 d6b9 26ca a2b9
000001b0: c323 5fbb f0c1 38bb a3cc feba 2f82 0cbb
000001c0: 4602 fdba c0bc 04bb 430d cdba 7898 abba
000001d0: 3bf2 deba 2668 56ba 48bb 5cba b7d1 01ba
000001e0: d6c8 60ba 5c27 83ba 12fe ddb9 c627 87ba
000001f0: 7f32 f0b9 511c 6cba a6e2 32bb 5db0 d4ba
00000200: ca43 dfba cf48 01bb 1603 c5ba 7a8a e1ba
00000210: 6303 19bb 1664 2aba 6ef0 81ba 105c 37bb
00000220: d19b 38bb a0d4 c9ba f508 20bb e631 cbba
00000230: eda4 f3ba a611 02bb ad50 67ba df5d baba
00000240: 8785 c6ba 0dc9 79ba f956 b2ba 387a a6ba
00000250: 9b69 efba 8a19 45ba 399f 55ba 1bea 82ba
00000260: eec3 c738 8047 96b9 60db a836 a804 4038
00000270: 4277 3fb9 a0c3 b8b8 e604 0e39 96c2 06b9
00000280: 1b1a 68ba 2d91 41ba 6bdd 95ba 6d4f aeba
00000290: 303e 0eba 8e9b c8b9 01bc efb9 2a2d 4eb9
000002a0: 3a7d 8fba 4b67 d9ba bf5e a9ba 03a4 0abb
000002b0: 092f a3ba d879 94ba ccfe 88ba 38a9 7aba
000002c0: e77e 4cba c784 06ba 9c83 cbba cc79 95ba
000002d0: 7e19 42bb 1865 82bb c40d 1ebb fa84 28bb
000002e0: 10c3 2fbb 280e c7ba a81e e9ba fc4f 62ba
000002f0: f2c8 b639 3c3f 85ba d781 36b9 52aa 45ba
00000300: aeba 0aba d4bc d1b9 f684 e6b9 581c 04b8
00000310: 60c8 9939 8cd9 efb8 9ccd 30bb de07 6dbb
00000320: e4b2 36bb 605a 23bb 7aef 38bb 2e57 e9ba
00000330: c0d2 daba 4ff9 57ba c4cc 8039 eb45 23bb
00000340: 56c4 89bb 3267 50bb e22a 51bb cc93 62bb
00000350: bcba 11bb 08d0 e6ba e236 d4ba 3933 1aba
00000360: c83c 95b9 9e15 01b8 27f8 17ba 056b 48ba
00000370: 5fc5 05ba c140 10ba 7299 b9b9 57e5 52ba
00000380: 5b1d 44ba 1cec 95b9 a203 29ba 408b 3335
00000390: 7501 d6b8 86ef 073a d4b0 a938 5ce1 7d38
000003a0: 2e7a f4b8 1540 cc38 6908 36b9 983b b2b9
000003b0: 1302 25ba 2654 adb9 a826 cdb8 8c5e 6839
000003c0: ae25 3838 a6ce 07ba dc1e 5339 68e1 85b7
000003d0: a11b 08ba 7788 02ba dd5e e3b9 503f a9b6
000003e0: 525b 7d39 be8c 3cba 1966 87b9 c419 26b8
000003f0: 8df4 7eba 8aff bdba 65ec 3dba d0bc d237

momentum_buffer f4 [16]
0.0032524338 -0.0021115658 -0.0005562601 -0.0049498957 -8.170662e-05 0.00013293652 -0.0006640076 8.444814e-05
-0.0019683915 0.003758015 0.0032879522 0.0026878016 0.0004667113 -0.00037570356 -0.0019013935 0.0025588335
00000000: c926 553b 3262 0abb fcd1 11ba bc32 a2bb
00000010: e859 abb8 e064 0b39 cc10 2eba c019 b138
00000020: 2100 01bb 0849 763b af7a 573b d425 303b
00000030: eeb0 f439 14fa c4b9 2e38 f9ba 1ab2 273b
