trained_custom/checkpoints/old_epidenet_b_512samples_patient2_leaveout1/epidenet_b_v2.2_qat_best-q.pth.tar (torch, 42671 bytes, 14 tensors)

block1_conv1d_bn_relu_1.op.weight f4 [4, 1, 4]
000000 00 00 80 3f 00 00 3c 42 00 00 88 c2 00 00 74 c2
       1.0 47.0 -68.0 -61.0
000010 00 00 5c c2 00 00 d8 41 00 00 00 c1 00 00 c2 42
       -55.0 27.0 -8.0 97.0
000020 00 00 60 c1 00 00 9a 42 00 00 a6 c2 00 00 50 c2
       -14.0 77.0 -83.0 -52.0
000030 00 00 38 c2 00 00 00 c2 00 00 a0 c1 00 00 00 40
       -46.0 -32.0 -20.0 2.0

block1_conv1d_bn_relu_1.op.bias f4 [4]
000000 00 00 60 c4 00 00 20 44 00 00 b0 c4 00 00 00 c5
       -896.0 640.0 -1408.0 -2048.0

block2_conv1d_bn_relu_1.op.weight f4 [16, 4, 9]
000000 00 00 30 41 00 00 0c 42 00 00 80 c1 00 00 14 42
       11.0 35.0 -16.0 37.0
000010 00 00 e0 c0 00 00 a0 40 00 00 3c 42 00 00 40 c2
       -7.0 5.0 47.0 -48.0
000020 00 00 04 c2 00 00 88 c1 00 00 c0 c1 00 00 24 42
       -33.0 -17.0 -24.0 41.0
000030 00 00 18 c2 00 00 d8 c1 00 00 20 c2 00 00 4c c2
       -38.0 -27.0 -40.0 -51.0
000040 00 00 08 c2 00 00 2c 42 00 00 80 41 00 00 90 41
       -34.0 43.0 16.0 18.0
000050 00 00 00 c0 00 00 e0 c1 00 00 20 41 00 00 40 c2
       -2.0 -28.0 10.0 -48.0
000060 00 00 14 c2 00 00 d8 c1 00 00 00 42 00 00 b0 41
       -37.0 -27.0 32.0 22.0
000070 00 00 f8 c1 00 00 10 c1 00 00 f0 41 00 00 50 42
       -31.0 -9.0 30.0 52.0
000080 00 00 a8 41 00 00 00 41 00 00 0c 42 00 00 f0 c1
       21.0 8.0 35.0 -30.0
000090 00 00 20 41 00 00 24 c2 00 00 18 c2 00 00 f0 c1
       10.0 -41.0 -38.0 -30.0
0000a0 00 00 a8 41 00 00 98 41 00 00 0c c2 00 00 40 41
       21.0 19.0 -35.0 12.0
0000b0 00 00 c8 41 00 00 00 c1 00 00 80 3f 00 00 30 41
       25.0 -8.0 1.0 11.0
0000c0 00 00 04 42 00 00 48 42 00 00 24 c2 00 00 a0 c1
       33.0 50.0 -41.0 -20.0
0000d0 00 00 98 41 00 00 3c 42 00 00 38 42 00 00 3c 42
       19.0 47.0 46.0 47.0
0000e0 00 00 10 41 00 00 40 c2 00 00 00 40 00 00 10 c2
       9.0 -48.0 2.0 -36.0
0000f0 00 00 54 c2 00 00 30 42 00 00 10 42 00 00 54 c2
       -53.0 44.0 36.0 -53.0
000100 00 00 20 41 00 00 10 c1 00 00 20 c1 00 00 d0 c1
       10.0 -9.0 -10.0 -26.0
000110 00 00 90 41 00 00 0c c2 00 00 80 41 00 00 b8 41
       18.0 -35.0 16.0 23.0
000120 00 00 00 42 00 00 80 41 00 00 4c c2 00 00 00 c2
       32.0 16.0 -51.0 -32.0
000130 00 00 d8 41 00 00 40 41 00 00 18 c2 00 00 d0 c1
       27.0 12.0 -38.0 -26.0
000140 00 00 58 42 00 00 04 42 00 00 a0 c1 00 00 10 c1
       54.0 33.0 -20.0 -9.0
000150 00 00 34 c2 00 00 00 40 00 00 08 c2 00 00 10 c2
       -45.0 2.0 -34.0 -36.0
000160 00 00 80 c0 00 00 00 41 00 00 c0 c1 00 00 d8 41
       -4.0 8.0 -24.0 27.0
000170 00 00 00 c2 00 00 34 42 00 00 10 42 00 00 20 c2
       -32.0 45.0 36.0 -40.0
000180 00 00 40 c1 00 00 80 40 00 00 60 41 00 00 00 41
       -12.0 4.0 14.0 8.0
000190 00 00 80 41 00 00 80 bf 00 00 d0 c1 00 00 c8 41
       16.0 -1.0 -26.0 25.0
0001a0 00 00 38 c2 00 00 f0 c1 00 00 30 c1 00 00 88 c1
       -46.0 -30.0 -11.0 -17.0
0001b0 00 00 30 c1 00 00 d0 c1 00 00 e0 c0 00 00 c0 40
       -11.0 -26.0 -7.0 6.0
0001c0 00 00 a8 c1 00 00 80 bf 00 00 b0 41 00 00 80 c0
       -21.0 -1.0 22.0 -4.0
0001d0 00 00 80 3f 00 00 80 c0 00 00 80 40 00 00 90 41
       1.0 -4.0 4.0 18.0
0001e0 00 00 d8 41 00 00 88 41 00 00 e0 41 00 00 80 c0
       27.0 17.0 28.0 -4.0
0001f0 00 00 f0 c1 00 00 80 c1 00 00 a8 41 00 00 00 00
       -30.0 -16.0 21.0 0.0
000200 00 00 80 c1 00 00 c8 c1 00 00 f0 c1 00 00 d0 c1
       -16.0 -25.0 -30.0 -26.0
000210 00 00 c0 c0 00 00 80 41 00 00 88 41 00 00 f0 c1
       -6.0 16.0 17.0 -30.0
000220 00 00 98 41 00 00 c8 c1 00 00 00 c1 00 00 50 c1
       19.0 -25.0 -8.0 -13.0
000230 00 00 c0 c0 00 00 c0 c0 00 00 e8 c1 00 00 e0 c1
       -6.0 -6.0 -29.0 -28.0
000240 00 00 90 c1 00 00 40 c0 00 00 00 c2 00 00 b8 41
       -18.0 -3.0 -32.0 23.0
000250 00 00 5c c2 00 00 c0 c0 00 00 54 42 00 00 f8 c1
       -55.0 -6.0 53.0 -31.0
000260 00 00 4c 42 00 00 90 41 00 00 7c c2 00 00 10 42
       51.0 18.0 -63.0 36.0
000270 00 00 60 c1 00 00 0c c2 00 00 30 42 00 00 58 c2
       -14.0 -35.0 44.0 -54.0
000280 00 00 80 40 00 00 40 c1 00 00 0c 42 00 00 50 41
       4.0 -12.0 35.0 13.0
000290 00 00 c8 41 00 00 b0 41 00 00 70 c1 00 00 70 c1
       25.0 22.0 -15.0 -15.0
0002a0 00 00 50 c2 00 00 e0 41 00 00 30 42 00 00 10 42
       -52.0 28.0 44.0 36.0
0002b0 00 00 40 c2 00 00 00 00 00 00 2c c2 00 00 04 c2
       -48.0 0.0 -43.0 -33.0
0002c0 00 00 14 c2 00 00 98 41 00 00 20 c2 00 00 c0 c0
       -37.0 19.0 -40.0 -6.0
0002d0 00 00 c0 40 00 00 48 42 00 00 68 c2 00 00 64 c2
       6.0 50.0 -58.0 -57.0
0002e0 00 00 64 c2 00 00 48 42 00 00 20 c2 00 00 70 42
       -57.0 50.0 -40.0 60.0
0002f0 00 00 70 41 00 00 00 40 00 00 40 c0 00 00 a8 c1
       15.0 2.0 -3.0 -21.0
000300 00 00 a0 40 00 00 a8 c1 00 00 00 c0 00 00 00 40
       5.0 -21.0 -2.0 2.0
000310 00 00 78 c2 00 00 24 c2 00 00 88 42 00 00 84 c2
       -62.0 -41.0 68.0 -66.0
000320 00 00 40 c0 00 00 9a 42 00 00 98 41 00 00 40 c0
       -3.0 77.0 19.0 -3.0
000330 00 00 a0 c2 00 00 04 42 00 00 8a c2 00 00 a8 c1
       -80.0 33.0 -69.0 -21.0
000340 00 00 d8 c1 00 00 20 c1 00 00 80 3f 00 00 64 42
       -27.0 -10.0 1.0 57.0
000350 00 00 80 40 00 00 74 42 00 00 20 42 00 00 7c c2
       4.0 61.0 40.0 -63.0
000360 00 00 d8 41 00 00 30 c2 00 00 e8 c1 00 00 80 41
       27.0 -44.0 -29.0 16.0
000370 00 00 90 41 00 00 38 42 00 00 b0 c1 00 00 00 00
       18.0 46.0 -22.0 0.0
000380 00 00 e0 41 00 00 7c c2 00 00 44 42 00 00 54 c2
       28.0 -63.0 49.0 -53.0
000390 00 00 80 3f 00 00 60 c1 00 00 14 c2 00 00 80 40
       1.0 -14.0 -37.0 4.0
0003a0 00 00 3c 42 00 00 f0 c1 00 00 18 c2 00 00 b0 c1
       47.0 -30.0 -38.0 -22.0
0003b0 00 00 80 c2 00 00 d8 41 00 00 04 c2 00 00 2c c2
       -64.0 27.0 -33.0 -43.0
0003c0 00 00 18 c2 00 00 10 42 00 00 f0 41 00 00 2c 42
       -38.0 36.0 30.0 43.0
0003d0 00 00 b8 41 00 00 c0 c1 00 00 a0 c1 00 00 70 41
       23.0 -24.0 -20.0 15.0
0003e0 00 00 48 42 00 00 70 41 00 00 f8 c1 00 00 00 c2
       50.0 15.0 -31.0 -32.0
0003f0 00 00 5c c2 00 00 80 41 00 00 e8 c1 00 00 40 c2
       -55.0 16.0 -29.0 -48.0

block2_conv1d_bn_relu_1.op.bias f4 [16]
000000 00 00 e0 44 00 00 20 c4 00 00 78 45 00 00 58 45
       1792.0 -640.0 3968.0 3456.0
000010 00 00 68 45 00 00 48 45 00 00 60 45 00 00 60 45
       3712.0 3200.0 3584.0 3584.0
000020 00 00 90 c5 00 00 28 45 00 00 70 c5 00 00 8c 45
       -4608.0 2688.0 -3840.0 4480.0
000030 00 00 40 44 00 00 84 c5 00 00 84 45 00 00 08 45
       768.0 -4224.0 4224.0 2176.0

block2_conv1d_bn_relu_2.op.weight f4 [16, 16, 8]
000000 00 00 e0 41 00 00 18 c2 00 00 e0 40 00 00 00 42
       28.0 -38.0 7.0 32.0
000010 00 00 60 41 00 00 40 40 00 00 30 42 00 00 80 bf
       14.0 3.0 44.0 -1.0
000020 00 00 88 c1 00 00 50 42 00 00 80 41 00 00 28 c2
       -17.0 52.0 16.0 -42.0
000030 00 00 30 c1 00 00 00 c2 00 00 44 42 00 00 60 c1
       -11.0 -32.0 49.0 -14.0
000040 00 00 64 c2 00 00 c0 40 00 00 10 42 00 00 00 00
       -57.0 6.0 36.0 0.0
000050 00 00 10 41 00 00 20 41 00 00 c8 41 00 00 a0 c1
       9.0 10.0 25.0 -20.0
000060 00 00 40 c1 00 00 24 c2 00 00 e8 c1 00 00 04 42
       -12.0 -41.0 -29.0 33.0
000070 00 00 c8 c1 00 00 20 41 00 00 80 41 00 00 80 3f
       -25.0 10.0 16.0 1.0
000080 00 00 08 c2 00 00 5c 42 00 00 e8 c1 00 00 50 42
       -34.0 55.0 -29.0 52.0
000090 00 00 34 c2 00 00 88 c1 00 00 f8 41 00 00 e8 c1
       -45.0 -17.0 31.0 -29.0
0000a0 00 00 0c 42 00 00 3c c2 00 00 24 c2 00 00 e0 c1
       35.0 -47.0 -41.0 -28.0
0000b0 00 00 00 41 00 00 40 42 00 00 c8 c1 00 00 98 41
       8.0 48.0 -25.0 19.0
0000c0 00 00 60 c1 00 00 60 c1 00 00 30 42 00 00 40 c2
       -14.0 -14.0 44.0 -48.0
0000d0 00 00 00 00 00 00 50 42 00 00 40 c0 00 00 18 42
       0.0 52.0 -3.0 38.0
0000e0 00 00 88 c1 00 00 7c 42 00 00 38 c2 00 00 a0 c0
       -17.0 63.0 -46.0 -5.0
0000f0 00 00 40 c0 00 00 98 41 00 00 a8 41 00 00 2c 42
       -3.0 19.0 21.0 43.0
000100 00 00 90 c1 00 00 30 c1 00 00 88 41 00 00 e8 c1
       -18.0 -11.0 17.0 -29.0
000110 00 00 28 42 00 00 04 c2 00 00 80 bf 00 00 a0 c0
       42.0 -33.0 -1.0 -5.0
000120 00 00 40 41 00 00 f8 41 00 00 40 c1 00 00 3c c2
       12.0 31.0 -12.0 -47.0
000130 00 00 e0 41 00 00 30 41 00 00 a0 41 00 00 f8 c1
       28.0 11.0 20.0 -31.0
000140 00 00 b0 41 00 00 18 42 00 00 80 bf 00 00 5c c2
       22.0 38.0 -1.0 -55.0
000150 00 00 f0 41 00 00 18 c2 00 00 88 41 00 00 70 41
       30.0 -38.0 17.0 15.0
000160 00 00 c8 c1 00 00 d0 41 00 00 34 c2 00 00 40 41
       -25.0 26.0 -45.0 12.0
000170 00 00 28 c2 00 00 50 c1 00 00 c0 40 00 00 68 42
       -42.0 -13.0 6.0 58.0
000180 00 00 1c c2 00 00 b0 41 00 00 20 c1 00 00 0c c2
       -39.0 22.0 -10.0 -35.0
000190 00 00 5c c2 00 00 50 c2 00 00 38 42 00 00 80 c1
       -55.0 -52.0 46.0 -16.0
0001a0 00 00 a0 c0 00 00 10 41 00 00 f8 41 00 00 10 42
       -5.0 9.0 31.0 36.0
0001b0 00 00 04 42 00 00 2c c2 00 00 10 c1 00 00 b0 c1
       33.0 -43.0 -9.0 -22.0
0001c0 00 00 f8 c1 00 00 c0 40 00 00 60 42 00 00 24 c2
       -31.0 6.0 56.0 -41.0
0001d0 00 00 04 42 00 00 0c c2 00 00 30 c1 00 00 50 42
       33.0 -35.0 -11.0 52.0
0001e0 00 00 40 c1 00 00 80 40 00 00 10 c2 00 00 34 42
       -12.0 4.0 -36.0 45.0
0001f0 00 00 00 00 00 00 2c c2 00 00 30 41 00 00 24 c2
       0.0 -43.0 11.0 -41.0
000200 00 00 38 c2 00 00 00 00 00 00 24 42 00 00 90 c1
       -46.0 0.0 41.0 -18.0
000210 00 00 c8 41 00 00 38 42 00 00 14 42 00 00 f0 c1
       25.0 46.0 37.0 -30.0
000220 00 00 20 c1 00 00 a0 c1 00 00 44 c2 00 00 e0 c0
       -10.0 -20.0 -49.0 -7.0
000230 00 00 18 42 00 00 24 42 00 00 00 c0 00 00 c0 40
       38.0 41.0 -2.0 6.0
000240 00 00 a8 c1 00 00 34 42 00 00 b8 c1 00 00 1c c2
       -21.0 45.0 -23.0 -39.0
000250 00 00 40 41 00 00 14 42 00 00 48 c2 00 00 44 42
       12.0 37.0 -50.0 49.0
000260 00 00 a8 41 00 00 14 c2 00 00 20 c1 00 00 40 42
       21.0 -37.0 -10.0 48.0
000270 00 00 28 c2 00 00 88 c1 00 00 90 41 00 00 44 c2
       -42.0 -17.0 18.0 -49.0
000280 00 00 f0 41 00 00 e8 41 00 00 04 42 00 00 10 c2
       30.0 29.0 33.0 -36.0
000290 00 00 58 42 00 00 0c c2 00 00 5c 42 00 00 58 c2
       54.0 -35.0 55.0 -54.0
0002a0 00 00 4c c2 00 00 0c 42 00 00 c0 40 00 00 40 40
       -51.0 35.0 6.0 3.0
0002b0 00 00 f0 c1 00 00 98 c1 00 00 88 c1 00 00 58 c2
       -30.0 -19.0 -17.0 -54.0
0002c0 00 00 80 40 00 00 40 41 00 00 80 bf 00 00 88 41
       4.0 12.0 -1.0 17.0
0002d0 00 00 54 42 00 00 a0 41 00 00 a8 c1 00 00 b8 c1
       53.0 20.0 -21.0 -23.0
0002e0 00 00 00 c2 00 00 10 c2 00 00 e0 c0 00 00 10 c1
       -32.0 -36.0 -7.0 -9.0
0002f0 00 00 e0 41 00 00 b0 c1 00 00 2c 42 00 00 18 c2
       28.0 -22.0 43.0 -38.0
000300 00 00 50 c1 00 00 10 42 00 00 2c 42 00 00 2c c2
       -13.0 36.0 43.0 -43.0
000310 00 00 00 00 00 00 40 c0 00 00 08 c2 00 00 d8 c1
       0.0 -3.0 -34.0 -27.0
000320 00 00 60 41 00 00 1c c2 00 00 20 41 00 00 c0 41
       14.0 -39.0 10.0 24.0
000330 00 00 b8 c1 00 00 34 42 00 00 a0 c0 00 00 c8 41
       -23.0 45.0 -5.0 25.0
000340 00 00 2c 42 00 00 d8 c1 00 00 98 41 00 00 c0 c1
       43.0 -27.0 19.0 -24.0
000350 00 00 80 c1 00 00 80 c1 00 00 c0 c0 00 00 c8 c1
       -16.0 -16.0 -6.0 -25.0
000360 00 00 60 41 00 00 80 40 00 00 14 42 00 00 30 c1
       14.0 4.0 37.0 -11.0
000370 00 00 c0 40 00 00 88 c1 00 00 30 c2 00 00 b8 41
       6.0 -17.0 -44.0 23.0
000380 00 00 80 3f 00 00 c8 c1 00 00 b8 c1 00 00 10 41
       1.0 -25.0 -23.0 9.0
000390 00 00 70 c1 00 00 04 42 00 00 00 c0 00 00 80 41
       -15.0 33.0 -2.0 16.0
0003a0 00 00 50 41 00 00 c8 c1 00 00 50 41 00 00 e8 41
       13.0 -25.0 13.0 29.0
0003b0 00 00 10 c1 00 00 80 3f 00 00 e0 c0 00 00 e8 41
       -9.0 1.0 -7.0 29.0
0003c0 00 00 c0 c1 00 00 e0 c1 00 00 f0 41 00 00 34 c2
       -24.0 -28.0 30.0 -45.0
0003d0 00 00 00 00 00 00 b0 c1 00 00 24 42 00 00 44 c2
       0.0 -22.0 41.0 -49.0
0003e0 00 00 0c 42 00 00 54 42 00 00 10 41 00 00 80 c0
       35.0 53.0 9.0 -4.0
0003f0 00 00 54 42 00 00 d8 c1 00 00 c0 c0 00 00 c0 c1
       53.0 -27.0 -6.0 -24.0

block2_conv1d_bn_relu_2.op.bias f4 [16]
000000 00 00 c0 44 00 00 60 44 00 00 b0 c4 00 00 00 45
       1536.0 896.0 -1408.0 2048.0
000010 00 00 60 44 00 00 10 c5 00 00 90 c4 00 00 30 45
       896.0 -2304.0 -1152.0 2816.0
000020 00 00 18 c5 00 00 58 c5 00 00 b0 c4 00 00 00 43
       -2432.0 -3456.0 -1408.0 128.0
000030 00 00 30 45 00 00 20 45 00 00 c0 44 00 00 c0 44
       2816.0 2560.0 1536.0 1536.0

block6_dense.op.weight f4 [2, 16]
000000 00 00 d0 42 00 00 4c 42 00 00 0c 42 00 00 da 42
       104.0 51.0 35.0 109.0
000010 00 00 98 c1 00 00 a8 41 00 00 80 40 00 00 e2 42
       -19.0 21.0 4.0 113.0
000020 00 00 d8 c1 00 00 5c 42 00 00 f0 c1 00 00 74 42
       -27.0 55.0 -30.0 61.0
000030 00 00 a8 42 00 00 c0 41 00 00 ec 42 00 00 2c 42
       84.0 24.0 118.0 43.0
000040 00 00 c2 c2 00 00 d8 c1 00 00 00 c1 00 00 70 c2
       -97.0 -27.0 -8.0 -60.0
000050 00 00 90 41 00 00 b6 c2 00 00 a0 c0 00 00 b0 c1
       18.0 -91.0 -5.0 -22.0
000060 00 00 40 c0 00 00 44 c2 00 00 60 c1 00 00 e4 c2
       -3.0 -49.0 -14.0 -114.0
000070 00 00 de c2 00 00 2c c2 00 00 80 c2 00 00 a0 40
       -111.0 -43.0 -64.0 5.0

momentum_buffer f4 [4, 1, 4]
000000 39 d2 c8 3b a1 da 19 3c 76 b0 44 3b 44 fe 70 3b
       0.006128576 0.009390504 0.0030012405 0.0036772648
000010 1a fd ad bb b3 8e cb 38 21 c1 f2 ba 0a 20 98 3b
       -0.005309713 9.706374e-05 -0.0018520692 0.004642491
000020 9d 70 87 bb de 2d d4 3a dc 1f 04 bc 29 95 c7 bb
       -0.0041332976 0.0016187986 -0.0080642365 -0.0060907793
000030 bb 1e 11 bc 65 dd 02 bc 14 e7 e0 bb c3 4d a1 bb
       -0.008857424 -0.007987355 -0.006863484 -0.0049226

momentum_buffer f4 [4]
000000 bf 8f 23 bd a2 fa a2 3c d9 17 72 3c f0 22 e7 3c
       -0.03993201 0.019894902 0.014776194 0.028214902

momentum_buffer f4 [16, 4, 9]
000000 6c b5 28 3a 5d 4f 64 3a 42 5f 0e 3a ad ff 7d 3a
       0.00064357254 0.0008709336 0.00054310646 0.0009689283
000010 8d ab 20 3a 6a a2 4c 3a f9 1b 8d 3a 16 c4 b4 39
       0.00061290787 0.0007806184 0.0010765783 0.0003447837
000020 6f 50 d6 39 9b dd d7 b8 c5 ec 35 b9 ee 6c a7 39
       0.00040877188 -0.00010293276 -0.00017349709 0.0003193388
000030 5a 0e 95 b9 d5 85 3d b9 d5 44 7d b9 0e 53 b0 b9
       -0.00028430187 -0.00018074301 -0.00024153602 -0.00033631217
000040 30 93 4a b9 2a 86 88 39 66 28 86 39 88 e0 a1 39
       -0.00019319053 0.000260399 0.0002558857 0.00030875602
000050 30 20 7d 39 8d b3 8c 38 83 ed c0 39 68 ec ff b6
       0.00024139951 6.709164e-05 0.00036798054 -7.6271135e-06
000060 5a 8c 06 38 a8 43 b5 38 1a d5 02 3a e2 aa 9e 39
       3.2078802e-05 8.6433545e-05 0.0004990861 0.00030263426
000070 b0 a5 b5 b8 4d 6b 04 39 f3 e3 02 3a ec 78 38 3a
       -8.661614e-05 0.00012628474 0.00049930735 0.0007037062
000080 43 4d 07 3a a7 98 c5 39 02 15 0f 3a 3c 77 1e 37
       0.0005161354 0.00037688503 0.00054581475 9.445295e-06
000090 44 69 83 39 14 25 3e b9 c4 1a 1b b9 b8 82 df b8
       0.00025064696 -0.00018133625 -0.00014791923 -0.00010657817
0000a0 43 be ae 39 7a d1 d5 39 1f 77 05 39 17 5a fd 39
       0.00033329622 0.00040782598 0.00012728244 0.00048323043
0000b0 d4 d7 28 3a 00 e7 64 39 fd f3 a3 39 88 58 c0 39
       0.00064408523 0.00021829829 0.00031271568 0.00036687055
0000c0 4c ed 0c 3a 2b 47 19 3a ec d8 aa b8 ff c9 84 38
       0.0005375936 0.00058470917 -8.1466365e-05 6.331875e-05
0000d0 49 10 b2 39 94 35 df 39 c4 6a de 39 51 d6 d4 39
       0.0003396294 0.00042573793 0.00042422686 0.0004059547
0000e0 aa de 00 39 ac 9e bc b9 b9 4f fb 36 97 af 5d b9
       0.0001228998 -0.00035976374 7.489664e-06 -0.00021141615
0000f0 05 2c 5e b9 33 4e 05 3a bc a6 f7 39 c8 8f a5 b9
       -0.00021187968 0.00050852 0.00047235738 -0.00031578378
000100 3b 84 cc 38 7c f9 5e b8 b6 72 4e b8 1e 7e 7e b9
       9.752108e-05 -5.3161275e-05 -4.922106e-05 -0.0002427031
000110 47 42 29 39 81 80 e4 b8 68 c3 9b 39 0b e1 b3 39
       0.00016141786 -0.00010895823 0.00029709493 0.0003430921
000120 c4 c6 26 ba 4c f0 57 ba bd b0 a7 ba 78 37 aa ba
       -0.0006362016 -0.0008237406 -0.0012793761 -0.0012986502
000130 3d 38 65 ba b1 b9 50 ba 4a 66 80 ba 04 bb 87 ba
       -0.0008744037 -0.00079622405 -0.000979611 -0.0010355418
000140 89 ed 37 ba 92 16 9a b7 46 c9 b3 b9 45 d5 6f b9
       -0.00070162915 -1.836874e-05 -0.000342915 -0.00022872265
000150 9d 7f fd b9 c1 ae 2f b9 82 65 c8 b9 45 95 d9 b9
       -0.00048351 -0.00016754401 -0.00038222602 -0.0004150068
000160 f0 35 33 b9 e9 6b 8e b9 cc b9 22 ba 79 81 8d b9
       -0.00017090864 -0.0002716475 -0.00062074955 -0.0002699008
000170 28 b5 26 ba c0 07 05 b9 15 f2 5c b9 50 9a 1d ba
       -0.0006359392 -0.00012686756 -0.00021071018 -0.0006012069
000180 fe 70 89 b9 e7 90 92 b9 9a 85 d5 b9 42 a3 ad b9
       -0.00026214862 -0.0002795525 -0.00040726067 -0.00033118768
000190 1d a7 96 b9 5f d7 c6 b9 4a 44 1a ba cf 62 81 b9
       -0.0002873474 -0.00037925967 -0.00058848097 -0.00024678416
0001a0 a9 8b 24 ba 4e 33 be b9 e0 f5 98 b9 89 5d 0a ba
       -0.00062769145 -0.0003627785 -0.0002917489 -0.000527822
0001b0 8e d8 ca b9 db 8f e5 b9 9b 22 6c b9 b4 17 21 b9
       -0.00038689788 -0.00043785464 -0.00022519605 -0.00015362987
0001c0 1f e7 cc b9 3c 75 a5 b9 f6 90 53 b9 fa 42 de b9
       -0.0003908211 -0.000315586 -0.0002017653 -0.0004239304
0001d0 36 8c 06 ba 21 83 d2 b9 10 41 c4 b9 65 e8 91 b9
       -0.00051325874 -0.0004015202 -0.00037432509 -0.00027829703
0001e0 a4 31 5e b9 f1 7e 82 b9 44 0c 0d b9 af 1a 9c b9
       -0.00021190062 -0.0002489011 -0.00013451377 -0.0002977452
0001f0 cc 29 d6 b9 15 24 95 b9 4a df f2 38 c4 ae 3e b7
       -0.00040848402 -0.00028446378 0.0001158105 -1.1365573e-05
000200 f5 57 f0 b8 f9 c5 4c b9 62 5e 7c b9 a1 d6 84 b9
       -0.00011460475 -0.00019528707 -0.00024067753 -0.00025336913
000210 19 d0 08 b9 2e ad 41 38 c7 d0 0f b7 11 cd 86 b9
       -0.00013047493 4.6176072e-05 -8.572074e-06 -0.00025711258
000220 78 fc 10 39 be 30 48 b9 28 f6 76 b8 e5 b1 da b8
       0.00013826962 -0.00019091644 -5.888022e-05 -0.000104281855
000230 b6 fd 80 b8 e1 fe c0 b8 29 3b 96 b9 0c d5 9e b9
       -6.150773e-05 -9.202748e-05 -0.00028654307 -0.0003029484
000240 3a 1a ef ba 8d aa cf ba 7a ec e8 ba a5 cf ad ba
       -0.0018242069 -0.0015843675 -0.0017770671 -0.0013260735
000250 ed 63 f6 ba 27 18 e0 ba b8 a5 c5 ba 5f dc 11 bb
       -0.0018798091 -0.0017097042 -0.0015079295 -0.0022256596
000260 38 ec ea ba cb 55 b4 b9 16 9d 58 ba d6 5c 03 b9
       -0.0017923182 -0.00034396196 -0.0008263154 -0.00012527718
000270 b7 e0 f4 b9 4d ed 10 ba 70 27 d6 36 f8 9e 35 ba
       -0.00046706732 -0.00055285246 6.382288e-06 -0.000692829
000280 d6 00 9c b9 b1 d2 fe b9 88 3b 9f b9 19 42 a1 b9
       -0.00029755261 -0.00048603633 -0.00030371197 -0.0003075756
000290 07 24 46 b9 a4 43 ec b8 ad d4 ca b9 02 85 06 ba
       -0.00018896173 -0.00011265956 -0.00038686898 -0.0005131514
0002a0 3d 3c 7c ba 82 bc f6 b9 c1 eb 04 ba e0 c2 71 b9
       -0.00096220133 -0.00047061226 -0.00050705305 -0.00023056148
0002b0 33 32 34 ba 04 59 84 b9 6e dd 06 ba e8 1a c9 b9
       -0.00068739353 -0.00025243324 -0.000514469 -0.00038357754
0002c0 03 c7 04 ba 8c cf 80 b9 d5 71 5a ba 3e 4c 44 ba
       -0.00050650554 -0.00024568697 -0.00083330023 -0.00074881676
0002d0 f4 de 0d b9 b9 5c b5 39 90 76 e6 b9 e3 8e d3 b9
       -0.00013529864 0.00034592094 -0.00043957355 -0.00040351515
0002e0 09 f0 dd b9 7e 33 85 39 74 61 d6 b9 4c f9 b7 39
       -0.00042331245 0.00025406101 -0.0004088987 0.0003509022
0002f0 d5 d2 95 39 2c 78 e5 b7 bd 59 db b8 2e 2a 60 b9
       0.00028576577 -2.7354887e-05 -0.00010459449 -0.00021378018
000300 3e 30 25 37 9c 5c 53 b9 5b 59 8c b8 07 b2 ef b7
       9.845999e-06 -0.00020157028 -6.692364e-05 -2.857392e-05
000310 cc 4b 03 ba fb 7e ba b9 47 61 cf 39 19 ce 14 ba
       -0.0005008548 -0.00035571292 0.00039554594 -0.0005676463
000320 78 4c 6c b8 40 c7 0f 3a 55 b3 b3 38 c3 55 65 b9
       -5.6338e-05 0.00054847077 8.568788e-05 -0.0002187109
000330 62 69 4f ba 70 89 16 39 0a 4e d0 b9 e7 c0 8f b9
       -0.00079121266 0.00014356314 -0.00039730995 -0.0002741881
000340 72 11 95 b9 ce c7 f2 b8 32 7b 51 b8 c5 70 c2 39
       -0.00028432492 -0.00011576676 -4.9944218e-05 0.00037086583
000350 04 4b d9 b8 a4 d8 8e 39 33 fb 1b 39 d7 46 db b9
       -0.00010361339 0.0002724576 0.00014875531 -0.00041823715
000360 58 c7 2c b9 6c d0 1d ba b5 24 db b9 7a 3d 84 b9
       -0.0001647746 -0.0006020132 -0.00041798284 -0.00025222806
000370 fd 8f d8 b9 87 7c 76 b9 e0 87 12 ba 2d d9 bf b9
       -0.0004130601 -0.00023506778 -0.0005589705 -0.00036592167
000380 48 28 82 38 20 c5 ff b9 44 25 ab 39 47 e3 c9 b9
       6.206386e-05 -0.0004878426 0.00032643427 -0.00038507042
000390 cb b0 3d 37 d4 59 d4 b8 54 e5 a0 b9 69 9b 12 b8
       1.1306441e-05 -0.000101256795 -0.0003068844 -3.495385e-05
0003a0 17 6b 25 39 1d 8b 53 b9 ee 5b f4 b9 8c 21 7c b9
       0.0001577552 -0.00020174352 -0.000466078 -0.0002404509
0003b0 36 71 01 ba 72 b7 63 38 58 db 07 ba 83 69 28 ba
       -0.0004937829 5.4291864e-05 -0.0005182526 -0.0006424414
0003c0 0e 58 fb b9 3a 12 c4 38 21 43 02 39 96 17 58 39
       -0.00047940057 9.349403e-05 0.00012422774 0.00020608152
0003d0 96 27 6d 38 08 df 28 b9 1b 6e 61 b9 c5 d5 c0 b8
       5.654207e-05 -0.00016104814 -0.0002149869 -9.195091e-05
0003e0 aa de c8 38 8c e8 04 b9 a8 6f d2 b9 37 ee be b9
       9.5782176e-05 -0.00012675131 -0.00040137512 -0.00036417108
0003f0 8e 8e 9d b9 72 5a 43 39 04 a6 c5 b8 0f ce 41 b9
       -0.00030051585 0.00018630343 -9.424615e-05 -0.00018482677

momentum_buffer f4 [16]
000000 f8 b0 e6 3a 92 73 90 3a e5 af ec ba 3e d6 d7 ba
       0.0017600348 0.0011020771 -0.0018057792 -0.0016467047
000010 b4 53 af bb 8e 10 8d 39 3c e1 a3 b9 8e 1c cd 3a
       -0.0053505544 0.0002690595 -0.00031257595 0.0015648769
000020 03 96 05 3b 22 d2 46 b9 87 3a 07 bb e6 42 03 bc
       0.0020383603 -0.00018961032 -0.002063425 -0.008011555
000030 a3 a2 29 b9 0b f5 0a ba 8c 22 64 3a cb 7e 28 3b
       -0.00016177683 -0.00053007965 0.00087026577 0.002571034

momentum_buffer f4 [16, 16, 8]
000000 be 98 f3 b9 39 73 78 ba 28 15 1b ba da 13 d3 b9
       -0.00046462374 -0.0009477619 -0.0005915933 -0.00040259847
000010 ac 88 02 ba b6 48 28 ba e3 a3 cf b9 d3 b1 3d ba
       -0.0004979472 -0.0006419526 -0.00039604222 -0.00072362757
000020 e5 3e a9 b9 b0 ce da 38 56 76 3a b9 57 7a 10 ba
       -0.00032281052 0.000104335486 -0.00017782426 -0.0005511394
000030 91 93 9e b9 b6 40 f7 b9 ba 48 a7 38 d0 00 be b9
       -0.00030246054 -0.00047159725 7.976727e-05 -0.0003624023
000040 ab 88 71 ba 36 28 07 ba 88 ad 98 b9 df 82 f7 b9
       -0.00092137855 -0.0005155833 -0.0002912099 -0.00047209018
000050 80 25 d4 b9 25 c8 f4 b9 67 61 c6 b9 4b 6f 28 ba
       -0.0004046373 -0.00046688426 -0.00037838073 -0.00064252754
000060 e5 59 ec b9 fe 0e 34 ba 30 93 1a ba 49 43 11 b9
       -0.00045080404 -0.0006868689 -0.00058965664 -0.00013853343
000070 dd 3e 19 ba e9 aa b3 b9 52 4d a1 b9 12 e1 c5 b9
       -0.0005845854 -0.00034268879 -0.0003076592 -0.00037742459
000080 30 0f 40 ba 0a f6 01 b9 fa 5f 40 ba de 79 26 b9
       -0.0007326482 -0.00012394055 -0.00073385204 -0.00015876393
000090 77 a1 51 ba cb 58 19 ba 65 b5 95 b9 4b 95 37 ba
       -0.00079967774 -0.0005849718 -0.00028554644 -0.00070031424
0000a0 16 14 9c b8 6d c2 23 ba df 38 2a ba 51 29 0e ba
       -7.442401e-05 -0.0006246928 -0.000649346 -0.0005423027
0000b0 05 1d a4 b9 f0 2d 03 b8 7b bf 1a ba f2 ea 3c b9
       -0.0003130214 -3.1275616e-05 -0.00059031666 -0.00018016601
0000c0 ac ee 3a ba ae 8d 45 ba 64 67 b3 b9 81 24 83 ba
       -0.0007130902 -0.00075360655 -0.00034218573 -0.0010005386
0000d0 1c 3b 2b ba 44 6c 98 b9 03 9f 40 ba ab 01 c3 b9
       -0.00065319403 -0.00029072363 -0.00073479133 -0.0003719454
0000e0 20 a4 92 b9 37 98 93 39 23 1c 13 ba de 16 3e b9
       -0.00027969573 0.00028151434 -0.00056117977 -0.0001812833
0000f0 d7 7e 2a b9 78 ec 88 b7 42 3b 37 b7 b4 00 27 39
       -0.00016259715 -1.6322578e-05 -1.0921447e-05 0.00015926623
000100 d7 5b 17 ba 82 dc 06 ba d4 81 c1 b9 72 94 36 ba
       -0.0005773878 -0.00051445526 -0.00036908558 -0.0006964869
000110 01 4d af b8 57 90 21 ba e7 fa d4 b9 7a 01 fc b9
       -8.3589934e-05 -0.0006163171 -0.00040622728 -0.00048066286
000120 f4 67 c1 b9 c4 9c 9c b9 6b fe 24 ba 6c 89 5f ba
       -0.0003688928 -0.00029871438 -0.0006294015 -0.00085272524
000130 70 fe b3 b9 07 ba d6 b9 dc 37 bc b9 58 af 3b ba
       -0.0003433111 -0.00040955862 -0.00035899773 -0.0007159612
000140 3a 22 85 ba 0f a8 69 ba c2 5b 90 ba 2e 63 c9 ba
       -0.0010157295 -0.00089132873 -0.0011013674 -0.0015364641
000150 2c 71 74 ba 14 88 bd ba ea eb 84 ba 00 44 86 ba
       -0.0009324725 -0.001446011 -0.0010141109 -0.0010243654
000160 44 e4 78 ba d4 3a 30 ba 3e d5 9c ba c2 2f 40 ba
       -0.00094944634 -0.0006722633 -0.0011965407 -0.0007331335
000170 6c 80 92 ba 24 17 65 ba ba 01 49 ba 83 85 e0 b9
       -0.0011177189 -0.0008739105 -0.0007667799 -0.00042824083
000180 b4 71 72 ba d2 bf 01 ba fe 21 54 ba 83 21 6b ba
       -0.00092485105 -0.0004949543 -0.00080922234 -0.0008969532
000190 dd f2 83 ba aa b8 87 ba 64 d1 b6 b9 5f 3d 3f ba
       -0.0010066886 -0.0010354717 -0.00034869753 -0.0007295217
0001a0 83 b5 02 ba 5c f6 c9 b9 16 07 4a b9 1b fa 55 b9
       -0.0004986154 -0.0003852126 -0.00019266861 -0.00020406434
0001b0 0f 8f 7e b9 7f 9a 4c ba eb ba 03 ba 7e d5 1b ba
       -0.00024276621 -0.0007805004 -0.00050251064 -0.00059445936
0001c0 4e a1 32 ba cf 6d c4 b9 04 8b d5 b7 29 00 4e ba
       -0.00068141974 -0.00037465847 -2.5456313e-05 -0.00078583
0001d0 44 c4 54 b9 f7 aa 35 ba 20 85 0b ba 25 47 e0 b8
       -0.0002029101 -0.0006930078 -0.00053222664 -0.00010694404
0001e0 67 1d 9a b9 4a 2b 3a b9 8a f6 00 ba fa 18 0a 39
       -0.00029395075 -0.00017754469 -0.00049195497 0.0001317001
0001f0 a1 0a 62 b9 06 73 03 ba 4b e8 d3 b8 bb 74 0a ba
       -0.00021556999 -0.0005014393 -0.00010104532 -0.00052816764
000200 9b 2c 24 ba 51 1d 81 b9 9d ce 75 38 fe 85 df b9
       -0.000626275 -0.0002462664 5.8604975e-05 -0.00042633706
000210 c7 10 0b b9 21 5f 90 37 02 e6 28 b8 3c 53 08 ba
       -0.00013262323 1.7210436e-05 -4.0268533e-05 -0.0005200391
000220 ca 7d 34 b9 d3 23 82 b9 46 6d ea b9 57 6c fe b8
       -0.00017212998 -0.00024822223 -0.00044713373 -0.00012131844
000230 c2 83 39 39 5f 9f 61 39 21 31 a9 b8 d0 04 12 b8
       0.00017692058 0.00021517042 -8.067699e-05 -3.4813595e-05
000240 68 ce c5 b9 47 7c 10 39 69 b2 b8 b9 f0 f4 fb b9
       -0.00037728553 0.00013779207 -0.0003522814 -0.00048056943
000250 0a 21 e8 b8 a4 ff b1 38 67 1c 0f ba ec cb 56 39
       -0.00011068776 8.4876345e-05 -0.00054592494 0.00020484597
000260 8e ac 5f 37 74 9c e0 b9 3a b2 62 b9 cf c6 83 39
       1.3332012e-05 -0.00042841176 -0.00021619434 0.0002513439
000270 2b a9 e7 b9 66 d9 7d b9 77 82 08 38 14 50 fa b9
       -0.00044185793 -0.00024208947 3.254643e-05 -0.0004774338
000280 e0 1f 85 b5 10 28 00 36 b4 5c 41 38 ff c9 fb b9
       -9.918549e-07 1.9096806e-06 4.6101122e-05 -0.0004802495
000290 22 a3 7d 39 bf 6b e0 b9 9c a4 91 39 e9 de 0f ba
       0.00024188732 -0.00042804886 0.000277792 -0.00054882333
0002a0 6c 51 06 ba ad 25 db 38 d0 e8 fa b8 58 7b 00 b9
       -0.0005123827 0.000104497514 -0.00011964294 -0.0001225298
0002b0 3b aa c0 b9 a3 10 84 b9 41 58 4b b9 dc 32 01 ba
       -0.00036747925 -0.00025189397 -0.00019392466 -0.0004928538
0002c0 fa c2 63 b9 fb 7e 2f b9 2d 8e 8b b9 0b 98 15 b9
       -0.00021721041 -0.00016736604 -0.00026618075 -0.00014266388
0002d0 59 2f 04 39 b1 f8 03 b9 f5 6a ca b9 f2 40 c8 b9
       0.0001260614 -0.00012585778 -0.00038608132 -0.0003819536
0002e0 7e ef aa b9 c2 55 b4 b9 7a f0 e8 b8 dc 93 01 b9
       -0.00032603362 -0.0003439617 -0.00011107414 -0.0001235748
0002f0 84 62 2f 39 1a 6b 64 b9 45 a1 a0 39 c9 47 a9 b9
       0.00016726 -0.00021783673 0.00030637733 -0.00032287676
000300 52 48 96 b9 38 b1 85 38 2d 16 03 39 c7 26 fe b9
       -0.00028664112 6.374944e-05 0.00012501395 -0.00048475547
000310 92 b5 16 b9 8e 60 46 b9 b1 96 da b9 45 f1 b5 b9
       -0.00014372755 -0.00018918721 -0.00041692474 -0.0003470277
000320 20 6a c2 b8 9d 6c 02 ba a9 c3 0b b9 b8 2c 2a b8
       -9.270408e-05 -0.0004975291 -0.00013328962 -4.0572806e-05
000330 0a 74 be b9 af 7b 08 39 9b 3f 7c b9 ea dc b5 b7
       -0.0003632608 0.00013016046 -0.00024056288 -2.1679753e-05
000340 72 26 f1 b8 4c d9 2c ba 6d ef a3 b9 1e 95 30 ba
       -0.000114989365 -0.0006593659 -0.0003126817 -0.00067360874
000350 d1 7b 18 ba 57 d4 18 ba 09 44 07 ba b0 f8 27 ba
       -0.000581679 -0.0005829981 -0.00051599793 -0.0006407602
000360 9f 68 57 b9 cc e9 92 b9 08 48 12 b8 ad a6 c9 b9
       -0.00020542972 -0.00028021482 -3.4876197e-05 -0.0003846189
000370 c7 42 89 b9 ae aa fd b9 f1 63 31 ba 6e fb 05 b9
       -0.0002618043 -0.00048383087 -0.00067669066 -0.00012777533
000380 f6 6d 67 b9 d4 8f ee b9 e8 b6 df b9 2a 30 45 b9
       -0.0002207084 -0.00045502058 -0.0004267015 -0.00018805327
000390 64 b0 d9 b9 29 a6 73 b8 a4 84 96 b9 47 32 2c b9
       -0.00041520887 -5.8090463e-05 -0.00028709054 -0.00016421928
0003a0 4e 2d 55 b8 a9 14 b3 b9 e0 70 9f b8 da 2c 6a 38
       -5.082535e-05 -0.00034156934 -7.6027354e-05 5.583172e-05
0003b0 23 1b 6a b9 23 49 30 b9 a1 a2 6e b9 3a 1f a6 38
       -0.00022326088 -0.00016811914 -0.00022758033 7.921313e-05
0003c0 0c 16 b3 b9 dc a1 cc b9 50 31 d6 37 d4 e0 0b ba
       -0.00034157967 -0.00039030507 2.553375e-05 -0.0005335931
0003d0 dc 98 35 b9 fd 58 ba b9 ae 78 06 39 ae a6 0b ba
       -0.0001731845 -0.00035542986 0.00012824193 -0.00053272664
0003e0 89 b1 24 39 a1 fc 9b 39 7e 3b 0c b8 00 a9 04 b9
       0.00015706396 0.00029752127 -3.3434007e-05 -0.00012651458
0003f0 b4 12 b1 39 0f fa 8c b9 9a e7 f2 b8 cf 6f 7f b9
       0.00033774006 -0.0002688919 -0.000115825984 -0.00024360347

momentum_buffer f4 [16]
000000 27 57 6b bb 1b f3 ac ba 09 e3 fb b9 3f cb 4a bb
       -0.00359101 -0.001319501 -0.00048043605 -0.0030943898
000010 be 18 84 39 b4 65 eb ba e7 89 2d b9 9e e4 3c bb
       0.00025195436 -0.0017959387 -0.00016549938 -0.002882279
000020 21 52 88 39 4b 7c 08 bb 4d 5c 22 39 92 a2 35 bb
       0.00026001132 -0.0020826038 0.00015483909 -0.0027715308
000030 e3 e2 56 bb b1 13 3b ba 71 e1 73 bb a4 92 05 ba
       -0.0032789044 -0.0007136418 -0.003721323 -0.00050953985

momentum_buffer f4 [2, 16]
000000 bb 97 05 ba d0 3d 26 ba 3d b4 8c b9 f9 f6 2d ba
       -0.0005096157 -0.0006341608 -0.0002683717 -0.0006636228
000010 9d 36 07 ba f6 e6 c1 ba a7 9c 1b ba 47 9d 11 ba
       -0.00051579793 -0.0014793563 -0.0005936124 -0.0005554747
000020 b3 e7 cc ba 3d c8 05 bb fe a0 59 ba d0 2c c3 ba
       -0.0015633017 -0.002041354 -0.0008301883 -0.0014890675
000030 5f 21 4c ba ee 72 1e ba a6 01 df b9 2a 07 70 b9
       -0.0007786955 -0.00060443475 -0.00042535103 -0.00022890852
000040 05 f5 4d 38 3f 48 91 39 ea f6 62 39 3a e4 8b 39
       4.9104e-05 0.00027710383 0.00021645022 0.00026682188
000050 74 10 c5 39 87 0d da 39 24 a7 c5 39 24 84 da 39
       0.00037587027 0.0004159028 0.00037699298 0.00041678653
000060 20 32 44 3a 52 79 57 3a a6 03 da 39 0a 91 a0 39
       0.0007484276 0.0008219677 0.00041582918 0.0003062564
000070 59 19 af 38 10 0d 57 39 8e 55 51 39 8d 5e 3f 39
       8.349372e-05 0.00020508864 0.00019963665 0.00018250402
