trained_custom/checkpoints/old_epidenet_b_512samples_patient2_leaveout1/epidenet_b_v3.1_qat_best.pth.tar (torch, 69375 bytes, 18 tensors)

block1_conv1d_bn_relu_1.op.weight f4 [4, 1, 4]
000000 08 20 15 3b 36 a5 2c 40 f6 a0 7f c0 25 da 63 c0
       0.0022754688 2.6975837 -3.9941993 -3.5601895
000010 9e 63 35 c0 77 e5 e5 3f ca cf 54 be 37 09 b1 40
       -2.8342052 1.7960652 -0.2078239 5.532375
000020 3c 8b b0 bf 70 49 7d 40 77 05 93 c0 58 d1 3e c0
       -1.3792491 3.9576073 -4.594417 -2.9815273
000030 20 9e 34 c0 31 81 f8 bf 32 8f 98 bf d3 fa 1d 3e
       -2.8221512 -1.9414426 -1.19187 0.15427713

block1_conv1d_bn_relu_1.op.bias f4 [4]
000000 fa ef 8a bf fc 1b 74 3f 8b e6 6c bf f5 2e 89 bf
       -1.0854485 0.953552 -0.9253928 -1.0717455

block2_conv1d_bn_relu_1.op.weight f4 [16, 4, 9]
000000 3f c2 07 3e 2d a5 a3 3e 25 7c bb bd 5a 7e 95 3e
       0.13257693 0.31961957 -0.09154538 0.2919796
000010 b7 90 87 bd ba 46 1d 3d 2d 9f b6 3e 2e e7 bd be
       -0.06619399 0.03839753 0.35668316 -0.3709044
000020 fe 76 81 be 01 63 e0 bd eb 53 26 be 25 38 ac 3e
       -0.25286096 -0.109563835 -0.1624295 0.33636585
000030 16 5c 88 be b5 91 42 be 62 91 90 be e9 48 c1 be
       -0.26632756 -0.19000895 -0.28235918 -0.3775094
000040 12 66 73 be a6 b2 ac 3e b7 f1 28 3e 47 27 3a 3e
       -0.23769405 0.33730048 0.16498457 0.18179046
000050 b4 07 2d 3c 64 e1 56 be ec ce 83 3d fc 09 c0 be
       0.010560919 -0.20984417 0.064359516 -0.37507617
000060 29 cf 94 be 29 80 54 be fb a7 7d 3e 00 67 62 3e
       -0.290643 -0.20752014 0.2477111 0.22109604
000070 04 e3 3f be 75 84 d2 bc 62 9b 7c 3e cd 7b c8 3e
       -0.18738943 -0.025697926 0.24668649 0.39156953
000080 5b de 1d 3e 51 54 4b 3d ee 0c 87 3e d3 1c 72 be
       0.15416853 0.049640957 0.26377052 -0.23643808
000090 7a 7d 9b 3d 7c 5d a6 be ca e5 95 be 37 23 60 be
       0.07592292 -0.32493198 -0.29276878 -0.21888433
0000a0 41 8a 3e 3e 1f 08 2a 3e 63 89 7c be 98 da 00 3e
       0.18607427 0.1660466 -0.24661784 0.12583387
0000b0 21 dc 67 3e f5 56 8a bd 1a 34 6a 3a 74 af ae 3d
       0.22642566 -0.06754867 0.00089341553 0.08529559
0000c0 97 8c 7e 3e fd 8f c7 3e b2 62 ab be 11 eb 2b be
       0.24858318 0.38977042 -0.33473736 -0.1678889
0000d0 64 d3 1a 3e 2b d4 aa 3e f4 56 b8 3e 95 e0 ba 3e
       0.15119702 0.33364996 0.3600384 0.36499467
0000e0 37 6c a1 3d f9 76 bb be 4e 49 12 3d 33 3c 86 be
       0.078819685 -0.36614206 0.03571444 -0.26217803
0000f0 42 b5 c6 be 62 5f bd 3e db e4 a0 3e 82 10 d5 be
       -0.38810164 0.36986834 0.31424603 -0.41614157
000100 df 66 9d 3d d0 1a 96 bd 70 7e 94 bd bf 26 46 be
       0.07685637 -0.07329333 -0.072506785 -0.19350718
000110 78 f5 21 3e 4f e1 7c be c3 ac 1c 3e 31 fb 55 3e
       0.15816295 -0.24695323 0.15300278 0.20896603
000120 47 02 8c 3e d7 e3 12 3e 43 08 be be 15 91 77 be
       0.27345487 0.14344727 -0.37115678 -0.24176438
000130 f2 a4 43 3e 96 56 a8 3d 77 e6 94 be 99 6c 59 be
       0.1910589 0.0821964 -0.2908208 -0.21232833
000140 77 be b6 3e e0 ce 84 3e b2 4e 22 be 2d 79 b6 bd
       0.35692188 0.25939083 -0.15850332 -0.08909831
000150 c8 68 b5 be 8a 72 8b bb b4 e8 8f be e2 fb 92 be
       -0.35431504 -0.0042555975 -0.28107226 -0.28707796
000160 7c e8 95 bc 08 f9 70 3d 19 38 19 be 19 ba 66 3e
       -0.018299334 0.058831245 -0.14962806 0.22531928
000170 18 be 69 be c0 5a af 3e 62 9e 85 3e 16 23 a0 be
       -0.22826421 0.34248924 0.260974 -0.31276768
000180 da 9f ba bd a0 ab a8 3c 35 43 6e 3d db 56 be 3d
       -0.091125205 0.02058965 0.058169562 0.0929391
000190 5f 3c 1b 3e 31 d5 be 3c 8a 15 3a be e3 6c 39 3e
       0.15159748 0.023295017 -0.18172279 0.18107943
0001a0 53 21 b6 be 78 23 61 be 88 e6 b8 bd 8e 32 37 be
       -0.355723 -0.21986187 -0.09028345 -0.17890379
0001b0 4e b8 b4 bd 8d ae 52 be 1b a1 5c bd 46 63 55 3d
       -0.08824216 -0.20574398 -0.05386458 0.052096628
0001c0 c0 69 28 be 7d 50 6a bc 3f 38 33 3e f6 c8 e5 bc
       -0.1644659 -0.014301416 0.17501925 -0.028049927
0001d0 4f 0c 65 3b f7 df 8f bc 30 1d 5d 3d 3e 3d 27 3e
       0.0034949963 -0.01756285 0.053982913 0.16331956
0001e0 e3 bc 76 3e 9e 13 27 3e 6f 4e 76 3e f7 e7 1c bc
       0.24095492 0.16316077 0.24053358 -0.009576789
0001f0 52 58 5e be c4 45 dd bd 26 d6 2c 3e 52 4d 4a bb
       -0.21713379 -0.10804322 0.16878566 -0.003086884
000200 fe ad fd bd 48 85 43 be 50 4d 70 be 1f 69 57 be
       -0.12386702 -0.19093812 -0.23466992 -0.21036194
000210 02 6c 58 bd ba 7a 09 3e f7 3d 06 3e 39 1a 76 be
       -0.05283738 0.13425723 0.13109575 -0.2403344
000220 00 9b 1e 3e 45 8a 47 be 18 1d 56 bd 5e ec d1 bd
       0.15488815 -0.1948634 -0.05227384 -0.102501616
000230 e6 b7 45 bd 0b 58 50 bd e3 c7 66 be c6 63 5f be
       -0.048271082 -0.050865214 -0.22537188 -0.21815404
000240 9b 9b b3 bd 8f 20 b3 3b 57 7e 87 be c5 86 5e 3e
       -0.08769914 0.005466528 -0.26463577 0.21731098
000250 c3 39 04 bf 19 72 1d bd 94 fd 00 3f f8 20 70 be
       -0.5165064 -0.03843889 0.5038693 -0.23450077
000260 a6 ea 04 3f 22 e7 48 3e 62 e8 06 bf 83 52 b5 3e
       0.51920545 0.1961942 -0.5269834 0.35414514
000270 29 75 99 bd d1 ec 87 be c2 71 e9 3e 8a 2a f1 be
       -0.0749305 -0.26547864 0.45594603 -0.47102767
000280 fa f1 66 3d 8c 05 ff bd db 5b d3 3e 28 70 22 3e
       0.05638311 -0.1245223 0.41281018 0.15863097
000290 6e ab 8b 3e f4 88 50 3e 21 5c 0c be ed bf f6 bd
       0.27279228 0.20364743 -0.1370702 -0.12048326
0002a0 99 cb f3 be d2 b4 9f 3e 31 9a e9 3e f4 42 ca 3e
       -0.4761627 0.31192642 0.4562545 0.39504206
0002b0 0a cf ce be 2e b9 b1 3c d3 50 cf be 60 f5 a0 be
       -0.40392333 0.021694746 -0.4049135 -0.31437206
0002c0 f7 1b ab be b9 1d 48 3e eb 93 af be 96 a6 36 bc
       -0.33419773 0.19542588 -0.3429254 -0.011148116
0002d0 98 16 70 3c b0 33 ca 3e 9a b3 fc be ed ad e7 be
       0.014653824 0.3949256 -0.49355775 -0.45249882
0002e0 bb f1 c3 be 2b 4a dc 3e 91 33 7a be 24 ee 03 3f
       -0.38270363 0.43025336 -0.24433734 0.5153525
0002f0 55 ec 56 3e b3 f2 9a 3d af a0 21 bc cf c0 06 be
       0.20988591 0.075658225 -0.00986497 -0.13159488
000300 a9 38 97 3d ad fe 1c be 22 76 72 bc 4d 9d 83 3d
       0.07383854 -0.15331526 -0.014798673 0.06426487
000310 94 0c 02 bf 86 ca af be 87 4c 00 3f 4c 03 07 bf
       -0.5080044 -0.343342 0.5011677 -0.52739406
000320 79 01 71 bd a9 4c 1c 3f e6 40 5b 3e 8e 1a 74 3b
       -0.058839295 0.61054474 0.21411476 0.0037247273
000330 d0 f0 10 bf 87 f2 96 3e 34 c7 f0 be b6 b4 43 be
       -0.5661745 0.2948191 -0.4702698 -0.19111905
000340 19 69 67 be 60 3c db bd 2e 4a 19 bc 94 f6 01 3f
       -0.22598685 -0.10704875 -0.009356065 0.50766873
000350 04 4b 87 3d 98 8e 0d 3f d9 cd bd 3e 4d 01 d7 be
       0.06606105 0.55295706 0.37071112 -0.4199318
000360 b8 62 77 3e 33 73 ce be 2c 75 7b be 65 a9 19 3e
       0.24158752 -0.40322265 -0.24556416 0.15006025
000370 14 d0 2c 3e 85 ba ce 3e 47 78 46 be 3c fd 51 bc
       0.1687625 0.40376678 -0.1938182 -0.012816723
000380 21 a4 8a 3e 62 b4 0a bf 64 ca cc 3e 83 d4 ee be
       0.27078345 -0.5418149 0.39998162 -0.4664651
000390 2d 88 e9 3b 40 0b c2 bd e1 9a 94 be df 84 9e 3d
       0.007126829 -0.09474802 -0.29024413 0.07740187
0003a0 3a ed ee 3e ea 65 29 be 5b 83 ad be 8b e3 59 be
       0.46665365 -0.16542783 -0.3388928 -0.21278207
0003b0 ed 83 0f bf 7e 56 76 3e 7f 77 90 be a3 34 c6 be
       -0.5606068 0.24056432 -0.28216168 -0.38712034
0003c0 cc 1e ab be ba 91 9e 3e ea 04 90 3e 42 96 d8 3e
       -0.33421934 0.30970556 0.2812875 0.42302138
0003d0 1b 6e 4a 3e bd 3a 44 be 6b 70 2b be 5b 0d 1a 3e
       0.19768564 -0.19163032 -0.16742103 0.15044157
0003e0 12 8a e3 3e a6 a2 0e 3e 43 88 8d be 66 45 8e be
       0.44441277 0.13929233 -0.27643022 -0.27787322
0003f0 a2 29 c6 be 50 34 aa 3d 05 88 69 be 60 9f b9 be
       -0.38703638 0.08310759 -0.22805794 -0.36254406

block2_conv1d_bn_relu_1.op.bias f4 [16]
000000 a7 f4 90 bc b6 bc de bd c1 eb 6d 3e 20 30 5b 3e
       -0.017694784 -0.108758375 0.23234464 0.21405077
000010 3c 3b 78 3d 23 71 4f 3d 5d 45 75 3e 77 a8 95 3e
       0.060603365 0.050645005 0.23952241 0.2923009
000020 a2 69 8a be 32 74 9b bd eb 46 82 be 5d 92 35 3e
       -0.27033716 -0.07590522 -0.2544473 0.17731614
000030 b6 c4 0d 3e a8 4b 31 be c6 d9 30 3e bf 77 28 bd
       0.1384457 -0.17314017 0.17270574 -0.041129824

block2_conv1d_bn_relu_2.op.weight f4 [16, 16, 8]
000000 00 f1 5d 3e 3e 64 f1 bd f8 a9 b7 3d 0e 6e 64 3e
       0.21673965 -0.11786698 0.08967966 0.22307608
000010 05 0d 01 3e 13 b7 06 3d f0 41 61 3e 0d de 09 3d
       0.12602623 0.032889437 0.2199781 0.03365903
000020 bb c3 e9 bd a9 f8 82 3e 70 c5 90 3d c7 6d 7f be
       -0.11414286 0.25580338 0.07068908 -0.2494422
000030 ae 66 8c bd 3d 06 31 be 1f 9a 6e 3e 56 fd 1e bd
       -0.06855522 -0.17287536 0.2330098 -0.03881582
000040 df 54 76 be eb 68 a2 bc 65 bf 24 3e fd 85 84 3d
       -0.24055813 -0.01982542 0.16088636 0.06470869
000050 87 97 a1 3d 6f 8d 9f 3c ff 1c bd 3d 0e a5 8d bd
       0.0789023 0.01947662 0.09234046 -0.06916247
000060 cf e7 d5 bd 60 e3 79 be ba 72 49 be 01 33 e7 3d
       -0.104446046 -0.24403143 -0.19672671 0.11289025
000070 b6 5f 1e be 80 35 1f 3d 43 0a b0 3d 36 d5 b3 3c
       -0.15466198 0.03886938 0.08595707 0.021952253
000080 2d 21 29 be 5f df 81 3e dc c3 18 be 87 a1 5d 3e
       -0.16516562 0.2536573 -0.14918464 0.21643649
000090 cb bc 53 be 9c 38 76 bd 78 1e 16 3e 71 e9 d1 bd
       -0.20677488 -0.06011258 0.1466006 -0.102496035
0000a0 c1 80 5e 3e 39 28 3b be da 1a 61 be 86 d6 f2 bd
       0.21728803 -0.18277062 -0.219829 -0.11857323
0000b0 7d 57 2e 3d 75 84 77 3e 23 b8 fb bd 1c 3a c4 3d
       0.042563904 0.24171622 -0.12290981 0.09581396
0000c0 1c 66 87 bd 77 93 6a bd 2a 55 45 3e 21 cf 4d be
       -0.06611273 -0.05726954 0.19270769 -0.20098545
0000d0 e2 4f e6 3c 8e 66 7a 3e 62 e6 1b bd ac 0b 4f 3e
       0.028114263 0.24453184 -0.038061507 0.20219296
0000e0 a7 fb ac bd 5e b1 51 3e ba 41 83 be 85 bf 28 bd
       -0.084464364 0.20477816 -0.25636083 -0.041198272
0000f0 30 63 45 bd 66 6e a9 3d 9a 81 d0 3d 19 44 4d 3e
       -0.048190296 0.0827301 0.101809695 0.20045508
000100 0a 07 25 bd ae 37 81 bc e2 6a 35 3e 47 2e 94 bd
       -0.040289916 -0.01577362 0.17716554 -0.07235389
000110 2a 07 68 3e a3 3f 31 be d1 b0 cc bc 4d 7e 1b bc
       0.22658983 -0.17309432 -0.024986656 -0.009490562
000120 ec c4 e4 3d 60 b9 32 3e 2e 0f 2f bd 18 71 5d be
       0.11170372 0.17453527 -0.042739086 -0.21625173
000130 41 49 07 3e 9c 2c a7 3d c5 1b e0 3d ac df 1e be
       0.13211538 0.081628054 0.109427966 -0.15515012
000140 c3 0a 27 3e 73 28 79 3e f7 cf 96 3c 83 10 7c be
       0.16312699 0.24331836 0.018409712 -0.24615674
000150 0a 67 3e 3e 75 ad 43 be 6e da 83 3d 48 28 35 3d
       0.18593994 -0.19109137 0.064381465 0.04422787
000160 5b 9f fa bd 95 04 b9 3d 43 de 6f be 31 e2 79 3d
       -0.12237426 0.09034077 -0.2342463 0.06100673
000170 c6 46 27 be b9 8a e6 bc 8a eb 04 3d 5b 5f 62 3e
       -0.16335592 -0.02814232 0.03245119 0.22106688
000180 f1 88 00 be d5 a1 28 3e ab 73 17 bd 4f f8 03 be
       -0.12552239 0.16467984 -0.036975544 -0.12887691
000190 9d 25 6e be f6 7a 79 be d6 70 81 3e 37 11 8b bd
       -0.23256536 -0.24363312 0.252814 -0.06790393
0001a0 c4 f6 57 3c 6e af 90 3d 67 9d 37 3e c0 fd 67 3e
       0.013181392 0.070647106 0.17931138 0.22655392
0001b0 be 05 5b 3e 0e d7 44 be 10 1d 18 bd 74 93 1a be
       0.21388909 -0.19222662 -0.03713709 -0.15095311
0001c0 cb a3 1b be e8 cf 6a 3d c4 7f 76 3e 8e 73 5b be
       -0.15199201 0.05732718 0.24072176 -0.214308
0001d0 7c e4 1b 3e f6 59 0f be 87 0a 64 bd 3d 05 4f 3e
       0.15223879 -0.13999161 -0.055674102 0.20216842
0001e0 06 d5 65 bd 87 d5 ee 3c d7 1e 38 be a3 23 67 3e
       -0.056111358 0.029154552 -0.17980514 0.22572188
0001f0 a3 26 f1 bc b3 02 3f be 66 45 a8 3d fb 74 37 be
       -0.029437369 -0.18653373 0.08216362 -0.17915718
000200 12 f2 50 be 4a a5 80 3c 4e 7a 52 3e af 44 97 bd
       -0.20404842 0.015703816 0.20554468 -0.07386147
000210 1c 6f f9 3d 6a e0 63 3e 0a 8d 2f 3e d3 1a 0e be
       0.121793956 0.22253576 0.17143646 -0.1387742
000220 99 f2 de bc a5 69 a4 bd b5 ec 52 be 3d f5 77 3b
       -0.027215289 -0.080279626 -0.20598109 0.0037835382
000230 73 3c 4d 3e 7b 01 60 3e bf ed c3 3c 18 25 6e 3d
       0.20042591 0.21875565 0.023917077 0.058140844
000240 6d f7 dd bd a0 15 4e 3e 85 ea dd bd 2c 84 3a be
       -0.10838208 0.20125437 -0.10835747 -0.18214482
000250 5a 7d 34 3d 22 5d 23 3e 1f 3e 70 be 78 79 71 3e
       0.044064857 0.15953496 -0.23461197 0.23581493
000260 54 a8 b4 3d 1b 37 3e be 6d ae 6a bd c9 2f 66 3e
       0.088211685 -0.18575709 -0.05729525 0.22479166
000270 60 ae 4c be 1b be 9a bd fb 15 b2 3d 2f 77 66 be
       -0.19988394 -0.07555791 0.08695599 -0.22506402
000280 f5 d5 0e 3e 0e 01 0a 3e 1f 41 24 3e 1a 61 2a be
       0.13948806 0.13476965 0.16040467 -0.16638604
000290 f7 60 82 3e ba 1c 20 be 75 41 83 3e fb 46 81 be
       0.25464603 -0.15635958 0.25635877 -0.25249466
0002a0 ef a2 6f be 71 68 20 3e 1b 19 cb 3c a8 f5 31 3c
       -0.23401998 0.15664841 0.024792245 0.010861792
0002b0 c1 85 14 be 77 5d e0 bd 17 2d a0 bd b5 90 83 be
       -0.14504148 -0.10955327 -0.078211 -0.2569634
0002c0 5c 3b 62 3c 41 83 4b 3d b1 c5 02 bb 02 24 a3 3d
       0.013808098 0.04968572 -0.001995426 0.07965852
0002d0 1c 0c 7b 3e 06 c8 92 3d 6d 09 ca bd 2b ba e3 bd
       0.24516338 0.07167058 -0.09865079 -0.11119493
0002e0 72 7d 2d be ba 8e 3a be 3f 4e 31 bd d7 da 3f bd
       -0.16942385 -0.18218508 -0.043287512 -0.04683956
0002f0 20 b8 ef 3d 43 15 e5 bd 25 47 53 3e 02 0d 38 be
       0.11705041 -0.11185696 0.20632608 -0.17973712
000300 a4 70 0a bb d2 89 6b 3e 13 1e 83 3e ff 79 19 be
       -0.0021124268 0.23001793 0.25608882 -0.14987944
000310 d2 4d 47 3d 4b 5c fb 3c 9c d5 fb bd 77 12 b9 bd
       0.0486582 0.030683657 -0.12296602 -0.09036725
000320 3d 22 84 3d 17 62 3e be 68 3e 27 3d ba f1 e2 3d
       0.06451843 -0.18592106 0.040831 0.11081262
000330 6a 6c d4 bd ee a3 5a 3e 86 6b 91 bc 53 76 f0 3d
       -0.10372241 0.21351597 -0.017751466 0.117413186
000340 95 6c 82 3e 8f f5 a6 bd 4e 3c 0e 3e a9 64 9b bd
       0.25473467 -0.08152305 0.13890192 -0.07587559
000350 f1 ac 17 bd 96 c2 28 bd ca 72 6f 3a 4f 8a c4 bd
       -0.037030164 -0.041201197 0.00091342314 -0.09596693
000360 1f 93 76 3d 29 ea 3f 3c 18 b3 29 3e e2 18 5f bd
       0.0601989 0.011713543 0.16572225 -0.05446709
000370 11 87 cb 3c 3b 8f c4 bd 5c f4 5d be fe 34 db 3d
       0.024844678 -0.095976315 -0.21675247 0.10703467
000380 dd 5f 0f 3d bf e5 c8 bd ec fc ac bd 0c 31 8c 3d
       0.03500353 -0.098094456 -0.084466785 0.068452924
000390 40 8c 32 bd c6 b5 32 3e 5d 1f 74 3c 6d ac c7 3d
       -0.043590784 0.17452154 0.014900056 0.097496845
0003a0 c3 8d ec 3d 30 65 78 bd 10 da e8 3d 11 6d 45 3e
       0.115504764 -0.060643375 0.11369717 0.19279887
0003b0 e7 ba 78 3c bc 73 62 3d 17 f1 85 3c 10 cd 3c 3e
       0.01518128 0.055286154 0.016350312 0.184376
0003c0 00 86 e5 bd dd 94 0e be a2 b2 f2 3d 95 f4 66 be
       -0.11207199 -0.13923974 0.11850478 -0.22554238
0003d0 9e 13 8d 39 90 27 f8 bd a4 92 2c 3e 25 51 7c be
       0.00026908232 -0.12116921 0.16852814 -0.24640329
0003e0 1e 5e 1b 3e a0 bd 80 3e 00 94 50 3d 50 b1 90 bc
       0.15172622 0.25144672 0.050922394 -0.017662674
0003f0 07 37 81 3e 14 00 e8 bd e4 6e b8 bc 40 61 f0 bd
       0.25237295 -0.1132814 -0.022513814 -0.11737299

block2_conv1d_bn_relu_2.op.bias f4 [16]
000000 78 44 cb bd 4c 25 40 bd 62 28 c5 bc 4e f4 8f 3e
       -0.09925169 -0.04691057 -0.024067108 0.28116077
000010 33 d5 d6 3e 33 c6 80 bd 8d 5a a3 bd 98 25 37 3d
       0.41959533 -0.062878035 -0.079762556 0.044713587
000020 cd c9 c8 bd 26 ff 0d bd d2 76 4c 3d bb e8 27 be
       -0.098041154 -0.034667157 0.049918003 -0.16397373
000030 60 8b 88 bd fb 7f 63 3c 31 ec f9 3d 0d be 6d 3d
       -0.06667209 0.013885493 0.12203253 0.058042575

block3_conv1d_bn_relu_1.op.weight f4 [16, 16, 8]
000000 45 59 16 3e b0 6d ce 3c 62 ac f6 bc 74 b8 32 3e
       0.14682491 0.025198787 -0.030111495 0.17453176
000010 6d 45 63 be 96 58 f2 bd e6 91 f4 bd 35 5d 48 3e
       -0.22194453 -0.11833303 -0.119418904 0.19566806
000020 d6 90 72 be 66 c5 a2 3c 81 de 78 be 94 e7 9d bc
       -0.23688063 0.019869518 -0.24303629 -0.019275464
000030 d3 16 a2 3d 3c 4b 89 bd e8 e8 63 3e 80 7f 83 bc
       0.079145096 -0.06703803 0.22256815 -0.016052008
000040 7f 5a f2 bd 1f 1f 86 3d 66 90 05 3e bf 99 2a 3b
       -0.11833667 0.06548905 0.13043365 0.0026031581
000050 e3 f0 56 3e 6e c2 1b be 16 e4 c6 3d 55 bc 0c 3e
       0.20990328 -0.15210888 0.09711473 0.13743718
000060 9d e9 0a 3e 73 e6 89 3c c2 46 b0 3d 8e e6 32 be
       0.13565679 0.01683352 0.08607246 -0.17470762
000070 51 b5 32 be 1d 5a 38 3b 77 ce 7b bc 08 79 4a 3e
       -0.17451979 0.0028129884 -0.015369049 0.19772732
000080 76 1c 34 3e f0 fe 28 3e 7f 9b e5 bd e8 8a 43 be
       0.17588982 0.16503501 -0.11211299 -0.19095957
000090 40 01 69 be d0 fe aa 3d 9b d6 65 be 4c a2 78 be
       -0.22754383 0.08349383 -0.22445147 -0.24280661
0000a0 2f 1b ea bd 34 fb 45 be 8c af ab bd 93 29 14 be
       -0.11430966 -0.19334108 -0.08383092 -0.14468984
0000b0 5d 9b f1 bd b4 26 73 3e f8 c3 15 bd ef e3 56 3e
       -0.11797211 0.23745233 -0.036563843 0.20985387
0000c0 93 cd 92 39 e1 0f 20 bd df 82 a0 bd f0 5e 39 be
       0.00028000455 -0.039077643 -0.07837462 -0.18102622
0000d0 a9 9c 50 be 56 11 1f 3e 2c 66 bd bd ee 55 7d be
       -0.20372261 0.15533957 -0.09248003 -0.24739811
0000e0 50 96 61 3e bf 70 89 ba 66 ba 2b be ef 99 4c be
       0.22029996 -0.0010485871 -0.16770324 -0.19980596
0000f0 c8 2d 56 be 4b 8e 62 be f4 29 52 3e a4 2a 21 3e
       -0.20915902 -0.22124593 0.20523816 0.15738922
000100 e1 7b bc 3c 32 67 4e be 9f 18 7b bd 3c 21 6d be
       0.023008289 -0.20156553 -0.061302777 -0.23157209
000110 52 ed a3 3d c7 e3 84 bd 61 58 46 bd 24 37 9d bd
       0.0800425 -0.064887576 -0.04842413 -0.07676533
000120 26 fa f6 3d b1 9e 0e 3e 11 9b 7b 3d c1 ec b6 bc
       0.12059431 0.13927723 0.06142718 -0.02232969
000130 e3 95 9c bc df 31 49 3b 5d 31 33 be dd c3 7c 3e
       -0.01911444 0.0030699892 -0.174993 0.24684091
000140 39 c2 ba bd 87 a7 1d 3e 67 fa fc bd 81 e6 44 3c
       -0.09119076 0.15395938 -0.12352448 0.012017847
000150 ab 0d b7 3d 39 9c 58 be 26 ab ec 3d 1e 68 38 be
       0.08938154 -0.21153344 0.115560815 -0.18008468
000160 a2 2c 05 3d 83 dd 4d bd 26 35 09 3e 1d 65 70 3e
       0.03251327 -0.05026008 0.13399181 0.23476072
000170 c6 ed 57 3d d4 9f 1f bc 39 80 04 be 26 8b ab 3d
       0.052716993 -0.009742696 -0.12939538 0.0837615
000180 2a 34 f8 bd 58 76 c1 3d 2d 2d e7 bd 71 ce 1c 3e
       -0.121193245 0.094464004 -0.112879135 0.15313126
000190 b4 ba 32 3e d7 fa 09 3e d0 31 13 bc 9f 68 c7 3d
       0.17454034 0.13474594 -0.008984044 0.09736752
0001a0 e2 69 63 be ad 08 46 3e f3 3b 92 bd 3d 7b 9a 3d
       -0.2220836 0.19339247 -0.07140341 0.07543037
0001b0 84 98 51 bd 98 0d b8 bd 33 2d fe bd 05 23 0e 3e
       -0.05117084 -0.08986968 -0.12410965 0.13880546
0001c0 8e d1 f1 bd 0b c8 d9 bc bb b9 0e 3e 37 6f 25 3d
       -0.118075475 -0.026584646 0.13938038 0.040389266
0001d0 a7 c3 42 be 87 7b 68 be 6b c1 d5 bd 2c a6 76 3e
       -0.19019948 -0.22703372 -0.10437282 0.24086827
0001e0 c3 be 2e be 86 ff 0e 3e b9 ed 36 3e 2a e3 c7 bd
       -0.17064957 0.13964662 0.17864121 -0.09760125
0001f0 d9 b0 d6 bd 1f 22 30 be 5a 2b 22 3d b4 39 e1 bc
       -0.1048295 -0.17200516 0.039592125 -0.027493335
000200 fc e8 ba 3c 3e 3c da 3d 17 08 d4 3d c2 16 77 bd
       0.022816174 0.106560215 0.103531055 -0.060324438
000210 c3 b7 a2 3c 7c 03 73 3d 8a 0c 82 3c f8 48 68 3d
       0.019863015 0.059329495 0.01587512 0.056710213
000220 0d af 9b bd d9 80 46 3e c8 97 e4 bb 16 e4 71 bc
       -0.07601748 0.19385089 -0.0069761015 -0.014763853
000230 89 c4 3d be e0 56 16 be c8 bc a1 3c dc 18 a6 bc
       -0.18532003 -0.14681578 0.019743338 -0.020275526
000240 3d 38 d1 bd d1 e9 f9 3d 81 d0 17 bc 88 b1 b6 3d
       -0.10215805 0.122028 -0.00926602 0.0892058
000250 fa 02 4a 3e 8d 4b b7 bd 1c 32 cb bd 2a 4d 18 bd
       0.19727698 -0.08949957 -0.09921667 -0.037182964
000260 56 6b 9b bc 6c 7c e4 bd 81 a9 50 bd 90 13 86 bb
       -0.01897208 -0.11156544 -0.0509429 -0.0040916875
000270 11 b7 c6 3d 48 78 4a 3e e9 9d 1e 3e c1 ac 9d 3c
       0.09702886 0.19772446 0.15489925 0.019247415
000280 fd b0 28 bc 6b da 5f 3d f4 28 e7 bb 83 9e c8 bc
       -0.010296104 0.05465166 -0.0070544425 -0.024489647
000290 e7 a9 9b 3d a6 74 31 be 8f 5c 3d be 37 7f 24 3b
       0.07600766 -0.17329654 -0.1849234 0.002510024
0002a0 dc 25 69 bd 02 96 c9 bd 98 68 43 be bf 9f 22 3e
       -0.05692087 -0.09843065 -0.19082868 0.15881251
0002b0 eb 35 1e bb 7e 2a e7 bd 3b 3e b0 bd 14 e8 81 3d
       -0.0024141024 -0.112874016 -0.086056195 0.063430935
0002c0 36 43 19 be 86 f4 c9 3c 6b a1 0a 3c 70 3c b4 3d
       -0.14967045 0.02465273 0.008461337 0.0880059
0002d0 e2 b4 ca 3d 1d 41 08 be c9 cd d4 3d 8a 8f 31 3e
       0.09897782 -0.13306089 0.10390813 0.17339912
0002e0 32 b1 af 3c 10 0a e7 3d 21 70 a7 bd 34 bf 36 3d
       0.021446798 0.11281216 -0.08175684 0.04461594
0002f0 43 15 8e 3d 80 3a ba bd fd ad 14 3e 4b cd 4c be
       0.06937649 -0.09093189 0.14519496 -0.20000188
000300 7d 3e 9d bd e6 21 00 be f5 dd fd bd 35 6b 03 be
       -0.07677934 -0.12512931 -0.123958506 -0.12833865
000310 06 34 54 be 89 2b 09 3d 6a f5 33 bd f8 62 38 be
       -0.2072297 0.033488784 -0.043935217 -0.18006504
000320 f1 ee 30 3b 2f 44 0a bd 4d 0b cc 3d 9c 3e 24 be
       0.002699789 -0.03375643 0.09963093 -0.16039509
000330 e0 e8 5d bd e5 07 35 3d ae 69 b4 3d d5 32 90 3c
       -0.054177165 0.044196982 0.08809219 0.017602364
000340 48 a7 8e 3d 40 ea 6b 3e f8 bf 80 bd 43 8e 20 3e
       0.069655 0.23038578 -0.06286615 0.15679269
000350 92 cf 47 3e a3 55 3e be 84 84 76 3d 89 29 07 3e
       0.19512776 -0.18587355 0.06018497 0.13199438
000360 1a 6e dc bc bc 7a f9 3d 19 6d 23 3c 60 7c 2a 3e
       -0.02690797 0.12181613 0.009974741 0.16649008
000370 81 68 f4 3b d2 a5 06 be 57 f7 30 3e 53 a4 8f 3d
       0.007458747 -0.13149193 0.17281853 0.07013764
000380 2f 64 48 3e e1 d1 85 3d be a2 04 3e 83 e6 19 3e
       0.19569467 0.06534172 0.12952706 0.1502934
000390 d0 b5 47 3d b5 60 1b bd 2b a7 69 3d 9b 87 11 be
       0.048757374 -0.037934024 0.05704419 -0.14211886
0003a0 77 ce a0 3c 18 dd 6e bd 99 f5 cf 3c dc bf 28 be
       0.0196297 -0.05831632 0.025385665 -0.16479439
0003b0 95 72 0f 3e 2c 6c 44 be b0 ab d7 3d 0c c6 20 3e
       0.14008553 -0.1918189 0.10530794 0.15700549
0003c0 27 14 4e be 5f 7c 47 3e 44 78 23 be d3 58 1b bd
       -0.20124875 0.19481038 -0.15963846 -0.037926506
0003d0 d7 52 f1 3d 8d 7d 8d bd b4 68 40 3e 5d a4 cc bd
       0.117833786 -0.069087125 0.18789941 -0.09992287
0003e0 b5 be a9 bc 82 99 0d be c8 45 cc bd 98 dd 59 3e
       -0.020720819 -0.1382809 -0.09974247 0.21275938
0003f0 fd f4 23 3e ff b8 8f 3c 12 16 c7 3c fc b0 37 be
       0.16011424 0.017544268 0.024302516 -0.17938608

block3_conv1d_bn_relu_1.op.bias f4 [16]
000000 a0 41 08 3f 6f d3 08 be 5e 57 bd be 29 6a 9c 3e
       0.53225136 -0.13361906 -0.36980718 0.30549744
000010 58 1b 6b bd 7e e3 84 3d 7d 97 f0 3e 55 b6 b2 3e
       -0.057399124 0.06488703 0.46990576 0.34904733
000020 62 52 16 bd 8e e1 73 bd 9b d4 e2 bb 06 1c 56 bd
       -0.03669966 -0.059541278 -0.006922317 -0.05227282
000030 6f 10 8a 3e 60 d3 20 3e ac a6 eb 3a f2 81 cd 3e
       0.26965663 0.15705633 0.0017978749 0.40138203

block6_dense.op.weight f4 [2, 16]
000000 e6 17 0f 3e 68 34 40 3b 43 29 93 3e 34 e8 b1 3e
       0.1397396 0.0029328112 0.28742418 0.3474747
000010 cf 23 8f bd a4 6a 5c 3e e0 8f 0e 3d b3 c5 41 3d
       -0.06989252 0.21525055 0.03480518 0.04730768
000020 29 ab cc 3d 5d 68 fd 3d 17 e0 7f bc 82 ef 28 3e
       0.09993584 0.12373421 -0.015617392 0.16497615
000030 6c fb aa 3e 61 17 c4 3d 8e 2d 07 3e 81 ff 63 3e
       0.33394945 0.09574772 0.13200971 0.22265436
000040 db 92 87 be 3c ac b0 3b 0e b9 cb 3d c4 51 44 be
       -0.2647923 0.0053916257 0.09947406 -0.19171816
000050 71 be db bd 89 87 80 3d 3c 14 89 3d fc ab b5 be
       -0.10729683 0.06275851 0.066933125 -0.35482776
000060 1f b0 7b be fa 7d d4 be aa b9 d8 3c 13 2e 89 3d
       -0.24578904 -0.41502362 0.026455719 0.06698241
000070 d0 8e 84 be 7d 77 5d bd c8 e7 a4 bd 8b 0a ca be
       -0.25890207 -0.05406903 -0.08052021 -0.3946117

momentum_buffer f4 [4, 1, 4]
000000 8d 5e 3a bc 1a 0a 55 bc bd e8 c6 bc 13 05 d3 bc
       -0.011375082 -0.013002897 -0.0242809 -0.025759256
000010 17 6d 4d 3d 8d 3a 49 3d ff 4f 2d 3d 98 f8 37 3d
       0.050152864 0.049128104 0.04231262 0.04491481
000020 79 fe 9e 3a 8f cc b9 3b 0b 0c 85 bb b5 73 54 bb
       0.0012130282 0.0056701372 -0.0040602735 -0.00324176
000030 40 d9 4a bc 58 5e 3b bc 86 ab 10 bc 19 6b b0 bb
       -0.012380898 -0.0114360675 -0.008829957 -0.005383861

momentum_buffer f4 [4]
000000 82 f9 a7 3d d5 37 b2 be 66 92 96 bb 2a bb 22 3d
       0.08201887 -0.3480822 -0.004595089 0.039729275

momentum_buffer f4 [16, 4, 9]
000000 18 a1 6c 3b ca 2d 76 3b 3d e4 41 3b ed df 40 3b
       0.0036106762 0.0037563914 0.0029585504 0.0029430345
000010 48 ea fa 3a 52 a6 bd 3a 33 dc 92 3a ce 16 e3 38
       0.0019143308 0.0014469123 0.001120454 0.00010828451
000020 0d 73 ff 38 05 b9 2a 3b 18 c7 1e 3b 53 07 39 3b
       0.000121807774 0.0026050222 0.0024227556 0.0028233125
000030 04 e0 0c 3b 55 31 12 3b 43 3d f3 3a 22 95 e3 3a
       0.0021495828 0.0022307236 0.0018557686 0.0017363171
000040 59 7f 07 3b 7a 40 41 3b 90 3d 7d 3b be 61 7f 3b
       0.002067527 0.0029487894 0.003864143 0.003896817
000050 fe fa 5f 3b 46 0e 36 3b 46 71 1e 3b 40 6c b4 3a
       0.0034176703 0.0027779504 0.0024176403 0.0013765171
000060 44 e3 54 3a 71 22 0d 3a 52 33 50 3a fa f2 6c 3b
       0.00081210234 0.00053838553 0.00079422176 0.0036155568
000070 48 5a 5e 3b 00 a6 62 3b 78 92 5c 3b bf a4 48 3b
       0.0033928324 0.0034583807 0.0033656638 0.0030615774
000080 8b de 07 3b 60 c8 aa 3a fa 64 96 3a 00 78 b7 39
       0.0020732011 0.0013029687 0.0011474185 0.00034993887
000090 5c d1 3f 3a eb 4a 92 b8 44 1e 3f b9 c6 d0 9e 38
       0.0007317269 -6.975777e-05 -0.00018226454 7.572914e-05
0000a0 55 e9 d2 39 85 f0 70 3a 86 42 24 3a 18 73 64 3a
       0.00040228167 0.00091911136 0.0006266016 0.000871466
0000b0 2c 2f 75 3a 0f da cd 3b b6 93 d8 3b 68 0f cb 3b
       0.00093530375 0.006282098 0.0066094054 0.006196905
0000c0 65 04 a4 3b d8 2f 94 3b 74 7d bd 3b 19 a2 d5 3b
       0.0050054067 0.004522305 0.0057827774 0.0065195677
0000d0 93 8d b0 3b 11 4f b9 3b a6 ae 8f 3a 50 f9 27 3a
       0.0053879707 0.0056551774 0.0010962083 0.0006407695
0000e0 60 b7 7c 39 08 8a ed 36 87 11 d2 39 7e 7b 2a 3a
       0.00024100905 7.0792194e-06 0.0004006738 0.0006503387
0000f0 34 a1 10 3a 5a 12 95 3a 3b fe 91 3a dc 3a 91 39
       0.0005517185 0.0011373267 0.0011138389 0.0002770041
000100 83 1e d0 39 38 9a f9 37 39 fc 43 39 a6 85 21 39
       0.00039695585 2.9754927e-05 0.0001869061 0.00015403944
000110 62 92 59 3a 6a 9d 56 3a 13 9f 60 3a 61 e1 7a 3a
       0.0008299706 0.00081869087 0.0008568626 0.0009570327
000120 2f 92 1e 3a f2 36 b8 39 35 0f af b9 c4 15 a0 b9
       0.0006049005 0.00035136152 -0.0003338993 -0.00030533795
000130 00 69 33 39 0b d1 19 b7 fa 99 ba b9 a2 52 42 b9
       0.00017109886 -9.168182e-06 -0.00035591406 -0.00018532065
000140 cc fa f2 39 51 f9 4f b9 36 ba c5 b9 f9 3c 2e b9
       0.00046344695 -0.00019833936 -0.00037713506 -0.00016616647
000150 c4 4b 0a ba 31 75 2b b9 c9 6f 91 b9 ba dd 52 b9
       -0.0005275572 -0.00016351488 -0.00027739842 -0.0002010976
000160 2b a1 48 b8 42 86 80 b8 f9 12 44 39 19 aa de 39
       -4.7833815e-05 -6.128523e-05 0.00018699084 0.00042469872
000170 9b 73 44 b9 69 18 8a 39 0c 2d 3c 39 e2 8f e6 b9
       -0.00018735083 0.00026339598 0.00017945858 -0.0004397622
000180 ca 05 70 b9 14 2d 0e 37 0e 67 27 39 59 3c c5 39
       -0.0002289034 8.474355e-06 0.00015964752 0.0003761973
000190 19 86 8e 39 60 5d 09 39 ca fe 83 b9 04 b2 22 39
       0.0002718426 0.00013100123 -0.000251761 0.0001551584
0001a0 93 21 d5 b9 f5 9d ad b9 05 56 39 b9 56 ba f9 b8
       -0.0004065154 -0.00033114819 -0.0001767502 -0.00011907953
0001b0 4c e7 b5 b9 ee 44 bb b9 9b 6c b1 b9 a0 cf eb b9
       -0.0003469534 -0.00035718776 -0.00033840988 -0.00044977386
0001c0 f1 9c 73 b9 87 02 2e b9 9f 24 d9 b8 3b 17 0b ba
       -0.00023232751 -0.00016594875 -0.000103541875 -0.0005305891
0001d0 20 44 0b 38 4e d2 01 bc 1f 9e 03 bc fd 0f 0b bc
       3.320363e-05 -0.007923676 -0.0080333045 -0.008487699
0001e0 8f 85 0d bc a6 ef 10 bc 76 83 09 bc 78 43 05 bc
       -0.0086378 -0.008846199 -0.008393159 -0.008133762
0001f0 e3 e0 fa bb 0f ed 05 bc ac 5d 5a b9 b8 31 49 b9
       -0.007656203 -0.008174195 -0.00020824996 -0.00019187375
000200 09 de 02 ba 97 05 48 ba 27 49 b8 b9 21 32 f3 b9
       -0.0004992192 -0.00076302275 -0.00035149718 -0.0004638592
000210 65 7a f0 b9 f0 e0 0f ba 98 14 51 b7 90 e7 1c ba
       -0.00045867558 -0.00054885354 -1.2462166e-05 -0.0005985433
000220 33 a1 4e b9 22 ea c4 b9 25 fc 0f ba 57 68 5e b9
       -0.00019705742 -0.00037558476 -0.00054925896 -0.0002121044
000230 e2 62 4c b9 5f 69 a0 b9 2a 4c 7a ba ff 97 b9 b9
       -0.00019491793 -0.00030596086 -0.00095480925 -0.00035399196
000240 93 5b 82 b8 8b 75 36 39 5a 78 8c b9 f4 74 bf 39
       -6.21594e-05 0.0001740066 -0.0002679255 0.00036517496
000250 9c 03 09 ba c0 3f 84 38 6d 04 c4 39 2e d5 2e ba
       -0.0005226673 6.306125e-05 0.0003738733 -0.00066693395
000260 d9 46 38 b9 02 32 80 b9 e2 d7 85 ba f0 18 cb b9
       -0.00017574 -0.0002445132 -0.0010211433 -0.00038737757
000270 cc 73 44 ba 9f 6d 52 ba 30 cd 7f b9 f5 aa a7 ba
       -0.0007494062 -0.0008027199 -0.00024395133 -0.0012792038
000280 96 90 42 ba 99 e9 9b ba c0 28 8a 39 a0 96 33 39
       -0.00074220577 -0.0011895179 0.00026351772 0.00017126882
000290 6c 6d 40 39 df 0d 98 39 da 02 63 b9 5b 2c 04 b9
       0.0001835131 0.00029002034 -0.00021649469 -0.00012605025
0002a0 85 74 36 ba 56 c6 37 b9 8f be 8b b9 2a cc 88 39
       -0.0006960112 -0.00017526126 -0.00026654123 0.00026092055
0002b0 7d 9d d7 b9 f2 b9 28 b8 0c b1 b9 b9 1f 99 e6 b9
       -0.00041125334 -4.0227496e-05 -0.0003541786 -0.00043983103
0002c0 bd f2 99 b9 44 9c 1a b8 dd 18 19 ba 15 67 4a ba
       -0.00029363288 -3.6861995e-05 -0.0005840192 -0.0007721049
0002d0 c9 bd 87 39 9c 7a 93 3a d4 2c 96 39 27 f4 2d 3a
       0.00025890608 0.001125175 0.0002864363 0.0006635808
0002e0 10 b7 4b 3a 6f 5c 00 3b 49 54 76 3a c0 44 01 3b
       0.0007771114 0.0019586345 0.0009396715 0.0019724816
0002f0 dd 35 8e 3a b3 66 bb 3a f8 f3 a5 3a 01 ff 8d 3a
       0.0010849793 0.0014297575 0.0012661209 0.0010833443
000300 c7 cf b7 3a 71 40 9c 3a 43 20 a8 3a 36 b2 a6 3a
       0.0014023714 0.001192106 0.0012826998 0.0012717906
000310 35 4e 19 3a cd f5 45 3a 0e c9 4b 3a 54 80 96 39
       0.00058481406 0.0007551581 0.0007773795 0.0002870584
000320 04 7a 59 3a 20 f8 f2 3a 84 c0 c1 3a 52 6e d7 3a
       0.0008296075 0.0018537082 0.0014782106 0.0016436076
000330 dc 2c 4f 3a bf bc f7 3a 6d 45 16 3a a0 9a 4e b8
       0.0007903108 0.0018900855 0.0005732391 -4.9258233e-05
000340 17 2e cd 39 10 6d 3b 3a 63 97 78 3a c8 61 e5 3a
       0.00039134987 0.00071497355 0.00094830076 0.0017500455
000350 88 fa bf 3a d5 f0 05 3b 84 fb f7 3a 1d 45 36 3a
       0.0014646808 0.0020437737 0.0018919562 0.00069530477
000360 f5 61 4a 37 4f d8 0f ba 1b 0f d0 b9 90 93 87 b8
       1.2062946e-05 -0.00054872496 -0.00039684106 -6.464787e-05
000370 0e f1 8b b8 59 a8 8f 39 32 17 0a ba 9f 2f 06 ba
       -6.6729364e-05 0.00027400514 -0.00052677386 -0.00051187904
000380 60 81 ce b8 c3 e3 6c bb 22 7b 37 bb 2c e0 3f bb
       -9.8469434e-05 -0.0036146499 -0.0027996977 -0.0029277904
000390 d6 a8 21 bb 2e 52 42 bb a5 fc 7c bb 15 1e 87 bb
       -0.0024667284 -0.0029651034 -0.0038602736 -0.004123459
0003a0 60 3d 9b bb 86 66 7e bb 8d 31 4a ba af 50 03 ba
       -0.004737541 -0.0038818433 -0.0007713072 -0.0005009276
0003b0 ed 48 64 ba 6d c6 16 b9 fe 04 26 ba 3d 83 18 ba
       -0.00087083766 -0.00014379034 -0.00063331414 -0.0005817896
0003c0 01 09 31 ba fe 23 31 b9 98 6e a0 b8 8c f5 90 b8
       -0.0006753356 -0.00016893444 -7.649994e-05 -6.912192e-05
0003d0 f1 1e 36 b9 e3 be 0a ba 55 2a 0b ba 6e a1 4b b9
       -0.00017368399 -0.00052927266 -0.0005308737 -0.00019419726
0003e0 0c c0 48 39 2d 60 5f b9 13 78 24 ba a0 ae 15 ba
       0.0001914503 -0.00021302766 -0.0006273996 -0.000570992
0003f0 07 eb 55 ba ba d1 49 ba 53 6c c5 ba dd 04 b5 ba
       -0.0008160327 -0.0007698793 -0.001506219 -0.0013810653

momentum_buffer f4 [16]
000000 86 a9 a4 3b 2e 62 51 3c 5d 07 85 ba 74 79 ab bc
       0.0050250916 0.0127797555 -0.0010149289 -0.020931937
000010 8d 03 08 bb d0 a8 1c 3b 60 68 f7 bb 76 5a f4 bc
       -0.002075407 0.002390433 -0.0075502843 -0.029828291
000020 3d 8f 85 bb 81 55 47 3b 61 89 12 3c af 8f 20 3b
       -0.004075913 0.0030415955 0.0089438865 0.0024499705
000030 16 64 23 bb b8 7b f9 bc 96 5b b1 3a af 0d 4d 3c
       -0.0024931482 -0.030454502 0.0013531323 0.012515469

momentum_buffer f4 [16, 16, 8]
000000 88 a3 b6 39 46 b3 06 38 65 40 6c 39 5d f0 be 39
       0.00034835585 3.211505e-05 0.00022530703 0.0003641871
000010 7f 9d 55 39 1c 74 08 39 3f 02 d6 39 06 25 60 39
       0.00020371935 0.00013013225 0.00040818934 0.00021376097
000020 6f 2c c8 39 0f 88 82 3a cc 89 54 3a 62 56 28 39
       0.00038180078 0.0009958762 0.00081076915 0.00016053909
000030 2f 74 f8 39 36 ff dd 39 a2 ce 65 3a 33 e5 2b 3a
       0.0004738881 0.00042342552 0.00087664474 0.00065572857
000040 a4 3f 5c b9 5b 57 6b 38 ff 5f 71 39 85 1e 01 39
       -0.00021004543 5.6109722e-05 0.00023019312 0.00012313768
000050 f4 f8 fe 38 73 70 98 38 85 57 17 39 da 01 0c b8
       0.00012158035 7.26887e-05 0.00014433086 -3.3380325e-05
000060 6d 55 be 39 9f ee 21 39 78 c2 76 39 82 7e 17 3a
       0.0003630327 0.0001544305 0.00023532833 0.0005779044
000070 ac 87 bf 39 65 3b 1b 3a e8 b9 29 3a be 4a 13 3a
       0.00036531442 0.0005921631 0.00064745406 0.00056187424
000080 30 cb e1 b7 54 1c fb 39 5e 1f 79 b8 b7 bd ee 39
       -2.6916707e-05 0.00047895557 -5.939544e-05 0.00045536246
000090 47 2b 9e b8 82 92 69 38 f5 78 e9 39 24 a3 74 37
       -7.542088e-05 5.5687975e-05 0.00044531343 1.45815175e-05
0000a0 e8 d7 a8 39 67 1e 29 b9 3c 4c 8e b8 c0 74 e0 b7
       0.0003220432 -0.00016128422 -6.7852874e-05 -2.6757247e-05
0000b0 5b b1 48 39 7b 69 c8 39 9c d1 9d 37 b5 53 51 39
       0.00019139556 0.00038225562 1.8813465e-05 0.00019962977
0000c0 ec 61 3c 36 68 28 17 38 af bf a6 39 4f 47 0f b9
       2.807118e-06 3.6038837e-05 0.00031804803 -0.00013664107
0000d0 4a d7 c3 38 ad eb 9f 39 de c1 ca 38 b5 ed 8f 39
       9.338425e-05 0.00030502435 9.668221e-05 0.0002745219
0000e0 4e 0d 98 39 8a b7 46 3a f6 9d 05 39 4f 18 d2 39
       0.00029001612 0.000758045 0.00012742713 0.00040072433
0000f0 23 47 ac 39 b1 13 15 3a 64 c4 17 3a 79 26 53 3a
       0.00032859397 0.0005686833 0.00057894574 0.0008054744
000100 8a 52 43 3a 16 ef 57 3a 27 f5 9c 3a 66 e2 58 3a
       0.0007450959 0.00082372257 0.0011974917 0.0008273482
000110 4f 5c 81 3a fa 1c 23 3a 52 b1 3b 3a 4f 5a 6f 3a
       0.0009869429 0.00062222744 0.00071599067 0.00091305835
000120 24 5c c3 39 6b 0d f2 39 36 fd 36 39 df be fc 37
       0.00037261948 0.00046167834 0.00017451201 3.0129622e-05
000130 5c 03 02 3a c4 c2 b6 39 2e c7 ca 39 91 ab a1 37
       0.0004959607 0.00034858857 0.00038676843 1.9272587e-05
000140 6b 23 1f 3a 9d 49 32 3a 5b aa c9 39 88 c8 23 39
       0.00060706463 0.00068011304 0.00038464632 0.00015619595
000150 a2 52 2d 3a f2 75 21 39 8d e5 ea 39 e4 b1 e9 39
       0.00066117395 0.00015398095 0.00044802987 0.00044573762
000160 9c e7 fc b8 88 60 16 39 ce 8c 34 b9 8a bb aa 38
       -0.00012059437 0.00014341075 -0.00017218592 8.1411636e-05
000170 be c9 18 b9 7d 3b d1 b5 f4 67 a0 38 02 4b 8a 39
       -0.00014571004 -1.5589027e-06 7.648757e-05 0.00026377296
000180 a0 ac 24 b7 8d 26 ab 39 db d9 1a 39 70 45 3b 37
       -9.815354e-06 0.00032644384 0.00014767742 1.1162236e-05
000190 fd 3a 01 b9 2a 70 9d b8 f0 5b d9 39 76 ba 8e 38
       -0.00012324374 -7.5072356e-05 0.00041457964 6.805819e-05
0001a0 90 6e 8c 3a 43 44 92 3a fa cf ab 3a 3a 52 bf 3a
       0.0010714103 0.001115926 0.0013108246 0.0014596649
0001b0 24 5e c0 3a eb e8 60 3a 61 8c 7e 3a 64 e6 6e 3a
       0.0014676494 0.00085796294 0.0009710249 0.00091133104
0001c0 df c0 e9 b8 fe 99 8b 38 d8 7d 93 39 81 04 4e b9
       -0.00011146231 6.65672e-05 0.00028131786 -0.00019647369
0001d0 a7 0e 3b 39 72 4b 06 b9 86 f5 19 b8 75 43 7f 39
       0.00017839168 -0.00012807341 -3.6706704e-05 0.00024343825
0001e0 e3 02 46 39 83 c4 81 39 b0 75 ca 35 74 6e 17 3a
       0.00018883827 0.0002475121 1.5084424e-06 0.00057766517
0001f0 d8 92 b1 39 22 3a ed b6 ef 60 9c 39 48 18 ce b7
       0.00033869478 -7.069918e-06 0.0002982686 -2.456842e-05
000200 b8 d1 d6 b9 12 e6 26 b9 a2 27 20 37 5e e2 82 b9
       -0.00040973513 -0.00015916702 9.545971e-06 -0.0002496419
000210 61 bc 97 b8 1e 8d 8f b7 6e 80 7a b8 fa 5d bf b9
       -7.2353294e-05 -1.7112641e-05 -5.9724254e-05 -0.00036500377
000220 86 86 f4 ba 83 87 ef ba 12 4b d2 ba 21 67 be ba
       -0.0018655814 -0.0018274639 -0.0016044101 -0.0014526584
000230 39 85 fe ba 4d 97 e9 ba 67 73 bd ba b3 ef c2 ba
       -0.0019418366 -0.001782158 -0.0014453948 -0.0014872461
000240 39 5b 8b b9 12 9e 2b 38 aa 9b 6d b9 57 77 83 b9
       -0.00026580112 4.091679e-05 -0.0002266007 -0.00025075182
000250 8e de 84 b8 53 7f b9 38 5c 0e 9e b9 0b 86 23 39
       -6.3357045e-05 8.8452034e-05 -0.00030146807 0.00015594826
000260 6c f6 0e bb 28 00 1a bb 02 81 19 bb d0 33 11 bb
       -0.002181436 -0.0023498628 -0.0023422842 -0.0022156127
000270 da 41 25 bb 8a b2 1d bb a6 13 1f bb 29 fb 16 bb
       -0.0025216253 -0.0024062716 -0.0024273186 -0.0023037887
000280 ef 24 6f b9 07 ef 38 b9 c6 6f 12 b9 a8 2f c1 b9
       -0.00022806575 -0.00017636652 -0.00013965284 -0.00036847335
000290 e7 2a 41 b9 94 a4 c9 b9 05 cb 47 b9 19 c9 e0 b9
       -0.00018421897 -0.00038460328 -0.0001905375 -0.0004287444
0002a0 71 28 be b9 79 0b bc b8 2c bb 5a b9 99 25 55 b9
       -0.00036269755 -8.9666755e-05 -0.00020859827 -0.00020327269
0002b0 07 98 9c b9 72 f7 96 b9 67 bd 76 b9 02 73 c9 b9
       -0.00029867908 -0.0002879459 -0.00023530946 -0.00038423395
0002c0 e7 c5 a0 b9 89 76 b9 b9 0f fe a2 b9 d1 ed 4d b9
       -0.00030665027 -0.00035374265 -0.00031088336 -0.00019638917
0002d0 1a 5e 9b b8 e7 d3 06 ba 2f 71 81 b9 e8 5a af b9
       -7.408504e-05 -0.000514327 -0.00024689126 -0.00033446332
0002e0 5c 65 0e bb 22 3e 09 bb cd 9f 09 bb 02 ba 07 bb
       -0.0021727895 -0.0020941575 -0.002099979 -0.0020710235
0002f0 ce 88 13 bb 4f dd 1b bb bc 23 08 bb 2a dd ef ba
       -0.0022511962 -0.0023783033 -0.0020773252 -0.0018300165
000300 03 f5 9d ba 65 85 8c ba da f4 80 ba 60 37 99 ba
       -0.0012051169 -0.0010720907 -0.0009838596 -0.0011689477
000310 75 85 8a ba a4 66 b5 ba a8 20 c9 ba 4f 4d b1 ba
       -0.0010568338 -0.0013839793 -0.0015344815 -0.0013527068
000320 0f a6 89 b9 47 fb ea b9 43 1f 9f b9 90 99 62 b9
       -0.000262544 -0.00044819174 -0.00030350135 -0.00021610246
000330 e4 b7 bc b9 9b 86 5f b9 59 f1 d5 b9 f1 d7 bf b9
       -0.00035995163 -0.00021317082 -0.00040806344 -0.00036591248
000340 1f 3a fb b8 2d 2b ef b9 1f db 85 b9 40 3e 19 ba
       -0.000119794386 -0.000456178 -0.00025530995 -0.0005845763
000350 ae 26 07 ba 85 ca 0a ba c4 02 13 ba 9a ea 48 ba
       -0.0005155605 -0.000529446 -0.0005608017 -0.0007664353
000360 be a4 06 b9 c7 c7 74 b9 2c 79 06 b8 19 8c 5a b9
       -0.00012840607 -0.00023344076 -3.206094e-05 -0.0002084229
000370 f4 8b 4f b9 f2 5c b8 b9 0d da 95 b9 c2 f8 10 38
       -0.00019793195 -0.00035164464 -0.00028581955 3.456395e-05
000380 56 73 37 b9 f7 17 93 b9 e1 db 89 b9 d0 f7 62 b8
       -0.00017495206 -0.0002805588 -0.000262945 -5.4113392e-05
000390 0d 8f 30 b9 98 6f 9b b7 6a 66 13 b9 e9 68 70 b8
       -0.00016837959 -1.8529405e-05 -0.00014057165 -5.7318164e-05
0003a0 2e 3e 2c bb a6 fb 39 bb a7 c4 3e bb 46 02 3a bb
       -0.002628218 -0.0028378754 -0.0029108913 -0.0028382703
0003b0 35 ae 2a bb 9f 73 4a bb d0 5d 50 bb d0 85 3f bb
       -0.0026043777 -0.003089167 -0.0031794198 -0.0029224046
0003c0 97 98 1a b9 83 32 39 b9 b0 08 88 38 2e 5b 8a b9
       -0.00014743429 -0.00017661792 6.4866035e-05 -0.00026389345
0003d0 e4 62 ea b7 0c 14 31 b9 b0 6b d4 38 39 75 96 b9
       -2.7941023e-05 -0.00016887503 0.00010129006 -0.00028697567
0003e0 2e 1c 18 ba 5c 8a c0 b9 b3 f9 0c ba b3 4f 0f ba
       -0.0005802539 -0.0003672418 -0.0005377784 -0.0005466893
0003f0 5a 75 7d b9 46 01 10 ba c5 8e 83 ba 7e 58 66 ba
       -0.00024171677 -0.0005493354 -0.0010037055 -0.000878699

momentum_buffer f4 [16]
000000 d3 73 ff 3a bf fc db bb 06 b9 25 bc 33 b6 69 bc
       0.0019489474 -0.0067134793 -0.010114914 -0.014264631
000010 de 3c c8 bc b2 17 5e bc 79 ad 22 3c 7b db c9 3a
       -0.024443086 -0.013555454 0.009929054 0.0015400493
000020 bb ce 2d 3b b0 a2 41 bc 8e e7 86 bc 05 a5 68 3b
       0.0026520926 -0.011818573 -0.016467836 0.003549875
000030 58 9a ad 3b c9 39 2a 3a e2 8a c0 bb 10 00 75 b9
       0.00529794 0.0006493596 -0.005875931 -0.00023365044

momentum_buffer f4 [16, 16, 8]
000000 9b d9 f8 b9 b0 1b 47 ba cc 96 80 ba 7e b5 30 ba
       -0.00047464375 -0.00075953733 -0.0009810566 -0.00067409116
000010 fc 9b 81 ba 5b ca 81 ba 93 eb 7d ba 95 44 fb b9
       -0.0009888406 -0.0009902226 -0.00096862874 -0.00047925548
000020 1a 30 95 ba 77 99 8e ba 4f ad c7 ba c5 95 a5 ba
       -0.0011382133 -0.0010879476 -0.0015234145 -0.0012633136
000030 17 1f 8f ba 0e 5f b5 ba 03 4b 90 ba 66 4f 9d ba
       -0.00109193 -0.0013837533 -0.0011008683 -0.0012001812
000040 df 4e 9b bb 00 2c a8 bb c9 87 b9 bb e7 9e ba bb
       -0.004739627 -0.0051321983 -0.005661939 -0.005695212
000050 2b b0 b9 bb 1c f7 be bb 3e c5 b1 bb 66 53 9d bb
       -0.005666753 -0.0058277976 -0.0054251244 -0.0048012016
000060 86 ea 5b bb 49 55 7d bb b1 e1 8a bb df bc 8d bb
       -0.0033556535 -0.003865557 -0.0042383303 -0.0043254937
000070 e8 ab 8f bb 30 22 8b bb 83 30 82 bb 3f 77 5e bb
       -0.0043845065 -0.004246019 -0.003973068 -0.0033945588
000080 17 94 0f bb f2 b5 22 bb 80 bc 3f bb 6b 7c 45 bb
       -0.0021908337 -0.0024827686 -0.0029256642 -0.0030133973
000090 4d fa 3e bb fe e5 45 bb 7d 61 3e bb 08 07 3e bb
       -0.002914089 -0.00301969 -0.0029049807 -0.002899589
0000a0 09 bc a1 bb 27 80 b5 bb cf 03 c7 bb ea de c5 bb
       -0.0049357456 -0.0055389586 -0.006073452 -0.0060385363
0000b0 14 b5 bf bb bb 4b b7 bb d4 2b b0 bb f3 d2 9a bb
       -0.0058504436 -0.0055937446 -0.0053763185 -0.004724854
0000c0 d9 98 aa ba 8c a3 ca ba 9a b2 e8 ba 83 83 f3 ba
       -0.0013015523 -0.0015460118 -0.0017753423 -0.0018578622
0000d0 5a d8 fd ba dd f0 cc ba 2d 9c f2 ba f4 4d e9 ba
       -0.0019366846 -0.0015635748 -0.0018509679 -0.0017799721
0000e0 36 82 da b8 3a 9e c0 b9 63 6e 21 ba 7b b6 0b ba
       -0.00010419304 -0.00036738982 -0.00061581115 -0.0005329621
0000f0 82 b9 1e ba 8d 9d 10 ba 1e 81 3e b9 12 8f b8 b8
       -0.00060548645 -0.0005516641 -0.00018167912 -8.8004526e-05
000100 a7 95 90 b9 04 da 0c ba 6a 76 d4 b9 86 4b c1 b9
       -0.0002757732 -0.0005373063 -0.00040524016 -0.00036868098
000110 22 83 08 b9 7b 81 9d b9 9e f3 a4 b9 44 e2 4f b9
       -0.00013018821 -0.00030041844 -0.00031462027 -0.00019825349
000120 56 d6 6e bb 51 75 7f bb f7 5e 92 bb 22 32 94 bb
       -0.0036443672 -0.0038979838 -0.004466887 -0.004522578
000130 d6 c3 90 bb 87 23 91 bb b1 91 8b bb db d5 6c bb
       -0.0044178767 -0.004429284 -0.004259311 -0.003613821
000140 32 3d af bb ef d3 bb bb 7c 6b db bb 21 b6 d3 bb
       -0.005347871 -0.0057320516 -0.0066961627 -0.0064609204
000150 ae 0f d7 bb 9d b0 db bb a0 4c c8 bb e2 50 bd bb
       -0.0065631485 -0.0067044036 -0.00611265 -0.0057774642
000160 30 33 e0 b9 fe 88 f5 b9 02 ce df b9 5c 93 70 b9
       -0.00042762747 -0.0004683211 -0.00042687362 -0.00022943079
000170 04 36 f3 b9 90 52 05 ba eb 2b 15 ba b8 4f d1 b9
       -0.00046388817 -0.000508585 -0.0005690443 -0.00039922982
000180 2c f6 85 ba 3a f4 85 ba 64 4e a3 ba c4 62 96 ba
       -0.001022046 -0.001021988 -0.0012459275 -0.0011473526
000190 a3 55 8e ba 0e 2f 9d ba 67 bc 9f ba 38 14 7c ba
       -0.0010859262 -0.0011992173 -0.0012186886 -0.000961605
0001a0 b8 c6 0e ba c7 cc ba b9 2e 87 2e ba 7d 61 16 ba
       -0.00054464815 -0.00035629256 -0.00066577166 -0.0005736573
0001b0 8e 20 14 ba dc b8 54 ba e1 fc 3a ba bd b7 b8 b9
       -0.0005650603 -0.00081147044 -0.0007133019 -0.0003523211
0001c0 70 b9 95 bb 07 c6 a1 bb de 18 af bb d6 49 b2 bb
       -0.004569225 -0.004936937 -0.0053435406 -0.005440931
0001d0 a9 75 b7 bb 10 c1 b8 bb 39 69 a5 bb 21 e9 8f bb
       -0.005598743 -0.005638249 -0.005047944 -0.004391805
0001e0 0e d1 80 b9 c0 f2 45 b7 e2 5c a5 b7 bd 40 89 b9
       -0.0002456982 -1.1798635e-05 -1.9712785e-05 -0.0002617891
0001f0 d8 5b 75 b9 68 e6 b1 b9 c9 f5 32 b9 fe 90 cc b8
       -0.00023399235 -0.00033931737 -0.00017066965 -9.754485e-05
000200 ec 40 46 37 a7 95 c5 38 e7 e5 bd 38 c7 a7 97 b8
       1.18168355e-05 9.421567e-05 9.055045e-05 -7.231492e-05
000210 28 f5 0f 37 8c be 46 38 a0 64 c0 36 fe 94 47 38
       8.580544e-06 4.738434e-05 5.73376e-06 4.7584057e-05
000220 d0 25 c6 b8 31 90 35 39 da 04 f5 b7 bb 5b 11 b8
       -9.448419e-05 0.0001731522 -2.9208535e-05 -3.4656125e-05
000230 92 4e 56 b9 c5 32 2e b9 a4 97 c6 35 fe 8e 1c b8
       -0.000204379 -0.00016612846 1.4796283e-06 -3.732647e-05
000240 a8 bb 3f b9 8d f7 eb 37 60 48 e6 b8 d7 77 3b b7
       -0.00018285087 2.8129458e-05 -0.000109807355 -1.1173971e-05
000250 76 56 d2 38 69 75 3f b9 81 3d 48 b9 4e cc 01 b9
       0.00010029685 -0.00018258918 -0.00019096398 -0.00012378508
000260 4b 05 95 b8 47 7a 34 b9 90 df f0 b8 f1 af 8f b8
       -7.1058595e-05 -0.0001721169 -0.000114857336 -6.851543e-05
000270 5b 8c 07 38 06 33 09 39 29 13 b9 38 9a 02 34 b8
       3.2317224e-05 0.00013084346 8.825056e-05 -4.2917767e-05
000280 e9 9a 42 b8 a3 ca 4d 37 33 fc 61 b8 f3 b8 93 b8
       -4.6397476e-05 1.2266132e-05 -5.387906e-05 -7.043956e-05
000290 76 9c 04 38 28 04 63 b9 9f e6 6d b9 52 0f 2e b8
       3.1616968e-05 -0.00021649955 -0.00022687994 -4.14991e-05
0002a0 b5 14 11 b9 e8 e3 49 b9 c1 b7 97 b9 8a 60 8a 38
       -0.00013835992 -0.00019253755 -0.00028937872 6.5983346e-05
0002b0 6c 8e c4 b8 73 96 56 b9 eb 67 3a b9 ec 4d c4 b7
       -9.3725364e-05 -0.00020464677 -0.00017777055 -2.3401306e-05
0002c0 dc 25 37 b9 44 16 61 b6 8c 79 b7 b7 f2 20 74 38
       -0.00017466344 -3.3540573e-06 -2.18719e-05 5.8204816e-05
0002d0 42 58 98 38 91 f0 25 b9 0a eb a4 38 92 36 1d 39
       7.264364e-05 -0.00015825244 7.863909e-05 0.00014993016
0002e0 83 27 88 37 b5 c5 e0 38 f8 96 b8 b8 26 1d 1b 38
       1.6230862e-05 0.00010717978 -8.801924e-05 3.6982026e-05
0002f0 18 a9 81 38 76 1e cb b8 ff 89 12 39 81 e1 55 b9
       6.1826955e-05 -9.685468e-05 0.00013975053 -0.0002039727
000300 84 ab aa b8 93 69 09 b9 79 6d 06 b9 d8 99 09 b9
       -8.138179e-05 -0.00013104668 -0.00012820018 -0.0001312265
000310 a3 d7 5b b9 49 27 02 38 b7 ba 41 b8 52 b9 3e b9
       -0.00020965798 3.1031002e-05 -4.6188678e-05 -0.00018188849
000320 40 69 79 b8 bd 5a de b8 ae 2f c6 37 86 d6 73 b9
       -5.9464248e-05 -0.00010602686 2.3625642e-05 -0.00023254202
000330 6e a8 02 b9 03 1a ea b7 d8 6d 8a 37 5b 44 57 b8
       -0.00012460511 -2.7907086e-05 1.6502032e-05 -5.1323655e-05
000340 75 cc a0 b7 d0 df 05 39 85 fa 33 b9 44 ac 4e 38
       -1.9168694e-05 0.00012767245 -0.00017164096 4.9274662e-05
000350 26 3c bb 38 df be 97 b9 f2 b2 35 b8 7c 80 12 38
       8.9280584e-05 -0.00028943174 -4.332042e-05 3.4928773e-05
000360 e8 66 10 b8 34 bf ed 38 88 37 1c 35 86 84 24 39
       -3.4428114e-05 0.00011336655 5.819534e-07 0.00015689628
000370 23 7a 8f b5 56 02 12 b9 1a 12 2e 39 d8 aa 84 38
       -1.0689877e-06 -0.00013924515 0.00016600676 6.3260726e-05
000380 41 19 3a 39 a4 f6 39 38 cb 54 dd 38 c8 ef 02 39
       0.0001774775 4.433714e-05 0.00010553895 0.00012487092
000390 7a 4b db 37 f1 76 75 b8 ce c3 21 38 66 ad 27 b9
       2.6141981e-05 -5.8523325e-05 3.856775e-05 -0.00015990957
0003a0 57 ec 58 37 db 90 89 b8 17 7a 8c 37 4d e5 35 b9
       1.292963e-05 -6.5596505e-05 1.6746153e-05 -0.00017346926
0003b0 04 f2 08 39 a9 4f 52 b9 0e 78 cd 38 f6 74 1d 39
       0.00013060129 -0.00020056836 9.797524e-05 0.00015016258
0003c0 51 c3 8f b9 0e 03 e7 38 6c f8 82 b9 01 22 04 b9
       -0.00027420608 0.00011015507 -0.0002498062 -0.00012601168
0003d0 21 3c 01 38 10 af 23 b9 0c 52 d4 38 32 fb 3e b9
       3.0811996e-05 -0.00015610107 0.0001012423 -0.0001821339
0003e0 66 12 bd b7 f5 10 13 b9 94 da d6 b8 e3 27 5c 39
       -2.2539123e-05 -0.0001402533 -0.000102450285 0.00020995694
0003f0 6d 33 24 39 e7 32 6e 37 a8 02 b4 37 49 b2 3e b9
       0.00015659416 1.4197757e-05 2.1458909e-05 -0.00018186228

momentum_buffer f4 [16]
000000 00 e5 57 bc 08 7c b5 b9 14 ef c3 bc da 3d 19 bd
       -0.013177156 -0.0003461542 -0.023917712 -0.037412502
000010 a8 77 3a 39 c5 c8 7a b9 3b 78 51 39 97 ec cf bb
       0.00017782918 -0.0002391665 0.00019976583 -0.0063453424
000020 ce 8e 90 bb c2 51 13 bc 51 7a a5 39 41 3f a1 ba
       -0.004411555 -0.008991661 0.00031562385 -0.0012302176
000030 7f 5b 11 bd 78 40 d2 b9 a5 7f 63 bc dc 8f d4 bc
       -0.035487648 -0.00040102354 -0.013885413 -0.025947504

momentum_buffer f4 [2, 16]
000000 a9 93 69 bc 83 e7 fd bb 60 bf 4b bc 38 c4 1f bd
       -0.014256396 -0.0077485456 -0.012435764 -0.03900549
000010 87 7b 89 ba dc 20 bb 38 e8 9c bc b8 d2 26 0e bd
       -0.0010489085 8.9229754e-05 -8.993765e-05 -0.03470499
000020 27 59 64 bb a8 a6 46 bd 95 72 b3 ba 3e ae ad ba
       -0.0034843178 -0.04849878 -0.0013690764 -0.0013250781
000030 ed 8b 21 bd 0c 49 90 b9 d6 7d 80 bc a6 92 23 bd
       -0.039440084 -0.00027520244 -0.015685003 -0.039934777
000040 76 d1 fc b8 c1 dc 23 3b d5 96 49 3b c0 6f 09 3b
       -0.000120553115 0.0025003406 0.003076007 0.002097115
000050 0d 1a db 39 e8 f3 e6 38 8c 98 b4 38 cd 75 57 3a
       0.00041790344 0.00011012686 8.611483e-05 0.0008219153
000060 86 2c 05 3b f3 84 07 3b 74 7f 87 3a b5 27 8c 3a
       0.0020320727 0.002067861 0.0010337667 0.0010692986
000070 6a e0 1b 3b 49 1f bf 38 f7 6d 03 3b a9 14 32 3b
       0.0023784884 9.113417e-05 0.0020054558 0.002717296
