trained_custom/checkpoints/old_epidenet_b_512samples_patient2_leaveout1/epidenet_b_v2.3_qat_best-q.pth.tar (torch, 22495 bytes, 10 tensors)

block1_conv1d_bn_relu_1.op.weight f4 [4, 1, 4]
12.0 66.0 -75.0 -67.0 -57.0 28.0 -15.0 105.0
-43.0 35.0 -59.0 -35.0 -47.0 -33.0 -20.0 3.0
00000000: 0000 4041 0000 8442 0000 96c2 0000 86c2
00000010: 0000 64c2 0000 e041 0000 70c1 0000 d242
00000020: 0000 2cc2 0000 0c42 0000 6cc2 0000 0cc2
00000030: 0000 3cc2 0000 04c2 0000 a0c1 0000 4040

block1_conv1d_bn_relu_1.op.bias f4 [4]
-384.0 640.0 -2304.0 -1152.0
00000000: 0000 c0c3 0000 2044 0000 10c5 0000 90c4

block2_conv1d_bn_relu_1.op.weight f4 [16, 4, 9]
13.0 58.0 -47.0 59.0 -18.0 4.0 93.0 -74.0
-46.0 -22.0 -27.0 99.0 -49.0 -24.0 -44.0 -74.0
-47.0 110.0 20.0 20.0 -27.0 -60.0 7.0 -94.0
-59.0 -41.0 61.0 32.0 -65.0 -34.0 38.0 79.0
23.0 12.0 66.0 -48.0 10.0 -42.0 -38.0 -29.0
24.0 21.0 -34.0 15.0 28.0 -8.0 0.0 11.0
32.0 50.0 -43.0 -21.0 19.0 44.0 47.0 47.0
10.0 -47.0 5.0 -34.0 -51.0 47.0 40.0 -54.0
10.0 -10.0 -10.0 -25.0 20.0 -33.0 19.0 26.0
36.0 19.0 -48.0 -30.0 26.0 11.0 -36.0 -26.0
47.0 34.0 -20.0 -11.0 -45.0 1.0 -35.0 -36.0
-2.0 9.0 -20.0 29.0 -30.0 44.0 35.0 -40.0
-11.0 3.0 8.0 12.0 20.0 3.0 -23.0 25.0
-45.0 -28.0 -11.0 -22.0 -11.0 -28.0 -7.0 9.0
-23.0 -1.0 27.0 -3.0 1.0 -5.0 6.0 22.0
33.0 22.0 34.0 -3.0 -35.0 -19.0 26.0 1.0
-17.0 -26.0 -33.0 -29.0 -5.0 21.0 20.0 -33.0
24.0 -27.0 -6.0 -14.0 -6.0 -5.0 -31.0 -30.0
-11.0 1.0 -33.0 35.0 -66.0 -3.0 70.0 -35.0
68.0 26.0 -74.0 48.0 -12.0 -37.0 63.0 -64.0
8.0 -20.0 55.0 21.0 39.0 32.0 -15.0 -14.0
-62.0 39.0 59.0 52.0 -56.0 5.0 -50.0 -38.0
-42.0 28.0 -49.0 -4.0 7.0 67.0 -79.0 -70.0
-64.0 63.0 -48.0 82.0 28.0 11.0 1.0 -16.0
16.0 -19.0 8.0 31.0 -76.0 -48.0 85.0 -84.0
-13.0 95.0 28.0 -9.0 -103.0 43.0 -82.0 -26.0
-35.0 -20.0 -4.0 76.0 1.0 76.0 53.0 -73.0
60.0 -60.0 -33.0 35.0 33.0 69.0 -42.0 -7.0
44.0 -92.0 82.0 -71.0 8.0 -17.0 -53.0 3.0
88.0 -44.0 -50.0 -28.0 -89.0 49.0 -46.0 -68.0
-65.0 50.0 47.0 79.0 43.0 -25.0 -23.0 30.0
78.0 19.0 -54.0 -51.0 -66.0 37.0 -36.0 -65.0
00000000: 0000 5041 0000 6842 0000 3cc2 0000 6c42
00000010: 0000 90c1 0000 8040 0000 ba42 0000 94c2
00000020: 0000 38c2 0000 b0c1 0000 d8c1 0000 c642
00000030: 0000 44c2 0000 c0c1 0000 30c2 0000 94c2
00000040: 0000 3cc2 0000 dc42 0000 a041 0000 a041
00000050: 0000 d8c1 0000 70c2 0000 e040 0000 bcc2
00000060: 0000 6cc2 0000 24c2 0000 7442 0000 0042
00000070: 0000 82c2 0000 08c2 0000 1842 0000 9e42
00000080: 0000 b841 0000 4041 0000 8442 0000 40c2
00000090: 0000 2041 0000 28c2 0000 18c2 0000 e8c1
000000a0: 0000 c041 0000 a841 0000 08c2 0000 7041
000000b0: 0000 e041 0000 00c1 0000 0000 0000 3041
000000c0: 0000 0042 0000 4842 0000 2cc2 0000 a8c1
000000d0: 0000 9841 0000 3042 0000 3c42 0000 3c42
000000e0: 0000 2041 0000 3cc2 0000 a040 0000 08c2
000000f0: 0000 4cc2 0000 3c42 0000 2042 0000 58c2
00000100: 0000 2041 0000 20c1 0000 20c1 0000 c8c1
00000110: 0000 a041 0000 04c2 0000 9841 0000 d041
00000120: 0000 1042 0000 9841 0000 40c2 0000 f0c1
00000130: 0000 d041 0000 3041 0000 10c2 0000 d0c1
00000140: 0000 3c42 0000 0842 0000 a0c1 0000 30c1
00000150: 0000 34c2 0000 803f 0000 0cc2 0000 10c2
00000160: 0000 00c0 0000 1041 0000 a0c1 0000 e841
00000170: 0000 f0c1 0000 3042 0000 0c42 0000 20c2
00000180: 0000 30c1 0000 4040 0000 0041 0000 4041
00000190: 0000 a041 0000 4040 0000 b8c1 0000 c841
000001a0: 0000 34c2 0000 e0c1 0000 30c1 0000 b0c1
000001b0: 0000 30c1 0000 e0c1 0000 e0c0 0000 1041
000001c0: 0000 b8c1 0000 80bf 0000 d841 0000 40c0
000001d0: 0000 803f 0000 a0c0 0000 c040 0000 b041
000001e0: 0000 0442 0000 b041 0000 0842 0000 40c0
000001f0: 0000 0cc2 0000 98c1 0000 d041 0000 803f
00000200: 0000 88c1 0000 d0c1 0000 04c2 0000 e8c1
00000210: 0000 a0c0 0000 a841 0000 a041 0000 04c2
00000220: 0000 c041 0000 d8c1 0000 c0c0 0000 60c1
00000230: 0000 c0c0 0000 a0c0 0000 f8c1 0000 f0c1
00000240: 0000 30c1 0000 803f 0000 04c2 0000 0c42
00000250: 0000 84c2 0000 40c0 0000 8c42 0000 0cc2
00000260: 0000 8842 0000 d041 0000 94c2 0000 4042
00000270: 0000 40c1 0000 14c2 0000 7c42 0000 80c2
00000280: 0000 0041 0000 a0c1 0000 5c42 0000 a841
00000290: 0000 1c42 0000 0042 0000 70c1 0000 60c1
000002a0: 0000 78c2 0000 1c42 0000 6c42 0000 5042
000002b0: 0000 60c2 0000 a040 0000 48c2 0000 18c2
000002c0: 0000 28c2 0000 e041 0000 44c2 0000 80c0
000002d0: 0000 e040 0000 8642 0000 9ec2 0000 8cc2
000002e0: 0000 80c2 0000 7c42 0000 40c2 0000 a442
000002f0: 0000 e041 0000 3041 0000 803f 0000 80c1
00000300: 0000 8041 0000 98c1 0000 0041 0000 f841
00000310: 0000 98c2 0000 40c2 0000 aa42 0000 a8c2
00000320: 0000 50c1 0000 be42 0000 e041 0000 10c1
00000330: 0000 cec2 0000 2c42 0000 a4c2 0000 d0c1
00000340: 0000 0cc2 0000 a0c1 0000 80c0 0000 9842
00000350: 0000 803f 0000 9842 0000 5442 0000 92c2
00000360: 0000 7042 0000 70c2 0000 04c2 0000 0c42
00000370: 0000 0442 0000 8a42 0000 28c2 0000 e0c0
00000380: 0000 3042 0000 b8c2 0000 a442 0000 8ec2
00000390: 0000 0041 0000 88c1 0000 54c2 0000 4040
000003a0: 0000 b042 0000 30c2 0000 48c2 0000 e0c1
000003b0: 0000 b2c2 0000 4442 0000 38c2 0000 88c2
000003c0: 0000 82c2 0000 4842 0000 3c42 0000 9e42
000003d0: 0000 2c42 0000 c8c1 0000 b8c1 0000 f041
000003e0: 0000 9c42 0000 9841 0000 58c2 0000 4cc2
000003f0: 0000 84c2 0000 1442 0000 10c2 0000 82c2

block2_conv1d_bn_relu_1.op.bias f4 [16]
3328.0 -896.0 3712.0 3200.0 1536.0 2816.0 2304.0 2432.0
-4096.0 3200.0 -1792.0 3968.0 2816.0 -4352.0 3200.0 768.0
00000000: 0000 5045 0000 60c4 0000 6845 0000 4845
00000010: 0000 c044 0000 3045 0000 1045 0000 1845
00000020: 0000 80c5 0000 4845 0000 e0c4 0000 7845
00000030: 0000 3045 0000 88c5 0000 4845 0000 4044

block6_dense.op.weight f4 [2, 16]
104.0 12.0 65.0 92.0 80.0 56.0 112.0 55.0
0.0 117.0 48.0 -24.0 28.0 -13.0 107.0 34.0
-110.0 -43.0 -2.0 -20.0 -27.0 -41.0 -35.0 -62.0
-55.0 -117.0 -81.0 -12.0 -85.0 -20.0 -31.0 -40.0
00000000: 0000 d042 0000 4041 0000 8242 0000 b842
00000010: 0000 a042 0000 6042 0000 e042 0000 5c42
00000020: 0000 0000 0000 ea42 0000 4042 0000 c0c1
00000030: 0000 e041 0000 50c1 0000 d642 0000 0842
00000040: 0000 dcc2 0000 2cc2 0000 00c0 0000 a0c1
00000050: 0000 d8c1 0000 24c2 0000 0cc2 0000 78c2
00000060: 0000 5cc2 0000 eac2 0000 a2c2 0000 40c1
00000070: 0000 aac2 0000 a0c1 0000 f8c1 0000 20c2

momentum_buffer f4 [4, 1, 4]
0.0010224283 0.0043562045 -0.0044335793 -0.0038877225 -0.0035519365 0.0017561247 -0.00095686637 0.0065665767
-0.0026995752 0.0021822224 -0.0037264405 -0.0022076024 -0.0025458203 -0.0016773628 -0.00088758906 0.0005207518
00000000: 0003 863a 7ebe 8e3b 8f47 91bb 29c9 7ebb
00000010: 9bc7 68bb c42d e63a 37d6 7aba 702c d73b
00000020: 5beb 30bb 9e03 0f3b 4c37 74bb 6cad 10bb
00000030: c7d7 26bb f5da dbba 18ad 68ba 1083 083a

momentum_buffer f4 [4]
-0.0020217837 0.00024349589 -0.0009417316 -0.0028314285
00000000: e77f 04bb ee52 7f39 8ade 76ba 7d8f 39bb

momentum_buffer f4 [16, 4, 9]
5.4467673e-05 0.00040301878 -0.00041576318 0.00040542998 -0.00019426148 -1.700346e-05 0.00067335786 -0.0006217754
-0.00040410383 -0.00017097687 -0.00020951804 0.0007751317 -0.00038523274 -0.00018818234 -0.0003406901 -0.0005748757
-0.00036817256 0.0008566107 0.00015364552 0.00015520843 -0.00021348127 -0.00046673042 5.1945215e-05 -0.0007325672
-0.00046317026 -0.0003204388 0.00047784738 0.00021769106 -0.0005413833 -0.0003010745 0.00025710365 0.00057984167
0.00014253016 5.851052e-05 0.00048141298 -0.00040586866 7.742427e-05 -0.0003313795 -0.0002990914 -0.00022522538
0.00018545236 0.00016097161 -0.00026322406 0.000117346935 0.00021956894 -6.532695e-05 3.7696727e-06 8.6676824e-05
0.00025066538 0.0003938389 -0.00033856364 -0.00016644815 0.0001491596 0.0003454475 0.00036432856 0.0003710323
8.070209e-05 -0.0003702978 3.646583e-05 -0.00026677537 -0.00040100145 0.0003672846 0.00031307305 -0.0004233368
7.7796685e-05 -7.47593e-05 -7.465769e-05 -0.0001963506 0.0001574995 -0.00025905014 0.00014504204 0.00020469898
0.00027890538 0.00014663077 -0.00037286105 -0.00023427003 0.00020460109 8.764703e-05 -0.00028578285 -0.0002072953
0.0003696848 0.00026291556 -0.00015780768 -8.345936e-05 -0.00035280274 4.283723e-06 -0.00027284588 -0.0002816926
-1.3009158e-05 6.839769e-05 -0.00015290538 0.00022754747 -0.0002311452 0.00034688762 0.0002707495 -0.0003118604
-8.917948e-05 2.303283e-05 6.626078e-05 8.9556655e-05 0.0001521941 2.2283668e-05 -0.00018075113 0.00019144276
-0.00035389565 -0.00021775717 -8.799338e-05 -0.00017257665 -8.614756e-05 -0.00022174911 -5.176577e-05 7.045776e-05
-0.00018010799 -9.393479e-06 0.00021416701 -2.3217175e-05 1.1132803e-05 -3.8418326e-05 4.6198475e-05 0.000170708
0.00026039817 0.00017199293 0.00026516884 -2.1751988e-05 -0.00027143647 -0.00014572371 0.00020081349 8.778928e-06
-0.00013136577 -0.00020161695 -0.00025624703 -0.00022946172 -4.2277796e-05 0.0001604634 0.00015530446 -0.00025973364
0.00018731109 -0.00021160419 -4.7836093e-05 -0.00010765896 -4.951471e-05 -4.1587333e-05 -0.00023988241 -0.00023445764
-9.019958e-05 3.831396e-06 -0.00025952948 0.00026843022 -0.00051870244 -2.36909e-05 0.000541572 -0.0002750827
0.0005277239 0.00020509856 -0.00058192736 0.00037421152 -9.482701e-05 -0.00028920543 0.0004922359 -0.00050358655
6.0425937e-05 -0.00015509207 0.0004284192 0.00016138951 0.0003031651 0.00024878955 -0.000115524104 -0.000110431116
-0.00048778547 0.0003023337 0.0004607334 0.0004059051 -0.00043821387 3.9640905e-05 -0.00039316487 -0.00029707715
-0.00033157485 0.00021941442 -0.00038109627 -3.2989698e-05 4.103919e-05 0.0005006153 -0.0006387448 -0.0005687134
-0.00051931525 0.00046897776 -0.0003953711 0.00061908946 0.00020402364 8.205927e-05 1.0558952e-05 -0.00012306041
0.0001230464 -0.00014533731 6.250135e-05 0.0002426849 -0.0005936716 -0.000375941 0.00066083483 -0.00065824226
-0.00010311004 0.0007384739 0.00022051675 -6.936607e-05 -0.00080172246 0.0003337331 -0.0006375138 -0.00021193674
-0.00028656016 -0.00016613268 -4.542227e-05 0.0005792547 -8.70897e-06 0.00057568046 0.00040239966 -0.0005840063
0.0004485516 -0.00048190512 -0.000272799 0.00025867997 0.00024058524 0.00052624644 -0.00033909825 -7.1262715e-05
0.00032591473 -0.00071614573 0.00063755503 -0.0005541673 6.5472384e-05 -0.00012931289 -0.00041238015 2.6364703e-05
0.0006847469 -0.0003430118 -0.00039252394 -0.0002168732 -0.0006969323 0.00038112578 -0.00035925957 -0.00052945333
-0.00050492486 0.00038723607 0.0003667818 0.0006082304 0.0003259029 -0.00020892362 -0.00018737066 0.00021960454
0.00059434527 0.0001342982 -0.0004345756 -0.00041226402 -0.00052183034 0.00027941747 -0.00029283922 -0.00051827915
00000000: 3874 6438 444c d339 cafa d9b9 e48f d439
00000010: abb2 4bb9 a7a2 8eb7 4884 303a a4fe 22ba
00000020: e6dd d3b9 4148 33b9 12b2 5bb9 3532 4b3a
00000030: 10f9 c9b9 d052 45b9 a79e b2b9 41b3 16ba
00000040: 4907 c1b9 2c8e 603a e81b 2139 72bf 2239
00000050: f1d9 5fb9 7fb3 f4b9 c0df 5938 c109 40ba
00000060: a9d5 f2b9 9100 a8b9 9787 fa39 0044 6439
00000070: 9eeb 0dba 89d9 9db9 decb 8639 8400 183a
00000080: 2674 1539 3169 7538 2866 fc39 c5ca d4b9
00000090: d75e a238 01bd adb9 5ecf 9cb9 7a2a 6cb9
000000a0: fd75 4239 7dca 2839 5601 8ab9 2818 f638
000000b0: 173c 6639 2400 89b8 7cfa 7c36 44c6 b538
000000c0: bd6b 8339 2a7c ce39 3e81 b1b9 9688 2eb9
000000d0: ba67 1c39 2e1d b539 5a03 bf39 1d87 c239
000000e0: 9b3e a938 8824 c2b9 e3f2 1838 fcdd 8bb9
000000f0: 813d d2b9 1b90 c039 f423 a439 4ef3 ddb9
00000100: c726 a338 18c8 9cb8 8b91 9cb8 76e3 4db9
00000110: 7326 2539 1fd1 87b9 6d16 1839 77a4 5639
00000120: 0c3a 9239 e6c0 1939 907c c3b9 62a6 75b9
00000130: 308a 5639 24cf b738 20d5 95b9 695d 59b9
00000140: 41d2 c139 eed7 8939 2d79 25b9 e706 afb8
00000150: 62f8 b8b9 e6bc 8f36 c10c 8fb9 24b0 93b9
00000160: e841 5ab7 bb70 8f38 3a55 20b9 cf99 6e39
00000170: 915f 72b9 78de b539 62f3 8d39 3281 a3b9
00000180: de05 bbb8 a036 c137 7cf5 8a38 5dd0 bb38
00000190: 4b96 1f39 d0ed ba37 0388 3db9 06be 4839
000001a0: 128b b9b9 bf55 64b9 1689 b8b8 b1f5 34b9
000001b0: 1eaa b4b8 5385 68b9 131f 59b8 b9c2 9338
000001c0: 5fdb 3cb9 af98 1db7 0592 6039 81c2 c2b7
000001d0: 06c7 3a37 5d23 21b8 3cc5 4138 1400 3339
000001e0: 0d86 8839 0059 3439 5c06 8b39 0a78 b6b7
000001f0: 964f 8eb9 69cd 18b9 7691 5239 3549 1337
00000200: 3bbf 09b9 2369 53b9 e558 86b9 a99b 70b9
00000210: 7053 31b8 1142 2839 39d9 2239 dc2c 88b9
00000220: f068 4439 11e2 5db9 9da3 48b8 f7c6 e1b8
00000230: 04ae 4fb8 0f6e 2eb8 f288 7bb9 bed8 75b9
00000240: 8829 bdb8 718f 8036 7511 88b9 18bc 8c39
00000250: 88f9 07ba d2bb c6b7 48f8 0d3a fa38 90b9
00000260: f456 0a3a ba0f 5739 7c8c 18ba d231 c439
00000270: dddd c6b8 7fa0 97b9 6409 013a 1f03 04ba
00000280: db71 7d38 36a0 22b9 749d e039 ab3a 2939
00000290: 22f2 9e39 f86f 8239 8845 f2b8 4197 e7b8
000002a0: 75bd ffb9 8b82 9e39 978e f139 a9cf d439
000002b0: 12c0 e5b9 1944 2638 b221 ceb9 05c1 9bb9
000002c0: 39d7 adb9 9c12 6639 e0cd c7b9 6b5e 0ab8
000002d0: 7f21 2c38 b93b 033a 7071 27ba b615 15ba
000002e0: a822 08ba 21e1 f539 d049 cfb9 644a 223a
000002f0: 2eef 5539 3c17 ac38 5b26 3137 c709 01b9
00000300: 0406 0139 b065 18b9 2813 8338 3b79 7e39
00000310: a0a0 1bba f219 c5b9 e03b 2d3a e48d 2cba
00000320: c83c d8b8 2596 413a 843a 6739 a078 91b8
00000330: af2a 52ba e6f8 ae39 d41e 27ba 563b 5eb9
00000340: 743d 96b9 e733 2eb9 cb83 3eb8 20d9 173a
00000350: be1c 12b7 43e9 163a 2bf9 d239 0018 19ba
00000360: 942b eb39 36a8 fcb9 7606 8fb9 709f 8739
00000370: 9c45 7c39 cdf3 093a ffc8 b1b9 e172 95b8
00000380: 89df aa39 babb 3bba 9821 273a 8a45 11ba
00000390: 384e 8938 2a98 07b9 ba34 d8b9 c529 dd37
000003a0: 9680 333a 44d6 b3b9 accb cdb9 7568 63b9
000003b0: 56b2 36ba d6d1 c739 015b bcb9 03cb 0aba
000003c0: ef5c 04ba f205 cb39 9f4c c039 a771 1f3a
000003d0: f2dd aa39 8212 5bb9 ee78 44b9 a545 6639
000003e0: d6cd 1b3a 66d2 0c39 c0d7 e3b9 2425 d8b9
000003f0: 71cb 08ba c77e 9239 3788 99b9 20dd 07ba

momentum_buffer f4 [16]
6.614948e-05 -5.3724158e-05 0.00022566447 0.00019175324 8.6884655e-05 0.00011712851 0.00010207702 0.000121201985
-0.00031568087 4.464802e-05 -0.0002158459 0.0002297353 5.6558536e-05 -0.00026387928 0.00015646298 -4.727594e-06
00000000: bbb9 8a38 e055 61b8 58a0 6c39 5e11 4939
00000010: d835 b638 e4a2 f538 2f12 d638 d22d fe38
00000020: f881 a5b9 7244 3b38 b154 62b9 1ae5 7039
00000030: 4439 6d38 4759 8ab9 3610 2439 b9a1 9eb6

momentum_buffer f4 [2, 16]
0.00040504272 4.499498e-05 0.0002526102 0.00035974226 0.0003119374 0.00021849864 0.00043599698 0.00021645238
6.371289e-07 0.00045577652 0.00018594982 -9.311833e-05 0.00010960804 -5.2727286e-05 0.00041854716 0.00013247761
-0.00032143254 -0.00016881645 1.6958977e-05 -7.6364915e-05 -0.00010353866 -0.00010917319 -1.1100471e-05 -0.00023754817
-0.00018957203 -0.0003706995 -0.0002658423 1.6057113e-05 -0.00027767516 -7.830251e-05 -5.7619312e-05 -0.00012876003
00000000: ea5b d439 feb8 3c38 c470 8439 ca9b bc39
00000010: 878b a339 c81c 6539 8696 e439 7ef7 6239
00000020: 2a07 2b35 4af5 ee39 86fb 4239 8648 c3b8
00000030: 5edd e538 7e27 5db8 7370 db39 b0e9 0a39
00000040: f285 a8b9 5204 31b9 2043 8e37 1a26 a0b8
00000050: e522 d9b8 e9f3 e4b8 293c 3ab7 5a16 79b9
00000060: dbc7 46b9 725a c2b9 c060 8bb9 63b2 8637
00000070: ee94 91b9 5736 a4b8 44ac 71b8 c203 07b9
