trained_custom/checkpoints/old_epidenet_b_512samples_patient2_leaveout1/epidenet_b_v1.1_qat_best-q.pth.tar (torch, 13647 bytes, 6 tensors)

block1_conv1d_bn_relu_1.op.weight f4 [4, 1, 3]
000000 00 00 70 41 00 00 90 42 00 00 c4 c2 00 00 2c c2
       15.0 72.0 -98.0 -43.0
000010 00 00 b0 c1 00 00 a0 41 00 00 40 c0 00 00 54 42
       -22.0 20.0 -3.0 53.0
000020 00 00 00 c1 00 00 a0 40 00 00 d8 c1 00 00 90 c1
       -8.0 5.0 -27.0 -18.0

block1_conv1d_bn_relu_1.op.bias f4 [4]
000000 00 00 40 44 00 00 00 00 00 00 e0 44 00 00 60 c4
       768.0 0.0 1792.0 -896.0

block6_dense.op.weight f4 [2, 4]
000000 00 00 a0 42 00 00 ae 42 00 00 80 3f 00 00 30 41
       80.0 87.0 1.0 11.0
000010 00 00 48 c2 00 00 30 c1 00 00 94 c2 00 00 e0 40
       -50.0 -11.0 -74.0 7.0

momentum_buffer f4 [4, 1, 3]
000000 b7 25 b6 3b 51 28 51 3c a8 6b 07 bc 41 7c a0 3b
       0.005558695 0.01276596 -0.008265413 0.0048976247
000010 5a 7d ed 3b 3e 3b 3e 3c 2c a1 68 3c 37 b2 aa 3c
       0.007247609 0.011610804 0.014198583 0.020836933
000020 f1 90 60 3c 05 de 43 bb f5 72 fe bb aa ea d8 bb
       0.013706432 -0.0029886973 -0.007765169 -0.006619771

momentum_buffer f4 [4]
000000 8a c0 16 bd ba af 86 bd f9 bd ab bd bd 8d b3 3c
       -0.036804713 -0.06576486 -0.08385844 0.021918172

momentum_buffer f4 [2, 4]
000000 e9 6b 24 3a 1b d1 32 3a 01 1a 2d 37 aa 17 b1 38
       0.00062721834 0.000682132 1.0317658e-05 8.4444255e-05
000010 a8 4c 8f 3d 74 7c 73 3d 40 b4 8c 3d 14 e7 a2 3b
       0.06997043 0.05944486 0.068703175 0.0049713943
