trained_custom/checkpoints/epidenet_b_v3.2_768_qat_best.pth.tar (torch, 92175 bytes, 26 tensors)

block1_conv1d_bn_relu_1.op.weight f4 [4, 1, 4]
-0.40590706 2.071035 -3.560766 -3.1205583 -2.0188465 1.868478 -0.088310696 4.9061437
-2.3131993 2.2509441 -3.4774528 -2.0213008 -2.5472803 -1.7767361 -1.12855 0.029177109
00000000: 0dd3 cfbe d68b 0440 97e3 63c0 3ab7 47c0
00000010: c834 01c0 492a ef3f 3ddc b4bd 21ff 9c40
00000020: 750b 14c0 780f 1040 968e 5ec0 fe5c 01c0
00000030: a406 23c0 176c e3bf 5474 90bf d504 ef3c

block1_conv1d_bn_relu_1.op.bias f4 [4]
0.15143436 0.024399733 0.08259314 0.11381869
00000000: 9c11 1b3e f3e1 c73c 9826 a93d c619 e93d

block2_conv1d_bn_relu_1.op.weight f4 [16, 4, 5]
0.21819259 0.5357537 -0.1521905 0.5365732 -0.111817986 0.105470456 0.6584669 -0.6565217
-0.4459697 -0.17961223 -0.29597506 0.5718141 -0.45443082 -0.30076182 -0.47825277 -0.67027897
-0.443261 0.59751916 0.33402434 0.35924616 0.06106464 -0.3382237 0.08392542 -0.66697854
-0.47093487 -0.47198862 0.32149366 0.41166362 -0.27777383 -0.031141652 0.489497 0.7304695
0.2769964 0.079147205 0.49576315 -0.34780714 0.17416699 -0.52215683 -0.48920542 -0.3240748
0.19762996 0.1831444 -0.3688497 0.17778154 0.32252717 -0.14266044 -0.024713134 0.11178869
0.31240222 0.48349532 -0.41155726 -0.17624111 0.25293928 0.5289695 0.5645462 0.5076276
0.1333587 -0.4749898 0.09605115 -0.2788978 -0.55472374 0.5163832 0.42770106 -0.5848137
0.1104048 -0.0786733 -0.13203189 -0.24777147 0.2271896 -0.35189232 0.18700822 0.30036816
0.4223824 0.20524466 -0.5544442 -0.3889859 0.2938129 0.13697644 -0.45898482 -0.32402316
0.71773165 0.5068432 -0.34042174 -0.21851261 -0.81727535 -0.018480608 -0.6290858 -0.658909
-0.015131929 0.16410623 -0.38863555 0.43770987 -0.4906568 0.7319036 0.5213235 -0.7381106
-0.25836343 0.026971377 0.12094572 0.15582441 0.25107285 0.04115462 -0.3083336 0.3040488
-0.62013143 -0.39023712 -0.1706957 -0.32041228 -0.2274116 -0.5107155 -0.12695436 0.15171254
-0.40288615 -0.020785002 0.45978543 -0.061577305 0.033451855 -0.04442565 0.142413 0.41317347
0.7641642 0.49115053 0.77452725 -0.08263849 -0.77523285 -0.37519968 0.56246716 -0.017057566
-0.43536153 -0.6562622 -0.8236583 -0.7511967 -0.1952305 0.44708082 0.44464442 -0.8442602
0.49243173 -0.6885366 -0.19748554 -0.35733718 -0.14101073 -0.10875148 -0.5097266 -0.504391
-0.10848345 -0.019422203 -0.31447142 0.17503539 -0.50129586 -0.021607542 0.4518609 -0.23563066
0.50101775 0.18414396 -0.5272548 0.30734217 -0.07962495 -0.25964984 0.4283375 -0.47450793
0.046193715 -0.36049983 0.8108824 0.24988978 0.5192603 0.34653464 -0.40169576 -0.39727974
-1.157056 0.52467996 0.9517687 0.8062598 -0.9820137 -0.030550182 -0.9811993 -0.74595517
-0.7976546 0.35771 -0.8359947 -0.111020334 0.010876759 0.2885817 -0.37633324 -0.33117372
-0.27654865 0.3044471 -0.19736435 0.35022056 0.0979713 -0.0051176306 -0.00087740505 -0.10622515
0.047111463 -0.107001446 0.00432583 0.06624264 -0.37674332 -0.26966837 0.38284743 -0.38086239
-0.10350094 0.6234631 0.18028693 -0.044935647 -0.6110165 0.31781352 -0.5272662 -0.19027191
-0.2117697 -0.107625775 -0.028782777 0.53900546 0.054815084 0.53268516 0.3697651 -0.44476613
0.2892753 -0.47642383 -0.32255435 0.16336542 0.29307786 0.7015591 -0.20017068 0.0073148427
0.45806137 -0.809927 0.6866716 -0.8120272 0.08380203 -0.04921409 -0.47702587 0.14273345
0.86324114 -0.23212966 -0.54549557 -0.33330354 -0.8818766 0.5187066 -0.37056425 -0.608341
-0.38746682 0.4923983 0.45446897 0.70052165 0.32777438 -0.30714142 -0.19771604 0.27632225
0.6813123 0.25625464 -0.32703653 -0.3972846 -0.8135107 0.20918104 -0.45984244 -0.6802962
00000000: e16d 5f3e 2827 093f d4d7 1bbe dc5c 093f
00000010: d400 e5bd e500 d83d 4991 283f ce11 28bf
00000020: 2456 e4be 45ec 37be 0b8a 97be 6962 123f
00000030: 28ab e8be 74fd 99be 8cdd f4be 6797 2bbf
00000040: 1bf3 e2be 04f7 183f 3d05 ab3e 1def b73e
00000050: ea1e 7a3d a82b adbe 17e1 ab3d 1bbf 2abf
00000060: 601e f1be 7ea8 f1be d19a a43e 93c5 d23e
00000070: 5f38 8ebe c71c ffbc 5a9f fa3e 0d00 3b3f
00000080: 79d2 8d3e ee17 a23d abd4 fd3e c713 b2be
00000090: d558 323e 12ac 05bf 2279 fabe 22ed a5be
000000a0: 825f 4a3e 358a 3b3e ded9 bcbe 5d0c 363e
000000b0: 4822 a53e 9415 12be 3373 cabc 78f1 e43d
000000c0: 2ff3 9f3e b38c f73e a2b7 d2be 8d78 34be
000000d0: 4281 813e 8c6a 073f 1a86 103f e2f3 013f
000000e0: 2f8f 083e dd31 f3be 77b6 c43d b1cb 8ebe
000000f0: 6002 0ebf b031 043f a2fb da3e 5ab6 15bf
00000100: e91b e23d 781f a1bd 5e33 07be ceb7 7dbe
00000110: 64a4 683e 3b2b b4be 157f 3f3e dbc9 993e
00000120: 8242 d83e a82b 523e 0ef0 0dbf 2929 c7be
00000130: a56e 963e 8d43 0c3e 0f00 ebbe 5de6 a5be
00000140: 43bd 373f 7ac0 013f c24b aebe c5c1 5fbe
00000150: f538 51bf a564 97bc c40b 21bf 43ae 28bf
00000160: e9eb 77bc 770b 283e 3dfb c6be 821b e03e
00000170: 5e37 fbbe 095e 3b3f 7575 053f d1f4 3cbf
00000180: 3648 84be 14f3 dc3c 64b2 f73d 6f90 1f3e
00000190: 9f8c 803e bf91 283d e7dd 9dbe 49ac 9b3e
000001a0: efc0 1ebf 29cd c7be dbca 2ebe 140d a4be
000001b0: 96de 68be 40be 02bf 5300 02be 885a 1b3e
000001c0: 1847 cebe 4f45 aabc ff68 eb3e 7c38 7cbd
000001d0: d004 093d acf7 35bd b7d4 113e 798b d33e
000001e0: 44a0 433f 1578 fb3e 6b47 463f 5e3e a9bd
000001f0: a975 46bf 2c1a c0be d9fd 0f3f 4fbc 8bbc
00000200: b5e7 debe cd00 28bf 45db 52bf 6d4e 40bf
00000210: 81ea 47be c7e7 e43e 6fa8 e33e 7021 58bf
00000220: 0320 fc3e ef43 30bf a639 4abe e6f4 b6be
00000230: 1e65 10be 19b9 debd 717d 02bf c51f 01bf
00000240: 922c debd 501b 9fbc 6602 a1be 7a3c 333e
00000250: ed54 00bf 4d02 b1bc 505a e73e 2a49 71be
00000260: b342 003f 3c90 3c3e 2cfa 06bf f45b 9d3e
00000270: 6812 a3bd d3f0 84be 0e4f db3e b4f2 f2be
00000280: 9f35 3d3d 6f93 b8be fd95 4f3f 1be3 7f3e
00000290: 3eee 043f fd6c b13e 11ab cdbe 4068 cbbe
000002a0: 691a 94bf 6d51 063f 1da7 733f 0b67 4e3f
000002b0: 4065 7bbf 6044 fabc e12f 7bbf ebf6 3ebf
000002c0: 1833 4cbf c425 b73e c003 56bf a15e e3bd
000002d0: 6f34 323c fbc0 933e c0ae c0be 9a8f a9be
000002e0: c997 8dbe 7ee0 9b3e e119 4abe 1c50 b33e
000002f0: 2da5 c83d ccb1 a7bb a801 66ba 928c d9bd
00000300: f3f7 403d 9323 dbbd b1bf 8d3b 39aa 873d
00000310: 80e4 c0be f911 8abe 9404 c43e 6500 c3be
00000320: 4df8 d3bd 479b 1f3f 239d 383e 710e 38bd
00000330: 946b 1cbf 74b8 a23e ebfa 06bf a4d6 42be
00000340: 28da 58be e76a dcbd dcc9 ebbc 43fc 093f
00000350: c885 603d 0e5e 083f da51 bd3e 63b8 e3be
00000360: e41b 943e d3ed f3be d825 a5be 4449 273e
00000370: 4d0e 963e 6199 333f 8bf9 4cbe 59b1 ef3b
00000380: 0587 ea3e 6057 4fbf b6c9 2f3f 04e1 4fbf
00000390: 66a0 ab3d b794 49bd bc3c f4be b828 123e
000003a0: 5ffd 5c3f 66b3 6dbe 99a5 0bbf c3a6 aabe
000003b0: aac2 61bf f5c9 043f 99ba bdbe 3cbc 1bbf
000003c0: 0d62 c6be a11b fc3e 28b0 e83e 6355 333f
000003d0: 0bd2 a73e a441 9dbe 1376 4abe 1c7a 8d3e
000003e0: 7c6a 2e3f cf33 833e 5571 a7be e368 cbbe
000003f0: 3d42 50bf 8e33 563e 7870 ebbe e427 2ebf

block2_conv1d_bn_relu_1.op.bias f4 [16]
-0.046906654 0.08090584 -0.31516498 0.21249726 0.19194335 0.15763633 0.2513165 0.22560835
0.19594072 0.036995698 0.041516848 0.32907566 0.17064828 0.11846945 -0.019022178 -0.19495153
00000000: 3121 40bd f6b1 a53d 4e5d a1be e298 593e
00000010: cc8c 443e 6b6b 213e 8eac 803e e005 673e
00000020: afa4 483e cd88 173d 920d 2a3d 9b7c a83e
00000030: 6cbe 2e3e 1ca0 f23d 66d4 9bbc 60a1 47be

block2_conv1d_bn_relu_2.op.weight f4 [16, 16, 5]
-0.11432747 0.12684703 -0.21736567 0.04971036 -0.21188228 -0.3133448 -0.24857612 0.22471261
0.16148947 0.29233214 0.21065561 -0.2827336 -0.21508062 -0.057712357 -0.19873258 0.20468512
-0.23131275 -0.14694619 -0.28599286 -0.16612826 0.25756487 0.25704306 0.22867417 0.23686868
0.25776237 -0.06448272 0.13441387 0.25725338 0.083452195 0.27896854 0.17261988 0.19055894
-0.11249516 0.1253367 0.023260193 -0.0810278 -0.16958077 -0.16225143 -0.22479753 0.20373632
0.22527409 -0.017969327 -0.15967911 0.23793298 0.18021554 0.0008725194 -0.15963137 0.2630865
0.12202895 -0.20819116 0.25591937 0.18945181 -0.13559891 0.1384407 -0.18844642 -0.036118202
0.26784563 0.029954443 -0.19522612 -0.09221677 -0.08385615 -0.06479681 0.02669869 0.27711186
0.025818814 -0.17828031 -0.00040277952 0.118981965 0.12673913 -0.28086427 -0.06676333 -0.23441905
-0.1366393 0.10348022 -0.20412458 0.058651518 0.21197088 -0.0030454192 -0.20975427 -0.115286104
0.06400376 -0.29751801 0.14666572 -0.35522357 -0.35797167 -0.35345304 -0.04999955 0.27650484
-0.31897172 0.29036015 -0.1767926 0.06485741 -0.018361181 -0.35865268 0.2621784 0.21873087
0.3844837 0.16241394 -0.2779327 0.2803734 0.03591564 0.16503319 -0.3078637 -0.12220532
-0.37365797 -0.14653085 0.06533292 -0.30135491 0.09889027 0.17469424 0.03832637 -0.2547089
-0.29571223 -0.11044136 0.16119547 0.37124744 0.23413321 -0.0205177 0.13421836 -0.34823793
-0.29183707 0.14679381 -0.21045552 0.14956199 -0.27014592 -0.19292557 -0.29352516 0.21791443
-0.012282017 0.3114057 0.20357195 0.17695011 -0.01538203 -0.14557981 -0.09557419 0.075697765
0.20626292 -0.2554502 0.29965013 -0.043710306 -0.2984306 -0.19507219 0.30040073 0.31956914
-0.31769797 0.23463026 0.14081147 0.18849857 0.30021167 -0.16559145 0.09242076 0.13206227
-0.10421932 0.12089679 -0.094322115 0.19120163 -0.13033499 -0.17443031 0.0605835 0.11835748
-0.13815029 0.016832473 0.16527924 -0.02183443 0.109928235 -0.047385022 0.13174562 -0.20970945
-0.1674679 -0.1382439 0.23224995 -0.09801064 -0.013085002 -0.16871019 0.26462176 0.33808908
-0.19670391 -0.20769228 -0.19617036 0.03280209 -0.056398086 -0.182432 -0.07746733 0.06800989
-0.1298691 0.08205167 -0.054072008 -0.1210571 0.05400137 0.25344175 -0.189515 0.016898084
-0.10461062 0.28798792 -0.2716989 -0.2705135 0.2962204 -0.16828209 0.06280308 -0.02070133
-0.051109172 -0.05766527 0.19762932 0.024796668 -0.27971917 -0.17191726 -0.108854935 0.13206501
-0.20095588 0.261792 -0.026659168 -0.034128178 0.24651025 0.15058091 0.2722853 0.18644129
-0.080565065 -0.1842613 -0.003972388 0.25393665 -0.113031864 -0.2918145 0.08944083 0.25062096
-0.10027191 -0.22421 -0.26076317 0.092148185 2.7895065e-05 -0.14700046 0.060609158 0.112511575
0.24901369 0.22523218 -0.04029619 -0.28019884 -0.28607717 0.2622423 0.12577245 0.121005006
-0.33293688 0.37606168 0.3866978 0.39005926 -0.3372275 -0.17205091 -0.2831152 0.36897293
-0.17764135 -0.20524617 0.22581826 -0.16182649 -0.18133703 -0.022294372 -0.040654242 -0.32525897
00000000: 8524 eabd 30e4 013e 1b95 5ebe 179d 4b3d
00000010: abf7 58be bb6e a0be bd8a 7ebe 101b 663e
00000020: 7f5d 253e 8fac 953e 1bb6 573e 75c2 90be
00000030: 183e 5cbe cb63 6cbd 8e80 4bbe fa98 513e
00000040: 40dd 6cbe 1079 16be a86d 92be 871d 2abe
00000050: 8bdf 833e 269b 833e 9029 6a3e b48d 723e
00000060: 6ef9 833e 840f 84bd caa3 093e b7b6 833e
00000070: fce8 aa3d f7d4 8e3e 44c3 303e e221 433e
00000080: dd63 e6bd 4458 003e 298c be3c e7f1 a5bd
00000090: 95a6 2dbe 3d25 26be 5331 66be 41a0 503e
000000a0: 40ae 663e 6934 93bc ec82 23be b4a4 733e
000000b0: 6c8a 383e c9b9 643a 6876 23be 46b3 863e
000000c0: 50ea f93d 1030 55be dd07 833e a8ff 413e
000000d0: 71da 0abe 66c3 0d3e 19f8 40be aef0 13bd
000000e0: 1023 893e 0563 f53c 5be9 47be 25dc bcbd
000000f0: c6bc abbd 31b4 84bd 36b7 da3c 9be1 8d3e
00000100: fa81 d33c 1d8f 36be 272c d3b9 d1ac f33d
00000110: e7c7 013e 71cd 8fbe 36bb 88bd 8c0b 70be
00000120: 2ceb 0bbe 70ed d33d 0906 51be 933c 703d
00000130: e50e 593e a895 47bb d3c9 56be 1f1b ecbd
00000140: 6714 833d 4854 98be 8a2f 163e dddf b5be
00000150: 1048 b7be ccf7 b4be 54cc 4cbd 0b92 8d3e
00000160: 4350 a3be 16aa 943e 1f09 35be f6d3 843d
00000170: 306a 96bc 53a1 b7be 3f3c 863e fcfa 5f3e
00000180: 0cdb c43e d74f 263e 324d 8ebe 1a8d 8f3e
00000190: 471c 133d 76fe 283e 50a0 9dbe c846 fabd
000001a0: 1950 bfbe 2f0c 16be 44cd 853d 314b 9abe
000001b0: fb86 ca3d 0ce3 323e 1dfc 1c3d 3469 82be
000001c0: 9867 97be 142f e2bd 6d10 253e 2514 be3e
000001d0: 9ec0 6f3e bc14 a8bc 8a70 093e 3e4c b2be
000001e0: ab6b 95be 1e51 163e a781 57be c726 193e
000001f0: 9150 8abe 488e 45be ee48 96be f624 5f3e
00000200: 833a 49bc 9170 9f3e 2a75 503e 6932 353e
00000210: e904 7cbc e012 15be 67bc c3bd 6e07 9b3d
00000220: 9636 533e 5eca 82be be6b 993e 9409 33bd
00000230: e5cb 98be 01c1 47be 20ce 993e 919e a33e
00000240: 4fa9 a2be ea42 703e e230 103e c505 413e
00000250: 58b5 993e ce90 29be 1847 bd3d 553b 073e
00000260: f070 d5bd bc98 f73d f42b c1bd 5cca 433e
00000270: 8976 05be dc9d 32be 6726 783d 6865 f23d
00000280: 4577 0dbe 41e4 893c f63e 293e 1ede b2bc
00000290: 0e22 e13d cc16 42bd 53e8 063e 13be 56be
000002a0: b57c 2bbe cf8f 0dbe eed2 6d3e cdb9 c8bd
000002b0: 7a62 56bc 5dc2 2cbe 817c 873e 031a ad3e
000002c0: c06c 49be 49ad 54be e2e0 48be 7c5b 063d
000002d0: ae01 67bd 74cf 3abe 31a7 9ebd c548 8b3d
000002e0: 68fc 04be b50a a83d 9c7a 5dbd c9ec f7bd
000002f0: 8a30 5d3d 1ec3 813e 3810 42be da6d 8a3c
00000300: 183e d6bd 2773 933e 1e1c 8bbe bf80 8abe
00000310: 33aa 973e 2452 2cbe e79e 803d d695 a9bc
00000320: da57 51bd 6b32 6cbd 575f 4a3e 6222 cb3c
00000330: 5a37 8fbe 140b 30be 56ef debd 0d3c 073e
00000340: 61c7 4dbe 9a09 863e 5464 dabc fdc9 0bbd
00000350: 2f6d 7c3e e231 1a3e fb68 8b3e 77ea 3e3e
00000360: 4cff a4bd ffae 3cbe ce2a 82bb fc03 823e
00000370: 407d e7bd b668 95be c12c b73d 6451 803e
00000380: 5c5b cdbd 4e97 65be c082 85be 30b8 bc3d
00000390: 3200 ea37 4a87 16be 4f41 783d 786c e63d
000003a0: 72fd 7e3e 44a3 663e 9e0d 25bd 3976 8fbe
000003b0: b578 92be 9f44 863e 7eca 003e 79d1 f73d
000003c0: b476 aabe 288b c03e 41fd c53e d9b5 c73e
000003d0: 15a9 acbe 1d2e 30be 7af4 90be 05ea bc3e
000003e0: 9de7 35be 0d2c 52be e73c 673e d8b5 25be
000003f0: 6ab0 39be b0a2 b6bc 1085 26bd 5888 a6be

block2_conv1d_bn_relu_2.op.bias f4 [16]
-0.042364255 0.05964307 0.010517274 0.037179314 -0.04068177 -0.031690095 -0.42206067 0.1669058
0.12601861 0.5395036 0.19929127 -0.06106426 -0.15277737 0.34969336 -0.25552937 0.04670238
00000000: 2486 2dbd 4b4c 743d a550 2c3c 5649 183d
00000010: eda1 26bd 79cd 01bd 5618 d8be 5be9 2a3e
00000020: 060b 013e e81c 0a3f 0313 4c3e 841e 7abd
00000030: ac71 1cbe 020b b33e bfd4 82be ff4a 3f3d

block2_conv1d_bn_relu_3.op.weight f4 [16, 16, 5]
-0.25292724 -0.23038681 0.16382869 0.25913164 0.035156958 -0.20924811 0.13216347 0.02663068
-0.32655683 -0.23605268 0.035492532 0.17643115 -0.14888434 0.1485245 -0.22716306 0.31260708
0.20667231 0.044412903 0.12080163 0.0962043 -0.22654985 -0.012038685 0.078470625 -0.08280457
0.29727632 -0.16812837 -0.3323913 -0.18557411 -0.33554763 0.2498482 -0.19141337 -0.28324547
-0.08230512 -0.27755758 -0.22638708 0.16851619 -0.24933097 0.14589618 0.24583201 -0.019300207
0.17370272 -0.16603671 0.2812426 0.32008564 0.058369264 0.3286492 -0.32281166 -0.030825092
0.07583522 -0.2951171 0.17804082 -0.13448554 -0.12834184 -0.2889688 0.1401863 -0.25715292
-0.08375453 0.13447356 0.23397496 0.04058154 -0.15785658 -0.18179105 0.1535978 0.028184991
0.27243948 0.11350417 0.2822499 -0.2926126 0.28322083 -0.17273594 -0.10999716 -0.015076792
-0.10346506 0.033290606 0.26792783 -0.19247286 0.10066327 -0.29787248 0.021387735 0.24837565
0.14559816 0.19095363 0.10910104 -0.04582906 0.031084454 -0.11758927 0.18562467 0.119767636
-0.16268696 0.21529365 -0.010191684 -0.0112676695 -0.07319522 -0.08056544 -0.0011521815 -0.13728514
-0.23986077 -0.12830369 -0.04561177 0.18252617 0.15083887 -0.17063786 -0.02953271 -0.08561169
-0.13914807 -0.071564876 -0.09455933 0.14148463 -0.10993635 0.050359532 -0.15786026 -0.087846324
0.17000015 -0.13624442 -0.03826405 0.20634265 0.070026614 -0.12888192 -0.15118383 -0.09058228
-0.095679075 0.087915875 -0.0669274 0.19359618 -0.1361454 -0.07183728 0.08825156 0.18971
0.23761609 0.043252833 0.005188257 -0.11792659 0.121922694 -0.12915848 -0.035094522 -0.2073283
-0.24968177 0.10691752 -0.004349587 0.17958723 0.16438994 0.12448862 0.113854945 -0.037013993
0.14256269 0.111042865 0.08523587 0.00511596 0.04145664 -0.0057665547 -0.19011967 0.045396943
-0.17646033 0.10848627 -0.15197428 -0.10483561 -0.13938983 0.17283195 -0.16569644 0.15459985
0.103334785 0.15513974 0.04445259 0.12099836 0.18386938 0.052571278 0.085468836 -0.19568163
-0.08869906 0.001623553 0.029392138 -0.0855487 -0.23670696 -0.06236899 0.08645859 0.20275117
-0.21266952 0.116726205 -0.22788064 -0.23012552 -0.1549793 -0.04710677 0.054262277 -0.19061366
0.19115642 0.22884049 0.01579397 0.18473166 -0.12402655 -0.11171719 -0.03239173 0.021052673
-0.17438994 -0.20937645 0.07910859 0.06690069 0.23203205 -0.09844254 0.08494125 -0.09467169
0.11610217 -0.015615642 0.19231729 0.15012126 0.22063224 0.13070922 0.01186115 0.21850732
-0.14012471 0.22806883 0.24395396 0.25282827 -0.09179583 -0.1141549 0.017071076 0.07105421
0.121070735 0.09847415 0.2046486 -0.058460947 -0.07271229 0.08287124 0.06626064 -0.1485819
0.011274295 -0.18468589 -0.07914598 -0.09858158 0.20645127 -0.21548383 -0.13931021 -0.23138596
0.061268 -0.18126546 0.0820549 -0.16357923 -0.14170916 -0.103171386 0.053719997 0.22957447
0.23346168 -0.042974427 -0.29398358 -0.11813797 -0.13369064 -0.0619352 0.101436205 0.14392045
0.11445206 0.04736056 -0.1318464 -0.03526725 0.00260615 -0.17247277 -0.04607213 -0.049748752
00000000: ae7f 81be 85ea 6bbe b5c2 273e e7ac 843e
00000010: be00 103d 2345 56be dc55 073e 9528 da3c
00000020: 7532 a7be cbb7 71be 9e60 113d 5eaa 343e
00000030: 2375 18be ce16 183e 6f9d 68be 090e a03e
00000040: e8a1 533e 4eea 353d d866 f73d c306 c53d
00000050: affc 67be e83d 45bc 35b5 a03d 7195 a9bd
00000060: 9a34 983e d829 2cbe 312f aabe 2407 3ebe
00000070: e6cc abbe 35d8 7f3e de01 44be 8d05 91be
00000080: 968f a8bd 071c 8ebe 04d2 67be 828f 2c3e
00000090: 9e50 7fbe cf65 153e 63bb 7b3e 781b 9ebc
000000a0: 20df 313e 8705 2abe 08ff 8f3e 44e2 a33e
000000b0: 9c14 6f3d b544 a83e 9247 a5be e784 fcbc
000000c0: 7f4f 9b3d 9719 97be 5550 363e 94b6 09be
000000d0: 0b6c 03be b8f3 93be ff8c 0f3e 8ca9 83be
000000e0: 7f87 abbd 70b3 093e 2297 6f3e d438 263d
000000f0: 28a5 21be 6f27 3abe be48 1d3e 36e4 e63c
00000100: 307d 8b3e e074 e83d 0f83 903e 52d1 95be
00000110: 5202 913e b1e1 30be 3146 e1bd a604 77bc
00000120: 7de5 d3bd bb5b 083d d62d 893e 9b17 45be
00000130: 8b28 ce3d be82 98be 5535 af3c 3056 7e3e
00000140: af17 153e 5989 433e 5e70 df3d 41b7 3bbd
00000150: d3a4 fe3c a5d2 f0bd 6514 3e3e bc48 f53d
00000160: 6997 26be f075 5c3e 05fb 26bc 089c 38bc
00000170: 60e7 95bd 7eff a4bd cc04 97ba 7a94 0cbe
00000180: 109e 75be 0b62 03be 68d3 3abd 24e8 3a3e
00000190: 8175 1a3e b1bb 2ebe 95ee f1bc 2f55 afbd
000001a0: d57c 0ebe 9b90 92bd 52a8 c1bd 59e1 103e
000001b0: 4f26 e1bd cc45 4e3d 1fa6 21be c6e8 b3bd
000001c0: 8514 2e3e a883 0bbe c4ba 1cbd 7d4b 533e
000001d0: 1d6a 8f3d 9ff9 03be efcf 1abe 3483 b9bd
000001e0: 64f3 c3bd 3d0d b43d 3c11 89bd 143e 463e
000001f0: b369 0bbe 6d1f 93bd 3cbd b43d 5743 423e
00000200: a251 733e e229 313d 4102 aa3b 7f83 f1bd
00000210: 9bb2 f93d 1f42 04be 46bf 0fbd df4d 54be
00000220: 94ac 7fbe 93f7 da3d fb86 8ebb b7e5 373e
00000230: d655 283e e4f3 fe3d c82c e93d fc9b 17bd
00000240: f4fb 113e 716a e33d 2590 ae3d c8a3 a73b
00000250: 70ce 293d 5ef5 bcbb bbae 42be 25f2 393d
00000260: 04b2 34be 0d2e de3d 259f 1bbe 0db4 d6bd
00000270: 35bc 0ebe dcfa 303e 54ac 29be 6c4f 1e3e
00000280: 30a1 d33d f4dc 1e3e eb13 363d fdcd f73d
00000290: 4148 3c3e fb54 573d 490a af3d c460 48be
000002a0: daa7 b5bd 66cd d43a c8c7 f03c 2834 afbd
000002b0: 4f63 72be a076 7fbd 3411 b13d 019e 4f3e
000002c0: 0ac6 59be 260e ef3d 8b59 69be 06a6 6bbe
000002d0: e5b2 1ebe 07f3 40bd 1f42 5e3d 3a30 43be
000002e0: 82be 433e 2955 6a3e 5b62 813c 4c2a 3d3e
000002f0: a201 febd fbcb e4bd 31ad 04bd a876 ac3c
00000300: 4793 32be c866 56be af03 a23d 3b03 893d
00000310: cf99 6d3e 3e9c c9bd aef5 ad3d 3be3 c1bd
00000320: f9c6 ed3d c0d8 7fbc d3ee 443e 63b9 193e
00000330: 6bed 613e a3d8 053e 4555 423c 62c0 5f3e
00000340: da7c 0fbe e08a 693e 11cf 793e b572 813e
00000350: 74ff bbbd 0bca e9bd a4d8 8b3c df84 913d
00000360: eff3 f73d d1ac c93d 678f 513e bf74 6fbd
00000370: 2eea 94bd 66b8 a93d a9b3 873d db25 18be
00000380: d2b7 383c 4c1e 3dbe 4a17 a2bd 24e5 c9bd
00000390: f667 533e cba7 5cbe 56a7 0ebe 71f0 6cbe
000003a0: 28f4 7a3d a79d 39be 660c a83d 5081 27be
000003b0: 351c 11be 854b d3bd 8009 5c3d 9215 6b3e
000003c0: 9410 6f3e f405 30bd 0485 96be 52f2 f1bd
000003d0: 33e6 08be c4af 7dbd c9bd cf3d e25f 133e
000003e0: d765 ea3d 26fd 413d be02 07be 6474 10bd
000003f0: f1cb 2a3b b49c 30be 21b6 3cbd 59c5 4bbd

block2_conv1d_bn_relu_3.op.bias f4 [16]
0.12953843 0.009976372 -0.039428476 0.14061338 -0.105623625 0.0047502164 0.14921103 -0.105712086
0.10051704 0.041445043 0.109261736 0.16640608 -0.011336252 0.18810225 0.13412158 -0.12630229
00000000: b9a5 043e f073 233c c17f 21bd f4fc 0f3e
00000010: 3351 d8bd b4a7 9b3b c7ca 183e 947f d8bd
00000020: e1db cd3d 47c2 293d 9ec4 df3d 5b66 2a3e
00000030: b0bb 39bc e09d 403e 2b57 093e 6355 01be

block2_conv1d_bn_relu_4.op.weight f4 [16, 16, 4]
-0.18777059 0.023525653 -0.07071909 0.0029425856 0.23102868 -0.3053731 0.3485468 0.25776842
-0.0007265785 -0.15253735 0.093201645 -0.24180532 0.26155305 -0.20519266 0.08084602 -0.383838
0.20367427 0.2706265 0.2940435 0.044562962 0.22996035 0.13560377 0.27200451 0.24685128
-0.36191648 0.016244467 -0.13973469 -0.18590094 0.2572545 -0.056475867 0.0671575 0.27766314
0.2478083 0.18409543 -0.069680065 -0.3548724 -0.35553256 0.12963939 0.00027587207 -0.24357787
0.17268965 0.3644816 0.23679261 -0.0422685 0.015924452 -0.28589135 0.1495909 -0.3253458
0.25774848 -0.1950796 -0.16756423 -0.3470064 -0.10126773 -0.048871227 -0.1924109 0.27901226
0.22907458 -0.33505532 -0.03429267 0.15539263 0.37261918 -0.100866675 0.24850266 -0.0016278669
-0.19564909 0.3504664 -0.43468064 0.47180933 0.47847608 -0.18391797 0.1370148 0.45674852
0.123203374 0.17258981 0.15461946 -0.24484845 0.090311095 -0.31375778 0.3768359 -0.24759984
0.16709602 -0.08229487 0.32054985 0.058727875 0.24886201 -0.15505312 -0.3268145 0.15563145
-0.30828777 -0.44027665 0.16375892 -0.31813893 -0.21362174 -0.1428757 0.03114799 -0.18707275
-0.18542734 -0.120625585 0.4088401 0.1980679 -0.26743788 -0.3653389 -0.021319138 0.12721916
-0.01809719 0.27939466 0.41561377 0.11673549 0.16899088 0.28629825 -0.17479731 0.120618835
0.40685484 -0.21917243 0.05523594 -0.1821513 -0.40497285 0.24712157 0.38646582 -0.2972494
0.14636068 0.1345933 0.18842185 0.27717036 0.48032877 0.36217296 -0.45941526 -0.19702023
0.29078647 -0.29982063 0.09387747 -0.22625452 0.094323345 0.23519565 0.15626517 0.37150347
-0.092329204 0.23401953 0.13973276 -0.18799841 -0.38312024 0.44015718 -0.16305193 0.35841072
0.30671716 -0.053356256 -0.42974344 0.002235406 -0.2743984 0.092834376 -0.22661489 0.34931743
-0.46297705 -0.13676958 0.062381122 0.026992764 0.36913684 -0.1893831 -0.43932799 0.2742621
0.17243703 0.3966461 -0.27531323 -0.27724767 -0.19856398 0.040188562 0.16040866 -0.2729504
-0.062807165 -0.10955658 0.42945024 -0.19670849 0.55738354 -0.29052112 -0.19882277 -0.37704954
0.3577848 -0.32010794 0.22363766 -0.14974107 0.47426966 0.061528735 -0.4441639 0.05555649
0.02913456 -0.51339877 0.07699174 0.44173133 0.0660669 -0.039833408 -0.123193346 0.14590594
-0.15658648 0.33180878 0.2866957 0.15809745 -0.13478754 -0.3301578 -0.21105735 0.3166174
-0.29339412 -0.30705538 -0.010196978 0.116426036 -0.35566983 -0.32798725 -0.007580757 -0.12242574
0.20080875 0.0669236 -0.3170118 -0.33337182 0.24710734 -0.043026026 -0.13018355 0.1093734
-0.06160972 0.17293097 0.10028517 -0.13153382 -0.2584313 0.19112162 -0.19125924 -0.027972745
0.049644217 -0.19992298 0.17792489 -0.23934895 0.069622144 0.022992719 0.11223902 -0.34131178
0.038453113 0.18725844 -0.20271829 0.09408066 -0.002251229 0.29076946 -0.066375844 0.01361721
-0.13981888 -0.084188856 0.08591385 -0.33690578 0.26550123 0.2537336 0.15493664 0.2642877
-0.090278715 0.094142206 0.028703772 -0.23179902 -0.115270555 -0.10803461 -0.084829636 -0.30164114
00000000: ef46 40be dfb8 c03c 2cd5 90bd 65d8 403b
00000010: c892 6c3e dd59 9cbe ba74 b23e 39fa 833e
00000020: dc77 3eba c032 1cbe 81e0 be3d d09b 77be
00000030: 48ea 853e 061e 52be 9992 a53d 6a86 c4be
00000040: fd8f 503e 8e8f 8a3e df8c 963e a787 363d
00000050: ba7a 6b3e b7db 0a3e 2d44 8b3e 95c6 7c3e
00000060: 1e4d b9be 1e13 853c 9c16 0fbe d15c 3ebe
00000070: ddb6 833e 3d53 67bd df89 893d dd29 8e3e
00000080: 76c1 7d3e 8383 3c3e 6cb4 8ebd d6b1 b5be
00000090: 5d08 b6be 30c0 043e eca2 9039 7a6c 79be
000000a0: 8ed5 303e 559d ba3e c379 723e bc21 2dbd
000000b0: ff73 823c 5a60 92be 5b2e 193e ba93 a6be
000000c0: 9cf7 833e f2c2 47be f595 2bbe d3aa b1be
000000d0: 7565 cfbd 322d 48bd 5d07 45be b2da 8e3e
000000e0: 8792 6a3e 5f8c abbe 7976 0cbd 3f1f 1f3e
000000f0: f1c7 be3e 3093 cebd 7b77 7e3e 265e d5ba
00000100: 3c58 48be 5570 b33e 768e debe fe90 f13e
00000110: d1fa f43e fe54 3cbe 9c4d 0c3e f1da e93e
00000120: 0d52 fc3d 62bb 303e 9054 1e3e 8db9 7abe
00000130: 06f5 b83d dca4 a0be a3f0 c03e d08a 7dbe
00000140: 381b 2b3e 368a a8bd 1c1f a43e a48c 703d
00000150: afd5 7e3e 3fc6 1ebe 3b54 a7be da5d 1f3e
00000160: e5d7 9dbe f16b e1be 6bb0 273e 1be3 a2be
00000170: a8bf 5abe 024e 12be 122a ff3c 0090 3fbe
00000180: aae0 3dbe 8c0a f7bd 7d53 d13e 50d2 4a3e
00000190: 9eed 88be b30d bbbe 79a5 aebc bd45 023e
000001a0: 8f40 94bc d10c 8f3e 54cb d43e 0413 ef3d
000001b0: f20b 2d3e af95 923e 11fe 32be 0207 f73d
000001c0: 474f d03e bd6e 60be 153f 623d df85 3abe
000001d0: 9a58 cfbe 700d 7d3e d9de c53e 1331 98be
000001e0: 93df 153e d3d2 093e a8f1 403e 46e9 8d3e
000001f0: a7ed f53e bc6e b93e 7a38 ebbe acbf 49be
00000200: f7e1 943e 1782 99be d542 c03d 44af 67be
00000210: 992c c13d 21d7 703e fa03 203e b435 be3e
00000220: 1817 bdbd d1a2 6f3e 1b16 0f3e a882 40be
00000230: 5628 c4be 485c e13e 16f7 26be 9c81 b73e
00000240: 080a 9d3e 178c 5abd 5507 dcbe e47f 123b
00000250: f27d 8cbe f31f be3d bc0d 68be bcd9 b23e
00000260: 540b edbe 530d 0cbe 5983 7f3d ee1f dd3c
00000270: 81ff bc3e a5ed 41be 99ef e0be 156c 8c3e
00000280: 5593 303e 3315 cb3e dbf5 8cbe 68f3 8dbe
00000290: 5b54 4bbe c39c 243d 2b42 243e 28c0 8bbe
000002a0: 0ba1 80bd 335f e0bd e7e0 db3e f36d 49be
000002b0: b0b0 0e3f 2fbf 94be 3298 4bbe a30c c1be
000002c0: 922f b73e 30e5 a3be 4501 653e b955 19be
000002d0: 79d3 f23e 8e05 7c3d 7369 e3be 348f 633d
000002e0: 9aab ee3c 1a6e 03bf d8ad 9d3d 9c2a e23e
000002f0: 154e 873d 5b28 23bd cb4c fcbd 5e68 153e
00000300: 3558 20be d7e2 a93e c7c9 923e 4ce4 213e
00000310: bf05 0abe 710a a9be 6b1f 58be ad1b a23e
00000320: c137 96be 5d36 9dbe 3a11 27bc c670 ee3d
00000330: 5b1a b6be f2ed a7be 0068 f8bb 59ba fabd
00000340: cfa0 4d3e 3e0f 893d 5f4f a2be b6af aabe
00000350: b509 7d3e 0f3c 30bd d64e 05be 29ff df3d
00000360: 795a 7cbd d114 313e 5062 cd3d cdb0 06be
00000370: 1b51 84be 63b5 433e 76d9 43be 1927 e5bc
00000380: bc57 4b3d 9cb8 4cbe f131 363e e417 75be
00000390: 0e96 8e3d 3a5b bc3c 92dd e53d 6bc0 aebe
000003a0: 0381 1d3d adc0 3f3e 6295 4fbe 5cad c03d
000003b0: 5b89 13bb bcdf 943e 0ff0 87bd b81a 5f3c
000003c0: ae2c 0fbe 356b acbd 9af3 af3d ea7e acbe
000003d0: c7ef 873e 5fe9 813e b6a7 1e3e b850 873e
000003e0: 0ce4 b8bd a1cd c03d 2c24 eb3c b95c 6dbe
000003f0: f812 ecbd 4041 ddbd 29bb adbd b570 9abe

block2_conv1d_bn_relu_4.op.bias f4 [16]
-0.086469755 -0.17214268 0.027389294 0.17518654 -0.016658626 -0.042949338 0.18360172 -0.034102123
0.35572937 0.23403852 0.15028113 -0.16946219 0.0032113749 0.14568281 -0.33173618 0.06507713
00000000: 0e17 b1bd 2c46 30be 835f e03c 1a64 333e
00000010: ac77 88bc a5eb 2fbd 1702 3c3e abae 0bbd
00000020: 2922 b63e cba7 6f3e 4ce3 193e 7f87 2dbe
00000030: ee75 523b e02d 153e 53d9 a9be 2947 853d

block3_conv1d_bn_relu_1.op.weight f4 [16, 16, 8]
-0.20210856 -0.111778624 0.03503369 -0.22223645 0.01189064 0.0661769 0.16800554 0.17031097
0.18072592 -0.07264634 -0.016139325 0.2027754 0.11797934 -0.09148726 0.21486022 -0.20849581
0.19472352 0.14039707 -0.18764205 -0.2453726 0.17489456 0.25189045 0.028962698 -0.1055972
0.14677185 0.08580855 -0.06456406 0.19517954 0.15476994 0.04452607 0.14789961 -0.19026694
-0.14097387 0.056107897 0.01961397 -0.06274531 0.04108278 0.11268118 -0.23524919 0.07194074
-0.030722493 -0.17733292 0.035036817 -0.050235055 -0.14147218 -0.26126903 0.2650367 -0.1216819
0.015620872 0.2118613 -0.014087429 -0.15450959 -0.23615286 0.038287457 -0.07534224 0.03950428
0.0982195 -0.053252753 0.15068918 -0.04175736 -0.07970319 -0.15489897 0.11752285 -0.12705903
0.07707491 -0.009832149 0.18792939 -0.10224364 -0.09089717 -0.04320455 -0.11302329 0.11474251
-0.08422026 0.06439691 0.1297939 0.12969206 -0.039628066 0.11742898 -0.083464034 -0.19226319
-0.003832124 -0.16872562 -0.19065003 0.029486716 0.2105495 -0.13463032 -0.026710311 -0.18058957
-0.011191763 0.05941456 -0.07801017 0.14387074 -0.24898054 -0.034981005 -0.12613766 0.21659064
0.15043357 0.24210402 0.1875294 0.04797083 -0.22253123 -0.12941848 0.11896031 -0.21711726
0.13977142 0.07258854 0.039217174 -0.23410715 0.16902049 -0.078490004 -0.087327465 0.13682067
0.007226898 -0.14293946 0.047289275 -0.17666067 0.1866092 0.16181889 0.08698394 0.13277073
-0.23960842 -0.10627302 -0.2355218 -0.11898012 -0.2393386 0.16662537 0.07983362 0.11911472
-0.10555221 0.15059566 -0.04301036 -0.068797834 0.097972326 0.12100878 -0.1633435 0.18530288
-0.019886127 0.0629634 -0.20748822 0.024005782 -0.102621704 -0.13443682 -0.08373903 0.0010714765
-0.057933353 -0.13166633 0.15012592 0.064305104 -0.19442989 0.04141835 0.054310557 0.009041153
0.051247396 -0.014364565 0.09574229 -0.14706837 -0.087627985 0.16094328 -0.12546986 0.112031855
0.19249152 -0.19886276 -0.09297961 0.17267206 -0.022266006 0.03270873 0.02438744 0.0805948
-0.08910626 0.02809357 0.14342166 -0.019056331 -0.19157495 0.07192686 -0.049992315 -0.03869747
0.108837895 0.02954849 -0.1274333 -0.09917155 -0.034388058 -0.059757374 -0.045751352 -0.14467335
0.15248461 0.11038458 0.040555574 0.048849955 0.022939928 0.15612683 0.04844469 0.034369025
-0.11916038 0.06209754 -0.20306046 0.055825554 -0.19287924 -0.09807656 0.101703666 -0.13434151
0.16270897 -0.114276655 0.19989446 0.060077973 -0.08984734 0.12965477 -0.18252483 -0.12633574
-0.13767138 0.01627383 0.009418776 -0.19153301 0.18549888 -0.015797928 -0.12254506 -0.0061355047
-0.093253255 0.05211557 0.072472334 -0.062469307 0.009105489 0.11785078 -0.1347557 -0.04726009
-0.025360992 -0.13599072 0.020472877 0.01543941 -0.1678489 0.042615116 0.20480032 0.11611418
-0.11871955 0.19252005 -0.14843605 -0.11326057 0.088155985 0.16047007 0.19551083 0.17570592
-0.115331456 0.05109097 -0.12856962 0.0028828299 0.17834792 0.107539915 -0.18784162 -0.083552
-0.18017809 0.08431544 -0.03232506 -0.16471191 -0.084127866 0.05200901 0.0065712505 0.18435843
00000000: 8cf5 4ebe 31ec e4bd 7d7f 0f3d f491 63be
00000010: f5d0 423c c187 873d a509 2c3e 0066 2e3e
00000020: 3710 393e 9bc7 94bd 9e36 84bc 5ba4 4f3e
00000030: 279f f13d ac5d bbbd 5104 5c3e ed7f 55be
00000040: 9a65 473e 40c4 0f3e 3d25 40be f442 7bbe
00000050: 8f17 333e c9f7 803e 2e43 ed3c 5843 d8bd
00000060: 5c4b 163e 65bc af3d 293a 84bd 25dd 473e
00000070: 037c 1e3e f860 363d ff72 173e 56d5 42be
00000080: 745b 10be 65d1 653d 7aad a03c 9d80 80bd
00000090: 6b46 283d 64c5 e63d 2ae5 70be ab55 933d
000000a0: bdad fbbc c396 35be c482 0f3d 46c3 4dbd
000000b0: 15de 10be 0ec5 85be e4b2 873e 5c34 f9bd
000000c0: b0ee 7f3c 2bf2 583e f6ce 66bc c337 1ebe
000000d0: 0ed2 71be 4fd3 1c3d 084d 9abd 3dcf 213d
000000e0: 4e27 c93d 8f1f 5abd 444e 1a3e c409 2bbd
000000f0: 6d3b a3bd d69d 1ebe d2af f03d c31b 02be
00000100: 73d9 9d3d 0617 21bc 9070 403e 1d65 d1bd
00000110: 4c28 babd 41f7 30bd c178 e7bd 1ffe ea3d
00000120: ac7b acbd 87e2 833d b1e8 043e ffcd 043e
00000130: 0a51 22bd 9b7e f03d 31ef aabd a4e0 44be
00000140: 5f24 7bbb 69c6 2cbe c339 43be 208e f13c
00000150: 4a9a 573e 88dc 09be 95cf dabc 79ec 38be
00000160: a85d 37bc af5c 733d ccc3 9fbd da52 133e
00000170: c1f4 7ebe 3e48 0fbd 3b2a 01be f0c9 5d3e
00000180: 420b 1a3e 1eea 773e b507 403e 107d 443d
00000190: 3adf 63be 4786 04be 77a1 f33d fd53 5ebe
000001a0: 3d20 0f3e 4da9 943d 30a2 203d c9b9 6fbe
000001b0: b513 2d3e 5ebf a0bd bed8 b2bd b81a 0c3e
000001c0: 9dcf ec3b b95e 12be 66b2 413d 89e6 34be
000001d0: 7b16 3f3e dab3 253e a324 b23d 0df5 073e
000001e0: e95b 75be aba5 d9bd a02c 71be d9ab f3bd
000001f0: 2e15 75be d79f 2a3e cf7f a33d 6bf2 f33d
00000200: c22b d8bd c035 1a3e a22b 30bd e1e5 8cbd
00000210: b7a5 c83d 74d3 f73d 8543 27be 0ac0 3d3e
00000220: 3be8 a2bc f4f2 803d cb77 54be c6a7 c43c
00000230: 542b d2bd cea9 09be 5e7f abbd c970 8c3a
00000240: 864b 6dbd 8ad3 06be 9cba 193e 65b2 833d
00000250: a118 47be 4aa6 293d bf74 5e3d 5821 143c
00000260: cae8 513d 5a59 6bbc 8914 c43d 1799 16be
00000270: 4d76 b3bd 51ce 243e 2c7b 00be f570 e53d
00000280: 7f1c 453e aea2 4bbe 186c bebd f2d0 303e
00000290: 3367 b6bc 97f9 053d 2bc8 c73c e30e a53d
000002a0: 587d b6bd 7d24 e63c 21dd 123e 061c 9cbc
000002b0: 392c 44be 644e 933d bec4 4cbd 3d81 1ebd
000002c0: 67e6 de3d ad0f f23c e07d 02be 741a cbbd
000002d0: 7eda 0cbd 26c4 74bd c565 3bbd 4025 14be
000002e0: ed24 1c3e 5011 e23d 9a1d 263d e416 483d
000002f0: 84ec bb3c b6df 1f3e f06d 463d 89c6 0c3d
00000300: 5b0a f4bd fd59 7e3d 15ef 4fbe 56a9 643d
00000310: 2382 45be 5ddc c8bd 034a d03d d290 09be
00000320: 2e9d 263e e109 eabd 22b1 4c3e 5214 763d
00000330: e201 b8bd 38c4 043e cae7 3abe 285e 01be
00000340: baf9 0cbe b250 853c 3651 1a3c 3b21 44be
00000350: 6bf3 3d3e a86a 81bc e8f8 fabd 580c c9bb
00000360: 90fb bebd 2377 553d 606c 943d d1df 7fbd
00000370: 302f 153c c05b f13d 66fd 09be cc93 41bd
00000380: dbc1 cfbc 2741 0bbe bcb6 a73c 94f5 7c3c
00000390: 95e0 2bbe 308d 2e3d 2db7 513e 45cd ed3d
000003a0: 3c23 f3bd fa23 453e 9fff 17be 28f5 e7bd
000003b0: 208b b43d 4452 243e fe33 483e 41ec 333e
000003c0: e632 ecbd c444 513d c1a7 03be dced 3c3b
000003d0: d6a0 363e e33d dc3d 8e59 40be 501d abbd
000003e0: 9b80 38be 93ad ac3d 4867 04bd 3daa 28be
000003f0: 3b4b acbd 6607 553d a553 d73b 75c8 3c3e

block3_conv1d_bn_relu_1.op.bias f4 [16]
0.097041726 0.086998396 0.3713652 -0.1987464 -0.008355296 0.42957568 0.050466426 0.49400684
0.1830699 -0.24264887 0.045899834 0.19999662 0.11136215 0.07965402 -0.1786157 0.022050334
00000000: d0bd c63d 372c b23d 9423 be3e 2d84 4bbe
00000010: a7e4 08bc 58f1 db3e e2b5 4e3d 77ee fc3e
00000020: ad76 3b3e f278 78be 7701 3c3d eacb 4c3e
00000030: d711 e43d a621 a33d 09e7 36be e7a2 b43c

block6_dense.op.weight f4 [2, 16]
0.46220282 0.25930357 0.4441573 -0.16899025 0.037596125 0.44206724 0.3387556 0.36272588
0.037411153 -0.36000088 0.40537623 0.3252579 0.39753655 -0.04788842 -0.3040513 0.27523506
-0.4927928 -0.13683712 -0.10637065 0.3613771 -0.18482979 -0.6042394 -0.4334311 -0.24746478
-0.3194301 0.24325043 -0.39288262 -0.10899866 -0.08136629 0.048996583 0.23988457 -0.5428316
00000000: d9a5 ec3e 70c3 843e 9668 e33e c80b 2dbe
00000010: 65fe 193d a356 e23e 6071 ad3e 35b7 b93e
00000020: 703c 193d 0952 b8be 798d cf3e 3488 a63e
00000030: e989 cb3e a626 44bd 9dac 9bbe 9ceb 8c3e
00000040: 564f fcbe 081f 0cbe dbd8 d9bd 6b06 b93e
00000050: 0544 3dbe 6faf 1abf aeea ddbe 6867 7dbe
00000060: 588c a3be a416 793e e927 c9be b13a dfbd
00000070: 5fa3 a6bd a4b0 483d 4da4 753e 03f7 0abf

momentum_buffer f4 [4, 1, 4]
0.008873036 0.016648736 0.01715814 0.01781256 -0.0022782986 0.0024706116 -0.002277504 0.00081908563
0.06639597 0.07203633 0.06835499 0.07648936 0.0076596895 0.0070036435 0.0064157518 0.008194186
00000000: 3660 113c ee62 883c 3a8f 8c3c a5eb 913c
00000010: 824f 15bb fce9 213b 2d42 15bb e8b7 563a
00000020: 9cfa 873d c987 933d b3fd 8b3d 74a6 9c3d
00000030: 22fe fa3b d27e e53b 3a3b d23b e840 063c

momentum_buffer f4 [4]
-0.05890188 0.33193177 -1.1730123 0.5930346
00000000: 1943 71bd f6f2 a93e 4425 96bf 1ed1 173f

momentum_buffer f4 [16, 4, 5]
-0.0005901536 0.00025473954 -0.0038459022 -0.0010739632 0.0019106625 -0.008505097 -0.0013487239 -0.0018644901
-0.0058154557 -0.008976437 0.00050630094 0.0017421064 -0.0040501836 -0.002445044 0.0014059071 0.000330908
-0.0010669569 -0.0016817832 -0.0023174544 0.0007561968 -0.016147006 -0.018779792 -0.007692648 -0.004275649
-0.0136667965 -0.0005449718 -0.006533653 -0.024489215 -0.02685633 -0.01835976 -0.014036476 -0.01894715
-0.010524923 -0.0026672147 -0.009180489 -0.015542133 -0.019273 -0.013338192 -0.0042815264 -0.00924703
-0.020293007 -0.022944229 -0.020977484 -0.034396056 -0.043135073 -0.04115784 -0.042495027 -0.04510063
-0.029324993 -0.016356755 -0.018349683 -0.022604713 -0.02015871 -0.029606704 -0.03964486 -0.020549688
-0.025862802 -0.023551812 -0.02981883 -0.043832052 -0.011029097 -0.026450992 -0.019775923 -0.014744075
-0.018813744 -0.018880174 -0.004210449 -0.019104017 -0.025204614 -0.022823986 -0.0082383845 -0.021752536
-0.020181179 -0.013102409 -0.0150664095 -0.013134545 -0.021763863 -0.025832027 -0.01651431 -0.016197678
-0.0019329906 0.0014360141 0.00093699375 0.0074798767 0.006315894 0.0017329124 0.0006757461 -0.0011031397
-0.008940488 -0.0098398905 -0.0019085612 -3.300165e-05 0.0010078603 0.00795195 0.008030091 -0.0034425193
-0.0006347003 0.0020053508 0.005910702 0.007893152 -0.0076391073 -0.012465347 -0.009873811 -0.0109536005
-0.00842624 -0.0011723314 -0.0009262475 -0.004290619 -0.0015276286 -0.0014543384 -0.008475213 -0.012798452
-0.011565985 -0.011244187 -0.007983848 -0.0090278275 -0.013327863 -0.012836983 -0.012066985 -0.009065015
-0.0014338134 -0.002311997 -0.0021288104 -0.0016908564 -0.001976388 -0.009401927 -0.008482601 -0.0065089283
-0.0046593645 -0.004822823 -0.0016114232 -0.002487634 -0.001651969 -0.000103173545 0.0009039644 -0.0034461583
-0.0021777875 -0.0027476416 -0.0011961493 0.00018240116 -0.011773052 -0.0094762305 -0.0050523835 -0.0014818301
-0.00037590548 0.0006731379 -0.0011965819 -0.00048563862 -0.0030054464 -0.0039111283 -0.011304768 -0.009179139
-0.00252482 -0.0002824344 -0.00084829103 -0.012157302 -0.01193367 -0.005355842 -0.001314119 -0.00065006665
0.0010747912 -0.0056651197 -0.0051508313 -0.003057026 -0.0025365998 -0.009488804 -0.0068287784 -0.002228941
-0.0036340882 -0.0071082506 0.0019229387 -0.0032834793 -0.005231671 -0.0022272759 -0.00239152 -7.65876e-05
-0.0047051613 -0.00501759 -0.0040478474 -0.0021221256 0.000739011 -0.00027034094 -7.507909e-05 0.00017660833
0.0017351259 0.0022742446 0.0069213714 0.010404504 0.009548905 0.0051003825 0.0018136487 0.00044561282
0.00039070277 -0.0001045473 0.0012435564 0.0020873393 -0.00088839955 0.0012923451 0.0007926247 0.0017847018
-0.021059638 -0.036896173 -0.025687806 -0.026897088 -0.026832541 -0.02587555 -0.012880283 -0.01797471
-0.01996987 -0.021482239 -0.017392386 -0.031756 -0.025368914 -0.020434327 -0.022960018 -0.020493764
-0.03461458 -0.032520585 -0.022631316 -0.026521077 -0.014497109 -0.017836187 -0.04020115 -0.0210007
-0.015722994 -0.029846914 -0.02915376 -0.005902935 -0.021160059 -0.032159727 -0.013603317 -0.016221376
-0.036198277 -0.02370891 -0.014770241 -0.017241955 -0.022498243 -0.041666776 -0.031776503 -0.016708268
0.0015618866 0.007764457 0.021852057 0.015804518 0.020709097 0.030157885 0.03650941 0.032104824
0.023865424 0.024133101 0.005332278 0.0082092555 0.018169228 0.014727863 0.016531453 0.010110291
00000000: 8ab4 1aba 908e 8539 880b 7cbb 3ac4 8cba
00000010: 326f fa3a f658 0bbc aac7 b0ba e861 f4ba
00000020: 948f bebb e811 13bc 48b9 043a 6457 e43a
00000030: 67b7 84bb 083d 20bb 6a46 b83a b87d ad39
00000040: 22d9 8bba 486f dcba 6fe0 17bb 823b 463a
00000050: ba46 84bc 14d8 99bc 9c12 fcbb be1a 8cbb
00000060: b3ea 5fbc 70dc 0eba 4118 d6bb 9b9d c8bc
00000070: ce01 dcbc 3567 96bc 3ff9 65bc 0e37 9bbc
00000080: ba70 2cbc 70cc 2ebb c369 16bc 6ea4 7ebc
00000090: 69e2 9dbc 6f88 5abc 0c4c 8cbb db80 17bc
000000a0: 853d a6bc 89f5 bbbc f9d8 abbc e1e2 0cbd
000000b0: 67ae 30bd 2095 28bd 440f 2ebd 70bb 38bd
000000c0: f83a f0bc 9afe 85bc 1352 96bc 852d b9bc
000000d0: e123 a5bc c289 f2bc a662 22bd d257 a8bc
000000e0: 3ade d3bc bbef c0bc 9e46 f4bc 3d89 33bd
000000f0: 63b3 34bc c0af d8bc 1e01 a2bc 2291 71bc
00000100: 481f 9abc 98aa 9abc cef7 89bb 0780 9cbc
00000110: e879 cebc 5ef9 babc 4afa 06bc 6032 b2bc
00000120: 0053 a5bc 7dab 56bc 1ad9 76bc 4632 57bc
00000130: 214a b2bc b09d d3bc 0549 87bc feb0 84bc
00000140: 675c fdba a338 bc3a 96a0 753a c119 f53b
00000150: 8ff5 ce3b e422 e33a 8e24 313a 3a97 90ba
00000160: 207b 12bc 7e37 21bc b028 faba 406b 0ab8
00000170: 2e1a 843a e548 023c a590 033c e49b 61bb
00000180: 0462 26ba 346c 033b 90ae c13b 4752 013c
00000190: 7a51 fabb 743b 4cbc c4c5 21bc bb76 33bc
000001a0: 360e 0abc eaa8 99ba 6bcf 72ba 5298 8cbb
000001b0: b63a c8ba 809f beba 9fdb 0abc 99b0 51bc
000001c0: 427f 3dbc 8a39 38bc b0ce 02bc 74e9 13bc
000001d0: 1c5d 5abc 3652 52bc 9ab4 45bc 6e85 14bc
000001e0: cbee bbba e084 17bb 8383 0bbb ba9f ddba
000001f0: 4a86 01bb 8a0a 1abc 9bfa 0abc d948 d5bb
00000200: 95ad 98bb c608 9ebb 6436 d3ba 9307 23bb
00000210: e286 d8ba e05e d8b8 06f8 6c3a f1d8 61bb
00000220: 36b9 0ebb c711 34bb 1cc8 9cba f042 3f39
00000230: c2e3 40bc 3142 1bbc 778e a5bb f839 c2ba
00000240: 2e15 c5b9 8575 303a a0d6 9cba 509d feb9
00000250: 06f7 44bb ec28 80bb a237 39bc 1964 16bc
00000260: 7377 25bb b413 94b9 d95f 5eba 6c2f 47bc
00000270: 7185 43bc 0f80 afbb 843e acba 3c69 2aba
00000280: 02e0 8c3a 78a2 b9bb 4ec8 a8bb 6358 48bb
00000290: 153d 26bb ee76 1bbc f2c3 dfbb 6d13 12bb
000002a0: e229 6ebb 54ec e8bb 1e0b fc3a a42f 57bb
000002b0: 706e abbb 7df7 11bb 0cbb 1cbb a89d a0b8
000002c0: c12d 9abb 986a a4bb cea3 84bb 5c13 0bbb
000002d0: 30ba 413a 8cbc 8db9 c873 9db8 f02f 3939
000002e0: 2a6d e33a 7e0b 153b accc e23b a777 2a3c
000002f0: 0373 1c3c 1c21 a73b f4b7 ed3a 24a1 e939
00000300: 3dd7 cc39 6840 dbb8 d4fe a23a becb 083b
00000310: 7ce3 68ba e863 a93a 25c8 4f3a a8ec e93a
00000320: 4385 acbc 7120 17bd 3c6f d2bc 4857 dcbc
00000330: ebcf dbbc f6f8 d3bc d307 53bc b33f 93bc
00000340: da97 a3bc 85fb afbc 7a7a 8ebc 9412 02bd
00000350: 78d2 cfbc e465 a7bc a616 bcbc 8ae2 a7bc
00000360: 05c8 0dbd 4e34 05bd 4f65 b9bc bb42 d9bc
00000370: 4885 6dbc 321d 92bc f6a9 24bd a909 acbc
00000380: 82cd 80bc 8481 f4bc ded3 eebc 686d c1bb
00000390: dc57 adbc ebb9 03bd 72e0 5ebc b1e2 84bc
000003a0: a544 14bd 3039 c2bc e2fe 71bc 003f 8dbc
000003b0: 3c4e b8bc c8aa 2abd 1428 02bd c7df 88bc
000003c0: 38b8 cc3a fc6c fe3b 1603 b33c 7a78 813c
000003d0: 20a6 a93c ab0d f73c e48a 153d 5980 033d
000003e0: 6c81 c33c c8b2 c53c 64ba ae3b 1d80 063c
000003f0: a2d7 943c 224d 713c f86c 873c a2a5 253c

momentum_buffer f4 [16]
-0.0049735224 -0.031621035 -0.09274439 -0.06201692 0.0021758527 -0.019255694 -0.014628492 -0.014043326
-0.015323965 0.009014695 -0.07047637 -0.076434486 0.063779265 -0.1158645 0.0145359645 -0.07161002
00000000: eef8 a2bb 0f85 01bd c5f0 bdbd 7405 7ebd
00000010: c098 0e3b 1ebe 9dbc 58ac 6fbc fa15 66bc
00000020: 5e11 7bbc 5fb2 133c ea55 90bd af89 9cbd
00000030: b49e 823d 5e4a edbd 4128 6e3c 46a8 92bd

momentum_buffer f4 [16, 16, 5]
-2.2557975e-05 0.00035584017 -0.0005511286 0.0008801251 0.00056401954 -0.0006755677 -0.00040838268 -0.00018584583
-3.4963596e-06 -0.00019129581 -0.0013748601 -0.0015626128 -0.0013729439 -0.0018140844 -0.00082371006 2.6573834e-06
-0.00043923108 -0.0009988137 1.4594611e-05 -0.00055810314 -0.0008268203 0.00010523644 0.00058122195 8.9866706e-05
0.0007840011 -0.00086237764 0.00047776825 7.8486686e-05 0.0005685827 0.0004900515 0.00022270394 0.00014155281
-1.7643957e-05 0.0007480629 -0.00024971057 -0.00014612568 -0.00042444334 -0.00018067544 -7.416942e-05 0.0006526523
0.00040129013 -0.00033418537 -1.978116e-05 9.182991e-05 0.00025832775 0.0003230138 -0.00018512284 1.2476463e-05
-0.0003370258 -0.0005715396 -0.0006019436 0.0003444258 -0.00039661065 3.9667786e-05 0.00044363868 -0.000369254
-0.00042623252 -0.0004875056 0.000272869 -0.00027247856 -0.0011904315 0.0007619938 -0.00038923242 -0.0015599455
-8.224079e-05 0.0010171075 0.0004213576 0.0006824583 0.00045942556 -0.0010964616 -0.0004945394 -3.622278e-05
7.9398975e-05 -0.00029934372 -0.001213761 0.0002808599 -0.00034220598 -0.00036253216 0.00030665292 -0.0006930267
-0.0032228911 -0.0039476445 -0.002102562 -0.00010331656 -0.0029498185 -0.0008643781 -0.0003629555 -0.0006252603
-0.0014062589 0.0011428483 -0.0032263221 -0.0004802298 -0.004025051 -0.0046993755 -0.0011029086 0.0009276019
-0.0030396106 -0.0007858677 -0.0011869402 -0.003031455 -0.002376427 0.00045821647 -0.0019402534 -0.00094754813
-0.0012127793 -0.0004939196 -0.00035684794 -0.0018664887 -0.0010215434 0.00021573337 -0.00024225938 -0.00012559426
-2.9900664e-05 0.00011244546 -0.0004867714 -0.0011057968 -0.00050395005 -8.210135e-05 -0.00050396536 -0.0005486853
-0.00065368006 0.00029258363 -4.833273e-05 0.0001942897 -0.0002353828 -0.001461575 -0.0015333213 -0.0011730789
-0.00018081917 0.00040710336 -0.0040023285 -0.0023386022 -0.0044414448 -0.0021275366 -0.0028018067 0.0011282604
-0.0031256452 0.0017422121 -7.1564195e-05 -0.0032445802 -0.0049592713 -0.0026551895 -0.0048705097 -0.002573067
-0.00018598861 -0.003234837 -0.002247007 -0.0021974477 -0.0018331857 -0.0028444205 -0.00088811835 -0.0002539374
-0.00028018496 -0.0030712173 -0.002013289 -0.0054962663 -0.005528207 -0.0040989616 -0.004066889 -0.005807211
-0.002970226 -0.0028257237 -0.008834881 -0.00574629 -0.006771347 -0.006224498 -0.00429654 -0.0018527193
-0.0015410583 -0.0022952543 -0.015421605 -0.01388981 -0.015832854 -0.016824013 -0.013909392 -0.00897764
-0.0038463038 -0.005202245 -0.00305443 -0.00926782 -0.0037583984 -0.0018730729 -0.003946301 -0.0042032814
-0.0036429595 -0.0032008945 -0.0024053324 -0.0032083238 -0.0030059037 -0.0028255228 -0.0005303028 -0.0006981795
-0.0010736182 -3.188384e-05 -0.0008620477 -0.00044039183 0.0002258739 -0.00035574712 0.00016961672 -0.00026028499
-0.0009918617 -0.00046929804 -0.0012201609 -0.0003208023 -0.0005144358 -0.0030395696 -0.0033890172 -0.0032543722
-0.0046034013 -0.0038219923 -0.0083463285 -0.003558114 -0.007572284 -0.0058480646 -0.006943019 -0.0044184835
-0.0029515876 -0.0033481144 -0.002235579 -0.006381884 -0.021052642 -0.01142856 -0.020963512 -0.021044573
-0.017918438 -0.008045767 -0.0042926427 -0.010506369 -0.010626833 -0.0064180098 -0.0049690623 -0.0032670856
-0.0038803117 -0.0042961985 -0.005339783 -0.009549529 -0.012935503 -0.01564721 -0.016590646 -0.016435971
0.0037110345 0.009825086 0.007364041 0.005064113 0.005165071 0.0027956918 0.0023945312 0.00046056404
0.00039676073 0.0013853349 0.009405406 0.005231637 0.005555236 0.006984403 0.009332365 0.00025003805
00000000: e23a bdb7 0f90 ba39 9d79 10ba 32b8 663a
00000010: b6da 133a 9518 31ba 321c d6b9 9cdf 42b9
00000020: 00a3 6ab6 9496 48b9 a634 b4ba 96d0 ccba
00000030: 5af4 b3ba 92c6 edba 3fee 57ba 8055 3236
00000040: 9948 e6b9 a0ea 82ba 60db 7437 ab4d 12ba
00000050: f9be 58ba 62b2 dc38 255d 183a d276 bc38
00000060: 6c85 4d3a 2f11 62ba f87c fa39 3899 a438
00000070: f00c 153a cd76 003a a285 6939 cb6d 1439
00000080: 1c02 94b7 a719 443a 96eb 82b9 5039 19b9
00000090: d287 deb9 b273 3db9 678b 9bb8 c116 2b3a
000000a0: 4064 d239 9a35 afb9 b8ef a5b7 cf94 c038
000000b0: 2a70 8739 2e5a a939 891d 42b9 0052 5137
000000c0: d6b2 b0b9 60d3 15ba c0cb 1dba 0c94 b439
000000d0: 2ef0 cfb9 f660 2638 2d98 e839 6f98 c1b9
000000e0: f677 dfb9 e597 ffb9 db0f 8f39 74db 8eb9
000000f0: 4108 9cba 8ac0 473a e411 ccb9 1677 ccba
00000100: b078 acb8 7750 853a a9e9 dc39 00e7 323a
00000110: 0edf f039 25b7 8fba faa3 01ba eaed 17b8
00000120: 0083 a638 3cf1 9cb9 1017 9fba 6140 9339
00000130: 1c6a b3b9 3e12 beb9 42c6 a039 3cac 35ba
00000140: 2437 53bb 3e5b 81bb 23cb 09bb a8ab d8b8
00000150: be51 41bb 6f97 62ba 104b beb9 82e8 23ba
00000160: 3852 b8ba a0cb 953a b470 53bb 5ac7 fbb9
00000170: 93e4 83bb 38fd 99bb 798f 90ba 4f2a 733a
00000180: 3434 47bb b002 4eba 1b93 9bba 60ab 46bb
00000190: d4bd 1bbb c63c f039 1a50 feba e164 78ba
000001a0: 1ff6 9eba 627a 01ba 5217 bbb9 f8a4 f4ba
000001b0: 4fe5 85ba 7c36 6239 0207 7eb9 f4b1 03b9
000001c0: 30d3 fab7 b2d0 eb38 5a35 ffb9 62f0 90ba
000001d0: 841b 04ba d42d acb8 8b1c 04ba a6d5 0fba
000001e0: ba5b 2bba e965 9939 e0b8 4ab8 3fba 4b39
000001f0: 17d1 76b9 5292 bfba baf9 c8ba ffc1 99ba
00000200: 479a 3db9 7d70 d539 f725 83bb 3c43 19bb
00000210: 8a89 91bb 246e 0bbb 849e 37bb 23e2 933a
00000220: a0d7 4cbb f05a e43a bc14 96b8 06a3 54bb
00000230: 6281 a2bb b002 2ebb cc98 9fbb e7a0 28bb
00000240: f005 43b9 8fff 53bb 8642 13bb 0e03 10bb
00000250: 8147 f0ba 7569 3abb 9dd0 68ba e722 85b9
00000260: cae5 92b9 7a46 49bb 62f1 03bb 061a b4bb
00000270: f625 b5bb 9550 86bb 8a43 85bb 6b4a bebb
00000280: 20a8 42bb c72f 39bb 2dc0 10bc 604b bcbb
00000290: 2de2 ddbb e0f6 cbbb fdc9 8cbb f2d6 f2ba
000002a0: 56fd c9ba fa6b 16bb e6aa 7cbc 1692 63bc
000002b0: e7b3 81bc 83d2 89bc 38e4 63bc f416 13bc
000002c0: 4512 7cbb 9877 aabb d52c 48bb 0ed8 17bc
000002d0: 764f 76bb e681 f5ba f94f 81bb aebb 89bb
000002e0: b8be 6ebb 19c6 51bb c8a2 1dbb be42 52bb
000002f0: b2fe 44bb 682c 39bb 0504 0bba 0806 37ba
00000300: a6b8 8cba 03bb 05b8 0bfb 61ba 64e4 e6b9
00000310: 90d8 6c39 9283 bab9 24db 3139 dc76 88b9
00000320: 5b01 82ba 1e0c f6b9 ceed 9fba 5b31 a8b9
00000330: 34db 06ba 8433 47bb 461a 5ebb 4e47 55bb
00000340: 21d8 96bb 647a 7abb 0abf 08bc 3f2f 69bb
00000350: ec20 f8bb 1fa1 bfbb 4482 e3bb edc8 90bb
00000360: 6c6f 41bb 0a6c 5bbb cb82 12bb 201f d1bb
00000370: 9776 acbc db3e 3bbc acbb abbc ab65 acbc
00000380: b0c9 92bc 65d2 03bc 4ca9 8cbb e822 2cbc
00000390: 2b1c 2ebc 2b4e d2bb 84d3 a2bb 9a1c 56bb
000003a0: d44c 7ebb 20c7 8cbb 59f9 aebb a175 1cbc
000003b0: 6fef 53bc 942e 80bc 1be9 87bc bba4 86bc
000003c0: d434 733b 66f9 203c 0e4e f13b dcf0 a53b
000003d0: c23f a93b ed37 373b 91ed 1c3b dc77 f139
000003e0: 5304 d039 2094 b53a 2219 1a3c 276e ab3b
000003f0: b208 b63b 6bdd e43b c7e6 183c 8a17 8339

momentum_buffer f4 [16]
-0.0010228206 -0.009731147 -0.043584112 0.031721577 -0.03479632 -0.03098493 -0.046505183 0.010114033
0.003265482 0.019954657 0.027801083 -0.008060308 0.002611889 -1.1634867e-05 -0.06311864 -0.0031776524
00000000: 2a10 86ba 646f 1fbc 4185 32bd 7cee 013d
00000010: 9686 0ebd 1cd4 fdbc 387c 3ebd 54b5 253c
00000020: b201 563b f377 a33c 19bf e33c 620f 04bc
00000030: 3a2c 2b3b 6033 43b7 5844 81bd 2940 50bb
