trained_custom/checkpoints/epidenet_b_v3.2_768_qat_best-q.pth.tar (torch, 83087 bytes, 26 tensors)

block1_conv1d_bn_relu_1.op.weight f4 [4, 1, 4]
00000000: 0000 c0c0 0000 0442 0000 64c2 0000 48c2
00000010: 0000 00c2 0000 f041 0000 80bf 0000 9c42
00000020: 0000 14c2 0000 1042 0000 60c2 0000 00c2
00000030: 0000 24c2 0000 e0c1 0000 90c1 0000 0000
-6.0 33.0 -57.0 -50.0 -32.0 30.0 -1.0 78.0
-37.0 36.0 -56.0 -32.0 -41.0 -28.0 -18.0 0.0

block1_conv1d_bn_relu_1.op.bias f4 [4]
00000000: 0000 8043 0000 0000 0000 0043 0000 8043
256.0 0.0 128.0 256.0

block2_conv1d_bn_relu_1.op.weight f4 [16, 4, 5]
00000000: 0000 6041 0000 0842 0000 20c1 0000 0842
00000010: 0000 e0c0 0000 e040 0000 2842 0000 28c2
00000020: 0000 e8c1 0000 30c1 0000 98c1 0000 1442
00000030: 0000 e8c1 0000 98c1 0000 f8c1 0000 2cc2
00000040: 0000 e0c1 0000 1842 0000 a841 0000 b841
00000050: 0000 8040 0000 b0c1 0000 a040 0000 2cc2
00000060: 0000 f0c1 0000 f0c1 0000 a841 0000 d041
00000070: 0000 90c1 0000 00c0 0000 f841 0000 3c42
00000080: 0000 9041 0000 a040 0000 0042 0000 b0c1
00000090: 0000 3041 0000 04c2 0000 f8c1 0000 a8c1
000000a0: 0000 5041 0000 4041 0000 c0c1 0000 3041
000000b0: 0000 a841 0000 10c1 0000 00c0 0000 e040
000000c0: 0000 a041 0000 f841 0000 d0c1 0000 30c1
000000d0: 0000 8041 0000 0842 0000 1042 0000 0042
000000e0: 0000 1041 0000 f0c1 0000 c040 0000 90c1
000000f0: 0000 10c2 0000 0442 0000 d841 0000 14c2
00000100: 0000 e040 0000 a0c0 0000 00c1 0000 80c1
00000110: 0000 7041 0000 b8c1 0000 4041 0000 9841
00000120: 0000 d841 0000 5041 0000 0cc2 0000 c8c1
00000130: 0000 9841 0000 1041 0000 e8c1 0000 a8c1
00000140: 0000 3842 0000 0042 0000 b0c1 0000 60c1
00000150: 0000 50c2 0000 80bf 0000 20c2 0000 28c2
00000160: 0000 80bf 0000 3041 0000 c8c1 0000 e041
00000170: 0000 f8c1 0000 3c42 0000 0442 0000 3cc2
00000180: 0000 88c1 0000 0040 0000 0041 0000 2041
00000190: 0000 8041 0000 4040 0000 a0c1 0000 9841
000001a0: 0000 20c2 0000 c8c1 0000 30c1 0000 a8c1
000001b0: 0000 70c1 0000 04c2 0000 00c1 0000 2041
000001c0: 0000 d0c1 0000 80bf 0000 e841 0000 80c0
000001d0: 0000 0040 0000 40c0 0000 1041 0000 d041
000001e0: 0000 4442 0000 f841 0000 4842 0000 a0c0
000001f0: 0000 48c2 0000 c0c1 0000 1042 0000 80bf
00000200: 0000 e0c1 0000 28c2 0000 54c2 0000 40c2
00000210: 0000 40c1 0000 e841 0000 e041 0000 58c2
00000220: 0000 0042 0000 30c2 0000 50c1 0000 b8c1
00000230: 0000 10c1 0000 e0c0 0000 04c2 0000 00c2
00000240: 0000 e0c0 0000 80bf 0000 a0c1 0000 3041
00000250: 0000 00c2 0000 80bf 0000 e841 0000 70c1
00000260: 0000 0042 0000 4041 0000 08c2 0000 a041
00000270: 0000 a0c0 0000 88c1 0000 d841 0000 f0c1
00000280: 0000 4040 0000 b8c1 0000 5042 0000 8041
00000290: 0000 0442 0000 b041 0000 d0c1 0000 c8c1
000002a0: 0000 94c2 0000 0842 0000 7442 0000 5042
000002b0: 0000 7cc2 0000 00c0 0000 7cc2 0000 40c2
000002c0: 0000 4cc2 0000 b841 0000 58c2 0000 e0c0
000002d0: 0000 803f 0000 9041 0000 c0c1 0000 a8c1
000002e0: 0000 90c1 0000 9841 0000 50c1 0000 b041
000002f0: 0000 c040 0000 0000 0000 0000 0000 e0c0
00000300: 0000 4040 0000 e0c0 0000 0000 0000 8040
00000310: 0000 c0c1 0000 88c1 0000 c841 0000 c0c1
00000320: 0000 e0c0 0000 2042 0000 4041 0000 40c0
00000330: 0000 1cc2 0000 a041 0000 08c2 0000 40c1
00000340: 0000 60c1 0000 e0c0 0000 00c0 0000 0842
00000350: 0000 8040 0000 0842 0000 c041 0000 e0c1
00000360: 0000 9841 0000 f0c1 0000 a8c1 0000 2041
00000370: 0000 9841 0000 3442 0000 50c1 0000 0000
00000380: 0000 e841 0000 50c2 0000 3042 0000 50c2
00000390: 0000 a040 0000 40c0 0000 f8c1 0000 1041
000003a0: 0000 5c42 0000 70c1 0000 0cc2 0000 a8c1
000003b0: 0000 60c2 0000 0442 0000 c0c1 0000 1cc2
000003c0: 0000 c8c1 0000 0042 0000 e841 0000 3442
000003d0: 0000 a841 0000 a0c1 0000 50c1 0000 9041
000003e0: 0000 3042 0000 8041 0000 a8c1 0000 c8c1
000003f0: 0000 50c2 0000 5041 0000 e8c1 0000 30c2
14.0 34.0 -10.0 34.0 -7.0 7.0 42.0 -42.0
-29.0 -11.0 -19.0 37.0 -29.0 -19.0 -31.0 -43.0
-28.0 38.0 21.0 23.0 4.0 -22.0 5.0 -43.0
-30.0 -30.0 21.0 26.0 -18.0 -2.0 31.0 47.0
18.0 5.0 32.0 -22.0 11.0 -33.0 -31.0 -21.0
13.0 12.0 -24.0 11.0 21.0 -9.0 -2.0 7.0
20.0 31.0 -26.0 -11.0 16.0 34.0 36.0 32.0
9.0 -30.0 6.0 -18.0 -36.0 33.0 27.0 -37.0
7.0 -5.0 -8.0 -16.0 15.0 -23.0 12.0 19.0
27.0 13.0 -35.0 -25.0 19.0 9.0 -29.0 -21.0
46.0 32.0 -22.0 -14.0 -52.0 -1.0 -40.0 -42.0
-1.0 11.0 -25.0 28.0 -31.0 47.0 33.0 -47.0
-17.0 2.0 8.0 10.0 16.0 3.0 -20.0 19.0
-40.0 -25.0 -11.0 -21.0 -15.0 -33.0 -8.0 10.0
-26.0 -1.0 29.0 -4.0 2.0 -3.0 9.0 26.0
49.0 31.0 50.0 -5.0 -50.0 -24.0 36.0 -1.0
-28.0 -42.0 -53.0 -48.0 -12.0 29.0 28.0 -54.0
32.0 -44.0 -13.0 -23.0 -9.0 -7.0 -33.0 -32.0
-7.0 -1.0 -20.0 11.0 -32.0 -1.0 29.0 -15.0
32.0 12.0 -34.0 20.0 -5.0 -17.0 27.0 -30.0
3.0 -23.0 52.0 16.0 33.0 22.0 -26.0 -25.0
-74.0 34.0 61.0 52.0 -63.0 -2.0 -63.0 -48.0
-51.0 23.0 -54.0 -7.0 1.0 18.0 -24.0 -21.0
-18.0 19.0 -13.0 22.0 6.0 0.0 0.0 -7.0
3.0 -7.0 0.0 4.0 -24.0 -17.0 25.0 -24.0
-7.0 40.0 12.0 -3.0 -39.0 20.0 -34.0 -12.0
-14.0 -7.0 -2.0 34.0 4.0 34.0 24.0 -28.0
19.0 -30.0 -21.0 10.0 19.0 45.0 -13.0 0.0
29.0 -52.0 44.0 -52.0 5.0 -3.0 -31.0 9.0
55.0 -15.0 -35.0 -21.0 -56.0 33.0 -24.0 -39.0
-25.0 32.0 29.0 45.0 21.0 -20.0 -13.0 18.0
44.0 16.0 -21.0 -25.0 -52.0 13.0 -29.0 -44.0

block2_conv1d_bn_relu_1.op.bias f4 [16]
00000000: 0000 c0c3 0000 2044 0000 20c5 0000 e044
00000010: 0000 c044 0000 a044 0000 0045 0000 e044
00000020: 0000 d044 0000 8043 0000 c043 0000 2845
00000030: 0000 b044 0000 8044 0000 00c3 0000 c0c4
-384.0 640.0 -2560.0 1792.0 1536.0 1280.0 2048.0 1792.0
1664.0 256.0 384.0 2688.0 1408.0 1024.0 -128.0 -1536.0

block2_conv1d_bn_relu_2.op.weight f4 [16, 16, 5]
00000000: 0000 70c1 0000 8041 0000 e0c1 0000 c040
00000010: 0000 d8c1 0000 20c2 0000 00c2 0000 e841
00000020: 0000 a841 0000 1442 0000 d841 0000 10c2
00000030: 0000 e0c1 0000 e0c0 0000 c8c1 0000 d041
00000040: 0000 f0c1 0000 98c1 0000 14c2 0000 a8c1
00000050: 0000 0442 0000 0442 0000 e841 0000 f041
00000060: 0000 0442 0000 00c1 0000 8841 0000 0442
00000070: 0000 3041 0000 1042 0000 b041 0000 c041
00000080: 0000 60c1 0000 8041 0000 4040 0000 20c1
00000090: 0000 b0c1 0000 a8c1 0000 e8c1 0000 d041
000000a0: 0000 e841 0000 00c0 0000 a0c1 0000 f041
000000b0: 0000 b841 0000 0000 0000 a0c1 0000 0842
000000c0: 0000 8041 0000 d8c1 0000 0442 0000 c041
000000d0: 0000 88c1 0000 9041 0000 c0c1 0000 a0c0
000000e0: 0000 0842 0000 8040 0000 c8c1 0000 40c1
000000f0: 0000 30c1 0000 00c1 0000 4040 0000 0c42
00000100: 0000 4040 0000 b8c1 0000 0000 0000 7041
00000110: 0000 8041 0000 10c2 0000 10c1 0000 f0c1
00000120: 0000 88c1 0000 5041 0000 d0c1 0000 0041
00000130: 0000 d841 0000 0000 0000 d8c1 0000 70c1
00000140: 0000 0041 0000 18c2 0000 9841 0000 34c2
00000150: 0000 38c2 0000 34c2 0000 c0c0 0000 0c42
00000160: 0000 24c2 0000 1442 0000 b8c1 0000 0041
00000170: 0000 00c0 0000 38c2 0000 0842 0000 e041
00000180: 0000 4442 0000 a841 0000 10c2 0000 1042
00000190: 0000 a040 0000 a841 0000 1cc2 0000 80c1
000001a0: 0000 40c2 0000 98c1 0000 0041 0000 1cc2
000001b0: 0000 5041 0000 b041 0000 a040 0000 04c2
000001c0: 0000 18c2 0000 60c1 0000 a841 0000 4042
000001d0: 0000 f041 0000 40c0 0000 8841 0000 34c2
000001e0: 0000 14c2 0000 9841 0000 d8c1 0000 9841
000001f0: 0000 0cc2 0000 c8c1 0000 18c2 0000 e041
00000200: 0000 00c0 0000 2042 0000 d041 0000 b841
00000210: 0000 00c0 0000 98c1 0000 40c1 0000 2041
00000220: 0000 d041 0000 04c2 0000 1842 0000 c0c0
00000230: 0000 18c2 0000 c8c1 0000 1842 0000 2442
00000240: 0000 24c2 0000 f041 0000 9041 0000 c041
00000250: 0000 1842 0000 a8c1 0000 4041 0000 8841
00000260: 0000 50c1 0000 7041 0000 40c1 0000 c041
00000270: 0000 88c1 0000 b0c1 0000 0041 0000 7041
00000280: 0000 90c1 0000 0040 0000 a841 0000 40c0
00000290: 0000 6041 0000 c0c0 0000 8841 0000 d8c1
000002a0: 0000 a8c1 0000 90c1 0000 f041 0000 50c1
000002b0: 0000 00c0 0000 b0c1 0000 0842 0000 2c42
000002c0: 0000 c8c1 0000 d8c1 0000 c8c1 0000 8040
000002d0: 0000 e0c0 0000 b8c1 0000 20c1 0000 1041
000002e0: 0000 88c1 0000 3041 0000 e0c0 0000 70c1
000002f0: 0000 e040 0000 0042 0000 c0c1 0000 0040
00000300: 0000 50c1 0000 1442 0000 0cc2 0000 0cc2
00000310: 0000 1842 0000 b0c1 0000 0041 0000 40c0
00000320: 0000 e0c0 0000 e0c0 0000 c841 0000 4040
00000330: 0000 10c2 0000 b0c1 0000 60c1 0000 8841
00000340: 0000 d0c1 0000 0842 0000 40c0 0000 80c0
00000350: 0000 0042 0000 9841 0000 0c42 0000 c041
00000360: 0000 20c1 0000 c0c1 0000 80bf 0000 0442
00000370: 0000 60c1 0000 14c2 0000 3041 0000 0042
00000380: 0000 50c1 0000 e8c1 0000 04c2 0000 4041
00000390: 0000 0000 0000 98c1 0000 0041 0000 6041
000003a0: 0000 0042 0000 e841 0000 a0c0 0000 10c2
000003b0: 0000 14c2 0000 0842 0000 8041 0000 7041
000003c0: 0000 2cc2 0000 4042 0000 4442 0000 4842
000003d0: 0000 2cc2 0000 b0c1 0000 10c2 0000 3c42
000003e0: 0000 b8c1 0000 d0c1 0000 e841 0000 a8c1
000003f0: 0000 b8c1 0000 40c0 0000 a0c0 0000 28c2
-15.0 16.0 -28.0 6.0 -27.0 -40.0 -32.0 29.0
21.0 37.0 27.0 -36.0 -28.0 -7.0 -25.0 26.0
-30.0 -19.0 -37.0 -21.0 33.0 33.0 29.0 30.0
33.0 -8.0 17.0 33.0 11.0 36.0 22.0 24.0
-14.0 16.0 3.0 -10.0 -22.0 -21.0 -29.0 26.0
29.0 -2.0 -20.0 30.0 23.0 0.0 -20.0 34.0
16.0 -27.0 33.0 24.0 -17.0 18.0 -24.0 -5.0
34.0 4.0 -25.0 -12.0 -11.0 -8.0 3.0 35.0
3.0 -23.0 0.0 15.0 16.0 -36.0 -9.0 -30.0
-17.0 13.0 -26.0 8.0 27.0 0.0 -27.0 -15.0
8.0 -38.0 19.0 -45.0 -46.0 -45.0 -6.0 35.0
-41.0 37.0 -23.0 8.0 -2.0 -46.0 34.0 28.0
49.0 21.0 -36.0 36.0 5.0 21.0 -39.0 -16.0
-48.0 -19.0 8.0 -39.0 13.0 22.0 5.0 -33.0
-38.0 -14.0 21.0 48.0 30.0 -3.0 17.0 -45.0
-37.0 19.0 -27.0 19.0 -35.0 -25.0 -38.0 28.0
-2.0 40.0 26.0 23.0 -2.0 -19.0 -12.0 10.0
26.0 -33.0 38.0 -6.0 -38.0 -25.0 38.0 41.0
-41.0 30.0 18.0 24.0 38.0 -21.0 12.0 17.0
-13.0 15.0 -12.0 24.0 -17.0 -22.0 8.0 15.0
-18.0 2.0 21.0 -3.0 14.0 -6.0 17.0 -27.0
-21.0 -18.0 30.0 -13.0 -2.0 -22.0 34.0 43.0
-25.0 -27.0 -25.0 4.0 -7.0 -23.0 -10.0 9.0
-17.0 11.0 -7.0 -15.0 7.0 32.0 -24.0 2.0
-13.0 37.0 -35.0 -35.0 38.0 -22.0 8.0 -3.0
-7.0 -7.0 25.0 3.0 -36.0 -22.0 -14.0 17.0
-26.0 34.0 -3.0 -4.0 32.0 19.0 35.0 24.0
-10.0 -24.0 -1.0 33.0 -14.0 -37.0 11.0 32.0
-13.0 -29.0 -33.0 12.0 0.0 -19.0 8.0 14.0
32.0 29.0 -5.0 -36.0 -37.0 34.0 16.0 15.0
-43.0 48.0 49.0 50.0 -43.0 -22.0 -36.0 47.0
-23.0 -26.0 29.0 -21.0 -23.0 -3.0 -5.0 -42.0

block2_conv1d_bn_relu_2.op.bias f4 [16]
00000000: 0000 20c4 0000 8044 0000 0043 0000 2044
00000010: 0000 20c4 0000 00c4 0000 d8c5 0000 2845
00000020: 0000 0045 0000 0a46 0000 5045 0000 80c4
00000030: 0000 20c5 0000 b445 0000 84c5 0000 4044
-640.0 1024.0 128.0 640.0 -640.0 -512.0 -6912.0 2688.0
2048.0 8832.0 3328.0 -1024.0 -2560.0 5760.0 -4224.0 768.0

block2_conv1d_bn_relu_3.op.weight f4 [16, 16, 5]
00000000: 0000 82c2 0000 6cc2 0000 2842 0000 8442
00000010: 0000 1041 0000 58c2 0000 0842 0000 e040
00000020: 0000 a8c2 0000 70c2 0000 1041 0000 3442
00000030: 0000 18c2 0000 1842 0000 68c2 0000 a042
00000040: 0000 5442 0000 3041 0000 f841 0000 c841
00000050: 0000 68c2 0000 40c0 0000 a041 0000 a8c1
00000060: 0000 9842 0000 2cc2 0000 aac2 0000 40c2
00000070: 0000 acc2 0000 8042 0000 44c2 0000 92c2
00000080: 0000 a8c1 0000 8ec2 0000 68c2 0000 2c42
00000090: 0000 80c2 0000 1442 0000 7c42 0000 a0c0
000000a0: 0000 3042 0000 2cc2 0000 9042 0000 a442
000000b0: 0000 7041 0000 a842 0000 a6c2 0000 00c1
000000c0: 0000 9841 0000 98c2 0000 3842 0000 08c2
000000d0: 0000 04c2 0000 94c2 0000 1042 0000 84c2
000000e0: 0000 a8c1 0000 0842 0000 7042 0000 2041
000000f0: 0000 20c2 0000 3cc2 0000 1c42 0000 e040
00000100: 0000 8c42 0000 e841 0000 9042 0000 96c2
00000110: 0000 9242 0000 30c2 0000 e0c1 0000 80c0
00000120: 0000 d0c1 0000 1041 0000 8a42 0000 44c2
00000130: 0000 d041 0000 98c2 0000 a040 0000 8042
00000140: 0000 1442 0000 4442 0000 e041 0000 40c1
00000150: 0000 0041 0000 f0c1 0000 4042 0000 f841
00000160: 0000 28c2 0000 5c42 0000 40c0 0000 40c0
00000170: 0000 98c1 0000 a8c1 0000 0000 0000 0cc2
00000180: 0000 74c2 0000 04c2 0000 40c1 0000 3c42
00000190: 0000 1c42 0000 30c2 0000 00c1 0000 b0c1
000001a0: 0000 10c2 0000 90c1 0000 c0c1 0000 1042
000001b0: 0000 e0c1 0000 5041 0000 20c2 0000 b0c1
000001c0: 0000 3042 0000 0cc2 0000 20c1 0000 5442
000001d0: 0000 9041 0000 04c2 0000 1cc2 0000 b8c1
000001e0: 0000 c0c1 0000 b841 0000 88c1 0000 4842
000001f0: 0000 0cc2 0000 90c1 0000 b841 0000 4442
00000200: 0000 7442 0000 3041 0000 803f 0000 f0c1
00000210: 0000 f841 0000 04c2 0000 10c1 0000 54c2
00000220: 0000 80c2 0000 d841 0000 80bf 0000 3842
00000230: 0000 2842 0000 0042 0000 e841 0000 10c1
00000240: 0000 1042 0000 e041 0000 b041 0000 803f
00000250: 0000 3041 0000 80bf 0000 44c2 0000 4041
00000260: 0000 34c2 0000 e041 0000 1cc2 0000 d8c1
00000270: 0000 10c2 0000 3042 0000 28c2 0000 2042
00000280: 0000 d041 0000 2042 0000 3041 0000 f841
00000290: 0000 3c42 0000 5041 0000 b041 0000 48c2
000002a0: 0000 b8c1 0000 0000 0000 0041 0000 b0c1
000002b0: 0000 74c2 0000 80c1 0000 b041 0000 5042
000002c0: 0000 58c2 0000 f041 0000 68c2 0000 6cc2
000002d0: 0000 20c2 0000 40c1 0000 6041 0000 44c2
000002e0: 0000 4442 0000 6c42 0000 8040 0000 3c42
000002f0: 0000 00c2 0000 e8c1 0000 00c1 0000 a040
00000300: 0000 34c2 0000 58c2 0000 a041 0000 8841
00000310: 0000 6c42 0000 c8c1 0000 b041 0000 c0c1
00000320: 0000 f041 0000 80c0 0000 4442 0000 1842
00000330: 0000 6042 0000 0442 0000 4040 0000 6042
00000340: 0000 10c2 0000 6842 0000 7842 0000 8242
00000350: 0000 b8c1 0000 e8c1 0000 8040 0000 9041
00000360: 0000 f841 0000 c841 0000 5042 0000 70c1
00000370: 0000 98c1 0000 a841 0000 8841 0000 18c2
00000380: 0000 4040 0000 3cc2 0000 a0c1 0000 c8c1
00000390: 0000 5442 0000 5cc2 0000 10c2 0000 6cc2
000003a0: 0000 8041 0000 38c2 0000 a841 0000 28c2
000003b0: 0000 10c2 0000 d0c1 0000 6041 0000 6c42
000003c0: 0000 7042 0000 30c1 0000 96c2 0000 f0c1
000003d0: 0000 08c2 0000 80c1 0000 d041 0000 1442
000003e0: 0000 e841 0000 4041 0000 08c2 0000 10c1
000003f0: 0000 803f 0000 30c2 0000 40c1 0000 50c1
-65.0 -59.0 42.0 66.0 9.0 -54.0 34.0 7.0
-84.0 -60.0 9.0 45.0 -38.0 38.0 -58.0 80.0
53.0 11.0 31.0 25.0 -58.0 -3.0 20.0 -21.0
76.0 -43.0 -85.0 -48.0 -86.0 64.0 -49.0 -73.0
-21.0 -71.0 -58.0 43.0 -64.0 37.0 63.0 -5.0
44.0 -43.0 72.0 82.0 15.0 84.0 -83.0 -8.0
19.0 -76.0 46.0 -34.0 -33.0 -74.0 36.0 -66.0
-21.0 34.0 60.0 10.0 -40.0 -47.0 39.0 7.0
70.0 29.0 72.0 -75.0 73.0 -44.0 -28.0 -4.0
-26.0 9.0 69.0 -49.0 26.0 -76.0 5.0 64.0
37.0 49.0 28.0 -12.0 8.0 -30.0 48.0 31.0
-42.0 55.0 -3.0 -3.0 -19.0 -21.0 0.0 -35.0
-61.0 -33.0 -12.0 47.0 39.0 -44.0 -8.0 -22.0
-36.0 -18.0 -24.0 36.0 -28.0 13.0 -40.0 -22.0
44.0 -35.0 -10.0 53.0 18.0 -33.0 -39.0 -23.0
-24.0 23.0 -17.0 50.0 -35.0 -18.0 23.0 49.0
61.0 11.0 1.0 -30.0 31.0 -33.0 -9.0 -53.0
-64.0 27.0 -1.0 46.0 42.0 32.0 29.0 -9.0
36.0 28.0 22.0 1.0 11.0 -1.0 -49.0 12.0
-45.0 28.0 -39.0 -27.0 -36.0 44.0 -42.0 40.0
26.0 40.0 11.0 31.0 47.0 13.0 22.0 -50.0
-23.0 0.0 8.0 -22.0 -61.0 -16.0 22.0 52.0
-54.0 30.0 -58.0 -59.0 -40.0 -12.0 14.0 -49.0
49.0 59.0 4.0 47.0 -32.0 -29.0 -8.0 5.0
-45.0 -54.0 20.0 17.0 59.0 -25.0 22.0 -24.0
30.0 -4.0 49.0 38.0 56.0 33.0 3.0 56.0
-36.0 58.0 62.0 65.0 -23.0 -29.0 4.0 18.0
31.0 25.0 52.0 -15.0 -19.0 21.0 17.0 -38.0
3.0 -47.0 -20.0 -25.0 53.0 -55.0 -36.0 -59.0
16.0 -46.0 21.0 -42.0 -36.0 -26.0 14.0 59.0
60.0 -11.0 -75.0 -30.0 -34.0 -16.0 26.0 37.0
29.0 12.0 -34.0 -9.0 1.0 -44.0 -12.0 -13.0

block2_conv1d_bn_relu_3.op.bias f4 [16]
00000000: 0000 8445 0000 c043 0000 a0c4 0000 9045
00000010: 0000 58c5 0000 0043 0000 9845 0000 58c5
00000020: 0000 5045 0000 b044 0000 6045 0000 ac45
00000030: 0000 c0c3 0000 c045 0000 8845 0000 80c5
4224.0 384.0 -1280.0 4608.0 -3456.0 128.0 4864.0 -3456.0
3328.0 1408.0 3584.0 5504.0 -384.0 6144.0 4352.0 -4096.0

block2_conv1d_bn_relu_4.op.weight f4 [16, 16, 4]
00000000: 0000 c0c1 0000 4040 0000 10c1 0000 0000
00000010: 0000 f041 0000 1cc2 0000 3442 0000 0442
00000020: 0000 0000 0000 a0c1 0000 4041 0000 f8c1
00000030: 0000 0442 0000 d0c1 0000 2041 0000 44c2
00000040: 0000 d041 0000 0c42 0000 1842 0000 c040
00000050: 0000 e841 0000 8841 0000 0c42 0000 0042
00000060: 0000 38c2 0000 0040 0000 90c1 0000 c0c1
00000070: 0000 0442 0000 e0c0 0000 1041 0000 1042
00000080: 0000 0042 0000 c041 0000 10c1 0000 34c2
00000090: 0000 38c2 0000 8841 0000 0000 0000 f8c1
000000a0: 0000 b041 0000 3c42 0000 f041 0000 a0c0
000000b0: 0000 0040 0000 14c2 0000 9841 0000 28c2
000000c0: 0000 0442 0000 c8c1 0000 a8c1 0000 30c2
000000d0: 0000 50c1 0000 c0c0 0000 c8c1 0000 1042
000000e0: 0000 e841 0000 2cc2 0000 80c0 0000 a041
000000f0: 0000 4042 0000 50c1 0000 0042 0000 0000
00000100: 0000 c8c1 0000 3442 0000 60c2 0000 7042
00000110: 0000 7442 0000 c0c1 0000 9041 0000 6842
00000120: 0000 8041 0000 b041 0000 a041 0000 f8c1
00000130: 0000 4041 0000 20c2 0000 4042 0000 00c2
00000140: 0000 a841 0000 30c1 0000 2442 0000 0041
00000150: 0000 0042 0000 a0c1 0000 28c2 0000 a041
00000160: 0000 1cc2 0000 60c2 0000 a841 0000 24c2
00000170: 0000 d8c1 0000 90c1 0000 8040 0000 c0c1
00000180: 0000 c0c1 0000 70c1 0000 5042 0000 c841
00000190: 0000 08c2 0000 3cc2 0000 40c0 0000 8041
000001a0: 0000 00c0 0000 1042 0000 5442 0000 7041
000001b0: 0000 b041 0000 1442 0000 b0c1 0000 7041
000001c0: 0000 5042 0000 e0c1 0000 e040 0000 b8c1
000001d0: 0000 50c2 0000 0042 0000 4442 0000 18c2
000001e0: 0000 9841 0000 8841 0000 c041 0000 0c42
000001f0: 0000 7442 0000 3842 0000 6cc2 0000 c8c1
00000200: 0000 1442 0000 18c2 0000 4041 0000 e8c1
00000210: 0000 4041 0000 f041 0000 a041 0000 4042
00000220: 0000 40c1 0000 f041 0000 9041 0000 c0c1
00000230: 0000 44c2 0000 6042 0000 a8c1 0000 3842
00000240: 0000 1c42 0000 e0c0 0000 5cc2 0000 0000
00000250: 0000 0cc2 0000 4041 0000 e8c1 0000 3442
00000260: 0000 6cc2 0000 90c1 0000 0041 0000 4040
00000270: 0000 3c42 0000 c0c1 0000 60c2 0000 0c42
00000280: 0000 b041 0000 4c42 0000 0cc2 0000 0cc2
00000290: 0000 c8c1 0000 a040 0000 a841 0000 0cc2
000002a0: 0000 00c1 0000 60c1 0000 5c42 0000 c8c1
000002b0: 0000 8e42 0000 14c2 0000 c8c1 0000 40c2
000002c0: 0000 3842 0000 24c2 0000 e841 0000 98c1
000002d0: 0000 7442 0000 0041 0000 64c2 0000 e040
000002e0: 0000 8040 0000 84c2 0000 2041 0000 6442
000002f0: 0000 0041 0000 a0c0 0000 80c1 0000 9841
00000300: 0000 a0c1 0000 2842 0000 1442 0000 a041
00000310: 0000 88c1 0000 28c2 0000 d8c1 0000 2442
00000320: 0000 18c2 0000 1cc2 0000 80bf 0000 7041
00000330: 0000 38c2 0000 28c2 0000 80bf 0000 80c1
00000340: 0000 d041 0000 1041 0000 24c2 0000 2cc2
00000350: 0000 0042 0000 c0c0 0000 88c1 0000 6041
00000360: 0000 00c1 0000 b041 0000 5041 0000 88c1
00000370: 0000 04c2 0000 c041 0000 c0c1 0000 80c0
00000380: 0000 c040 0000 d0c1 0000 b841 0000 f8c1
00000390: 0000 1041 0000 4040 0000 6041 0000 30c2
000003a0: 0000 a040 0000 c041 0000 d0c1 0000 4041
000003b0: 0000 0000 0000 1442 0000 00c1 0000 0040
000003c0: 0000 90c1 0000 30c1 0000 3041 0000 2cc2
000003d0: 0000 0842 0000 0042 0000 a041 0000 0842
000003e0: 0000 40c1 0000 4041 0000 8040 0000 f0c1
000003f0: 0000 70c1 0000 60c1 0000 30c1 0000 1cc2
-24.0 3.0 -9.0 0.0 30.0 -39.0 45.0 33.0
0.0 -20.0 12.0 -31.0 33.0 -26.0 10.0 -49.0
26.0 35.0 38.0 6.0 29.0 17.0 35.0 32.0
-46.0 2.0 -18.0 -24.0 33.0 -7.0 9.0 36.0
32.0 24.0 -9.0 -45.0 -46.0 17.0 0.0 -31.0
22.0 47.0 30.0 -5.0 2.0 -37.0 19.0 -42.0
33.0 -25.0 -21.0 -44.0 -13.0 -6.0 -25.0 36.0
29.0 -43.0 -4.0 20.0 48.0 -13.0 32.0 0.0
-25.0 45.0 -56.0 60.0 61.0 -24.0 18.0 58.0
16.0 22.0 20.0 -31.0 12.0 -40.0 48.0 -32.0
21.0 -11.0 41.0 8.0 32.0 -20.0 -42.0 20.0
-39.0 -56.0 21.0 -41.0 -27.0 -18.0 4.0 -24.0
-24.0 -15.0 52.0 25.0 -34.0 -47.0 -3.0 16.0
-2.0 36.0 53.0 15.0 22.0 37.0 -22.0 15.0
52.0 -28.0 7.0 -23.0 -52.0 32.0 49.0 -38.0
19.0 17.0 24.0 35.0 61.0 46.0 -59.0 -25.0
37.0 -38.0 12.0 -29.0 12.0 30.0 20.0 48.0
-12.0 30.0 18.0 -24.0 -49.0 56.0 -21.0 46.0
39.0 -7.0 -55.0 0.0 -35.0 12.0 -29.0 45.0
-59.0 -18.0 8.0 3.0 47.0 -24.0 -56.0 35.0
22.0 51.0 -35.0 -35.0 -25.0 5.0 21.0 -35.0
-8.0 -14.0 55.0 -25.0 71.0 -37.0 -25.0 -48.0
46.0 -41.0 29.0 -19.0 61.0 8.0 -57.0 7.0
4.0 -66.0 10.0 57.0 8.0 -5.0 -16.0 19.0
-20.0 42.0 37.0 20.0 -17.0 -42.0 -27.0 41.0
-38.0 -39.0 -1.0 15.0 -46.0 -42.0 -1.0 -16.0
26.0 9.0 -41.0 -43.0 32.0 -6.0 -17.0 14.0
-8.0 22.0 13.0 -17.0 -33.0 24.0 -24.0 -4.0
6.0 -26.0 23.0 -31.0 9.0 3.0 14.0 -44.0
5.0 24.0 -26.0 12.0 0.0 37.0 -8.0 2.0
-18.0 -11.0 11.0 -43.0 34.0 32.0 20.0 34.0
-12.0 12.0 4.0 -30.0 -15.0 -14.0 -11.0 -39.0

block2_conv1d_bn_relu_4.op.bias f4 [16]
00000000: 0000 b0c4 0000 30c5 0000 0044 0000 3045
00000010: 0000 80c3 0000 20c4 0000 4045 0000 00c4
00000020: 0000 b845 0000 7045 0000 1845 0000 30c5
00000030: 0000 0000 0000 1845 0000 a8c5 0000 8044
-1408.0 -2816.0 512.0 2816.0 -256.0 -640.0 3072.0 -512.0
5888.0 3840.0 2432.0 -2816.0 0.0 2432.0 -5376.0 1024.0

block3_conv1d_bn_relu_1.op.weight f4 [16, 16, 8]
00000000: 0000 50c2 0000 e8c1 0000 1041 0000 64c2
00000010: 0000 4040 0000 8841 0000 2c42 0000 3042
00000020: 0000 3842 0000 98c1 0000 80c0 0000 5042
00000030: 0000 f041 0000 b8c1 0000 5c42 0000 54c2
00000040: 0000 4842 0000 1042 0000 40c2 0000 7cc2
00000050: 0000 3442 0000 8042 0000 e040 0000 d8c1
00000060: 0000 1842 0000 b041 0000 88c1 0000 4842
00000070: 0000 2042 0000 3041 0000 1842 0000 44c2
00000080: 0000 10c2 0000 6041 0000 a040 0000 80c1
00000090: 0000 3041 0000 e841 0000 70c2 0000 9041
000000a0: 0000 00c1 0000 34c2 0000 1041 0000 50c1
000000b0: 0000 10c2 0000 86c2 0000 8842 0000 f8c1
000000c0: 0000 8040 0000 5842 0000 80c0 0000 20c2
000000d0: 0000 70c2 0000 2041 0000 98c1 0000 2041
000000e0: 0000 c841 0000 60c1 0000 1c42 0000 30c1
000000f0: 0000 a0c1 0000 20c2 0000 f041 0000 04c2
00000100: 0000 a041 0000 40c0 0000 4042 0000 d0c1
00000110: 0000 b8c1 0000 30c1 0000 e8c1 0000 e841
00000120: 0000 b0c1 0000 8041 0000 0442 0000 0442
00000130: 0000 20c1 0000 f041 0000 a8c1 0000 44c2
00000140: 0000 80bf 0000 2cc2 0000 44c2 0000 0041
00000150: 0000 5842 0000 08c2 0000 e0c0 0000 38c2
00000160: 0000 40c0 0000 7041 0000 a0c1 0000 1442
00000170: 0000 80c2 0000 10c1 0000 00c2 0000 5c42
00000180: 0000 1c42 0000 7842 0000 4042 0000 4041
00000190: 0000 64c2 0000 04c2 0000 f041 0000 60c2
000001a0: 0000 1042 0000 9841 0000 2041 0000 70c2
000001b0: 0000 2c42 0000 a0c1 0000 b0c1 0000 0c42
000001c0: 0000 0040 0000 14c2 0000 4041 0000 34c2
000001d0: 0000 4042 0000 2442 0000 b041 0000 0842
000001e0: 0000 74c2 0000 d8c1 0000 70c2 0000 f0c1
000001f0: 0000 74c2 0000 2c42 0000 a041 0000 f041
00000200: 0000 d8c1 0000 1c42 0000 30c1 0000 90c1
00000210: 0000 c841 0000 f841 0000 28c2 0000 3c42
00000220: 0000 a0c0 0000 8041 0000 54c2 0000 c040
00000230: 0000 d0c1 0000 08c2 0000 a8c1 0000 0000
00000240: 0000 70c1 0000 08c2 0000 1842 0000 8041
00000250: 0000 48c2 0000 3041 0000 6041 0000 0040
00000260: 0000 5041 0000 80c0 0000 c841 0000 18c2
00000270: 0000 b0c1 0000 2442 0000 00c2 0000 e841
00000280: 0000 4442 0000 4cc2 0000 c0c1 0000 3042
00000290: 0000 c0c0 0000 0041 0000 c040 0000 a841
000002a0: 0000 b8c1 0000 e040 0000 1442 0000 a0c0
000002b0: 0000 44c2 0000 9041 0000 50c1 0000 20c1
000002c0: 0000 e041 0000 0041 0000 04c2 0000 c8c1
000002d0: 0000 10c1 0000 70c1 0000 40c1 0000 14c2
000002e0: 0000 1c42 0000 e041 0000 2041 0000 5041
000002f0: 0000 c040 0000 2042 0000 4041 0000 1041
00000300: 0000 f8c1 0000 8041 0000 50c2 0000 6041
00000310: 0000 44c2 0000 c8c1 0000 d041 0000 08c2
00000320: 0000 2842 0000 e8c1 0000 4c42 0000 7041
00000330: 0000 b8c1 0000 0442 0000 3cc2 0000 00c2
00000340: 0000 0cc2 0000 8040 0000 0040 0000 44c2
00000350: 0000 3c42 0000 80c0 0000 f8c1 0000 00c0
00000360: 0000 c0c1 0000 5041 0000 9841 0000 80c1
00000370: 0000 0040 0000 f041 0000 08c2 0000 40c1
00000380: 0000 c0c0 0000 0cc2 0000 a040 0000 8040
00000390: 0000 2cc2 0000 3041 0000 5042 0000 f041
000003a0: 0000 f0c1 0000 4442 0000 18c2 0000 e8c1
000003b0: 0000 b841 0000 2442 0000 4842 0000 3442
000003c0: 0000 f0c1 0000 5041 0000 04c2 0000 803f
000003d0: 0000 3842 0000 e041 0000 40c2 0000 a8c1
000003e0: 0000 38c2 0000 b041 0000 00c1 0000 28c2
000003f0: 0000 b0c1 0000 5041 0000 0040 0000 3c42
-52.0 -29.0 9.0 -57.0 3.0 17.0 43.0 44.0
46.0 -19.0 -4.0 52.0 30.0 -23.0 55.0 -53.0
50.0 36.0 -48.0 -63.0 45.0 64.0 7.0 -27.0
38.0 22.0 -17.0 50.0 40.0 11.0 38.0 -49.0
-36.0 14.0 5.0 -16.0 11.0 29.0 -60.0 18.0
-8.0 -45.0 9.0 -13.0 -36.0 -67.0 68.0 -31.0
4.0 54.0 -4.0 -40.0 -60.0 10.0 -19.0 10.0
25.0 -14.0 39.0 -11.0 -20.0 -40.0 30.0 -33.0
20.0 -3.0 48.0 -26.0 -23.0 -11.0 -29.0 29.0
-22.0 16.0 33.0 33.0 -10.0 30.0 -21.0 -49.0
-1.0 -43.0 -49.0 8.0 54.0 -34.0 -7.0 -46.0
-3.0 15.0 -20.0 37.0 -64.0 -9.0 -32.0 55.0
39.0 62.0 48.0 12.0 -57.0 -33.0 30.0 -56.0
36.0 19.0 10.0 -60.0 43.0 -20.0 -22.0 35.0
2.0 -37.0 12.0 -45.0 48.0 41.0 22.0 34.0
-61.0 -27.0 -60.0 -30.0 -61.0 43.0 20.0 30.0
-27.0 39.0 -11.0 -18.0 25.0 31.0 -42.0 47.0
-5.0 16.0 -53.0 6.0 -26.0 -34.0 -21.0 0.0
-15.0 -34.0 38.0 16.0 -50.0 11.0 14.0 2.0
13.0 -4.0 25.0 -38.0 -22.0 41.0 -32.0 29.0
49.0 -51.0 -24.0 44.0 -6.0 8.0 6.0 21.0
-23.0 7.0 37.0 -5.0 -49.0 18.0 -13.0 -10.0
28.0 8.0 -33.0 -25.0 -9.0 -15.0 -12.0 -37.0
39.0 28.0 10.0 13.0 6.0 40.0 12.0 9.0
-31.0 16.0 -52.0 14.0 -49.0 -25.0 26.0 -34.0
42.0 -29.0 51.0 15.0 -23.0 33.0 -47.0 -32.0
-35.0 4.0 2.0 -49.0 47.0 -4.0 -31.0 -2.0
-24.0 13.0 19.0 -16.0 2.0 30.0 -34.0 -12.0
-6.0 -35.0 5.0 4.0 -43.0 11.0 52.0 30.0
-30.0 49.0 -38.0 -29.0 23.0 41.0 50.0 45.0
-30.0 13.0 -33.0 1.0 46.0 28.0 -48.0 -21.0
-46.0 22.0 -8.0 -42.0 -22.0 13.0 2.0 47.0

block3_conv1d_bn_relu_1.op.bias f4 [16]
00000000: 0000 4845 0000 3045 0000 3e46 0000 ccc5
00000010: 0000 80c3 0000 5c46 0000 d044 0000 7c46
00000020: 0000 bc45 0000 f8c5 0000 c044 0000 cc45
00000030: 0000 6845 0000 2045 0000 b8c5 0000 4044
3200.0 2816.0 12160.0 -6528.0 -256.0 14080.0 1664.0 16128.0
6016.0 -7936.0 1536.0 6528.0 3712.0 2560.0 -5888.0 768.0

block6_dense.op.weight f4 [2, 16]
00000000: 0000 6c42 0000 0442 0000 6442 0000 b0c1
00000010: 0000 a040 0000 6442 0000 2c42 0000 3842
00000020: 0000 a040 0000 38c2 0000 5042 0000 2842
00000030: 0000 4c42 0000 c0c0 0000 1cc2 0000 0c42
00000040: 0000 7cc2 0000 90c1 0000 60c1 0000 3842
00000050: 0000 c0c1 0000 9ac2 0000 5cc2 0000 00c2
00000060: 0000 24c2 0000 f841 0000 48c2 0000 60c1
00000070: 0000 20c1 0000 c040 0000 f841 0000 8ac2
59.0 33.0 57.0 -22.0 5.0 57.0 43.0 46.0
5.0 -46.0 52.0 42.0 51.0 -6.0 -39.0 35.0
-63.0 -18.0 -14.0 46.0 -24.0 -77.0 -55.0 -32.0
-41.0 31.0 -50.0 -14.0 -10.0 6.0 31.0 -69.0

momentum_buffer f4 [4, 1, 4]
00000000: 3660 113c ee62 883c 3a8f 8c3c a5eb 913c
00000010: 824f 15bb fce9 213b 2d42 15bb e8b7 563a
00000020: 9cfa 873d c987 933d b3fd 8b3d 74a6 9c3d
00000030: 22fe fa3b d27e e53b 3a3b d23b e840 063c
0.008873036 0.016648736 0.01715814 0.01781256 -0.0022782986 0.0024706116 -0.002277504 0.00081908563
0.06639597 0.07203633 0.06835499 0.07648936 0.0076596895 0.0070036435 0.0064157518 0.008194186

momentum_buffer f4 [4]
00000000: 1943 71bd f6f2 a93e 4425 96bf 1ed1 173f
-0.05890188 0.33193177 -1.1730123 0.5930346

momentum_buffer f4 [16, 4, 5]
00000000: 8ab4 1aba 908e 8539 880b 7cbb 3ac4 8cba
00000010: 326f fa3a f658 0bbc aac7 b0ba e861 f4ba
00000020: 948f bebb e811 13bc 48b9 043a 6457 e43a
00000030: 67b7 84bb 083d 20bb 6a46 b83a b87d ad39
00000040: 22d9 8bba 486f dcba 6fe0 17bb 823b 463a
00000050: ba46 84bc 14d8 99bc 9c12 fcbb be1a 8cbb
00000060: b3ea 5fbc 70dc 0eba 4118 d6bb 9b9d c8bc
00000070: ce01 dcbc 3567 96bc 3ff9 65bc 0e37 9bbc
00000080: ba70 2cbc 70cc 2ebb c369 16bc 6ea4 7ebc
00000090: 69e2 9dbc 6f88 5abc 0c4c 8cbb db80 17bc
000000a0: 853d a6bc 89f5 bbbc f9d8 abbc e1e2 0cbd
000000b0: 67ae 30bd 2095 28bd 440f 2ebd 70bb 38bd
000000c0: f83a f0bc 9afe 85bc 1352 96bc 852d b9bc
000000d0: e123 a5bc c289 f2bc a662 22bd d257 a8bc
000000e0: 3ade d3bc bbef c0bc 9e46 f4bc 3d89 33bd
000000f0: 63b3 34bc c0af d8bc 1e01 a2bc 2291 71bc
00000100: 481f 9abc 98aa 9abc cef7 89bb 0780 9cbc
00000110: e879 cebc 5ef9 babc 4afa 06bc 6032 b2bc
00000120: 0053 a5bc 7dab 56bc 1ad9 76bc 4632 57bc
00000130: 214a b2bc b09d d3bc 0549 87bc feb0 84bc
00000140: 675c fdba a338 bc3a 96a0 753a c119 f53b
00000150: 8ff5 ce3b e422 e33a 8e24 313a 3a97 90ba
00000160: 207b 12bc 7e37 21bc b028 faba 406b 0ab8
00000170: 2e1a 843a e548 023c a590 033c e49b 61bb
00000180: 0462 26ba 346c 033b 90ae c13b 4752 013c
00000190: 7a51 fabb 743b 4cbc c4c5 21bc bb76 33bc
000001a0: 360e 0abc eaa8 99ba 6bcf 72ba 5298 8cbb
000001b0: b63a c8ba 809f beba 9fdb 0abc 99b0 51bc
000001c0: 427f 3dbc 8a39 38bc b0ce 02bc 74e9 13bc
000001d0: 1c5d 5abc 3652 52bc 9ab4 45bc 6e85 14bc
000001e0: cbee bbba e084 17bb 8383 0bbb ba9f ddba
000001f0: 4a86 01bb 8a0a 1abc 9bfa 0abc d948 d5bb
00000200: 95ad 98bb c608 9ebb 6436 d3ba 9307 23bb
00000210: e286 d8ba e05e d8b8 06f8 6c3a f1d8 61bb
00000220: 36b9 0ebb c711 34bb 1cc8 9cba f042 3f39
00000230: c2e3 40bc 3142 1bbc 778e a5bb f839 c2ba
00000240: 2e15 c5b9 8575 303a a0d6 9cba 509d feb9
00000250: 06f7 44bb ec28 80bb a237 39bc 1964 16bc
00000260: 7377 25bb b413 94b9 d95f 5eba 6c2f 47bc
00000270: 7185 43bc 0f80 afbb 843e acba 3c69 2aba
00000280: 02e0 8c3a 78a2 b9bb 4ec8 a8bb 6358 48bb
00000290: 153d 26bb ee76 1bbc f2c3 dfbb 6d13 12bb
000002a0: e229 6ebb 54ec e8bb 1e0b fc3a a42f 57bb
000002b0: 706e abbb 7df7 11bb 0cbb 1cbb a89d a0b8
000002c0: c12d 9abb 986a a4bb cea3 84bb 5c13 0bbb
000002d0: 30ba 413a 8cbc 8db9 c873 9db8 f02f 3939
000002e0: 2a6d e33a 7e0b 153b accc e23b a777 2a3c
000002f0: 0373 1c3c 1c21 a73b f4b7 ed3a 24a1 e939
00000300: 3dd7 cc39 6840 dbb8 d4fe a23a becb 083b
00000310: 7ce3 68ba e863 a93a 25c8 4f3a a8ec e93a
00000320: 4385 acbc 7120 17bd 3c6f d2bc 4857 dcbc
00000330: ebcf dbbc f6f8 d3bc d307 53bc b33f 93bc
00000340: da97 a3bc 85fb afbc 7a7a 8ebc 9412 02bd
00000350: 78d2 cfbc e465 a7bc a616 bcbc 8ae2 a7bc
00000360: 05c8 0dbd 4e34 05bd 4f65 b9bc bb42 d9bc
00000370: 4885 6dbc 321d 92bc f6a9 24bd a909 acbc
00000380: 82cd 80bc 8481 f4bc ded3 eebc 686d c1bb
00000390: dc57 adbc ebb9 03bd 72e0 5ebc b1e2 84bc
000003a0: a544 14bd 3039 c2bc e2fe 71bc 003f 8dbc
000003b0: 3c4e b8bc c8aa 2abd 1428 02bd c7df 88bc
000003c0: 38b8 cc3a fc6c fe3b 1603 b33c 7a78 813c
000003d0: 20a6 a93c ab0d f73c e48a 153d 5980 033d
000003e0: 6c81 c33c c8b2 c53c 64ba ae3b 1d80 063c
000003f0: a2d7 943c 224d 713c f86c 873c a2a5 253c
-0.0005901536 0.00025473954 -0.0038459022 -0.0010739632 0.0019106625 -0.008505097 -0.0013487239 -0.0018644901
-0.0058154557 -0.008976437 0.00050630094 0.0017421064 -0.0040501836 -0.002445044 0.0014059071 0.000330908
-0.0010669569 -0.0016817832 -0.0023174544 0.0007561968 -0.016147006 -0.018779792 -0.007692648 -0.004275649
-0.0136667965 -0.0005449718 -0.006533653 -0.024489215 -0.02685633 -0.01835976 -0.014036476 -0.01894715
-0.010524923 -0.0026672147 -0.009180489 -0.015542133 -0.019273 -0.013338192 -0.0042815264 -0.00924703
-0.020293007 -0.022944229 -0.020977484 -0.034396056 -0.043135073 -0.04115784 -0.042495027 -0.04510063
-0.029324993 -0.016356755 -0.018349683 -0.022604713 -0.02015871 -0.029606704 -0.03964486 -0.020549688
-0.025862802 -0.023551812 -0.02981883 -0.043832052 -0.011029097 -0.026450992 -0.019775923 -0.014744075
-0.018813744 -0.018880174 -0.004210449 -0.019104017 -0.025204614 -0.022823986 -0.0082383845 -0.021752536
-0.020181179 -0.013102409 -0.0150664095 -0.013134545 -0.021763863 -0.025832027 -0.01651431 -0.016197678
-0.0019329906 0.0014360141 0.00093699375 0.0074798767 0.006315894 0.0017329124 0.0006757461 -0.0011031397
-0.008940488 -0.0098398905 -0.0019085612 -3.300165e-05 0.0010078603 0.00795195 0.008030091 -0.0034425193
-0.0006347003 0.0020053508 0.005910702 0.007893152 -0.0076391073 -0.012465347 -0.009873811 -0.0109536005
-0.00842624 -0.0011723314 -0.0009262475 -0.004290619 -0.0015276286 -0.0014543384 -0.008475213 -0.012798452
-0.011565985 -0.011244187 -0.007983848 -0.0090278275 -0.013327863 -0.012836983 -0.012066985 -0.009065015
-0.0014338134 -0.002311997 -0.0021288104 -0.0016908564 -0.001976388 -0.009401927 -0.008482601 -0.0065089283
-0.0046593645 -0.004822823 -0.0016114232 -0.002487634 -0.001651969 -0.000103173545 0.0009039644 -0.0034461583
-0.0021777875 -0.0027476416 -0.0011961493 0.00018240116 -0.011773052 -0.0094762305 -0.0050523835 -0.0014818301
-0.00037590548 0.0006731379 -0.0011965819 -0.00048563862 -0.0030054464 -0.0039111283 -0.011304768 -0.009179139
-0.00252482 -0.0002824344 -0.00084829103 -0.012157302 -0.01193367 -0.005355842 -0.001314119 -0.00065006665
0.0010747912 -0.0056651197 -0.0051508313 -0.003057026 -0.0025365998 -0.009488804 -0.0068287784 -0.002228941
-0.0036340882 -0.0071082506 0.0019229387 -0.0032834793 -0.005231671 -0.0022272759 -0.00239152 -7.65876e-05
-0.0047051613 -0.00501759 -0.0040478474 -0.0021221256 0.000739011 -0.00027034094 -7.507909e-05 0.00017660833
0.0017351259 0.0022742446 0.0069213714 0.010404504 0.009548905 0.0051003825 0.0018136487 0.00044561282
0.00039070277 -0.0001045473 0.0012435564 0.0020873393 -0.00088839955 0.0012923451 0.0007926247 0.0017847018
-0.021059638 -0.036896173 -0.025687806 -0.026897088 -0.026832541 -0.02587555 -0.012880283 -0.01797471
-0.01996987 -0.021482239 -0.017392386 -0.031756 -0.025368914 -0.020434327 -0.022960018 -0.020493764
-0.03461458 -0.032520585 -0.022631316 -0.026521077 -0.014497109 -0.017836187 -0.04020115 -0.0210007
-0.015722994 -0.029846914 -0.02915376 -0.005902935 -0.021160059 -0.032159727 -0.013603317 -0.016221376
-0.036198277 -0.02370891 -0.014770241 -0.017241955 -0.022498243 -0.041666776 -0.031776503 -0.016708268
0.0015618866 0.007764457 0.021852057 0.015804518 0.020709097 0.030157885 0.03650941 0.032104824
0.023865424 0.024133101 0.005332278 0.0082092555 0.018169228 0.014727863 0.016531453 0.010110291

momentum_buffer f4 [16]
00000000: eef8 a2bb 0f85 01bd c5f0 bdbd 7405 7ebd
00000010: c098 0e3b 1ebe 9dbc 58ac 6fbc fa15 66bc
00000020: 5e11 7bbc 5fb2 133c ea55 90bd af89 9cbd
00000030: b49e 823d 5e4a edbd 4128 6e3c 46a8 92bd
-0.0049735224 -0.031621035 -0.09274439 -0.06201692 0.0021758527 -0.019255694 -0.014628492 -0.014043326
-0.015323965 0.009014695 -0.07047637 -0.076434486 0.063779265 -0.1158645 0.0145359645 -0.07161002

momentum_buffer f4 [16, 16, 5]
00000000: e23a bdb7 0f90 ba39 9d79 10ba 32b8 663a
00000010: b6da 133a 9518 31ba 321c d6b9 9cdf 42b9
00000020: 00a3 6ab6 9496 48b9 a634 b4ba 96d0 ccba
00000030: 5af4 b3ba 92c6 edba 3fee 57ba 8055 3236
00000040: 9948 e6b9 a0ea 82ba 60db 7437 ab4d 12ba
00000050: f9be 58ba 62b2 dc38 255d 183a d276 bc38
00000060: 6c85 4d3a 2f11 62ba f87c fa39 3899 a438
00000070: f00c 153a cd76 003a a285 6939 cb6d 1439
00000080: 1c02 94b7 a719 443a 96eb 82b9 5039 19b9
00000090: d287 deb9 b273 3db9 678b 9bb8 c116 2b3a
000000a0: 4064 d239 9a35 afb9 b8ef a5b7 cf94 c038
000000b0: 2a70 8739 2e5a a939 891d 42b9 0052 5137
000000c0: d6b2 b0b9 60d3 15ba c0cb 1dba 0c94 b439
000000d0: 2ef0 cfb9 f660 2638 2d98 e839 6f98 c1b9
000000e0: f677 dfb9 e597 ffb9 db0f 8f39 74db 8eb9
000000f0: 4108 9cba 8ac0 473a e411 ccb9 1677 ccba
00000100: b078 acb8 7750 853a a9e9 dc39 00e7 323a
00000110: 0edf f039 25b7 8fba faa3 01ba eaed 17b8
00000120: 0083 a638 3cf1 9cb9 1017 9fba 6140 9339
00000130: 1c6a b3b9 3e12 beb9 42c6 a039 3cac 35ba
00000140: 2437 53bb 3e5b 81bb 23cb 09bb a8ab d8b8
00000150: be51 41bb 6f97 62ba 104b beb9 82e8 23ba
00000160: 3852 b8ba a0cb 953a b470 53bb 5ac7 fbb9
00000170: 93e4 83bb 38fd 99bb 798f 90ba 4f2a 733a
00000180: 3434 47bb b002 4eba 1b93 9bba 60ab 46bb
00000190: d4bd 1bbb c63c f039 1a50 feba e164 78ba
000001a0: 1ff6 9eba 627a 01ba 5217 bbb9 f8a4 f4ba
000001b0: 4fe5 85ba 7c36 6239 0207 7eb9 f4b1 03b9
000001c0: 30d3 fab7 b2d0 eb38 5a35 ffb9 62f0 90ba
000001d0: 841b 04ba d42d acb8 8b1c 04ba a6d5 0fba
000001e0: ba5b 2bba e965 9939 e0b8 4ab8 3fba 4b39
000001f0: 17d1 76b9 5292 bfba baf9 c8ba ffc1 99ba
00000200: 479a 3db9 7d70 d539 f725 83bb 3c43 19bb
00000210: 8a89 91bb 246e 0bbb 849e 37bb 23e2 933a
00000220: a0d7 4cbb f05a e43a bc14 96b8 06a3 54bb
00000230: 6281 a2bb b002 2ebb cc98 9fbb e7a0 28bb
00000240: f005 43b9 8fff 53bb 8642 13bb 0e03 10bb
00000250: 8147 f0ba 7569 3abb 9dd0 68ba e722 85b9
00000260: cae5 92b9 7a46 49bb 62f1 03bb 061a b4bb
00000270: f625 b5bb 9550 86bb 8a43 85bb 6b4a bebb
00000280: 20a8 42bb c72f 39bb 2dc0 10bc 604b bcbb
00000290: 2de2 ddbb e0f6 cbbb fdc9 8cbb f2d6 f2ba
000002a0: 56fd c9ba fa6b 16bb e6aa 7cbc 1692 63bc
000002b0: e7b3 81bc 83d2 89bc 38e4 63bc f416 13bc
000002c0: 4512 7cbb 9877 aabb d52c 48bb 0ed8 17bc
000002d0: 764f 76bb e681 f5ba f94f 81bb aebb 89bb
000002e0: b8be 6ebb 19c6 51bb c8a2 1dbb be42 52bb
000002f0: b2fe 44bb 682c 39bb 0504 0bba 0806 37ba
00000300: a6b8 8cba 03bb 05b8 0bfb 61ba 64e4 e6b9
00000310: 90d8 6c39 9283 bab9 24db 3139 dc76 88b9
00000320: 5b01 82ba 1e0c f6b9 ceed 9fba 5b31 a8b9
00000330: 34db 06ba 8433 47bb 461a 5ebb 4e47 55bb
00000340: 21d8 96bb 647a 7abb 0abf 08bc 3f2f 69bb
00000350: ec20 f8bb 1fa1 bfbb 4482 e3bb edc8 90bb
00000360: 6c6f 41bb 0a6c 5bbb cb82 12bb 201f d1bb
00000370: 9776 acbc db3e 3bbc acbb abbc ab65 acbc
00000380: b0c9 92bc 65d2 03bc 4ca9 8cbb e822 2cbc
00000390: 2b1c 2ebc 2b4e d2bb 84d3 a2bb 9a1c 56bb
000003a0: d44c 7ebb 20c7 8cbb 59f9 aebb a175 1cbc
000003b0: 6fef 53bc 942e 80bc 1be9 87bc bba4 86bc
000003c0: d434 733b 66f9 203c 0e4e f13b dcf0 a53b
000003d0: c23f a93b ed37 373b 91ed 1c3b dc77 f139
000003e0: 5304 d039 2094 b53a 2219 1a3c 276e ab3b
000003f0: b208 b63b 6bdd e43b c7e6 183c 8a17 8339
-2.2557975e-05 0.00035584017 -0.0005511286 0.0008801251 0.00056401954 -0.0006755677 -0.00040838268 -0.00018584583
-3.4963596e-06 -0.00019129581 -0.0013748601 -0.0015626128 -0.0013729439 -0.0018140844 -0.00082371006 2.6573834e-06
-0.00043923108 -0.0009988137 1.4594611e-05 -0.00055810314 -0.0008268203 0.00010523644 0.00058122195 8.9866706e-05
0.0007840011 -0.00086237764 0.00047776825 7.8486686e-05 0.0005685827 0.0004900515 0.00022270394 0.00014155281
-1.7643957e-05 0.0007480629 -0.00024971057 -0.00014612568 -0.00042444334 -0.00018067544 -7.416942e-05 0.0006526523
0.00040129013 -0.00033418537 -1.978116e-05 9.182991e-05 0.00025832775 0.0003230138 -0.00018512284 1.2476463e-05
-0.0003370258 -0.0005715396 -0.0006019436 0.0003444258 -0.00039661065 3.9667786e-05 0.00044363868 -0.000369254
-0.00042623252 -0.0004875056 0.000272869 -0.00027247856 -0.0011904315 0.0007619938 -0.00038923242 -0.0015599455
-8.224079e-05 0.0010171075 0.0004213576 0.0006824583 0.00045942556 -0.0010964616 -0.0004945394 -3.622278e-05
7.9398975e-05 -0.00029934372 -0.001213761 0.0002808599 -0.00034220598 -0.00036253216 0.00030665292 -0.0006930267
-0.0032228911 -0.0039476445 -0.002102562 -0.00010331656 -0.0029498185 -0.0008643781 -0.0003629555 -0.0006252603
-0.0014062589 0.0011428483 -0.0032263221 -0.0004802298 -0.004025051 -0.0046993755 -0.0011029086 0.0009276019
-0.0030396106 -0.0007858677 -0.0011869402 -0.003031455 -0.002376427 0.00045821647 -0.0019402534 -0.00094754813
-0.0012127793 -0.0004939196 -0.00035684794 -0.0018664887 -0.0010215434 0.00021573337 -0.00024225938 -0.00012559426
-2.9900664e-05 0.00011244546 -0.0004867714 -0.0011057968 -0.00050395005 -8.210135e-05 -0.00050396536 -0.0005486853
-0.00065368006 0.00029258363 -4.833273e-05 0.0001942897 -0.0002353828 -0.001461575 -0.0015333213 -0.0011730789
-0.00018081917 0.00040710336 -0.0040023285 -0.0023386022 -0.0044414448 -0.0021275366 -0.0028018067 0.0011282604
-0.0031256452 0.0017422121 -7.1564195e-05 -0.0032445802 -0.0049592713 -0.0026551895 -0.0048705097 -0.002573067
-0.00018598861 -0.003234837 -0.002247007 -0.0021974477 -0.0018331857 -0.0028444205 -0.00088811835 -0.0002539374
-0.00028018496 -0.0030712173 -0.002013289 -0.0054962663 -0.005528207 -0.0040989616 -0.004066889 -0.005807211
-0.002970226 -0.0028257237 -0.008834881 -0.00574629 -0.006771347 -0.006224498 -0.00429654 -0.0018527193
-0.0015410583 -0.0022952543 -0.015421605 -0.01388981 -0.015832854 -0.016824013 -0.013909392 -0.00897764
-0.0038463038 -0.005202245 -0.00305443 -0.00926782 -0.0037583984 -0.0018730729 -0.003946301 -0.0042032814
-0.0036429595 -0.0032008945 -0.0024053324 -0.0032083238 -0.0030059037 -0.0028255228 -0.0005303028 -0.0006981795
-0.0010736182 -3.188384e-05 -0.0008620477 -0.00044039183 0.0002258739 -0.00035574712 0.00016961672 -0.00026028499
-0.0009918617 -0.00046929804 -0.0012201609 -0.0003208023 -0.0005144358 -0.0030395696 -0.0033890172 -0.0032543722
-0.0046034013 -0.0038219923 -0.0083463285 -0.003558114 -0.007572284 -0.0058480646 -0.006943019 -0.0044184835
-0.0029515876 -0.0033481144 -0.002235579 -0.006381884 -0.021052642 -0.01142856 -0.020963512 -0.021044573
-0.017918438 -0.008045767 -0.0042926427 -0.010506369 -0.010626833 -0.0064180098 -0.0049690623 -0.0032670856
-0.0038803117 -0.0042961985 -0.005339783 -0.009549529 -0.012935503 -0.01564721 -0.016590646 -0.016435971
0.0037110345 0.009825086 0.007364041 0.005064113 0.005165071 0.0027956918 0.0023945312 0.00046056404
0.00039676073 0.0013853349 0.009405406 0.005231637 0.005555236 0.006984403 0.009332365 0.00025003805

momentum_buffer f4 [16]
00000000: 2a10 86ba 646f 1fbc 4185 32bd 7cee 013d
00000010: 9686 0ebd 1cd4 fdbc 387c 3ebd 54b5 253c
00000020: b201 563b f377 a33c 19bf e33c 620f 04bc
00000030: 3a2c 2b3b 6033 43b7 5844 81bd 2940 50bb
-0.0010228206 -0.009731147 -0.043584112 0.031721577 -0.03479632 -0.03098493 -0.046505183 0.010114033
0.003265482 0.019954657 0.027801083 -0.008060308 0.002611889 -1.1634867e-05 -0.06311864 -0.0031776524

momentum_buffer f4 [16, 16, 5]
00000000: 9b0c a5b9 36d2 99b9 9db8 303a 4017 283a
00000010: ce55 cd38 b681 a7b9 9826 633a c89a 4b3a
00000020: 40ba 943a 9edd ad39 ba15 093b f982 8c3a
00000030: 4064 b838 ea16 d639 a8eb 28b8 4c15 a93b
00000040: 8892 8f3b f2bb 323b f0b9 0d3b 3250 2b3b
00000050: 1074 e23a 3fa1 1f3b 3c52 173b acb2 323b
00000060: 93b1 de3a bfc3 ad39 bfa4 c0b9 db23 0c3a
00000070: 0242 263a 6ac6 e73a 449e 5d3b 2c2d 233b
00000080: 222e 8c3b 07e9 8e3b 56be 3c3b 08e2 7b3b
00000090: 2e5d 0e3b b190 4a3b 0256 713b 366f 813b
000000a0: d818 093a 68b2 b839 3a17 d53a 56e1 263b
000000b0: e6b3 5a3a 1047 d63a 3c2b 9db8 20e2 68b8
000000c0: b80a cfb9 4cef a639 864a 303b 825e 8d3a
000000d0: 9522 e139 0262 13ba d039 5c39 3267 2f3a
000000e0: b826 ed3a 0e4b 933a bd4a 743a 4069 993a
000000f0: b142 493b 3e58 1f3b f08a e03a 2bd8 0939
00000100: 5476 3f3a 7461 8a3a 75e5 083b 406c 583a
00000110: 023b d23a 201c 023b dabe fb3a 6286 7f3b
00000120: 7a72 2c3b b619 f83a 72ee 3a3b 40f5 d0b6
00000130: 943b ff39 6c7d 11b9 c7af 2db9 237f ba37
00000140: d76f 783a 3e47 1a3a 127a 0e3a 20f7 7439
00000150: f88c 8bb8 f733 213a d684 043b 4f8a a43a
00000160: ae7f f439 41e0 283a 081d c739 a88a 9039
00000170: e660 153a 79c4 063a 0fea 283a cccf 7f38
00000180: fcbb 083a dcf1 843a 31b9 0a3b 650d 3f3b
00000190: 46ef a23a f09f aeb7 dce7 ffb9 0afa 20b9
000001a0: 306e edb8 c435 163b a23f dd3a 4891 3d3b
000001b0: c227 013b 0edc 003b 68e9 963a bc80 c03a
000001c0: fabf 1f3b 39f1 0a3b fd28 023b d62e 463b
000001d0: 19bb f93a 1bb1 fe3a 45e5 363b c121 2b3b
000001e0: 8cd9 96b9 af72 b4b9 5dbd d238 28bb 6739
000001f0: 9ece 00ba b1b7 973a a69c ce3a 4286 bb3a
00000200: ba9e f93a 8850 a73a 4a00 c939 adf7 cb39
00000210: 6899 7a3a e478 bd3a bd75 d33a 092c beb9
00000220: 5aec dc39 54f4 613a 8f28 6d3a ac14 d33a
00000230: 9110 8a39 03c5 9738 0034 5639 4c05 553a
00000240: 865e fa3a 6c95 cc3a 7872 4e3a 7abb 4f39
00000250: 6e81 5e3a e10f 0d3a 789c 4f3a 3cab 533a
00000260: 2513 1f3a 8cec 013a 84fc 433a 5efa 4eb9
00000270: 0b0b b0b8 185a 9b39 d372 28b9 d33a 0d39
00000280: b8ea e639 ce01 8639 abd5 b039 bed4 ca39
00000290: ef95 ee39 8a8f bd39 0d1e ae39 a071 e7b7
000002a0: 0085 513a 2e74 9b3a 4518 613a f1ea 753a
000002b0: 339a bb38 4cd1 9a3a 0211 b83a 1cb1 393b
000002c0: 7b42 733a b147 c53a 5eb6 f939 4cf5 813a
000002d0: 041f 75b9 4077 803a b7bb 793a aee0 893a
000002e0: 7a84 943a 8cf3 563a f464 8f3a afe8 dd3a
000002f0: 909a 3f3a 8edb eb39 d5ab 5f3a 9100 c23a
00000300: 3479 533a 56aa e23a 5d03 2a3b 7b57 083b
00000310: 486a 533b 1874 243b 324f 4a3b 9053 c63a
00000320: 0c87 d4b8 5eb3 d4b9 0adb cab9 c455 4cb9
00000330: 9e8d 8bb9 f759 453a edad 483a 73ed a838
00000340: 21c2 013a ea84 603a 0e63 6c3a 7348 5f3a
00000350: 1663 2e3a 067e f5b9 f15a ceb9 ec53 28b8
00000360: c790 1f3a 84d2 813a d6b0 2f3a 0298 aab9
00000370: ee41 b139 1ddc 433a eea3 7c3a 9046 c338
00000380: 2017 f2b9 47b0 463a dc9d 7a3a e2b2 ac3a
00000390: 58cb d63a 4001 beb6 1885 303a f6ad 2e39
000003a0: eaa9 fe3a 9ee1 473a 2565 0f3b 59a8 9ab9
000003b0: d083 0bb9 a8b6 0bb9 064e 8cb8 6ee9 8838
000003c0: 5abf 063a 49c9 6439 5320 4fb9 c82e 85b9
000003d0: 0a04 f3b8 9a8c 7e39 644a 5c3a c235 493a
000003e0: 2ce9 113a c8b6 a938 f303 043a bc81 e638
000003f0: 6e54 243a 2d26 4b3a d3db 053a dd13 8bba
-0.00031480644 -0.00029339053 0.0006741377 0.0006412156 9.791144e-05 -0.00031949364 0.0008665114 0.00077668997
0.0011347011 0.0003316225 0.002091749 0.0010720185 8.792477e-05 0.00040834333 -4.0273793e-05 0.0051600095
0.0043814816 0.0027272669 0.002162572 0.002614033 0.0017277021 0.0024357585 0.0023089787 0.0027267141
0.0016990177 0.00033142974 -0.0003674384 0.0005345919 0.00063422334 0.0017683033 0.0033816257 0.002489875
0.0042779604 0.004361275 0.0028799972 0.0038434286 0.002172302 0.0030908997 0.0036824946 0.003950025
0.0005229837 0.00035228138 0.0016257532 0.00254639 0.0008342847 0.0016348083 -7.4943964e-05 -5.5523706e-05
-0.00039490103 0.00031840277 0.0026899888 0.0010785612 0.0004294111 -0.0005622209 0.00021002372 0.00066910975
0.0018093204 0.0011237578 0.0009318998 0.001170434 0.0030709917 0.002431407 0.001713125 0.00013145867
0.0007303704 0.0010557608 0.002088872 0.00082558766 0.0016039314 0.001985319 0.0019206658 0.003899001
0.002631335 0.0018928561 0.0028523472 -6.227434e-06 0.0004868178 -0.00013875001 -0.00016564048 2.223213e-05
0.00094771147 0.00058852497 0.000543506 0.00023361715 -6.654294e-05 0.0006149406 0.0020220778 0.0012553426
0.00046634435 0.0006442108 0.00037977868 0.00027569127 0.0005698338 0.0005140971 0.0006443569 6.0990264e-05
0.0005216 0.001014288 0.0021167512 0.002915227 0.0012430928 -2.0816893e-05 -0.0004881014 -0.00015351936
-0.00011321565 0.002292023 0.0016879926 0.0028925706 0.0019707535 0.0019662413 0.0011513652 0.0014686803
0.0024375902 0.0021200909 0.0019860857 0.0030240319 0.0019052952 0.0019431444 0.0027907651 0.0026112648
-0.00028772315 -0.0003441772 0.00010048852 0.00022099598 -0.0004913601 0.001157513 0.0015763238 0.001430698
0.0019044497 0.0012765089 0.00038337923 0.0003890371 0.00095596025 0.0014455584 0.0016133111 -0.00036272433
0.00042137766 0.00086194766 0.0009046876 0.0016104183 0.00026333754 7.2369374e-05 0.00020428002 0.00081260945
0.0019101657 0.0015608496 0.00078753335 0.00019810899 0.00084879145 0.0005381089 0.0007919739 0.0008074527
0.00060682214 0.00049562077 0.00074762874 -0.0001973896 -8.394391e-05 0.0002963103 -0.00016064504 0.00013468722
0.00044043898 0.00025559816 0.0003372853 0.00038686948 0.00045506607 0.00036155834 0.00033210256 -2.7590257e-05
0.0007992536 0.0011860186 0.0008586685 0.00093810173 8.945577e-05 0.0011811643 0.0014043155 0.0028334325
0.0009279621 0.0015051273 0.00047628855 0.0009915023 -0.00023376575 0.0009801164 0.0009526568 0.001051923
0.0011330985 0.00081997435 0.001094012 0.0016930307 0.00073091034 0.00044986274 0.000853238 0.0014801194
0.0008067072 0.0017293196 0.0025941946 0.0020804096 0.0032259393 0.0025093611 0.0030869958 0.0015131105
-0.00010134102 -0.0004056943 -0.0003869164 -0.00019486906 -0.0002661766 0.00075283594 0.00076553115 8.0550926e-05
0.0004949887 0.00085647276 0.0009017446 0.00085175707 0.0006652338 -0.00046823936 -0.00039359138 -4.013248e-05
0.0006086942 0.0009904657 0.0006702071 -0.0003253818 0.00033809192 0.0007471459 0.00096374645 9.311468e-05
-0.00046175066 0.0007579368 0.0009560266 0.001317587 0.0016387505 -5.662587e-06 0.00067336997 0.00016658739
0.00194293 0.0007624867 0.0021880355 -0.00029498598 -0.00013305177 -0.00013324118 -6.690253e-05 6.528465e-05
0.0005140208 0.00021818759 -0.000197531 -0.00025402592 -0.00011587895 0.00024275706 0.0008403419 0.0007675552
0.00055660564 8.0925936e-05 0.0005035989 0.000109914195 0.00062686845 0.0007749524 0.0005106304 -0.0010610778

momentum_buffer f4 [16]
00000000: c767 b53b bede 913b b28b 473b b0dc cc38
00000010: 2cdc 19bd 8a2d 713a 5472 943b 463e abbb
00000020: 3c2d 583c 3607 663a 042a e239 cfa1 a43b
00000030: 7894 443c 502b 1cb8 eea7 643b 0a99 06bc
0.005536053 0.0044516018 0.0030448255 9.768584e-05 -0.037563488 0.0009200206 0.0045302305 -0.0052259294
0.013194378 0.0008774878 0.00043137383 0.005024172 0.011998288 -3.7233636e-05 0.0034890133 -0.008215198
