trained_custom/checkpoints/mnist-self_qat_checkpoint.pth.tar (torch, 586879 bytes, 12 tensors)

conv1.op.weight f4 [60, 1, 3, 3]
0.19667011 -0.008452996 0.012465041 0.15323423 0.04619618 -0.10008521 0.07150783 0.046713844
-0.107403144 0.23246989 0.10872358 0.06867695 0.043331727 -0.2637762 -0.1304374 0.021704083
-0.020717613 0.08671613 -0.16581404 -0.08617613 -0.10884067 -0.022014817 0.07514525 0.16846414
0.20639153 0.027618272 -0.03840803 -0.14516479 -0.079861104 0.2829938 -0.18726893 0.54350203
-0.091473825 0.1941605 0.19223715 -0.49935666 0.23894289 0.056870837 0.03618278 0.15022819
0.018175708 0.25074515 0.17246296 -0.05740712 0.09318898 0.15413743 -0.13386804 -0.25985736
0.23175623 0.0660285 -0.13051997 -0.0038568412 0.25388867 0.3064483 0.019644735 -0.012361701
0.14655301 0.053920586 -0.24028164 0.3153818 -0.12419147 -0.3370776 0.41606838 0.2834126
0.32142225 0.31335896 0.22006811 0.24982445 0.15740478 0.12438275 0.038429685 0.014885888
-0.022996426 0.09907124 0.05054021 -0.10315365 0.030266272 0.070690915 -0.20560971 -0.017153317
0.17865916 -0.24879937 -0.09308368 -0.03288417 -0.28406367 -0.26440725 -0.25852504 -0.12538937
-0.12681152 0.044496804 0.08635331 0.1054871 0.083831936 -0.025972743 -0.013609873 0.16039352
-0.17940672 -0.20567526 0.031000128 0.011581033 0.040038142 -0.20598678 0.06028557 0.15432002
-0.46607712 -0.1710026 0.6566904 0.19653808 0.021812199 0.34352446 0.2782485 -0.051751606
0.30172646 -0.15008065 0.20704082 0.396019 0.049215786 -0.043302476 -0.182274 -0.022128219
0.24712792 0.18420267 0.101286925 -0.026042601 -0.06422665 -0.0477484 0.22986534 0.24960686
0.17862229 -0.23891811 -0.11317189 0.048434917 -0.053099673 -0.07143214 -0.036200166 -0.36167312
-1.1392865 -0.112232156 0.4923929 0.91207534 -0.0029231329 0.17681181 0.07527109 0.05863854
0.19454637 -0.09688688 -0.18361881 0.13501403 0.33602408 0.23126632 -0.07732346 -0.08863079
0.2510698 -0.1203127 0.0031332946 0.18991762 0.092458256 0.5980655 -0.10541669 0.3032223
-0.299695 -0.27326456 0.14907987 0.19240446 0.13437973 -0.048386566 -0.010483824 0.17931344
-0.015283276 -0.045414347 0.28683186 0.14612287 0.13256729 0.18740258 0.02752492 -0.02511736
-0.028046396 -0.1546395 -0.21392266 -0.2953879 -0.11763902 0.41557083 -0.24878864 0.2132293
0.609569 -0.6450082 0.10113558 0.6151903 -0.535337 -0.3255572 -0.15380391 0.19340801
-0.4109807 0.22003351 0.25120598 -0.003950547 0.31864223 0.06185628 0.19967663 0.12849118
0.22042917 0.16897085 0.1518268 0.18033724 0.2087989 0.18733612 -0.08962028 0.04411878
0.103656955 0.2839422 -0.16231535 -0.10984498 0.17520264 -0.15621962 -0.17048894 0.09352834
-0.07954538 -0.17493594 -0.08043331 0.19493069 0.11001923 -0.11493521 0.17141552 0.079711735
-0.1021973 0.0004293332 -0.28870234 -0.2597668 0.45227495 -0.105954744 -0.08610198 0.18338637
0.32106933 0.124578126 -0.29248556 -0.046462532 0.23701449 -0.25964978 0.33283743 0.18492538
0.058680307 0.17607312 0.0984364 -0.15447225 0.04704958 0.23392774 0.13786882 0.29278034
-0.048866037 0.14372426 -0.26872486 -0.14023006 0.27701214 -0.060019255 -0.1364395 0.16719867
00000000: e463 493e 6f7e 0abc 2c3a 4c3c 6fe9 1c3e
00000010: 3538 3d3d 79f9 ccbd b272 923d 0457 3f3d
00000020: 2ef6 dbbd 960c 6e3e 78aa de3d 80a6 8c3d
00000030: 9c7c 313d ad0d 87be 6291 05be c3cc b13c
00000040: fcb7 a9bc 3a98 b13d 28cb 29be 1c7d b0bd
00000050: dbe7 debd 6b58 b4bc c1e5 993d dd81 2c3e
00000060: 4d58 533e b73f e23c bd51 1dbd 14a6 14be
00000070: 388e a3bd 90e4 903e 6dc3 3fbe f322 0b3f
00000080: a156 bbbd 03d2 463e d1d9 443e adab ffbe
00000090: 72ad 743e 65f1 683d 6534 143d 6bd5 193e
000000a0: 39e5 943c ab61 803e 219a 303e ba23 6bbd
000000b0: ddd9 be3d 34d6 1d3e b414 09be 060c 85be
000000c0: 8151 6d3e f339 873d 07a7 05be 0fc3 7cbb
000000d0: b2fd 813e cbe6 9c3e ffed a03c bb88 4abc
000000e0: fe11 163e d5db 5c3d 640c 76be b979 a13e
000000f0: 1958 febd 6f95 acbe ea06 d53e 751b 913e
00000100: 7591 a43e 9670 a03e 8959 613e fbd1 7f3e
00000110: b82e 213e 62bc fe3d 7268 1d3d f1e3 733c
00000120: 0063 bcbc dde5 ca3d 4003 4f3d 3942 d3bd
00000130: f9f0 f73c 66c6 903d 5a8b 52be 1d85 8cbc
00000140: 6df2 363e 43c5 7ebe a8a2 bebd 8db1 06bd
00000150: cb70 91be 6360 87be 655d 84be 1266 00be
00000160: e1da 01be 4842 363d 01da b03d 9f09 d83d
00000170: 14b0 ab3d cac4 d4bc f2fb 5ebc 333e 243e
00000180: 65b6 37be 899c 52be fbf3 fd3c 5fbe 3d3c
00000190: 09ff 233d 33ee 52be 00ee 763d 1106 1e3e
000001a0: a9a1 eebe 4e1b 2fbe dd1c 283f 4741 493e
000001b0: 7faf b23c 70e2 af3e 9676 8e3e 7ef9 53bd
000001c0: e47b 9a3e beae 19be 8202 543e 01c3 ca3e
000001d0: 7e96 493d f05d 31bd 09a6 3abe 3d46 b5bc
000001e0: 1a0f 7d3e a09f 3c3e 856f cf3d 4b57 d5bc
000001f0: 4389 83bd d493 43bd d261 6b3e f198 7f3e
00000200: c3e8 363e f3a6 74be aac6 e7bd b163 463d
00000210: 0b7f 59bd 044b 92bd a046 14bd 382d b9be
00000220: 24d4 91bf f9d9 e5bd ec1a fc3e c57d 693f
00000230: 0892 3fbb 280e 353e bb27 9a3d f72e 703d
00000240: 2a37 473e a16c c6bd 9206 3cbe 1e41 0a3e
00000250: 590b ac3e 14d1 6c3e c35b 9ebd 0f84 b5bd
00000260: 398c 803e 8166 f6bd f657 4d3b c479 423e
00000270: c15a bd3d d21a 193f b5e4 d7bd f43f 9b3e
00000280: 9f71 99be 55e9 8bbe 65a8 183e ad05 453e
00000290: d79a 093e fe30 46bd 58c4 2bbc f19d 373e
000002a0: b566 7abc 6504 3abd a0db 923e 3ca1 153e
000002b0: b8bf 073e 76e6 3f3e f17b e13c ecc2 cdbc
000002c0: 8ec1 e5bc d159 1ebe 8b0e 5bbe 153d 97be
000002d0: baec f0bd b3c5 d43e 73c2 7ebe c858 5a3e
000002e0: b70c 1c3f 421f 25bf 2c20 cf3d 1d7d 1d3f
000002f0: d80b 09bf 6faf a6be c67e 1dbe c00c 463e
00000300: 106c d2be 7750 613e 129e 803e 9773 81bb
00000310: 1325 a33e 035d 7d3d 0878 4c3e 3193 033e
00000320: 2fb8 613e b206 2d3e 7c78 1b3e 53aa 383e
00000330: 61cf 553e 0ad5 3f3e d68a b7bd e5b5 343d
00000340: 194a d43d df60 913e ff35 26be 68f6 e0bd
00000350: 5268 333e 09f8 1fbe a794 2ebe c98b bf3d
00000360: b0e8 a2bd 6822 33be 38ba a4bd e99b 473e
00000370: c351 e13d 2763 ebbd 8d87 2f3e e83f a33d
00000380: d14c d1bd 2018 e139 cbd0 93be 2700 85be
00000390: 9590 e73e cdfe d8bd 3c56 b0bd a3c9 3b3e
000003a0: 3363 a43e d122 ff3d abc0 95be 7f4f 3ebd
000003b0: edb3 723e d1f0 84be ab69 aa3e 145d 3d3e
000003c0: c35a 703d 834c 343e 0699 c93d f92d 1ebe
000003d0: 0fb7 403d c18a 6f3e 7c2d 0d3e 4ee7 953e
000003e0: c127 48bd 742c 133e 4e96 89be 7898 0fbe
000003f0: 89d4 8d3e c0d6 75bd ccb6 0bbe 2136 2b3e

conv2.op.weight f4 [60, 60, 3, 3]
-0.074395 -0.04723265 -0.11732723 -0.0503387 -0.031097444 0.013353699 0.11291665 -0.052229833
0.0044214753 0.041801814 -0.059529625 -0.017234245 0.035204325 -0.06406562 0.028483232 0.14030066
0.052067585 0.04051544 -0.06295455 0.07730709 0.13891305 0.11869823 0.06825335 0.054304082
0.087073006 -0.036243845 -0.09333645 -0.1316239 -0.010120385 -0.012995025 0.058143217 0.036002427
-0.008032588 -0.06675522 0.049555514 0.0067516514 -0.0037360536 -0.029724348 0.04858015 0.0092293825
0.044073556 0.04861346 0.02789357 -0.03161802 -0.11214637 -0.038842697 0.0019090598 0.11059765
-0.049225945 -0.007132175 -0.028276425 -0.099785455 -0.080474295 -0.08632667 -0.035510976 -0.05006884
-0.06865979 -0.055072054 -0.062915325 -0.00092152203 -0.098984785 0.03386337 0.0016042303 -0.07365589
-0.029226737 -0.124811225 -0.02215669 0.12796845 0.037643794 -0.060050145 -0.17800255 -0.04255234
-0.095489256 0.018060653 -0.12088835 -0.0054793763 -0.098942176 -0.00026435804 -0.055911675 0.021537228
0.0124878585 -0.098766364 0.052422456 -0.04552729 -0.076304846 -0.007121129 0.09528565 -0.1669617
-0.06849464 0.020750323 0.02121238 -0.10938849 -0.0495683 -0.041899703 -0.0019177223 -0.0012143016
-0.0013248607 0.024522737 0.026894793 -0.007896787 -0.065465495 0.048996918 -0.015950996 -0.05277844
-0.031581037 -0.07113299 -0.000106593696 -0.08591216 -0.03050538 -0.039509095 -0.06437372 -0.048266243
0.05029274 -0.03781191 -0.12933092 -0.032029882 -0.14536493 -0.10013367 0.06587774 0.055442724
0.053287245 0.108483374 0.05263922 0.052060466 -0.0032099774 -0.035982415 0.007991648 0.04744692
0.07135819 -0.0011078529 0.038459584 -0.085079074 0.06657043 0.06992003 0.06391215 -0.09115166
-0.044025406 0.21136217 0.11788543 0.12064524 0.10817524 0.087384194 -0.06909415 -0.1274081
0.015748585 -0.014453784 0.0025247158 -0.007947468 0.054993276 -0.0036085336 0.026502276 -0.06933462
-0.12621915 -0.0025506534 -0.016514935 0.00758565 0.17242867 0.077567615 0.11776269 0.05240278
0.03937971 -0.032302056 -0.036650784 0.0024450156 -0.041348334 -0.026710626 -0.027200071 -0.0149451755
-0.06460077 -0.0102753155 0.047044065 -0.04968875 -0.099264555 -0.08535934 0.051422738 -0.0595164
0.13983363 0.18821542 0.0029266176 0.029381914 -0.07856956 -0.13483988 -0.24674806 -0.017688781
0.03264359 0.018554019 0.0625196 -0.0354341 0.08238145 -0.034357958 -0.02603167 0.08229434
0.16229212 0.025653115 -0.0727078 -0.09577955 -0.13542254 -0.06051403 -0.119672045 -0.042145297
-0.009633139 0.034582324 0.10785949 0.13753526 -0.022841934 -0.10439575 -0.09541369 -0.063171834
-0.17214741 -0.14903311 -0.15425771 -0.0032184343 -0.056299087 -0.054727953 0.05297744 0.021059504
-0.021955023 0.04283993 -0.022017045 -0.023294875 -0.100402236 0.04640211 -0.031588525 -0.017290583
-0.004103762 0.019561341 -0.006978445 0.1455135 0.15755323 0.016891109 -0.09197375 -0.029719608
0.0060868086 -0.11276472 0.010961719 -0.023307383 0.084815145 0.11315429 0.056005843 -0.04719663
-0.057744265 0.031910364 -0.13218457 0.017921997 -0.028774856 0.010986102 -0.009471212 -0.011506314
0.098808475 0.12432086 -0.009373284 0.043175094 -0.038908966 -0.030550478 -0.20638308 -0.0805413
00000000: 685c 98bd 0677 41bd 4249 f0bd f42f 4ebd
00000010: 11c0 febc 79c9 5a3c d840 e73d f3ee 55bd
00000020: 06e2 903b 6138 2b3d 56d5 73bd d52e 8dbc
00000030: 6932 103d d634 83bd ab55 e93c faaa 0f3e
00000040: d244 553d 85f3 253d 51ee 80bd 2e53 9e3d
00000050: 393f 0e3e 0f18 f33d 6ac8 8b3d f56d 5e3d
00000060: 5553 b23d 6d74 14bd 2e27 bfbd 6ac8 06be
00000070: f9cf 25bc 16e9 54bc 9527 6e3d 4877 133d
00000080: 1e9b 03bc f6b6 88bd b9fa 4a3d f53c dd3b
00000090: 94d8 74bb 7a80 f3bc fbfb 463d d636 173c
000000a0: 7986 343d e81e 473d 0e81 e43c e681 01bd
000000b0: ffac e5bd 8519 1fbd 6b39 fa3a 0581 e23d
000000c0: 25a1 49bd 05b5 e9bb f6a3 e7bc 515c ccbd
000000d0: b5cf a4bd 0acc b0bd f573 11bd fc14 4dbd
000000e0: 819d 8cbd 3c93 61bd c0d9 80bd 4c92 71ba
000000f0: 89b8 cabd 51b4 0a3d 0945 d23a e6d8 96bd
00000100: e96c efbc 079d ffbd f281 b5bc 290a 033e
00000110: 6130 1a3d 24f7 75bd 4d46 36be 5d4b 2ebd
00000120: df8f c3bd eff3 933c 5094 f7bd 578c b3bb
00000130: 32a2 cabd 8999 8ab9 a403 65bd d76e b03c
00000140: e099 4c3c 0546 cabd eeb8 563d d37a 3abd
00000150: b745 9cbd 5c58 e9bb 1f25 c33d 02f8 2abe
00000160: eb46 8cbd 95fc a93c 96c5 ad3c 1307 e0bd
00000170: 2108 4bbd 069f 2bbd 155c fbba 3329 9fba
00000180: f3a6 adba e8e3 c83c 7852 dc3c 8661 01bc
00000190: c612 86bd feb0 483d aaab 82bc 352e 58bd
000001a0: 1e5b 01bd 2cae 91bd 0e8b dfb8 b7f2 afbd
000001b0: 6be6 f9bc 4ad4 21bd 5ed6 83bd d3b2 45bd
000001c0: c3ff 4d3d a9e0 1abd 536f 04be c431 03bd
000001d0: 8bda 14be e212 cdbd e9ea 863d e917 633d
000001e0: ba43 5a3d 882c de3d 399c 573d 5b3d 553d
000001f0: 7c5e 52bb 4c62 13bd 67ef 023c b457 423d
00000200: 3e24 923d 6035 91ba cc87 1d3d f03d aebd
00000210: 1456 883d 3c32 8f3d 60e4 823d b9ad babd
00000220: fc53 34bd 536f 583e eb6d f13d da14 f73d
00000230: fb8a dd3d 7cf6 b23d 3c81 8dbd 4577 02be
00000240: 2d03 813c 90cf 6cbc b475 253b 1936 02bc
00000250: a140 613d 267d 6cbb 4d1b d93c 4fff 8dbd
00000260: 983f 01be dd28 27bb 544a 87bc 0b91 f83b
00000270: 2491 303e c5db 9e3d 912d f13d 4ca4 563d
00000280: 9e4c 213d 294f 04bd 221f 16bd 8e3c 203b
00000290: df5c 29bd 3ed0 dabc afd2 debc 9cdc 74bc
000002a0: 694d 84bd cc59 28bc 47b1 403d 6e86 4bbd
000002b0: 374b cbbd e1d0 aebd a6a0 523d 78c7 73bd
000002c0: 8c30 0f3e 8bbb 403e 7fcc 3f3b 57b2 f03c
000002d0: 14e9 a0bd 7713 0abe 86ab 7cbe 10e8 90bc
000002e0: 49b5 053d 99fe 973c 470a 803d 5923 11bd
000002f0: 9bb7 a83d eeba 0cbd 5e40 d5bc ef89 a83d
00000300: e82f 263e 7b26 d23c d4e7 94bd 1228 c4bd
00000310: 35ac 0abe 8fdd 77bd 9e16 f5bd 8ca0 2cbd
00000320: 50d4 1dbc 32a6 0d3d 70e5 dc3d 0bd6 0c3e
00000330: 021f bbbc 70cd d5bd 4168 c3bd 3c60 81bd
00000340: 6947 30be 239c 18be bcf5 1dbe 5eec 52bb
00000350: df99 66bd 6b2a 60bd dffe 583d fb84 ac3c
00000360: 05db b3bc ec78 2f3d 175d b4bc e5d4 bebc
00000370: b09f cdbd 2410 3e3d f862 01bd fba4 8dbc
00000380: da78 86bb 1b3f a03c 71ab e4bb 7e01 153e
00000390: a255 213e 395f 8a3c bc5c bcbd 8976 f3bc
000003a0: da73 c73b 31f1 e6bd c898 333c 20ef bebc
000003b0: 90b3 ad3d 70bd e73d 6266 653d 4151 41bd
000003c0: 4085 6cbd 71b4 023d 645b 07be 27d1 923c
000003d0: 3fb9 ebbc 0dff 333c 242d 1bbc fb84 3cbc
000003e0: 195c ca3d ef9b fe3d 6792 19bc 5ed8 303d
000003f0: 025f 1fbd ff44 fabc 1656 53be d6f2 a4bd

conv3.op.weight f4 [56, 60, 3, 3]
-0.03978199 -0.045741227 0.087594025 -0.06121026 0.11201437 0.14557283 0.06928769 0.1279327
0.042976517 -0.062723316 0.013214775 -0.027774159 0.004585063 0.12247381 0.07354802 0.009706471
0.023525642 0.14039932 -0.014909127 0.025223423 -0.057239372 0.050824497 0.032943357 0.03653373
-0.050782707 0.0072513674 -0.023961145 -0.09284393 -0.093743645 -0.10297401 -0.009216418 -0.0027384807
-0.010768782 0.13403317 0.20228513 0.06329374 0.105256155 0.11851997 0.06329324 0.11945587
0.09942084 0.0376778 0.050965317 0.02671075 -0.1881703 -0.0654777 0.004524151 0.038545705
-0.18063062 -0.11626716 -0.06351159 -0.18586536 -0.08656566 -0.027464954 -0.041178565 -0.108743116
-0.049054552 0.061161667 0.08278569 0.054059945 0.03231537 0.092137456 0.04666781 -0.028944489
-0.11529287 0.037065834 0.004850013 0.110902764 0.009601046 -0.011884307 0.08922306 -0.012299222
0.040845137 -0.08227743 -0.05838629 -0.10173016 -0.04103381 -0.026910672 0.049876526 0.027877867
0.022246003 -0.051242113 -0.045044255 0.0104312245 -0.16964023 -0.12168124 -0.011941731 -0.013250615
-0.0012828606 -0.02862806 -0.11883432 -0.074172616 -0.026774993 -0.029085793 0.122431085 -0.013627897
0.019559396 -0.05385743 -0.072813995 0.047932953 0.0004113707 -0.077121004 0.044779543 0.14228949
-0.057860028 0.028830955 -0.0030868603 -0.011838699 -0.06764025 0.02693407 0.072947785 -0.013614904
0.113919824 -0.028567163 0.13561296 0.020405978 -0.15491508 -0.0395477 0.0009916847 -0.057929352
-0.058954358 -0.13524689 -0.07703774 -0.010686043 -0.07648904 0.017221844 -0.035290204 -0.11994097
-0.15298958 -0.062700614 -0.15597755 -0.07575377 -0.036125556 -0.06875613 -0.054819364 0.009607386
-0.14912805 -0.06029194 0.035909798 -0.035829514 -0.040180925 0.019786526 -0.006977518 -0.11938485
-0.0643606 -0.112201996 0.0027672984 -0.033728287 -0.031502355 0.019178787 0.035942778 -0.0815885
-0.031423543 -0.043369878 -0.198243 -0.11630255 -0.009489644 -0.10876558 0.04924851 0.09764526
0.07615783 0.01872518 -0.06914636 -0.15011498 -0.0518313 0.039557952 0.08318318 0.09994029
0.060019568 0.075733095 -0.0059569217 0.050624527 0.031914376 0.074976265 0.107378 0.013321435
0.05404198 -0.043337923 0.07872516 -0.0063391402 0.078570455 0.06701335 -0.11555448 0.008135021
-0.095277786 -0.16073748 0.008451909 -0.16273244 -0.1753746 0.09324024 0.0024057482 -0.017915195
0.031570535 0.0121413125 0.012155883 0.038397394 0.006525306 -0.02245861 -0.039055 -0.07909711
-0.054573935 -0.025650285 -0.052243516 0.010281663 0.07729141 0.05082809 0.07309542 0.0029380491
-0.09523807 0.015870182 -0.043738846 -0.037773423 -0.036495928 -0.018669818 0.042670712 -0.06342117
-0.0416635 -0.06775085 -0.08527041 -0.06915194 -0.20817317 -0.20287746 -0.07680851 -0.20276278
-0.18040529 -0.01006376 -0.1269221 -0.0532027 0.11025976 0.057088964 0.08856239 0.05546982
0.07646887 -0.006723662 0.02387477 0.06344374 0.017150842 0.049710933 -0.07540284 -0.07846784
0.015801337 -0.01640393 -0.07955925 -0.04212613 -0.12839942 -0.10795635 -0.07708506 0.044773325
0.058318935 -0.019062096 0.13954934 0.09454624 0.06639501 -0.046839856 -0.10891012 0.063892476
00000000: 71f2 22bd 275b 3bbd 7f64 b33d 9cb7 7abd
00000010: ca67 e53d 0b11 153e b4e6 8d3d ca00 033e
00000020: 2508 303d 1575 80bd c982 583c a286 e3bc
00000030: 4c3e 963b 8dd3 fa3d 58a0 963d e407 1f3c
00000040: d9b8 c03c d7c4 0f3e 6945 74bc 5aa1 ce3c
00000050: d573 6abd 592d 503d 9def 063d 64a4 153d
00000060: 8701 50bd e19c ed3b 2a4a c4bc f524 bebd
00000070: abfc bfbd 0ae4 d2bd 7500 17bc 1578 33bb
00000080: 8c6f 30bc fe3f 093e d523 4f3e 26a0 813d
00000090: 8a90 d73d 99ba f23d e39f 813d 47a5 f43d
000000a0: 279d cb3d 0954 1a3d 02c1 503d 81d0 da3c
000000b0: b7af 40be 2c19 86bd 543f 943b 1ae2 1d3d
000000c0: 3cf7 38be 7a1d eebd 5d12 82bd 7d53 3ebe
000000d0: 5649 b1bd 2ffe e0bc dbaa 28bd b6b4 debd
000000e0: 6ded 48bd a884 7a3d 8b8b a93d f66d 5d3d
000000f0: 1f5d 043d 90b2 bc3d bf26 3f3d fe1c edbc
00000100: ab1e ecbd 58d2 173d dcec 9e3b fd20 e33d
00000110: b54d 1d3c 65b6 42bc 94ba b63d ad82 49bc
00000120: 3b4d 273d 1281 a8bd 7626 6fbd e757 d0bd
00000130: 1113 28bd c573 dcbc 544b 4c3d 2060 e43c
00000140: 403d b63c 40e3 51bd 5380 38bd bae7 2a3c
00000150: 2bb6 2dbe 0434 f9bd 40a7 43bc 1c19 59bc
00000160: a925 a8ba 6585 eabc 685f f3bd d0e7 97bd
00000170: 3b57 dbbc 5445 eebc 26bd fa3d 8b47 5fbc
00000180: 073b a03c 9c99 5cbd 811f 95bd 5855 443d
00000190: 3ead d739 9ef1 9dbd c16a 373d 56b4 113e
000001a0: a3fe 6cbd e52e ec3c ec4c 4abb 1af7 41bc
000001b0: f986 8abd d7a4 dc3c a665 953d 0c11 5fbc
000001c0: cc4e e93d af05 eabc 20de 0a3e 702a a73c
000001d0: 0fa2 1ebe c5fc 21bd 6bfb 813a 5447 6dbd
000001e0: 207a 71bd 297e 0abe f6c5 9dbd 8314 2fbc
000001f0: 49a6 9cbd d314 8d3c 768c 10bd 9ca3 f5bd
00000200: 4da9 1cbe 2e69 80bd 94b8 1fbe cb24 9bbd
00000210: 64f8 13bd 04d0 8cbd 458a 60bd 4c68 1d3c
00000220: 06b5 18be aef4 76bd 2716 133d f8c1 12bd
00000230: c194 24bd 5a17 a23c aaa3 e4bb 0b80 f4bd
00000240: 7ecf 83bd 29ca e5bd 905b 353b ac26 0abd
00000250: 9d08 01bd d51c 9d3c bc38 133d df17 a7bd
00000260: f9b5 00bd 9da4 31bd 3700 4bbe 0830 eebd
00000270: 747a 1bbc 7dc0 debd ceb8 493d 3dfa c73d
00000280: a3f8 9b3d 8c65 993c 9b9c 8dbd beb7 19be
00000290: 0f4d 54bd 8507 223d f15b aa3d 7fad cc3d
000002a0: 14d7 753d f419 9b3d 4832 c3bb aa5b 4f3d
000002b0: a6b8 023d 288d 993d ffe8 db3d 2642 5a3c
000002c0: 205b 5d3d 1b83 31bd a83a a13d 90b8 cfbb
000002d0: 8ce9 a03d 4c3e 893d d4a7 ecbd c048 053c
000002e0: 0021 c3bd 5e98 24be e079 0a3c 55a3 26be
000002f0: 6695 33be bdf4 be3d c2a9 1d3b e3c2 92bc
00000300: 1b50 013d 5bec 463c 7829 473c 9646 1d3d
00000310: 3cd2 d53b 1efb b7bc 23f8 1fbd aafd a1bd
00000320: eb88 5fbd 8c20 d2bc 4cfd 55bd 6c74 283c
00000330: f54a 9e3d 1e31 503d 0db3 953d 498c 403b
00000340: 2d0c c3bd 2f02 823c 8127 33bd 4eb8 1abd
00000350: c17c 15bd 72f1 98bc 7cc7 2e3d f5e2 81bd
00000360: 59a7 2abd f5c0 8abd 41a2 aebd 889f 8dbd
00000370: 592b 55be 1cbf 4fbe c84d 9dbd 0ca1 4fbe
00000380: 2abc 38be 78e2 24bc def7 01be 13eb 59bd
00000390: decf e13d 1ed6 693d 3360 b53d 5234 633d
000003a0: b69b 9c3d 2a52 dcbb 0695 c33c cbee 813d
000003b0: ec7f 8c3c b19d 4b3d ce6c 9abd bfb3 a0bd
000003c0: ce71 813c 8961 86bc f6ef a2bd 738c 2cbd
000003d0: 237b 03be 3818 ddbd c6de 9dbd 3c64 373d
000003e0: d6df 6e3d 1d28 9cbc 06e6 0e3e 76a1 c13d
000003f0: 1bfa 873d 26db 3fbd 450c dfbd 0fda 823d

conv4.op.weight f4 [12, 56, 3, 3]
0.104721084 0.030225137 0.020855865 -0.16017811 -0.26936498 -0.116950355 -0.071305215 -0.28696036
-0.22100809 -0.22287536 0.12979701 0.061321117 0.19805406 0.33389398 0.2615891 0.21786843
0.039575953 -0.18553118 -0.29973614 -0.19444157 -0.15852487 0.1508079 0.22187233 -0.076923065
-0.18703404 0.10476651 0.052832022 0.06754703 0.030506145 0.016958132 -0.04371613 -0.028520925
0.13260388 -0.05524794 -0.04562191 -0.03015685 0.3131191 0.102035396 0.05118359 0.2245775
0.15435721 -0.22466739 0.21432173 0.13644318 0.12730986 0.0056675994 0.12355496 0.12521994
0.2934916 0.34169114 -0.029808579 -0.033461567 -0.30496848 -0.25259995 -0.020296378 -0.37922126
-0.3834805 -0.028152058 0.00032202154 0.19825742 0.09265612 0.13388309 0.43401012 -0.0040917126
0.10666307 0.24414873 -0.024882324 0.043661162 0.24287975 0.11798674 0.16996641 -0.17646268
0.11620691 0.010993279 0.04086372 -0.00029246195 -0.054943733 -0.23047641 -0.018014375 -0.38977364
-0.3415235 0.03257232 0.15055163 0.14786778 0.15142716 0.3680817 0.11118478 0.16575643
0.14849594 0.25145084 0.07427713 -0.21806781 -0.080091186 0.08807459 -0.051761936 0.0025286009
0.102703854 0.15269622 0.2430332 0.059729364 0.20375888 -0.008814921 0.28543255 0.22379982
0.0738232 0.13169172 -0.023352815 -0.023112228 -0.17498855 -0.1093801 -0.07096519 -0.16372879
-0.058556303 0.06633469 -0.11388373 0.25552526 0.34116486 -0.029154066 -0.04317432 -0.13525423
0.2448177 0.26073718 0.12743431 0.33465654 0.11681011 0.03621189 -0.04653383 0.079885595
0.051538944 -0.05213373 0.06337256 -0.038501643 -0.14118172 0.09995799 0.067230456 -0.02981998
0.19995669 0.05866408 0.073665805 0.09330998 0.14752765 -0.032542724 -0.21730462 -0.16964889
0.010256264 -0.11533409 -0.07802685 -0.046486378 -0.22960436 0.06462467 -0.0766231 0.10138506
0.014711164 -0.09855463 -0.14643526 -0.073721364 -0.033458915 -0.1823576 -0.18015325 0.04050464
-0.052108146 -0.11380514 0.04763328 0.20212363 0.18884036 0.25341323 0.18961838 0.2442907
0.044187304 0.11104189 -0.1990083 -0.38768327 -0.07695325 -0.27701488 -0.25468346 -0.20458761
0.06420599 0.030683639 0.12076756 0.23629081 0.16680753 0.014941458 0.07329608 0.06299087
0.018766273 0.14507605 -0.021426318 -0.049113426 0.12731694 -0.026016 0.14491633 0.17595059
0.37791595 0.114374965 0.350115 0.10595687 0.014649494 -0.044321146 -0.011645831 0.24526443
0.21679595 -0.0121814525 0.00696716 0.003531786 0.14304478 0.17594649 -0.007158855 -0.24782172
-0.5034117 -0.038631752 0.041057598 0.14453186 0.0447338 -0.13970917 -0.23977388 0.049901415
-0.1413689 -0.03603977 0.030786071 0.021160245 0.008220538 0.12589252 0.199362 0.048888594
-0.15698242 -0.22964835 -0.13547878 -0.04505913 0.12354588 0.10816949 0.16279255 0.10090937
0.20012823 0.059271127 -0.3659006 -0.14800805 -0.00076940504 -0.009101264 -0.12220005 0.04508795
-0.010995461 -0.06907722 -0.077406906 0.14436983 -0.31141126 -0.27789956 -0.19155419 -0.19889164
-0.080975376 -0.33001488 -0.2636231 -0.0752372 -0.08159585 0.257267 0.10464258 0.3494645
00000000: 0278 d63d b59a f73c ebd9 aa3c bb05 24be
00000010: 35ea 89be ab83 efbd 7808 92bd 78ec 92be
00000020: f24f 62be 7039 64be 82e9 043e da2b 7b3d
00000030: afce 4a3e 27f4 aa3e 02ef 853e e718 5f3e
00000040: 651a 223d e3fb 3dbe 0477 99be b11b 47be
00000050: 5854 22be 636d 1a3e 8032 633e d789 9dbd
00000060: da85 3fbe d38f d63d 6466 583d 1956 8a3d
00000070: 06e8 f93c c8eb 8a3c af0f 33bd b7a4 e9bc
00000080: 50c9 073e aa4b 62bd 0ade 3abd 800b f7bc
00000090: 2651 a03e eff7 d03d e2a5 513d a5f7 653e
000000a0: d10f 1e3e 350f 66be 2877 5b3e c3b7 0b3e
000000b0: 845d 023e 45b7 b93b 620a fd3d a839 003e
000000c0: 8844 963e 24f2 ae3e 1f31 f4bc ff0e 09bd
000000d0: d424 9cbe c854 81be 9744 a6bc 4a29 c2be
000000e0: 8e57 c4be 259f e6bc 00d5 a839 fe03 4b3e
000000f0: 7ec2 bd3d a618 093e 9336 de3e c613 86bb
00000100: 2b72 da3d 2002 7a3e 04d6 cbbc 0cd6 323d
00000110: 78b5 783e 08a3 f13d ad0b 2e3e a2b2 34be
00000120: e3fd ed3d 271d 343c b760 273d 9455 99b9
00000130: ae0c 61bd 0202 6cbe e292 93bc 6990 c7be
00000140: 2bdc aebe 8e6a 053d 352a 1a3e a76a 173e
00000150: b90f 1b3e 3475 bc3e d9b4 e33d 0ebc 293e
00000160: 520f 183e 2abe 803e 9c1e 983d 2b4d 5fbe
00000170: d906 a4bd 7360 b43d 5304 54bd e2b6 253b
00000180: 6656 d23d 665c 1c3e b2dd 783e c7a6 743d
00000190: 2ba6 503e 756c 10bc 3724 923e c82b 653e
000001a0: 9e30 973d 32da 063e 674e bfbc db55 bdbc
000001b0: 3330 33be ad02 e0bd 3356 91bd 85a8 27be
000001c0: bcd8 6fbd 7bda 873d df3b e9bd 35d4 823e
000001d0: 29ad ae3e 82d4 eebc 8ed7 30bd 1680 0abe
000001e0: 7eb1 7a3e 587f 853e 247e 023e 1a58 ab3e
000001f0: 243a ef3d eb52 143d 429a 3ebd 0f9b a33d
00000200: 801a 533d 2e8a 55bd 79c9 813d e6b3 1dbd
00000210: f191 10be c6b6 cc3d 1fb0 893d 0849 f4bc
00000220: 72c1 4c3e bf49 703d 19de 963d 4e19 bf3d
00000230: 7d11 173e 854b 05bd 1a85 5ebe 70b8 2dbe
00000240: e409 283c 4834 ecbd 8bcc 9fbd 8068 3ebd
00000250: 681d 6bbe f059 843d 92ec 9cbd f8a2 cf3d
00000260: 1807 713c 03d7 c9bd 20f3 15be 3afb 96bd
00000270: 370c 09bd f3bb 3abe 187a 38be 32e8 253d
00000280: 5a6f 55bd ab12 e9bd 1d1b 433d 7ff9 4e3e
00000290: 5e5f 413e 61bf 813e 522b 423e 5727 7a3e
000002a0: bffd 343d ee69 e33d d5c8 4bbe 6c7e c6be
000002b0: aa99 9dbd e5d4 8dbe df65 82be 6a7f 51be
000002c0: 6e7e 833d 415c fb3c fc54 f73d 38f6 713e
000002d0: 98cf 2a3e 04cd 743c 411c 963d 5b01 813d
000002e0: babb 993c d18e 143e 3f86 afbc 292b 49bd
000002f0: 5f5f 023e 821f d5bc f264 143e 642c 343e
00000300: 337e c13e 6c3d ea3d 4642 b33e eaff d83d
00000310: 6e04 703c 178a 35bd 28ce 3ebc 9926 7b3e
00000320: c2ff 5d3e b794 47bc c64c e43b 8975 673b
00000330: 557a 123e 512b 343e d494 eabb fac4 7dbe
00000340: 97df 00bf 543c 1ebd 032c 283d 2900 143e
00000350: ca3a 373d ec0f 0fbe 4987 75be 6d65 4c3d
00000360: 02c3 10be 709e 13bd 1233 fc3c 4058 ad3c
00000370: 6faf 063c f8e9 003e 8d25 4c3e 683f 483d
00000380: 00c0 20be f028 6bbe f3ba 0abe ec8f 38bd
00000390: 9f05 fd3d f787 dd3d 17b3 263e 92a9 ce3d
000003a0: 6aee 4c3e 48c6 723d 5357 bbbe 6c8f 17be
000003b0: e6b1 49ba 781d 15bc 0544 fabd 24ae 383d
000003c0: 4e26 34bc 5c78 8dbd 8387 9ebd afd5 133e
000003d0: 4c71 9fbe da48 8ebe c826 44be 40aa 4bbe
000003e0: 6bd6 a5bd b6f7 a8be 9bf9 86be f615 9abd
000003f0: ba1b a7bd 80b8 833e d94e d63d 03ed b23e

fc.op.weight f4 [10, 192]
-0.27237996 0.30699688 0.58063114 0.06322908 -0.61305434 -0.3678581 0.002421926 -0.50094265
-0.9517355 -0.65660244 -0.13683149 -0.2659911 -0.30740654 0.6615935 0.3928928 -0.120091945
0.16588183 -0.13280134 -0.21294838 0.19262083 0.2087728 -0.15739378 -0.16018362 0.31699345
-0.21375017 -0.60601705 -0.22598179 -0.57852674 -0.11478673 -0.16064045 0.32044154 -0.4543147
-0.4080917 -0.3226558 0.56481034 0.565827 -0.4295567 -0.3739523 0.24263272 0.71322507
-0.07903697 0.122763164 0.80664057 1.1940116 0.054235183 0.22194417 0.49646255 0.2472232
0.3363143 -0.31114724 -0.63214487 -0.58877903 0.5285478 -0.3018013 -0.5227976 -0.18331477
-0.04476191 -0.690183 -0.6686188 -0.1950519 -0.1464567 -0.3468185 -0.37664393 -0.038798615
0.31099948 -0.102083124 -0.62020636 -0.25923306 0.14267603 0.05815677 -0.9616963 -0.620156
0.38956138 0.4832918 -0.4653829 -0.35496426 0.14592652 0.18144299 -0.11570045 0.033846587
-0.07103885 0.26453802 0.45933685 0.67927915 -0.5572723 0.79838985 0.8404694 -0.1636719
0.29421163 1.4776343 1.3948228 -0.14007388 0.71948683 1.2887975 0.8225328 0.24352737
-0.086394705 0.024283618 0.06830758 0.010880687 0.06985207 -0.11478575 -0.013242598 -0.75187474
-0.16789992 -0.53247374 -0.40132916 -0.9285606 0.08340728 -0.37531972 -0.3847666 -0.28289306
0.14384764 0.48279148 0.9034858 0.7562882 -0.2777177 -0.18379717 0.299416 0.44133815
-1.0694069 -1.1719564 0.2155852 0.15531291 -0.5764768 -0.631137 -0.07031066 0.07556959
0.54107475 -0.4739281 -1.0618957 -0.23319624 0.46987608 0.053369768 -0.2931482 -0.25650808
-0.044835202 -0.21252683 0.40068713 0.344834 -0.16856472 -0.40811044 -0.2929706 0.25237596
0.13550243 0.5043762 0.21199352 0.1856904 -0.16694741 0.3672299 -0.25426316 -0.122087166
0.04520917 0.55715996 0.03097416 0.41959757 -0.29218853 -0.868193 0.7237082 1.6504592
0.18889233 0.27791938 0.10893265 -0.14835466 -0.33488664 -0.5362479 -0.16084284 -0.107079774
-0.382616 -0.41570705 0.09769602 0.4593358 -0.05669517 -0.17087442 0.21531266 -0.009201022
-0.045360733 -0.20032051 0.15629788 0.13360585 0.22309078 -0.18509929 -0.057764683 -0.054222323
0.42138636 -0.11153615 -0.5926956 -0.6212722 0.039102662 -0.13100877 -0.5223969 -0.30351898
-0.195308 -0.4895599 -0.55936307 -0.4454702 -0.20620456 -0.18955693 -0.46234864 -0.202431
0.08799958 -0.09416838 -0.19140151 0.37276915 0.2657076 0.066014886 0.4458474 0.5975464
0.39412752 0.5545177 0.09308256 0.065644376 0.5990694 0.93104273 0.26794538 -0.06204655
0.73830014 0.71279866 -0.20059243 -0.09859526 0.16102602 0.12541737 -0.12578535 -0.045293126
-0.065679766 0.07309468 -0.13120706 -0.07659608 0.226599 0.20254806 -0.03854325 -0.011718565
0.3499775 0.23799215 0.14208166 0.04877291 0.15206182 0.10688425 -0.11567943 0.062241655
0.3206558 0.05699798 -0.121142425 -0.20660192 0.06033885 -0.19683759 -0.3272192 -0.39779583
-0.11695628 -0.35025638 -0.47582838 -0.5508325 -0.115439676 -0.28555778 -0.28038996 -0.3199429
00000000: 6375 8bbe b22e 9d3e 3ea4 143f 3f7e 813d
00000010: 21f1 1cbf e657 bcbe 2db9 1e3b c73d 00bf
00000020: f0a4 73bf 1917 28bf 8e1d 0cbe fc2f 88be
00000030: 6464 9dbe 315e 293f 3f29 c93e c4f2 f5bd
00000040: eddc 293e 13fd 07be 240f 5abe 653e 453e
00000050: 89c8 553e d62b 21be 2d07 24be f74c a23e
00000060: 53e1 5abe ef23 1bbf c567 67be 541a 14bf
00000070: 4e15 ebbd ee7e 24be ea10 a43e f09b e8be
00000080: 65f1 d0be 2433 a5be 6997 103f 0ada 103f
00000090: dbee dbbe ad76 bfbe b674 783e eb95 363f
000000a0: 23de a1bd 416b fb3d ff7f 4e3f 5fd5 983f
000000b0: b625 5e3d 5545 633e 5730 fe3e 1428 7d3e
000000c0: 6331 ac3e b14e 9fbe 3fd4 21bf 39ba 16bf
000000d0: e94e 073f b385 9abe 10d6 05bf deb6 3bbe
000000e0: 4458 37bd d5af 30bf 9a2a 2bbf afbb 47be
000000f0: bff8 15be 3292 b1be 79d7 c0be 4ceb 1ebd
00000100: 533b 9f3e f510 d1bd d8c5 1ebf 32ba 84be
00000110: aa19 123e cb35 6e3d bb31 76bf 8bc2 1ebf
00000120: 9774 c73e 0672 f73e ab46 eebe e0bd b5be
00000130: c36d 153e 31cc 393e 5cf4 ecbd b8a2 0a3d
00000140: d17c 91bd 8771 873e 332e eb3e 3de5 2d3f
00000150: 66a9 0ebf 4763 4c3f 0129 573f 9b99 27be
00000160: e8a2 963e 1f23 bd3f 8e89 b23f 876f 0fbe
00000170: 4a30 383f 51f7 a43f 8291 523f 3d5f 793e
00000180: b5ef b0bd 70ee c63c d8e4 8b3d e944 323c
00000190: 9a0e 8f3d cb14 ebbd 7bf7 58bc dd7a 40bf
000001a0: f5ed 2bbe 3350 08bf 047b cdbe 26b6 6dbf
000001b0: 70d1 aa3d e829 c0be 2100 c5be 5cd7 90be
000001c0: cc4c 133e 7230 f73e d84a 673f 1a9c 413f
000001d0: 0431 8ebe 5335 3cbe 0e4d 993e 13f7 e13e
000001e0: 53e2 88bf ab02 96bf 5ec2 5c3e 590a 1f3e
000001f0: fc93 13bf 3292 21bf 09ff 8fbd 3bc4 9a3d
00000200: e083 0a3f b4a6 f2be 33ec 87bf ffca 6ebe
00000210: 9993 f03e 429a 5a3d 8517 96be 0755 83be
00000220: 1ea5 37bd a2a0 59be dd26 cd3e 158e b03e
00000230: 3b9c 2cbe daf3 d0be 3e00 96be 6c37 813e
00000240: 26c1 0a3e cc1e 013f d414 593e a025 3e3e
00000250: 43f4 2abe 8f05 bc3e c82e 82be d608 fabd
00000260: 402d 393d 09a2 0e3f 86bd fd3c 7ed5 d63e
00000270: bc99 95be e541 5ebf f144 393f 3f42 d33f
00000280: fe6c 413e 734b 8e3e 1518 df3d 49ea 17be
00000290: 4376 abbe 8b47 09bf fcb3 24be a44c dbbd
000002a0: 3fe6 c3be 8ed7 d4be da14 c83d 102e eb3e
000002b0: 3239 68bd b4f9 2ebe ec7a 5c3e e2bf 16bc
000002c0: 2dcc 39bd d220 4dbe 8d0c 203e f9cf 083e
000002d0: e971 643e ab8a 3dbe a99a 6cbd 3a18 5ebd
000002e0: f4bf d73e 116d e4bd e6ba 17bf b20b 1fbf
000002f0: 1d2a 203d 2a27 06be cebb 05bf d766 9bbe
00000300: d2fe 47be 98a7 fabe 6b32 0fbf ac14 e4be
00000310: 4a27 53be 361b 42be f6b8 ecbe 124a 4fbe
00000320: 2039 b43d 5adb c0bd c2fe 43be 99db be3e
00000330: d40a 883e d032 873d 1c46 e43e cdf8 183f
00000340: 15cb c93e dff4 0d3f 12a2 be3d 8f70 863d
00000350: 9d5c 193f d158 6e3f 2330 893e 8624 7ebd
00000360: 3d01 3d3f f979 363f 1a68 4dbe 50ec c9bd
00000370: 01e4 243e 696d 003e e0cd 00be 4985 39bd
00000380: 1d83 86bd aab2 953d 255b 06be 68de 9cbd
00000390: 9109 683e c268 4f3e 87df 1dbd 39ff 3fbc
000003a0: 4030 b33e 37b4 733e db7d 113e 1ac6 473d
000003b0: 18b6 1b3e 21e6 da3d 56e9 ecbd 1bf1 7e3d
000003c0: ff2c a43e b776 693d 8519 f8bd 748f 53be
000003d0: df25 773d cb8f 49be 4689 a7be e5ab cbbe
000003e0: c686 efbd ce54 b3be c79f f3be 5c03 0dbf
000003f0: a36b ecbd a134 92be 468f 8fbe 8ecf a3be

fc.op.bias f4 [10]
0.20562074 0.23453978 -0.19985427 -0.45151928 0.20128769 -0.09515971 -0.20761515 -0.036327694
0.11461557 0.2144796
00000000: 3e8e 523e 322b 703e 99a6 4cbe 892d e7be
00000010: 5c1e 4e3e 18e3 c2bd 1199 54be 59cc 14bd
00000020: 91bb ea3d 8aa0 5b3e

momentum_buffer f4 [60, 1, 3, 3]
0.015694836 -0.002326839 -0.0073630223 -0.0007310547 0.00013986882 -0.007108123 -0.015498302 -0.010544715
-0.011115577 -0.0038681002 -0.0072652 -0.00013812387 -0.0034648739 0.00092618767 0.008896772 -0.010352101
-0.0009299498 -9.2450064e-05 0.0038976658 0.007793789 0.024642836 0.0028817512 0.025153987 0.03935561
0.01389687 0.012373642 0.026365481 0.026553612 0.015194032 -0.010254278 0.031389132 0.010876939
-0.007902047 0.03125767 0.011314866 -0.0035204254 0.004064042 -0.008016028 -0.008454332 0.0083433725
-0.017499313 -0.012405338 0.006363587 -0.02260056 -0.024921712 -0.016884493 -0.009559132 -0.0078401845
-0.0139732035 -0.005514728 -0.0153731 -0.008551699 -0.010681102 -0.00877611 0.0024849987 0.001273198
0.005793004 -0.019464744 -0.0046817744 -0.0037767696 -0.009380645 -0.01071236 -0.002586171 -0.01905729
0.0015619015 0.026886126 -0.0034180847 -0.0130781485 -0.0048008086 -0.008454871 -0.012200652 -0.010179445
0.004745202 -0.0070279604 -0.0069688763 0.008818319 0.0010798152 -0.0039705103 0.0061633466 0.007627462
-0.0062286407 0.008267149 -0.025024924 -0.015760427 -0.0361743 -0.035150804 -0.006269328 0.0066041527
-0.004899529 -0.0008661775 -0.0058269 0.0021466427 -0.0010467959 0.0019613365 0.0026585418 0.00407662
0.0094468 0.0074569816 0.006461126 -0.022617541 -0.016272187 -0.011700202 -0.024797406 -0.01283403
-0.0094221 -0.010099749 -0.023996145 -0.026584972 0.0035008502 0.012129089 0.016324386 -0.00061701145
-0.018422788 0.012292114 0.0039645736 -0.016626611 -0.007867713 0.012870658 -0.0027296944 -0.0002859803
-0.00020786282 0.005353809 0.0038439045 -0.0059869457 -0.0042656455 -0.008995548 -0.0034644492 0.00624914
0.005421253 -0.007512746 -0.012945987 -0.0124361785 -0.0055993795 -0.005982394 -0.00826916 -0.016769104
-0.0122603215 -0.020962536 -0.008732867 -0.002902504 -0.0125335865 -0.015589824 -0.014537214 -0.01478415
-0.012837047 -0.009391459 0.0007167477 -0.0026870086 0.0012452411 -0.0068471394 -0.009511094 0.0008852221
-0.015402617 -0.0073493747 0.0031313803 0.019731198 -0.004719482 0.005372137 0.0076709148 -0.01473204
-0.0021484885 -0.006618698 0.00034223637 -0.0001516412 -0.0020190682 0.0068901875 -0.005106737 -0.0140763335
0.011306532 -0.0011212537 -0.011290186 0.025863266 0.02289317 0.051510368 -0.0074736075 0.015612589
0.038696665 -0.025264788 -0.014611203 0.00014572311 -0.018784292 -0.05848597 -0.06293337 -0.032386467
-0.06872782 -0.0546497 -0.043263905 -0.054508857 -0.04754009 0.018659577 0.017974416 0.009401724
0.010166476 0.02297626 0.032205258 0.023342408 0.022132553 0.033260413 -0.0036045338 0.02100161
0.03490914 0.0062281988 0.01039098 0.01589342 -0.009275591 -0.005856164 0.002614888 -0.014352328
0.0006636466 0.0030763568 0.0028375383 0.006913266 0.009158374 0.013834 0.023626385 0.023354262
-0.0065178648 -0.009021446 0.0010789209 0.018853761 0.013441754 0.0053989524 0.024063267 0.003912782
-0.0042080805 -0.021913514 -0.006575076 0.0040451773 -0.013220053 -0.0022085905 -0.004185755 -0.015405824
-0.0013325377 -0.011060793 0.017306257 0.013459537 0.009964717 0.009655725 0.018981902 0.028938133
0.019722017 0.012116279 0.026217867 -0.019156452 -0.010622548 -0.0052226763 -0.015455316 -0.009163844
-0.0036423476 -0.010759279 -0.011662137 -0.010231009 0.006550004 0.004763526 -0.0064868666 0.008226317
00000000: 7592 803c e17d 18bb 8245 f1bb 40a4 3fba
00000010: c0a9 1239 42eb e8bb 97ec 7dbc bec3 2cbc
00000020: 1c1e 36bc f47f 7dbb ea10 eebb 58d5 10b9
00000030: f012 63bb 67cb 723a c4c3 113c dc9b 29bc
00000040: e0c7 73ba c0e1 c1b8 fb6f 7f3b 0a63 ff3b
00000050: c6df c93c c3db 3c3b bc0f ce3c 5933 213d
00000060: b3af 633c d1ba 4a3c 6cfc d73c f686 d93c
00000070: 64f0 783c 8f01 28bc e491 003d 3035 323c
00000080: 9677 01bc 0b08 003d fd61 393c f0b6 66bb
00000090: a82b 853b a955 03bc 0a84 0abc a4b2 083c
000000a0: b85a 8fbc c23f 4bbc a385 d03b cf24 b9bc
000000b0: 9e28 ccbc 5951 8abc e89d 1cbc 1e74 00bc
000000c0: ddef 64bc e4b4 b4bb 74df 7bbc 6d1c 0cbc
000000d0: caff 2ebc acc9 0fbc 5cdb 223b 70e1 a63a
000000e0: 3dd3 bd3b 8774 9fbc 9269 99bb ae83 77bb
000000f0: 47b1 19bc e582 2fbc c07c 29bb 091e 9cbc
00000100: b8b8 cc3a 4b40 dc3c f201 60bb bb45 56bc
00000110: 1a50 9dbb 4d86 0abc 3ee5 47bc b0c7 26bc
00000120: a47d 9b3b ce4a e6bb 2c5b e4bb b67a 103c
00000130: 9688 8d3a 0e1b 82bb e6f5 c93b caef f93b
00000140: a019 ccbb f072 073c 1201 cdbc 031c 81bc
00000150: 812b 14bd 4afa 0fbd ef6e cdbb a667 d83b
00000160: 3a8c a0bb 3010 63ba 94ef bebb b0ae 0c3b
00000170: a434 89ba c489 003b ee3a 2e3b 2b95 853b
00000180: c0c6 1a3c b259 f43b dab7 d33b 6c48 b9bc
00000190: 404d 85bc 34b2 3fbc ee23 cbbc d345 52bc
000001a0: 275f 1abc 6b79 25bc 9093 c4bc bac8 d9bc
000001b0: 856e 653b 16b9 463c b8ba 853c f0be 21ba
000001c0: 63eb 96bc dd64 493c 41e9 813b 8834 88bc
000001d0: 95e7 00bc 74df 523c ace4 32bb a0ef 95b9
000001e0: c0f5 59b9 016f af3b 04ea 7b3b 242e c4bb
000001f0: d4c6 8bbb 1062 13bc d00b 63bb 96c5 cc3b
00000200: c4a4 b13b 7b2d f6bb 681b 54bc 1dc1 4bbc
00000210: 007b b7bb f507 c4bb 5f7b 07bc 5c5f 89bc
00000220: 84df 48bc a0b9 abbc 4d14 0fbc f037 3ebb
00000230: ac59 4dbc 766c 7fbc 7f2d 6ebc 3839 72bc
00000240: 7a52 52bc a2de 19bc 20e4 3b3a 8618 30bb
00000250: 5c37 a33a f85d e0bb 6bd4 1bbc 400e 683a
00000260: 425b 7cbc 06d3 f0bb d837 4d3b 52a3 a13c
00000270: e2a5 9abb c008 b03b 4c5c fb3b a85e 71bc
00000280: a8cd 0cbb aae1 d8bb 306e b339 e001 1fb9
00000290: 5852 04bb 15c7 e13b 6a56 a7bb 6ca0 66bc
000002a0: 083f 393c 08f7 92ba 79fa 38bc 33df d33c
000002b0: 758a bb3c 89fc 523d 2ae5 f4bb f2cb 7f3c
000002c0: 6580 1e3d 1af8 cebc d463 6fbc 40cd 1839
000002d0: 84e1 99bc fc8e 6fbd 36e3 80bd aca7 04bd
000002e0: 2cc1 8cbd 5dd8 5fbd 7e35 31bd ae44 5fbd
000002f0: 66b9 42bd f8db 983c 153f 933c b009 1a3c
00000300: 4a91 263c b638 bc3c a9e9 033d 9438 bf3c
00000310: 544f b53c 123c 083d 0b3a 6cbb 920b ac3c
00000320: e3fc 0e3d eb15 cc3b ee3e 2a3c eb32 823c
00000330: a6f8 17bc 10e5 bfbb 8a5e 2b3b 0726 6bbc
00000340: 92f8 2d3a b49c 493b fef5 393b ae88 e23b
00000350: 010d 163c 00a8 623c 1f8c c13c 7051 bf3c
00000360: d093 d5bb b0ce 13bc 946a 8d3a 3473 9a3c
00000370: cd3a 5c3c b2e9 b03b 5420 c53c cb36 803b
00000380: f0e3 89bb f883 b3bc bc73 d7bb 688d 843b
00000390: ec98 58bc 00be 10bb a828 89bb b668 7cbc
000003a0: 8ca8 aeba 5438 35bc dac5 8d3c 6485 5c3c
000003b0: 0d43 233c 0c33 1e3c ef7f 9b3c aa0f ed3c
000003c0: 1190 a13c 5c83 463c dac6 d63c feed 9cbc
000003d0: 320a 2ebc fc22 abbb 4b38 7dbc f323 16bc
000003e0: 74b4 6ebb b047 30bc 8c12 3fbc f69f 27bc
000003f0: 6aa1 d63b 5a17 9c3b c88f d4bb adc7 063c

momentum_buffer f4 [60, 60, 3, 3]
0.0008999616 0.00027850847 0.00057030295 -0.00019539954 0.0014228625 0.00029997763 0.00016778569 0.0007852367
-0.00044529015 0.0009563195 7.95755e-05 0.0005529777 0.00018977142 0.0004677624 0.0007550763 0.0011236633
0.0014498096 0.0005077111 9.5341165e-05 0.0011934105 0.00090699387 0.0007297316 0.0016147674 5.695212e-06
0.000494565 0.00045018183 -2.4739486e-05 -0.00019893568 0.0016196019 0.00079647 0.0011246556 0.0026515538
-0.00048817814 0.0010637693 0.00070939376 0.00073654106 0.00116483 -0.00016122995 -0.0007084084 0.00076735485
0.00021899598 -0.0013058999 0.0003287517 -0.00043326884 -0.0015649083 0.0020311188 0.0008297402 -0.00023274845
0.0015483254 -0.00012258685 0.0010645421 0.00019550123 0.0005322051 -0.0005999522 -0.00012790132 -0.000112712645
-0.0008719974 0.0014440902 1.677702e-05 0.0008648952 0.0010739665 -0.00050447084 6.475774e-05 0.00054539053
-0.000110079476 -0.00050928723 0.0008864614 0.0010322032 -0.0010013154 0.0010102572 -0.00058654835 -0.0005863527
-0.00029393914 0.00015229608 -0.00035468332 0.0007372415 0.00013042097 0.00045093405 0.0008644182 -8.063254e-05
0.00071518886 0.001795054 0.0040530358 0.0031278129 0.00278356 0.0020343226 0.0052738967 0.002829022
0.0029616123 0.0042384607 -0.00030597468 -0.00034957376 5.639159e-05 0.0010615322 0.00083788845 0.0007196752
0.0015885223 0.00047110172 0.00048337274 0.00082004064 0.0018814104 0.00046479562 0.0016199973 0.0012519346
0.00083979144 0.00014482398 -0.00019668238 -5.1983392e-05 0.00072097586 0.00041336176 -0.00018679547 0.00040158205
0.0008543427 -0.0011888391 -0.00011129526 -0.00078314985 -0.000813556 0.0006912664 0.00028109798 0.0007163697
0.0010404855 0.0011373252 0.00052382296 0.0003312493 0.0005311534 0.00019222821 -0.00011717847 -0.00024696608
6.753726e-05 0.0011743818 0.0009975161 0.00032607303 0.0024905624 0.0015732462 0.0007436672 0.00066504837
0.0026072452 0.0021202667 0.0008157946 0.0031425527 0.001663156 0.00019307743 0.0018885214 0.0010547088
0.0013888841 0.00021656728 -0.0010430155 0.0027061072 7.6291675e-05 -0.0005494251 0.00090897415 -0.00027881542
-0.0010632009 0.0005568557 0.0007315124 0.0017595992 0.0019408092 0.002266935 0.0005766603 0.001333302
0.0011020367 -0.000421966 0.0005719573 -0.00024379499 -0.00095797115 0.0010909312 -3.9300096e-05 -0.0011238338
-0.00013971323 -0.0009020165 -0.00057527114 0.00018169367 0.000100985744 0.0014202305 0.0019029093 0.0020551893
0.0018967997 0.0030079915 0.0022126564 0.0013997823 0.00160261 0.0013059165 0.0004965606 0.00019054892
0.003376463 0.0013559619 0.0011857795 0.00074760953 9.994759e-05 -0.0003808244 0.0022619497 0.0017300465
0.0005474822 0.0014060102 0.0001404431 0.0009372396 -0.00066500716 0.0006447885 0.0008171509 0.00031698422
-0.0005160299 0.000607086 0.0009805332 -0.0013521642 0.00073577475 -0.0004549034 -0.0010482796 -0.0006766645
-0.00054771645 -0.00051172706 0.0011647713 0.00072328723 0.0004404242 0.0019465031 0.0005072891 0.0006413269
0.0009119822 0.00068356434 0.0010759758 0.00052297657 0.0014674788 0.00034552658 -0.00051391963 0.0009597469
0.00026714362 0.0019739247 0.0013758885 0.00153787 0.0012527197 0.0016038242 0.0023828153 -0.00058081315
0.0011870579 -0.000112955735 -1.466379e-05 0.0019309107 0.001188817 0.0011743762 0.0011560398 -0.00027436292
0.00015482074 -0.0009352905 0.00015512548 8.937431e-05 0.00030728805 0.0016106971 0.0010902823 0.0014537097
0.00047911901 0.0014360552 0.0004533263 -0.00016750129 0.0016720146 0.00050911086 0.00081287255 -0.0003687609
00000000: 67eb 6b3a c604 9239 6280 153a 2ae4 4cb9
00000010: 587f ba3a 5146 9d39 a1ef 2f39 58d8 4d3a
00000020: d575 e9b9 84b1 7a3a c5e1 a638 b5f5 103a
00000030: 61fd 4639 023e f539 50f0 453a e247 933a
00000040: 8a07 be3a ea17 053a e6f1 c738 366c 9c3a
00000050: 54c3 6d3a 754b 3f3a 9aa6 d33a 8019 bf36
00000060: b2a5 013a 6206 ec39 a487 cfb7 6499 50b9
00000070: d248 d43a 32ca 503a 2e69 933a b1c5 2d3b
00000080: 29f2 ffb9 2d6e 8b3a 9cf6 393a 6f14 413a
00000090: 36ad 983a d60f 29b9 7cb4 39ba 5028 493a
000000a0: 49a2 6539 bb2a abba 4e5c ac39 5c28 e3b9
000000b0: 9c1d cdba 851c 053b ec82 593a f00d 74b9
000000c0: 2ef1 ca3a a88a 00b9 1b88 8b3a 76ff 4c39
000000d0: ae83 0b3a 1c46 1dba 401d 06b9 2460 ecb8
000000e0: c196 64ba a047 bd3a 60bc 8c37 22ba 623a
000000f0: 56c4 8c3a 773e 04ba 8cce 8738 8af8 0e3a
00000100: 78da e6b8 b081 05ba 6b61 683a fe4a 873a
00000110: 923e 83ba 9b6a 843a 98c2 19ba 77b5 19ba
00000120: d81b 9ab9 abb1 1f39 caf4 b9b9 7143 413a
00000130: 9dc1 0839 586b ec39 209a 623a 4419 a9b8
00000140: 837b 3b3a 0448 eb3a 54cf 843b fefb 4c3b
00000150: 636c 363b 4552 053b a7d0 ac3b 1d67 393b
00000160: 9c17 423b c9e2 8a3b 3a6b a0b9 ff46 b7b9
00000170: 0286 6c38 1c23 8b3a bea5 5b3a 96a8 3c3a
00000180: f735 d03a 34fe f639 316d fd39 fff7 563a
00000190: a899 f63a d0af f339 1756 d43a f417 a43a
000001a0: 7325 5c3a e4db 1739 863c 4eb9 be08 5ab8
000001b0: dfff 3c3a 7ab8 d839 87de 43b9 6e8b d239
000001c0: f8f5 5f3a d2d2 9bba 3067 e9b8 4c4c 4dba
000001d0: d244 55ba 1a36 353a 5560 9339 c2ca 3b3a
000001e0: e660 883a 4d12 953a 2a51 093a 87ab ad39
000001f0: 1a3d 0b3a de90 4939 b6bd f5b8 3a7b 81b9
00000200: caa2 8d38 b7ed 993a 16bf 823a c8f4 aa39
00000210: b438 233b 6235 ce3a a9f2 423a a456 2e3a
00000220: 51de 2a3b 2cf4 0a3b 0ddb 553a 49f3 4d3b
00000230: 41fe d93a d474 4a39 4388 f73a 283e 8a3a
00000240: 380b b63a 5616 6339 cbb5 88ba f258 313b
00000250: c8fe 9f38 4b07 10ba 3948 6e3a f92d 92b9
00000260: 1a5b 8bba f4f9 113a f7c2 3f3a 5aa2 e63a
00000270: c062 fe3a dc90 143b 052b 173a 31c2 ae3a
00000280: 3772 903a 513b ddb9 68ef 153a 38a3 7fb9
00000290: 5b20 7bba 94fd 8e3a 28d6 24b8 9b4d 93ba
000002a0: fc7f 12b9 4d75 6cba cbcd 16ba 0685 3e39
000002b0: 4fc8 d338 0727 ba3a 0a6b f93a 5bb0 063b
000002c0: 099e f83a b921 453b 3702 113b e678 b73a
000002d0: ab0e d23a 492b ab3a 9e2b 023a 16ce 4739
000002e0: a647 5d3b 88ba b13a 286c 9b3a 3afb 433a
000002f0: f49a d138 63a9 c7b9 383d 143b bac2 e23a
00000300: e984 0f3a e049 b83a e843 1339 16b1 753a
00000310: e053 2eba 0607 293a 1236 563a e730 a639
00000320: 2e46 07ba da24 1f3a 3c85 803a 1a3b b1ba
00000330: 02e1 403a 1a80 eeb9 6d66 89ba 3062 31ba
00000340: a194 0fba 6c25 06ba 3dab 983a fc9a 3d3a
00000350: bce8 e639 ce21 ff3a 98fb 043a b81e 283a
00000360: 1712 6f3a 3a31 333a c207 8d3a 5d18 093a
00000370: 6b58 c03a cb27 b539 90b8 06ba 8697 7b3a
00000380: 690f 8c39 f65c 013b 2857 b43a 5b92 c93a
00000390: 4c32 a43a 6937 d23a 0229 1c3b b641 18ba
000003a0: 0e97 9b3a a6e2 ecb8 8004 76b7 9d16 fd3a
000003b0: 14d2 9b3a 87ed 993a 4286 973a 5ed8 8fb9
000003c0: 6057 2239 482e 75ba 2ea9 2239 786e bb38
000003d0: 811b a139 071e d33a cee7 8e3a 678a be3a
000003e0: 4432 fb39 043a bc3a 6dac ed39 49a3 2fb9
000003f0: 8027 db3a da75 053a f416 553a 4056 c1b9
