trained_custom/checkpoints/energy_profiling/input_data_size/ep_v1.24_512_epidenet_b_v3.2_qat_best-q.pth.tar (torch, 83087 bytes, 26 tensors)

block1_conv1d_bn_relu_1.op.weight f4 [4, 1, 4]
0	0xc0e00000	-7.0
1	0x41f80000	31.0
2	0xc25c0000	-55.0
3	0xc2440000	-49.0
4	0xc1f00000	-30.0
5	0x41f00000	30.0
6	0xbf800000	-1.0
7	0x42980000	76.0
8	0xc2100000	-36.0
9	0x42080000	34.0
10	0xc2500000	-52.0
11	0xc1f80000	-31.0
12	0xc21c0000	-39.0
13	0xc1d80000	-27.0
14	0xc1880000	-17.0
15	0x3f800000	1.0

block1_conv1d_bn_relu_1.op.bias f4 [4]
0	0x43000000	128.0
1	0xc3000000	-128.0
2	0x00000000	0.0
3	0x43000000	128.0

block2_conv1d_bn_relu_1.op.weight f4 [16, 4, 5]
0	0x41880000	17.0
1	0x42140000	37.0
2	0xc1000000	-8.0
3	0x42100000	36.0
4	0xc0c00000	-6.0
5	0x40c00000	6.0
6	0x42240000	41.0
7	0xc2240000	-41.0
8	0xc1e00000	-28.0
9	0xc1300000	-11.0
10	0xc1800000	-16.0
11	0x421c0000	39.0
12	0xc1d80000	-27.0
13	0xc1900000	-18.0
14	0xc1f00000	-30.0
15	0xc2200000	-40.0
16	0xc1c80000	-25.0
17	0x42200000	40.0
18	0x41b00000	22.0
19	0x41b80000	23.0
20	0x40800000	4.0
21	0xc1b80000	-23.0
22	0x40e00000	7.0
23	0xc22c0000	-43.0
24	0xc2040000	-33.0
25	0xc1e80000	-29.0
26	0x41c00000	24.0
27	0x41d80000	27.0
28	0xc1a00000	-20.0
29	0xc0000000	-2.0
30	0x42000000	32.0
31	0x42400000	48.0
32	0x41980000	19.0
33	0x40c00000	6.0
34	0x42000000	32.0
35	0xc1c00000	-24.0
36	0x41300000	11.0
37	0xc20c0000	-35.0
38	0xc2000000	-32.0
39	0xc1b80000	-23.0
40	0x41800000	16.0
41	0x41800000	16.0
42	0xc1980000	-19.0
43	0x41500000	13.0
44	0x41b00000	22.0
45	0xc1100000	-9.0
46	0xc0000000	-2.0
47	0x40a00000	5.0
48	0x41a00000	20.0
49	0x42000000	32.0
50	0xc1d00000	-26.0
51	0xc1200000	-10.0
52	0x41900000	18.0
53	0x42080000	34.0
54	0x420c0000	35.0
55	0x42080000	34.0
56	0x41200000	10.0
57	0xc1e00000	-28.0
58	0x40e00000	7.0
59	0xc1980000	-19.0
60	0xc20c0000	-35.0
61	0x42000000	32.0
62	0x41d80000	27.0
63	0xc2140000	-37.0
64	0x40e00000	7.0
65	0xc0e00000	-7.0
66	0xc0e00000	-7.0
67	0xc1880000	-17.0
68	0x41500000	13.0
69	0xc1b80000	-23.0
70	0x41500000	13.0
71	0x41900000	18.0
72	0x41d00000	26.0
73	0x41500000	13.0
74	0xc2140000	-37.0
75	0xc1c00000	-24.0
76	0x41900000	18.0
77	0x40e00000	7.0
78	0xc1e80000	-29.0
79	0xc1a80000	-21.0
80	0x423c0000	47.0
81	0x42080000	34.0
82	0xc1b00000	-22.0
83	0xc1600000	-14.0
84	0xc2500000	-52.0
85	0xbf800000	-1.0
86	0xc2240000	-41.0
87	0xc22c0000	-43.0
88	0xbf800000	-1.0
89	0x41300000	11.0
90	0xc1c80000	-25.0
91	0x41e80000	29.0
92	0xc2000000	-32.0
93	0x42400000	48.0
94	0x420c0000	35.0
95	0xc2400000	-48.0
96	0xc1800000	-16.0
97	0x40000000	2.0
98	0x40e00000	7.0
99	0x41300000	11.0
100	0x41800000	16.0
101	0x40400000	3.0
102	0xc1a00000	-20.0
103	0x41a00000	20.0
104	0xc2200000	-40.0
105	0xc1c80000	-25.0
106	0xc1300000	-11.0
107	0xc1a80000	-21.0
108	0xc1700000	-15.0
109	0xc2040000	-33.0
110	0xc1100000	-9.0
111	0x41100000	9.0
112	0xc1d00000	-26.0
113	0xc0000000	-2.0
114	0x41f80000	31.0
115	0xc0a00000	-5.0
116	0x3f800000	1.0
117	0xc0400000	-3.0
118	0x41100000	9.0
119	0x41d80000	27.0
120	0x42480000	50.0
121	0x42040000	33.0
122	0x42480000	50.0
123	0xc0a00000	-5.0
124	0xc2480000	-50.0
125	0xc1c00000	-24.0
126	0x42100000	36.0
127	0x00000000	0.0
128	0xc1e00000	-28.0
129	0xc2280000	-42.0
130	0xc2540000	-53.0
131	0xc2400000	-48.0
132	0xc1500000	-13.0
133	0x41e80000	29.0
134	0x41e80000	29.0
135	0xc2580000	-54.0
136	0x42000000	32.0
137	0xc2300000	-44.0
138	0xc1500000	-13.0
139	0xc1b80000	-23.0
140	0xc1100000	-9.0
141	0xc0e00000	-7.0
142	0xc2040000	-33.0
143	0xc2040000	-33.0
144	0xc0e00000	-7.0
145	0xbf800000	-1.0
146	0xc1a00000	-20.0
147	0x41400000	12.0
148	0xc2040000	-33.0
149	0xc0000000	-2.0
150	0x41f00000	30.0
151	0xc1700000	-15.0
152	0x42040000	33.0
153	0x41400000	12.0
154	0xc2080000	-34.0
155	0x41a00000	20.0
156	0xc0a00000	-5.0
157	0xc1880000	-17.0
158	0x41e00000	28.0
159	0xc1f80000	-31.0
160	0x40400000	3.0
161	0xc1a80000	-21.0
162	0x42580000	54.0
163	0x41800000	16.0
164	0x42000000	32.0
165	0x41c00000	24.0
166	0xc1c00000	-24.0
167	0xc1c00000	-24.0
168	0xc2940000	-74.0
169	0x42100000	36.0
170	0x42780000	62.0
171	0x425c0000	55.0
172	0xc2780000	-62.0
173	0xc0000000	-2.0
174	0xc2800000	-64.0
175	0xc2400000	-48.0
176	0xc2440000	-49.0
177	0x41c00000	24.0
178	0xc2580000	-54.0
179	0xc1000000	-8.0
180	0x3f800000	1.0
181	0x41980000	19.0
182	0xc1c00000	-24.0
183	0xc1a80000	-21.0
184	0xc1900000	-18.0
185	0x41a80000	21.0
186	0xc1300000	-11.0
187	0x41d00000	26.0
188	0x41200000	10.0
189	0x40400000	3.0
190	0x00000000	0.0
191	0xc0e00000	-7.0
192	0x40800000	4.0
193	0xc0e00000	-7.0
194	0x00000000	0.0
195	0x40800000	4.0
196	0xc1c80000	-25.0
197	0xc1880000	-17.0
198	0x41c80000	25.0
199	0xc1c80000	-25.0
200	0xc0c00000	-6.0
201	0x421c0000	39.0
202	0x41600000	14.0
203	0x00000000	0.0
204	0xc2140000	-37.0
205	0x41a00000	20.0
206	0xc2000000	-32.0
207	0xc1600000	-14.0
208	0xc1700000	-15.0
209	0xc1000000	-8.0
210	0xc0000000	-2.0
211	0x42040000	33.0
212	0x40a00000	5.0
213	0x42140000	37.0
214	0x41c80000	25.0
215	0xc1e80000	-29.0
216	0x41880000	17.0
217	0xc1f00000	-30.0
218	0xc1900000	-18.0
219	0x41400000	12.0
220	0x41980000	19.0
221	0x42340000	45.0
222	0xc1800000	-16.0
223	0x3f800000	1.0
224	0x41f80000	31.0
225	0xc2600000	-56.0
226	0x42280000	42.0
227	0xc2500000	-52.0
228	0x40000000	2.0
229	0xc0e00000	-7.0
230	0xc1f80000	-31.0
231	0x41100000	9.0
232	0x42500000	52.0
233	0xc1800000	-16.0
234	0xc2080000	-34.0
235	0xc1b00000	-22.0
236	0xc2640000	-57.0
237	0x41f00000	30.0
238	0xc1d00000	-26.0
239	0xc2180000	-38.0
240	0xc1f80000	-31.0
241	0x41e80000	29.0
242	0x41e00000	28.0
243	0x422c0000	43.0
244	0x41a00000	20.0
245	0xc1b00000	-22.0
246	0xc1700000	-15.0
247	0x41700000	15.0
248	0x42280000	42.0
249	0x41600000	14.0
250	0xc1c80000	-25.0
251	0xc1d80000	-27.0
252	0xc2500000	-52.0
253	0x41500000	13.0
254	0xc1f00000	-30.0
255	0xc23c0000	-47.0

block2_conv1d_bn_relu_1.op.bias f4 [16]
0	0xc3800000	-256.0
1	0x44600000	896.0
2	0xc5180000	-2432.0
3	0x44a00000	1280.0
4	0x44a00000	1280.0
5	0x44c00000	1536.0
6	0x45080000	2176.0
7	0x44f00000	1920.0
8	0x44f00000	1920.0
9	0x44200000	640.0
10	0x00000000	0.0
11	0x44f00000	1920.0
12	0x43c00000	384.0
13	0x44200000	640.0
14	0x43800000	256.0
15	0xc4f00000	-1920.0

block2_conv1d_bn_relu_2.op.weight f4 [16, 16, 5]
0	0xc1700000	-15.0
1	0x41880000	17.0
2	0xc1e80000	-29.0
3	0x40e00000	7.0
4	0xc1e00000	-28.0
5	0xc2240000	-41.0
6	0xc2040000	-33.0
7	0x41f00000	30.0
8	0x41b00000	22.0
9	0x42200000	40.0
10	0x41e00000	28.0
11	0xc2140000	-37.0
12	0xc1e00000	-28.0
13	0xc0e00000	-7.0
14	0xc1d00000	-26.0
15	0x41d80000	27.0
16	0xc1f80000	-31.0
17	0xc1a00000	-20.0
18	0xc2180000	-38.0
19	0xc1b80000	-23.0
20	0x42080000	34.0
21	0x42080000	34.0
22	0x41f00000	30.0
23	0x41f80000	31.0
24	0x42080000	34.0
25	0xc1100000	-9.0
26	0x41880000	17.0
27	0x42040000	33.0
28	0x41300000	11.0
29	0x42180000	38.0
30	0x41b80000	23.0
31	0x41c00000	24.0
32	0xc1800000	-16.0
33	0x41800000	16.0
34	0x40400000	3.0
35	0xc1200000	-10.0
36	0xc1b80000	-23.0
37	0xc1b00000	-22.0
38	0xc1f00000	-30.0
39	0x41d80000	27.0
40	0x41f00000	30.0
41	0xc0000000	-2.0
42	0xc1b00000	-22.0
43	0x41f80000	31.0
44	0x41c00000	24.0
45	0x00000000	0.0
46	0xc1a80000	-21.0
47	0x420c0000	35.0
48	0x41880000	17.0
49	0xc1d80000	-27.0
50	0x42080000	34.0
51	0x41d00000	26.0
52	0xc1900000	-18.0
53	0x41980000	19.0
54	0xc1c80000	-25.0
55	0xc0800000	-4.0
56	0x420c0000	35.0
57	0x40400000	3.0
58	0xc1d80000	-27.0
59	0xc1500000	-13.0
60	0xc1400000	-12.0
61	0xc1000000	-8.0
62	0x40800000	4.0
63	0x42140000	37.0
64	0x40800000	4.0
65	0xc1b80000	-23.0
66	0x00000000	0.0
67	0x41800000	16.0
68	0x41880000	17.0
69	0xc2140000	-37.0
70	0xc1100000	-9.0
71	0xc1f80000	-31.0
72	0xc1900000	-18.0
73	0x41600000	14.0
74	0xc1d00000	-26.0
75	0x41100000	9.0
76	0x41e00000	28.0
77	0x00000000	0.0
78	0xc1e00000	-28.0
79	0xc1700000	-15.0
80	0x41000000	8.0
81	0xc21c0000	-39.0
82	0x41900000	18.0
83	0xc2380000	-46.0
84	0xc2380000	-46.0
85	0xc2380000	-46.0
86	0xc0e00000	-7.0
87	0x420c0000	35.0
88	0xc2240000	-41.0
89	0x421c0000	39.0
90	0xc1a80000	-21.0
91	0x41200000	10.0
92	0x00000000	0.0
93	0xc2380000	-46.0
94	0x420c0000	35.0
95	0x41d80000	27.0
96	0x42400000	48.0
97	0x41a00000	20.0
98	0xc20c0000	-35.0
99	0x42100000	36.0
100	0x40a00000	5.0
101	0x41a80000	21.0
102	0xc2200000	-40.0
103	0xc1880000	-17.0
104	0xc2400000	-48.0
105	0xc1980000	-19.0
106	0x41000000	8.0
107	0xc21c0000	-39.0
108	0x41400000	12.0
109	0x41b00000	22.0
110	0x40a00000	5.0
111	0xc2040000	-33.0
112	0xc21c0000	-39.0
113	0xc1700000	-15.0
114	0x41a00000	20.0
115	0x423c0000	47.0
116	0x41f00000	30.0
117	0xc0400000	-3.0
118	0x41880000	17.0
119	0xc2340000	-45.0
120	0xc2180000	-38.0
121	0x41980000	19.0
122	0xc1d80000	-27.0
123	0x41a00000	20.0
124	0xc20c0000	-35.0
125	0xc1c00000	-24.0
126	0xc2180000	-38.0
127	0x41e00000	28.0
128	0xc0000000	-2.0
129	0x42240000	41.0
130	0x41d00000	26.0
131	0x41b80000	23.0
132	0xc0400000	-3.0
133	0xc1980000	-19.0
134	0xc1400000	-12.0
135	0x41000000	8.0
136	0x41c80000	25.0
137	0xc2040000	-33.0
138	0x42180000	38.0
139	0xc0c00000	-6.0
140	0xc2200000	-40.0
141	0xc1c80000	-25.0
142	0x42240000	41.0
143	0x42280000	42.0
144	0xc2200000	-40.0
145	0x41f00000	30.0
146	0x41900000	18.0
147	0x41c00000	24.0
148	0x421c0000	39.0
149	0xc1b00000	-22.0
150	0x41300000	11.0
151	0x41900000	18.0
152	0xc1500000	-13.0
153	0x41800000	16.0
154	0xc1500000	-13.0
155	0x41c00000	24.0
156	0xc1880000	-17.0
157	0xc1b00000	-22.0
158	0x41100000	9.0
159	0x41700000	15.0
160	0xc1880000	-17.0
161	0x40400000	3.0
162	0x41a80000	21.0
163	0xc0000000	-2.0
164	0x41600000	14.0
165	0xc0e00000	-7.0
166	0x41880000	17.0
167	0xc1d80000	-27.0
168	0xc1b00000	-22.0
169	0xc1980000	-19.0
170	0x41f80000	31.0
171	0xc1400000	-12.0
172	0xc0000000	-2.0
173	0xc1a80000	-21.0
174	0x420c0000	35.0
175	0x42280000	42.0
176	0xc1d00000	-26.0
177	0xc1e00000	-28.0
178	0xc1d00000	-26.0
179	0x40000000	2.0
180	0xc0e00000	-7.0
181	0xc1b80000	-23.0
182	0xc1300000	-11.0
183	0x41100000	9.0
184	0xc1880000	-17.0
185	0x41200000	10.0
186	0xc0e00000	-7.0
187	0xc1800000	-16.0
188	0x40e00000	7.0
189	0x42040000	33.0
190	0xc1c00000	-24.0
191	0x40400000	3.0
192	0xc1500000	-13.0
193	0x42180000	38.0
194	0xc20c0000	-35.0
195	0xc20c0000	-35.0
196	0x42180000	38.0
197	0xc1b00000	-22.0
198	0x41000000	8.0
199	0xc0400000	-3.0
200	0xc0e00000	-7.0
201	0xc1000000	-8.0
202	0x41d00000	26.0
203	0x40400000	3.0
204	0xc2100000	-36.0
205	0xc1b80000	-23.0
206	0xc1600000	-14.0
207	0x41880000	17.0
208	0xc1d00000	-26.0
209	0x42080000	34.0
210	0xc0a00000	-5.0
211	0xc0a00000	-5.0
212	0x41f80000	31.0
213	0x41a00000	20.0
214	0x420c0000	35.0
215	0x41c00000	24.0
216	0xc1200000	-10.0
217	0xc1c00000	-24.0
218	0xbf800000	-1.0
219	0x42000000	32.0
220	0xc1600000	-14.0
221	0xc2100000	-36.0
222	0x41400000	12.0
223	0x42080000	34.0
224	0xc1400000	-12.0
225	0xc1f00000	-30.0
226	0xc2040000	-33.0
227	0x41300000	11.0
228	0xbf800000	-1.0
229	0xc1900000	-18.0
230	0x41100000	9.0
231	0x41700000	15.0
232	0x42000000	32.0
233	0x41e80000	29.0
234	0xc0a00000	-5.0
235	0xc20c0000	-35.0
236	0xc2100000	-36.0
237	0x420c0000	35.0
238	0x41880000	17.0
239	0x41880000	17.0
240	0xc2200000	-40.0
241	0x422c0000	43.0
242	0x422c0000	43.0
243	0x42340000	45.0
244	0xc2200000	-40.0
245	0xc1980000	-19.0
246	0xc2040000	-33.0
247	0x42280000	42.0
248	0xc1a80000	-21.0
249	0xc1c00000	-24.0
250	0x41e00000	28.0
251	0xc1900000	-18.0
252	0xc1a00000	-20.0
253	0xbf800000	-1.0
254	0xc0400000	-3.0
255	0xc2180000	-38.0

block2_conv1d_bn_relu_2.op.bias f4 [16]
0	0xc4600000	-896.0
1	0x44600000	896.0
2	0x44000000	512.0
3	0xc3000000	-128.0
4	0xc4a00000	-1280.0
5	0xc4400000	-768.0
6	0xc5e80000	-7424.0
7	0x44f00000	1920.0
8	0x45000000	2048.0
9	0x46000000	8192.0
10	0x45280000	2688.0
11	0xc4b00000	-1408.0
12	0xc5200000	-2560.0
13	0x45b80000	5888.0
14	0xc5600000	-3584.0
15	0x44a00000	1280.0

block2_conv1d_bn_relu_3.op.weight f4 [16, 16, 5]
0	0xc2860000	-67.0
1	0xc2780000	-62.0
2	0x42200000	40.0
3	0x42800000	64.0
4	0x40a00000	5.0
5	0xc2600000	-56.0
6	0x420c0000	35.0
7	0x40e00000	7.0
8	0xc2ac0000	-86.0
9	0xc27c0000	-63.0
10	0x41100000	9.0
11	0x42300000	44.0
12	0xc2240000	-41.0
13	0x42180000	38.0
14	0xc2680000	-58.0
15	0x42a80000	84.0
16	0x42600000	56.0
17	0x41600000	14.0
18	0x41f80000	31.0
19	0x41c80000	25.0
20	0xc26c0000	-59.0
21	0xbf800000	-1.0
22	0x41a00000	20.0
23	0xc1b80000	-23.0
24	0x42960000	75.0
25	0xc2340000	-45.0
26	0xc2ae0000	-87.0
27	0xc2440000	-49.0
28	0xc2b20000	-89.0
29	0x42800000	64.0
30	0xc2480000	-50.0
31	0xc2920000	-73.0
32	0xc1a80000	-21.0
33	0xc28e0000	-71.0
34	0xc2680000	-58.0
35	0x423c0000	47.0
36	0xc27c0000	-63.0
37	0x42180000	38.0
38	0x42800000	64.0
39	0xc0a00000	-5.0
40	0x42240000	41.0
41	0xc2340000	-45.0
42	0x428e0000	71.0
43	0x42a20000	81.0
44	0x41600000	14.0
45	0x42aa0000	85.0
46	0xc2ac0000	-86.0
47	0xc1100000	-9.0
48	0x41900000	18.0
49	0xc29c0000	-78.0
50	0x42340000	45.0
51	0xc2100000	-36.0
52	0xc2040000	-33.0
53	0xc2980000	-76.0
54	0x42140000	37.0
55	0xc28c0000	-70.0
56	0xc1c00000	-24.0
57	0x420c0000	35.0
58	0x42740000	61.0
59	0x41300000	11.0
60	0xc2180000	-38.0
61	0xc2380000	-46.0
62	0x42200000	40.0
63	0x41000000	8.0
64	0x42920000	73.0
65	0x41e80000	29.0
66	0x42960000	75.0
67	0xc29c0000	-78.0
68	0x42900000	72.0
69	0xc2400000	-48.0
70	0xc1d00000	-26.0
71	0x00000000	0.0
72	0xc1c80000	-25.0
73	0x41100000	9.0
74	0x42920000	73.0
75	0xc24c0000	-51.0
76	0x41d00000	26.0
77	0xc29c0000	-78.0
78	0x40e00000	7.0
79	0x42840000	66.0
80	0x42140000	37.0
81	0x42440000	49.0
82	0x41e80000	29.0
83	0xc1200000	-10.0
84	0x41100000	9.0
85	0xc1f00000	-30.0
86	0x423c0000	47.0
87	0x41f80000	31.0
88	0xc2200000	-40.0
89	0x42540000	53.0
90	0xc0400000	-3.0
91	0xc0800000	-4.0
92	0xc1980000	-19.0
93	0xc1980000	-19.0
94	0x00000000	0.0
95	0xc2080000	-34.0
96	0xc2700000	-60.0
97	0xc2000000	-32.0
98	0xc1300000	-11.0
99	0x42340000	45.0
100	0x42200000	40.0
101	0xc2240000	-41.0
102	0xc0e00000	-7.0
103	0xc1a80000	-21.0
104	0xc2080000	-34.0
105	0xc1880000	-17.0
106	0xc1c00000	-24.0
107	0x420c0000	35.0
108	0xc1e00000	-28.0
109	0x41300000	11.0
110	0xc2200000	-40.0
111	0xc1b00000	-22.0
112	0x422c0000	43.0
113	0xc2080000	-34.0
114	0xc1100000	-9.0
115	0x42500000	52.0
116	0x41880000	17.0
117	0xc2000000	-32.0
118	0xc2180000	-38.0
119	0xc1b80000	-23.0
120	0xc1c00000	-24.0
121	0x41b00000	22.0
122	0xc1800000	-16.0
123	0x42440000	49.0
124	0xc20c0000	-35.0
125	0xc1900000	-18.0
126	0x41a80000	21.0
127	0x42380000	46.0
128	0x426c0000	59.0
129	0x41300000	11.0
130	0x3f800000	1.0
131	0xc1f00000	-30.0
132	0x41e80000	29.0
133	0xc2080000	-34.0
134	0xc1400000	-12.0
135	0xc24c0000	-51.0
136	0xc2740000	-61.0
137	0x41e00000	28.0
138	0x00000000	0.0
139	0x42340000	45.0
140	0x42240000	41.0
141	0x41e80000	29.0
142	0x41d00000	26.0
143	0xc1300000	-11.0
144	0x42100000	36.0
145	0x41e00000	28.0
146	0x41a80000	21.0
147	0xbf800000	-1.0
148	0x41100000	9.0
149	0xbf800000	-1.0
150	0xc2400000	-48.0
151	0x41300000	11.0
152	0xc2340000	-45.0
153	0x41d80000	27.0
154	0xc2180000	-38.0
155	0xc1d00000	-26.0
156	0xc20c0000	-35.0
157	0x422c0000	43.0
158	0xc2280000	-42.0
159	0x42140000	37.0
160	0x41d00000	26.0
161	0x421c0000	39.0
162	0x41200000	10.0
163	0x41f00000	30.0
164	0x42380000	46.0
165	0x41500000	13.0
166	0x41b00000	22.0
167	0xc2440000	-49.0
168	0xc1b00000	-22.0
169	0x00000000	0.0
170	0x40e00000	7.0
171	0xc1b00000	-22.0
172	0xc2700000	-60.0
173	0xc1700000	-15.0
174	0x41b80000	23.0
175	0x424c0000	51.0
176	0xc25c0000	-55.0
177	0x41e80000	29.0
178	0xc26c0000	-59.0
179	0xc26c0000	-59.0
180	0xc2200000	-40.0
181	0xc1400000	-12.0
182	0x41500000	13.0
183	0xc2480000	-50.0
184	0x42400000	48.0
185	0x42680000	58.0
186	0x40a00000	5.0
187	0x42400000	48.0
188	0xc2000000	-32.0
189	0xc1e80000	-29.0
190	0xc1100000	-9.0
191	0x40c00000	6.0
192	0xc2300000	-44.0
193	0xc2540000	-53.0
194	0x41a80000	21.0
195	0x41800000	16.0
196	0x426c0000	59.0
197	0xc1d00000	-26.0
198	0x41a80000	21.0
199	0xc1c80000	-25.0
200	0x41e00000	28.0
201	0xc0a00000	-5.0
202	0x423c0000	47.0
203	0x42180000	38.0
204	0x42600000	56.0
205	0x42040000	33.0
206	0x40400000	3.0
207	0x42600000	56.0
208	0xc2100000	-36.0
209	0x42680000	58.0
210	0x42740000	61.0
211	0x427c0000	63.0
212	0xc1c00000	-24.0
213	0xc1f00000	-30.0
214	0x40800000	4.0
215	0x41880000	17.0
216	0x41f80000	31.0
217	0x41d00000	26.0
218	0x42580000	54.0
219	0xc1600000	-14.0
220	0xc1980000	-19.0
221	0x41a80000	21.0
222	0x41880000	17.0
223	0xc2180000	-38.0
224	0x40000000	2.0
225	0xc23c0000	-47.0
226	0xc1980000	-19.0
227	0xc1c80000	-25.0
228	0x42500000	52.0
229	0xc2600000	-56.0
230	0xc2100000	-36.0
231	0xc26c0000	-59.0
232	0x41800000	16.0
233	0xc2380000	-46.0
234	0x41a80000	21.0
235	0xc2280000	-42.0
236	0xc2100000	-36.0
237	0xc1d00000	-26.0
238	0x41600000	14.0
239	0x426c0000	59.0
240	0x426c0000	59.0
241	0xc1300000	-11.0
242	0xc2940000	-74.0
243	0xc1f00000	-30.0
244	0xc2080000	-34.0
245	0xc1700000	-15.0
246	0x41d00000	26.0
247	0x420c0000	35.0
248	0x41d80000	27.0
249	0x41400000	12.0
250	0xc2000000	-32.0
251	0xc1000000	-8.0
252	0x40000000	2.0
253	0xc2280000	-42.0
254	0xc1400000	-12.0
255	0xc1400000	-12.0

block2_conv1d_bn_relu_3.op.bias f4 [16]
0	0x45500000	3328.0
1	0x43c00000	384.0
2	0xc4b00000	-1408.0
3	0x458c0000	4480.0
4	0xc5980000	-4864.0
5	0x43c00000	384.0
6	0x45ac0000	5504.0
7	0xc58c0000	-4480.0
8	0x45680000	3712.0
9	0x44a00000	1280.0
10	0x45780000	3968.0
11	0x45ac0000	5504.0
12	0x44400000	768.0
13	0x45cc0000	6528.0
14	0x45840000	4224.0
15	0xc5400000	-3072.0

block2_conv1d_bn_relu_4.op.weight f4 [16, 16, 4]
0	0xc1c80000	-25.0
1	0x40400000	3.0
2	0xc1100000	-9.0
3	0x3f800000	1.0
4	0x42000000	32.0
5	0xc2280000	-42.0
6	0x42440000	49.0
7	0x42140000	37.0
8	0x00000000	0.0
9	0xc1a00000	-20.0
10	0x41600000	14.0
11	0xc2000000	-32.0
12	0x42140000	37.0
13	0xc1e00000	-28.0
14	0x41300000	11.0
15	0xc2540000	-53.0
16	0x41e00000	28.0
17	0x42100000	36.0
18	0x42200000	40.0
19	0x40a00000	5.0
20	0x42000000	32.0
21	0x41980000	19.0
22	0x42180000	38.0
23	0x42080000	34.0
24	0xc2440000	-49.0
25	0x40000000	2.0
26	0xc1900000	-18.0
27	0xc1c80000	-25.0
28	0x42100000	36.0
29	0xc0e00000	-7.0
30	0x41200000	10.0
31	0x42200000	40.0
32	0x420c0000	35.0
33	0x41e00000	28.0
34	0xc1000000	-8.0
35	0xc23c0000	-47.0
36	0xc2480000	-50.0
37	0x41900000	18.0
38	0x3f800000	1.0
39	0xc2040000	-33.0
40	0x41b80000	23.0
41	0x42480000	50.0
42	0x42000000	32.0
43	0xc0a00000	-5.0
44	0x40800000	4.0
45	0xc2180000	-38.0
46	0x41a00000	20.0
47	0xc2300000	-44.0
48	0x42100000	36.0
49	0xc1d00000	-26.0
50	0xc1b00000	-22.0
51	0xc2380000	-46.0
52	0xc1500000	-13.0
53	0xc0c00000	-6.0
54	0xc1d80000	-27.0
55	0x42180000	38.0
56	0x42000000	32.0
57	0xc2380000	-46.0
58	0xc0a00000	-5.0
59	0x41b00000	22.0
60	0x42400000	48.0
61	0xc1500000	-13.0
62	0x42080000	34.0
63	0xbf800000	-1.0
64	0xc1d00000	-26.0
65	0x42400000	48.0
66	0xc2640000	-57.0
67	0x427c0000	63.0
68	0x427c0000	63.0
69	0xc1d00000	-26.0
70	0x41880000	17.0
71	0x426c0000	59.0
72	0x41800000	16.0
73	0x41b80000	23.0
74	0x41a00000	20.0
75	0xc2040000	-33.0
76	0x41400000	12.0
77	0xc2240000	-41.0
78	0x42400000	48.0
79	0xc2080000	-34.0
80	0x41a80000	21.0
81	0xc1200000	-10.0
82	0x42300000	44.0
83	0x41100000	9.0
84	0x42000000	32.0
85	0xc1a00000	-20.0
86	0xc22c0000	-43.0
87	0x41a00000	20.0
88	0xc2280000	-42.0
89	0xc26c0000	-59.0
90	0x41a80000	21.0
91	0xc2280000	-42.0
92	0xc1e80000	-29.0
93	0xc1980000	-19.0
94	0x40800000	4.0
95	0xc1c00000	-24.0
96	0xc1c80000	-25.0
97	0xc1800000	-16.0
98	0x42580000	54.0
99	0x41d80000	27.0
100	0xc2080000	-34.0
101	0xc2400000	-48.0
102	0xc0400000	-3.0
103	0x41800000	16.0
104	0xc0400000	-3.0
105	0x42140000	37.0
106	0x425c0000	55.0
107	0x41800000	16.0
108	0x41b00000	22.0
109	0x42180000	38.0
110	0xc1b80000	-23.0
111	0x41800000	16.0
112	0x424c0000	51.0
113	0xc1f80000	-31.0
114	0x40c00000	6.0
115	0xc1d80000	-27.0
116	0xc2580000	-54.0
117	0x42000000	32.0
118	0x424c0000	51.0
119	0xc21c0000	-39.0
120	0x41980000	19.0
121	0x41980000	19.0
122	0x41d00000	26.0
123	0x42140000	37.0
124	0x426c0000	59.0
125	0x42340000	45.0
126	0xc27c0000	-63.0
127	0xc1d80000	-27.0
128	0x421c0000	39.0
129	0xc2180000	-38.0
130	0x41400000	12.0
131	0xc1e00000	-28.0
132	0x41300000	11.0
133	0x41e80000	29.0
134	0x41880000	17.0
135	0x423c0000	47.0
136	0xc1400000	-12.0
137	0x41f80000	31.0
138	0x41900000	18.0
139	0xc1c80000	-25.0
140	0xc24c0000	-51.0
141	0x42600000	56.0
142	0xc1b80000	-23.0
143	0x42380000	46.0
144	0x42240000	41.0
145	0xc0e00000	-7.0
146	0xc2640000	-57.0
147	0xbf800000	-1.0
148	0xc2100000	-36.0
149	0x41500000	13.0
150	0xc1e80000	-29.0
151	0x42380000	46.0
152	0xc2780000	-62.0
153	0xc1980000	-19.0
154	0x41000000	8.0
155	0x40400000	3.0
156	0x42440000	49.0
157	0xc1c80000	-25.0
158	0xc2680000	-58.0
159	0x42140000	37.0
160	0x41a80000	21.0
161	0x42480000	50.0
162	0xc2140000	-37.0
163	0xc2140000	-37.0
164	0xc1d80000	-27.0
165	0x40400000	3.0
166	0x41980000	19.0
167	0xc2180000	-38.0
168	0xc1000000	-8.0
169	0xc1600000	-14.0
170	0x42640000	57.0
171	0xc1c80000	-25.0
172	0x42900000	72.0
173	0xc21c0000	-39.0
174	0xc1d00000	-26.0
175	0xc24c0000	-51.0
176	0x42380000	46.0
177	0xc2340000	-45.0
178	0x41e00000	28.0
179	0xc1b80000	-23.0
180	0x427c0000	63.0
181	0x41100000	9.0
182	0xc2640000	-57.0
183	0x41000000	8.0
184	0x40800000	4.0
185	0xc2860000	-67.0
186	0x41200000	10.0
187	0x42680000	58.0
188	0x41000000	8.0
189	0xc0e00000	-7.0
190	0xc1900000	-18.0
191	0x41880000	17.0
192	0xc1b80000	-23.0
193	0x42400000	48.0
194	0x42240000	41.0
195	0x41b80000	23.0
196	0xc1a00000	-20.0
197	0xc2400000	-48.0
198	0xc1f00000	-30.0
199	0x423c0000	47.0
200	0xc2300000	-44.0
201	0xc2380000	-46.0
202	0xc0000000	-2.0
203	0x41880000	17.0
204	0xc2500000	-52.0
205	0xc2400000	-48.0
206	0xbf800000	-1.0
207	0xc1900000	-18.0
208	0x41e80000	29.0
209	0x41100000	9.0
210	0xc23c0000	-47.0
211	0xc2480000	-50.0
212	0x42100000	36.0
213	0xc0e00000	-7.0
214	0xc1980000	-19.0
215	0x41800000	16.0
216	0xc1100000	-9.0
217	0x41c80000	25.0
218	0x41600000	14.0
219	0xc1a00000	-20.0
220	0xc21c0000	-39.0
221	0x41d80000	27.0
222	0xc1e80000	-29.0
223	0xc0800000	-4.0
224	0x40e00000	7.0
225	0xc1f00000	-30.0
226	0x41d00000	26.0
227	0xc20c0000	-35.0
228	0x41200000	10.0
229	0x40800000	4.0
230	0x41880000	17.0
231	0xc2480000	-50.0
232	0x40a00000	5.0
233	0x41e00000	28.0
234	0xc1f00000	-30.0
235	0x41600000	14.0
236	0x00000000	0.0
237	0x422c0000	43.0
238	0xc1100000	-9.0
239	0x3f800000	1.0
240	0xc1a00000	-20.0
241	0xc1400000	-12.0
242	0x41600000	14.0
243	0xc2480000	-50.0
244	0x421c0000	39.0
245	0x42140000	37.0
246	0x41b80000	23.0
247	0x421c0000	39.0
248	0xc1500000	-13.0
249	0x41600000	14.0
250	0x40800000	4.0
251	0xc2080000	-34.0
252	0xc1880000	-17.0
253	0xc1800000	-16.0
254	0xc1500000	-13.0
255	0xc2300000	-44.0

block2_conv1d_bn_relu_4.op.bias f4 [16]
0	0xc4e00000	-1792.0
1	0xc5180000	-2432.0
2	0x43c00000	384.0
3	0x45480000	3200.0
4	0xc3c00000	-384.0
5	0xc4000000	-512.0
6	0x45400000	3072.0
7	0xc4200000	-640.0
8	0x45c40000	6272.0
9	0x45880000	4352.0
10	0x45000000	2048.0
11	0xc5300000	-2816.0
12	0xc4000000	-512.0
13	0x45180000	2432.0
14	0xc5ac0000	-5504.0
15	0x44200000	640.0

block3_conv1d_bn_relu_1.op.weight f4 [16, 16, 8]
0	0xc1c00000	-24.0
1	0xc1500000	-13.0
2	0x40800000	4.0
3	0xc1e80000	-29.0
4	0x3f800000	1.0
5	0x41000000	8.0
6	0x41b00000	22.0
7	0x41b00000	22.0
8	0x41c00000	24.0
9	0xc1200000	-10.0
10	0xc0400000	-3.0
11	0x41d00000	26.0
12	0x41700000	15.0
13	0xc1400000	-12.0
14	0x41e00000	28.0
15	0xc1d80000	-27.0
16	0x41c80000	25.0
17	0x41880000	17.0
18	0xc1c00000	-24.0
19	0xc2000000	-32.0
20	0x41b00000	22.0
21	0x42000000	32.0
22	0x40c00000	6.0
23	0xc1400000	-12.0
24	0x41980000	19.0
25	0x41400000	12.0
26	0xc1000000	-8.0
27	0x41d00000	26.0
28	0x41a00000	20.0
29	0x40e00000	7.0
30	0x41b00000	22.0
31	0xc1b80000	-23.0
32	0xc1900000	-18.0
33	0x40e00000	7.0
34	0x40800000	4.0
35	0xc1000000	-8.0
36	0x40800000	4.0
37	0x41600000	14.0
38	0xc1f00000	-30.0
39	0x41200000	10.0
40	0xc0400000	-3.0
41	0xc1b00000	-22.0
42	0x40a00000	5.0
43	0xc0e00000	-7.0
44	0xc1900000	-18.0
45	0xc2080000	-34.0
46	0x42140000	37.0
47	0xc1600000	-14.0
48	0x40000000	2.0
49	0x41d80000	27.0
50	0xc0000000	-2.0
51	0xc1a00000	-20.0
52	0xc1f00000	-30.0
53	0x40400000	3.0
54	0xc0e00000	-7.0
55	0x40e00000	7.0
56	0x41400000	12.0
57	0xc1000000	-8.0
58	0x41880000	17.0
59	0xc0c00000	-6.0
60	0xc1400000	-12.0
61	0xc1a00000	-20.0
62	0x41700000	15.0
63	0xc1900000	-18.0
64	0x41400000	12.0
65	0x00000000	0.0
66	0x41c80000	25.0
67	0xc1400000	-12.0
68	0xc1300000	-11.0
69	0xc0a00000	-5.0
70	0xc1600000	-14.0
71	0x41700000	15.0
72	0xc1200000	-10.0
73	0x41100000	9.0
74	0x41880000	17.0
75	0x41880000	17.0
76	0xc0800000	-4.0
77	0x41800000	16.0
78	0xc1000000	-8.0
79	0xc1b80000	-23.0
80	0x40000000	2.0
81	0xc1980000	-19.0
82	0xc1c80000	-25.0
83	0x40800000	4.0
84	0x41e00000	28.0
85	0xc1800000	-16.0
86	0xc0400000	-3.0
87	0xc1b80000	-23.0
88	0xbf800000	-1.0
89	0x41000000	8.0
90	0xc1300000	-11.0
91	0x41900000	18.0
92	0xc2000000	-32.0
93	0xc0a00000	-5.0
94	0xc1700000	-15.0
95	0x41e80000	29.0
96	0x41880000	17.0
97	0x41e80000	29.0
98	0x41b80000	23.0
99	0x40c00000	6.0
100	0xc1f00000	-30.0
101	0xc1900000	-18.0
102	0x41880000	17.0
103	0xc1d80000	-27.0
104	0x41a00000	20.0
105	0x41200000	10.0
106	0x40a00000	5.0
107	0xc1f80000	-31.0
108	0x41b00000	22.0
109	0xc1200000	-10.0
110	0xc1200000	-10.0
111	0x41980000	19.0
112	0x3f800000	1.0
113	0xc1980000	-19.0
114	0x40a00000	5.0
115	0xc1c80000	-25.0
116	0x41b80000	23.0
117	0x41a00000	20.0
118	0x41400000	12.0
119	0x41900000	18.0
120	0xc1e80000	-29.0
121	0xc1300000	-11.0
122	0xc1e80000	-29.0
123	0xc1600000	-14.0
124	0xc1f00000	-30.0
125	0x41b00000	22.0
126	0x41500000	13.0
127	0x41880000	17.0
128	0xc1500000	-13.0
129	0x41980000	19.0
130	0xc0c00000	-6.0
131	0xc1100000	-9.0
132	0x41400000	12.0
133	0x41800000	16.0
134	0xc1a80000	-21.0
135	0x41c00000	24.0
136	0xc0000000	-2.0
137	0x41000000	8.0
138	0xc1d80000	-27.0
139	0x40400000	3.0
140	0xc1600000	-14.0
141	0xc1900000	-18.0
142	0xc1300000	-11.0
143	0x00000000	0.0
144	0xc0e00000	-7.0
145	0xc1880000	-17.0
146	0x41a00000	20.0
147	0x41000000	8.0
148	0xc1c80000	-25.0
149	0x40c00000	6.0
150	0x41000000	8.0
151	0x3f800000	1.0
152	0x40e00000	7.0
153	0xbf800000	-1.0
154	0x41500000	13.0
155	0xc1900000	-18.0
156	0xc1300000	-11.0
157	0x41a80000	21.0
158	0xc1800000	-16.0
159	0x41800000	16.0
160	0x41c80000	25.0
161	0xc1d00000	-26.0
162	0xc1500000	-13.0
163	0x41b00000	22.0
164	0xc0400000	-3.0
165	0x40800000	4.0
166	0x40400000	3.0
167	0x41300000	11.0
168	0xc1300000	-11.0
169	0x40800000	4.0
170	0x41980000	19.0
171	0xc0000000	-2.0
172	0xc1c80000	-25.0
173	0x41100000	9.0
174	0xc0c00000	-6.0
175	0xc0a00000	-5.0
176	0x41600000	14.0
177	0x40800000	4.0
178	0xc1800000	-16.0
179	0xc1500000	-13.0
180	0xc0800000	-4.0
181	0xc1000000	-8.0
182	0xc0a00000	-5.0
183	0xc1900000	-18.0
184	0x41a00000	20.0
185	0x41600000	14.0
186	0x40800000	4.0
187	0x40c00000	6.0
188	0x40400000	3.0
189	0x41a00000	20.0
190	0x40e00000	7.0
191	0x40800000	4.0
192	0xc1700000	-15.0
193	0x41000000	8.0
194	0xc1d80000	-27.0
195	0x40e00000	7.0
196	0xc1c80000	-25.0
197	0xc1500000	-13.0
198	0x41600000	14.0
199	0xc1880000	-17.0
200	0x41b00000	22.0
201	0xc1700000	-15.0
202	0x41d00000	26.0
203	0x41000000	8.0
204	0xc1400000	-12.0
205	0x41880000	17.0
206	0xc1b80000	-23.0
207	0xc1800000	-16.0
208	0xc1880000	-17.0
209	0x40000000	2.0
210	0x3f800000	1.0
211	0xc1c80000	-25.0
212	0x41c00000	24.0
213	0xc0000000	-2.0
214	0xc1800000	-16.0
215	0x00000000	0.0
216	0xc1400000	-12.0
217	0x40e00000	7.0
218	0x41200000	10.0
219	0xc1100000	-9.0
220	0x3f800000	1.0
221	0x41800000	16.0
222	0xc1880000	-17.0
223	0xc0c00000	-6.0
224	0xc0800000	-4.0
225	0xc1900000	-18.0
226	0x40000000	2.0
227	0x3f800000	1.0
228	0xc1b00000	-22.0
229	0x40a00000	5.0
230	0x41d80000	27.0
231	0x41700000	15.0
232	0xc1700000	-15.0
233	0x41c80000	25.0
234	0xc1980000	-19.0
235	0xc1700000	-15.0
236	0x41300000	11.0
237	0x41a80000	21.0
238	0x41d00000	26.0
239	0x41c00000	24.0
240	0xc1700000	-15.0
241	0x40e00000	7.0
242	0xc1880000	-17.0
243	0x00000000	0.0
244	0x41b80000	23.0
245	0x41600000	14.0
246	0xc1c00000	-24.0
247	0xc1300000	-11.0
248	0xc1b80000	-23.0
249	0x41400000	12.0
250	0xc0800000	-4.0
251	0xc1a80000	-21.0
252	0xc1200000	-10.0
253	0x40e00000	7.0
254	0x40000000	2.0
255	0x41c80000	25.0

block3_conv1d_bn_relu_1.op.bias f4 [16]
0	0x44800000	1024.0
1	0x44e00000	1792.0
2	0x45c00000	6144.0
3	0xc5300000	-2816.0
4	0x43800000	256.0
5	0x45e00000	7168.0
6	0x44200000	640.0
7	0x46020000	8320.0
8	0x45680000	3712.0
9	0xc5880000	-4352.0
10	0x43c00000	384.0
11	0x45500000	3328.0
12	0x44c00000	1536.0
13	0x43c00000	384.0
14	0xc5380000	-2944.0
15	0x43000000	128.0

block6_dense.op.weight f4 [2, 16]
0	0x42600000	56.0
1	0x42000000	32.0
2	0x42680000	58.0
3	0x41000000	8.0
4	0x40c00000	6.0
5	0x42500000	52.0
6	0x42200000	40.0
7	0x42340000	45.0
8	0x40e00000	7.0
9	0xc1880000	-17.0
10	0x42500000	52.0
11	0x42200000	40.0
12	0x42400000	48.0
13	0xc0800000	-4.0
14	0xc1200000	-10.0
15	0x42000000	32.0
16	0xc26c0000	-59.0
17	0xc1800000	-16.0
18	0xc1700000	-15.0
19	0x41880000	17.0
20	0xc1c80000	-25.0
21	0xc2900000	-72.0
22	0xc2500000	-52.0
23	0xc1f00000	-30.0
24	0xc2300000	-44.0
25	0x40400000	3.0
26	0xc2480000	-50.0
27	0xc1400000	-12.0
28	0xc0e00000	-7.0
29	0x40800000	4.0
30	0x40400000	3.0
31	0xc2840000	-66.0

momentum_buffer f4 [4, 1, 4]
0	0x3c4c5e96	0.012473723
1	0x3bbb33e1	0.0057129716
2	0xbbec206e	-0.0072060144
3	0xbbc5bc39	-0.006034401
4	0x3bac00b4	0.0052491073
5	0x3cc591b5	0.02411733
6	0x3d0e29cc	0.03470783
7	0x3d1f7018	0.03892526
8	0x3cef9a8f	0.029248504
9	0x3c92853c	0.017885797
10	0xbab79df4	-0.0014008866
11	0xb9927b40	-0.00027939118
12	0x3bcf43fe	0.006325244
13	0x3be6bb0d	0.007041341
14	0x3ae3e4ae	0.0017386877
15	0xbbba4b67	-0.005685258

momentum_buffer f4 [4]
0	0xbe6a0b67	-0.22855912
1	0x3ec6680a	0.3875125
2	0x3c52b048	0.012859412
3	0xbd289255	-0.041155178

momentum_buffer f4 [16, 4, 5]
0	0x3c4d5a10	0.01253368
1	0x3c11e3e5	0.008904432
2	0x3c4cfec1	0.01251191
3	0x3bd49f42	0.0064887116
4	0x3b8ddfd0	0.004329659
5	0xbadbef14	-0.0016779625
6	0xba7f38d1	-0.00097359443
7	0x3b7548a2	0.0037427326
8	0x3b85f7a2	0.004088358
9	0x3bbc54ef	0.0057474296
10	0x3c23d0a0	0.009998471
11	0x3c06ed88	0.008235343
12	0x3c2b165c	0.010442343
13	0x3b880bd2	0.0041517997
14	0x3b5b4e76	0.0033463514
15	0x3c23de2a	0.0100016985
16	0x3c1a7b37	0.009428791
17	0x3c505673	0.012715924
18	0x3c0d7041	0.00863272
19	0x3bcd0aa4	0.006257372
20	0xbc226136	-0.009910872
21	0xbc092ca5	-0.0083724605
22	0xbab2d765	-0.0013644515
23	0xba03d63f	-0.00050291786
24	0xbb96e82c	-0.0046053138
25	0x3cabfebd	0.020995492
26	0x3cc1d7aa	0.023662407
27	0x3c30771a	0.0107705835
28	0x3bc3a8a0	0.0059710294
29	0x3c00f6f1	0.007871375
30	0xbc34e5e9	-0.011041143
31	0xbc1b5947	-0.009481735
32	0xbb966445	-0.00458959
33	0x3a062556	0.0005117258
34	0xbb523c19	-0.0032079278
35	0xbc41055e	-0.011781065
36	0xbc12a260	-0.008949846
37	0xbbac5fd6	-0.005260448
38	0xba6afa1f	-0.00089636625
39	0xbb9b03ed	-0.0047306926
40	0x3ca148b2	0.019687984
41	0x3c5d84b0	0.013520405
42	0x3c75e37e	0.015007852
43	0x3c09c589	0.008408912
44	0x3bcb95f0	0.0062129423
45	0x3d04f0ec	0.032456324
46	0x3ceb6cd4	0.028738417
47	0x3cbbba7b	0.02291607
48	0x3cd90597	0.026491923
49	0x3cec3c52	0.028837357
50	0x3bee8cf9	0.007279989
51	0x3b9a72e8	0.004713405
52	0x3bafbf3e	0.005363374
53	0xb9de2158	-0.00042367983
54	0xbb8b3bda	-0.004249078
55	0x3c4aa221	0.012367756
56	0x3c4242aa	0.011856714
57	0x3c307d5e	0.010772077
58	0x3bc9d2a0	0.0061591417
59	0xbafe2354	-0.0019389191
60	0xbb134719	-0.0022472797
61	0xbc135d83	-0.008994463
62	0xbb0b1199	-0.0021220206
63	0xb9702cf6	-0.00022904933
64	0xbb1879a3	-0.002326586
65	0xbb5c73f0	-0.003363844
66	0x3b2b0bb9	0.0026099517
67	0xbbca21e3	-0.0061685904
68	0xbc7f2cc1	-0.015574635
69	0xbc5804d0	-0.013184741
70	0xba205d32	-0.0006117403
71	0xbc04db62	-0.008108946
72	0xbb175ce0	-0.002309613
73	0x3a71ffe6	0.0009231552
74	0xbb360228	-0.0027772281
75	0xbaeaf726	-0.0017926439
76	0xbbfd24cc	-0.007725334
77	0xbbaa53cc	-0.0051979776
78	0xba380840	-0.00070202723
79	0xbb16bfad	-0.0023002431
80	0x3ab08468	0.0013467195
81	0xbae3c236	-0.0017376605
82	0xbbb6e173	-0.005581075
83	0xba703a42	-0.00091639545
84	0x3ada865f	0.0016672126
85	0xbb526a4d	-0.0032106817
86	0xbb5e2176	-0.0033894456
87	0xb9eec082	-0.00045538327
88	0xba8acd5e	-0.0010589769
89	0xbaccb1e8	-0.0015616985
90	0x3af47cf3	0.001865296
91	0xba577f96	-0.0008220611
92	0xbba3c6ef	-0.00499808
93	0x39c98488	0.0003843645
94	0x3b55e6c0	0.0032638758
95	0x3b48b054	0.0030622678
96	0xba535158	-0.00080611324
97	0xbb827dce	-0.0039822822
98	0xbac72e02	-0.0015196207
99	0x3af2c98a	0.0018523198
100	0xbb7153b2	-0.0036823568
101	0x389d39c0	7.4971e-05
102	0x3b3ffc90	0.0029294826
103	0x3b544ef0	0.0032395683
104	0x3b63586b	0.0034690152
105	0x3af1941c	0.0018430981
106	0xba54086a	-0.0008088412
107	0xbb334ba9	-0.002735833
108	0x39b743d0	0.00034955004
109	0xb9be3e28	-0.00036285934
110	0xbbba5723	-0.005686657
111	0xbabe7a40	-0.0014532283
112	0x3ae660d5	0.0017576466
113	0x3aeb98ee	0.0017974654
114	0x3b46313e	0.0030241753
115	0xbbdce5ee	-0.006741277
116	0xbade9dc5	-0.0016984275
117	0x3b3478f6	0.0027537919
118	0x3b27011f	0.0025482846
119	0x3b6e69e2	0.003637903
120	0x3b343ffc	0.0027503958
121	0x3b222006	0.0024738326
122	0xbb01227d	-0.0019704395
123	0xb8cc1d88	-9.732979e-05
124	0x3ae31722	0.001732562
125	0xba2d23ec	-0.0006604779
126	0x3b9901fb	0.0046694255
127	0x3aedaf8b	0.0018133981
128	0x3b1fa65c	0.0024360633
129	0xb99deb97	-0.00030120902
130	0x386eade8	5.6905585e-05
131	0xba435843	-0.00074518117
132	0xbb1648eb	-0.0022931646
133	0x393be918	0.00017920544
134	0x3b02c82f	0.0019955745
135	0xb9667452	-0.00021977842
136	0x3a7421a1	0.00093128724
137	0xbb14acc9	-0.0022685996
138	0xba12c7b0	-0.0005599214
139	0x3a83e625	0.0010063095
140	0x39abb078	0.0003274714
141	0xbad7a51c	-0.0016452405
142	0xbb054d37	-0.0020340213
143	0x3a888109	0.0010414432
144	0x3a9b68b4	0.0011856765
145	0xbab81b3c	-0.0014046202
146	0x3b3aad50	0.002848465
147	0x3a9669c5	0.0011475614
148	0xbafb7076	-0.0019183296
149	0xbb2b4590	-0.0026133992
150	0x3b00608f	0.0019588803
151	0xba416963	-0.00073780696
152	0xba5179ec	-0.0007990885
153	0x3a67562f	0.0008824793
154	0x394689e4	0.0001893412
155	0x3ac280e1	0.0014839434
156	0xba5dfffc	-0.00084686256
157	0xbb1d8f38	-0.0024041664
158	0x3aa6c1df	0.0012722573
159	0x3a0460e4	0.0005049838
160	0x3b6b9d89	0.0035952053
161	0x3ad7244a	0.0016414013
162	0x3ba1928b	0.0049307994
163	0x3b0721f7	0.002061961
164	0x3924f2ff	0.00015730782
165	0xbb994494	-0.0046773646
166	0xbb621f31	-0.0034503455
167	0xba8ccae7	-0.0010741622
168	0xba5720e8	-0.00082065025
169	0x3b915143	0.004434736
170	0x3b53c326	0.0032312362
171	0x3aeb1a36	0.0017936889
172	0x3b1b70c4	0.0023718337
173	0x3adf1aca	0.0017021534
174	0xbaf56638	-0.001872248
175	0x3ac2f7e4	0.0014874903
176	0x3a96984f	0.0011489483
177	0x3b8a6e10	0.0042245463
178	0x399ec012	0.00030279212
179	0xb9a6ca1f	-0.0003181258
180	0x3b749199	0.0037318228
181	0x3b4678d8	0.003028443
182	0xba39d3e3	-0.00070887635
183	0x3b7867b8	0.0037903618
184	0x3bf5bb64	0.0074991453
185	0x3ba79d3c	0.0051151793
186	0x3c218620	0.009858638
187	0x3c69a444	0.014260355
188	0x3c335ee8	0.01094792
189	0x3bc6b0a5	0.006063538
190	0x3a85d5de	0.0010210832
191	0x3b213c96	0.0024602762
192	0xbadb0440	-0.0016709641
193	0x3ad1060a	0.0015947234
194	0x3b8d2ded	0.0043084533
195	0x39f7ab8c	0.00047239324
196	0x3aaa8220	0.0013008751
197	0xba99aa72	-0.001172377
198	0x3b155c09	0.0022790453
199	0x3b6005ef	0.0034183224
200	0x3c094a2d	0.008379501
201	0x39706fe8	0.00022929872
202	0x3b8e4b57	0.0043424773
203	0x3a8b2d04	0.0010618274
204	0x3a3f0025	0.00072860933
205	0xba65f6b7	-0.000877242
206	0x3a8f89fa	0.0010951154
207	0x3b7b3a99	0.0038334487
208	0xbb2029bf	-0.0024438945
209	0xbad34b45	-0.0016120455
210	0x3ba867dc	0.005139334
211	0xba93ba98	-0.0011270819
212	0x3a05289a	0.00050795975
213	0x39cf25c4	0.00039510254
214	0x3a3b5d86	0.000714742
215	0x3bc1f7e5	0.005919444
216	0xba5e88b2	-0.0008488997
217	0x39b39a6c	0.00034256594
218	0xb9da3584	-0.00041620072
219	0x39bd5c34	0.00036117586
220	0x3ba7f67e	0.0051258197
221	0x3b0317ec	0.0020003272
222	0xbbdc9edf	-0.006732806
223	0x37c6a100	2.367841e-05
224	0x3b9f88b7	0.0048685926
225	0xbc04d98c	-0.008108508
226	0xba79eace	-0.0009533585
227	0x3a7309e8	0.00092711905
228	0xbc0d0d16	-0.008609077
229	0xbc37c409	-0.011216172
230	0x3b6096aa	0.003426949
231	0x3abd79f9	0.0014455906
232	0xbbc46f70	-0.0059947297
233	0xbb417024	-0.0029516304
234	0x3b210303	0.0024568446
235	0x3b72fc41	0.0037076625
236	0x3aadd2e0	0.0013261698
237	0xbbde4f28	-0.0067843385
238	0xbbb23fe0	-0.0054397434
239	0x3b03b9ff	0.0020099876
240	0xbb73a7cb	-0.003717887
241	0xba049874	-0.00050581177
242	0xbbe677bf	-0.007033318
243	0xbc51cd6c	-0.012805324
244	0xbbcb2a93	-0.0062001436
245	0xbae7f100	-0.0017695725
246	0xbb75286c	-0.0037408127
247	0x3acf610c	0.0015821769
248	0xbadcb3c9	-0.0016838248
249	0xbc09b9e7	-0.008406139
250	0xbb56799b	-0.003272629
251	0xb9cc5144	-0.0003897046
252	0xbbc44e1d	-0.005990757
253	0xbc32733d	-0.010891733
254	0xbc0ab60e	-0.008466257
255	0xbb8a9ffd	-0.004230498

momentum_buffer f4 [16]
0	0x3c618a1f	0.013765841
1	0x3c171bf0	0.009222969
2	0x3d453fff	0.048156735
3	0xbcdae2ab	-0.026719412
4	0xbc1b3cc8	-0.009474941
5	0x3c0c6b76	0.008570543
6	0x3b7e4a75	0.0038801704
7	0x3ac069f2	0.0014680012
8	0xbc1fa3e7	-0.009743667
9	0x3cea43ea	0.028596837
10	0xbb92c914	-0.004479537
11	0xbc084f72	-0.0083197225
12	0xbc5cead4	-0.013483722
13	0x3c7261db	0.014793838
14	0x3c72380a	0.014783869
15	0xbcc8a41e	-0.02449232

momentum_buffer f4 [16, 16, 5]
0	0xbb082227	-0.002077231
1	0xbb6eed44	-0.003645734
2	0xbab73470	-0.001397742
3	0xb9fddefc	-0.00048422057
4	0xb91e3662	-0.00015088313
5	0xba8257e8	-0.0009944411
6	0xba0d9a17	-0.00054016843
7	0x399b1c68	0.00029585068
8	0xb9e3063c	-0.0004330146
9	0xba95aa79	-0.0011418603
10	0x39f7e8f1	0.00047285066
11	0x392398cc	0.00015601813
12	0xb936dd1b	-0.00017439241
13	0xbaed37a0	-0.0018098243
14	0xbb0ccc47	-0.0021484063
15	0xb9b185d5	-0.00033859783
16	0xb91ea55a	-0.00015129652
17	0xbb4c6747	-0.0031189488
18	0xbaeeb541	-0.0018211977
19	0xba6879ea	-0.0008868264
20	0x36ba5620	5.5532582e-06
21	0xbaabfa6f	-0.00131209
22	0x382ec7e2	4.1670988e-05
23	0xbad94b1d	-0.0016578172
24	0x39c81f18	0.0003817014
25	0xba2b852f	-0.0006542978
26	0xb9d01dbd	-0.00039695008
27	0x3a0057e3	0.00048959086
28	0xb9ae9da2	-0.00033305312
29	0x3a34c742	0.0006896147
30	0x380aea1a	3.3119788e-05
31	0xb9883118	-0.0002597652
32	0xb8877275	-6.458621e-05
33	0x3807a4aa	3.2339864e-05
34	0xb80570c3	-3.181469e-05
35	0xb8d9bc64	-0.00010382457
36	0xb9dfac0c	-0.0004266206
37	0xba678c33	-0.0008832842
38	0xb94a3735	-0.00019284787
39	0xba88e8f6	-0.0010445404
40	0x39c48778	0.00037484965
41	0xba0ef088	-0.0005452712
42	0xba917d03	-0.0011099878
43	0x3987517e	0.00025809923
44	0xb9feeccd	-0.00048623086
45	0xb9ea4e32	-0.00044690218
46	0xba047084	-0.00050521665
47	0xb906d81c	-0.00012859743
48	0x38dffbfe	0.00010680406
49	0xba07be41	-0.00051781913
50	0x391baac4	0.00014845567
51	0xbac38e6f	-0.0014919768
52	0xba6f6c2b	-0.0009133245
53	0xbac0d9b4	-0.0014713318
54	0x39c3f22e	0.00037373736
55	0xba8cfab6	-0.001075587
56	0x3908cb00	0.00013045594
57	0xbab3a27f	-0.0013705044
58	0xba58b2ad	-0.0008266371
59	0xba18d1d7	-0.00058296084
60	0xbaa779f2	-0.0012777431
61	0xb9f8ab18	-0.0004742972
62	0xba083e3c	-0.0005197262
63	0xba82843b	-0.0009957621
64	0x3a036d7a	0.00050135667
65	0xbb20de0c	-0.0024546413
66	0xbb12808c	-0.0022354452
67	0xba23b34f	-0.00062446756
68	0xb9d1a1fd	-0.00039984277
69	0xba236abb	-0.00062338606
70	0xbb1a6648	-0.00235595
71	0xb9d93a3c	-0.00041432853
72	0xba1a7379	-0.00058918406
73	0xb9893384	-0.00026169058
74	0xba352034	-0.00069094007
75	0xbb27e5cb	-0.0025619145
76	0xbb2b7d5f	-0.0026167256
77	0xbab2fb05	-0.0013655132
78	0xba0de291	-0.0005412484
79	0xba06528f	-0.00051239965
80	0xbb184864	-0.0023236508
81	0xb9e3cfe2	-0.000434517
82	0xba8c4d40	-0.0010704175
83	0xba93d673	-0.0011279121
84	0xb8e7ba85	-0.0001104968
85	0x3a564dc4	0.000817504
86	0xba04700e	-0.0005052098
87	0xb8022730	-3.103091e-05
88	0xbae7a9cc	-0.0017674505
89	0xb9b7c5f6	-0.00035051972
90	0x3b69933e	0.0035640742
91	0x3b6bb1fe	0.0035964246
92	0x3b055fd4	0.0020351307
93	0x393b8c60	0.00017886003
94	0x3ab3a26a	0.0013705019
95	0x397cb89e	0.00024101368
96	0xba90dfa0	-0.0011052974
97	0xbab934f5	-0.0014130162
98	0xb9c60dad	-0.00037775692
99	0xbb2fdc70	-0.0026834272
100	0xbae3be08	-0.0017375359
101	0x396a5604	0.00022348022
102	0xbaaa89aa	-0.0013010998
103	0x398ad25e	0.00026478147
104	0xba20c96c	-0.000613353
105	0x380befa8	3.336338e-05
106	0x39abb8cd	0.0003275335
107	0xba9c6e49	-0.0011934723
108	0x399fab03	0.00030454257
109	0x39ac4c52	0.0003286326
110	0xb8ce8d1b	-9.8491284e-05
111	0xba5ac5f3	-0.0008345537
112	0xb940f91b	-0.00018403346
113	0xb8a48b22	-7.846045e-05
114	0x3952f157	0.00020117067
115	0x3a2ffc34	0.00067133014
116	0xb9b1c9b3	-0.00033910348
117	0x3a4c2176	0.00077869685
118	0x36890260	4.0831947e-06
119	0xba83361b	-0.0010010632
120	0xb8e9b272	-0.00011143544
121	0x392fe0e1	0.00016773074
122	0x3a3dd106	0.0007240925
123	0x3a23078e	0.0006219082
124	0xba4288d8	-0.0007420904
125	0x3aa2b254	0.0012412765
126	0x3ab0b3ae	0.0013481283
127	0x3aba2c08	0.0014203796
128	0x3accc836	0.0015623632
129	0x3ace2c08	0.0015729675
130	0xba2a0693	-0.0006485965
131	0xba1cc244	-0.00059798756
132	0xbaac3e52	-0.0013141131
133	0x38ae5368	8.312502e-05
134	0xbabbfc8d	-0.0014342234
135	0xb98e8abf	-0.00027187724
136	0xb990024a	-0.00027467526
137	0xba745bff	-0.000932157
138	0x39f55d96	0.00046799768
139	0xb981f8f9	-0.00024790296
140	0xbb1ba03c	-0.002374663
141	0xb8b2c8f0	-8.525129e-05
142	0x3ab185ae	0.0013543868
143	0x3b14c77e	0.0022701914
144	0x3a3754f3	0.00069935544
145	0xbb531fee	-0.0032215076
146	0x398c53fe	0.0002676546
147	0x39fc262b	0.00048093623
148	0x3b223f78	0.0024757069
149	0xb9a82b34	-0.00032075646
150	0xb869cbf4	-5.5741475e-05
151	0x3a96f1bc	0.0011516134
152	0xb878e690	-5.9342536e-05
153	0x3a461064	0.0007555543
154	0xba481023	-0.0007631799
155	0x3a0d4bba	0.0005390007
156	0x39d56f8d	0.00040709638
157	0x3afc2260	0.0019236319
158	0x3b112474	0.0022146972
159	0x3979c8e2	0.00023821325
160	0x3979ce5a	0.00023823362
161	0x3b70052b	0.0036624174
162	0x3aba70fa	0.0014224343
163	0x3a408386	0.0007343817
164	0x3ab90d09	0.0014118265
165	0xbb16d9ee	-0.002301808
166	0xbb3a327a	-0.0028411434
167	0xba29802e	-0.00064659386
168	0xb9b16d29	-0.000338414
169	0x3786f824	1.6089594e-05
170	0x3b768a30	0.0037618987
171	0x3bc91b23	0.006137268
172	0x3b96d072	0.0046024853
173	0x3bafc81c	0.005364431
174	0x3ba0f412	0.004911908
175	0xbb6dfebc	-0.0036315164
176	0xbade99c4	-0.0016983082
177	0xbb10d74c	-0.0022100983
178	0xba0ca695	-0.0005365399
179	0xbb29aab6	-0.0025889105
180	0xbb0b0f20	-0.0021218732
181	0x3a22f8ae	0.0006216866
182	0xbb0af66c	-0.0021204008
183	0xbae7ec09	-0.0017694245
184	0xba94594e	-0.0011318119
185	0xbae9cb07	-0.0017836996
186	0xb9456e96	-0.0001882858
187	0xba53797c	-0.0008067114
188	0xba6a5326	-0.00089387817
189	0x378a0f80	1.64581e-05
190	0xba8039b0	-0.0009782817
191	0x3a48bf1c	0.0007657872
192	0xb9193522	-0.0001461101
193	0x39e70241	0.00044061433
194	0x39d65b64	0.00040885352
195	0x39976b26	0.00028880796
196	0xba5e6c2a	-0.00084847456
197	0xba5d3dec	-0.0008439708
198	0xb9d3429a	-0.00040294678
199	0xb905aba0	-0.00012747804
200	0x381d2228	3.7463527e-05
201	0xb8e3621d	-0.000108424785
202	0xba1c3018	-0.0005958094
203	0xba2f836b	-0.0006695303
204	0xbb0d903c	-0.0021600863
205	0x3af862e6	0.0018950372
206	0x3ae308f8	0.0017321398
207	0x3add5dd0	0.001688892
208	0x3b4b1e3f	0.003099337
209	0x3b5d5511	0.0033772627
210	0xbb2202d6	-0.0024720929
211	0x399ba605	0.00029687598
212	0xbb209dee	-0.0024508196
213	0x39a8d792	0.0003220407
214	0xbaae8dae	-0.001331737
215	0xb9eb820b	-0.00044919582
216	0xb963f869	-0.00021740947
217	0xb9bae418	-0.00035646628
218	0xba37a72f	-0.00070058083
219	0xba1d4e28	-0.0006000721
220	0x3bc86447	0.0061154696
221	0x3bd9c96f	0.006646327
222	0x3bafefc4	0.0053691585
223	0x3c0b8f71	0.008518086
224	0x3b5b383e	0.003345027
225	0xb98b6e75	-0.00026594443
226	0x3a1ffbe2	0.0006102902
227	0xbace72a2	-0.0015750716
228	0x3a1b0464	0.0005913435
229	0xbadf2389	-0.001702414
230	0x3b18eabb	0.002333327
231	0x3b111a52	0.0022140932
232	0xb7913300	-1.7309096e-05
233	0x3b24a1aa	0.0025120773
234	0x3aae498a	0.0013297063
235	0x3bf4e9d0	0.0074741617
236	0x3bcbef90	0.0062236264
237	0x3bb79458	0.0056024007
238	0x3bb113a1	0.0054039513
239	0x3bbb4e3f	0.005716115
240	0xbb378ba3	-0.0028006814
241	0xbb514f95	-0.0031938304
242	0xbb869744	-0.0041073877
243	0xbbb4a97b	-0.0055133677
244	0xbb372201	-0.0027943852
245	0x388e31c8	6.78036e-05
246	0x39efe0f5	0.00045753238
247	0x3b4ded85	0.003142209
248	0x390ca8e0	0.00013414351
249	0x398c5abb	0.0002677048
250	0xbbf1eada	-0.007382733
251	0xbc0ec632	-0.008714246
252	0xbc025164	-0.007953975
253	0xbbf96086	-0.0076103834
254	0xbc0cd93c	-0.008596715
255	0x3afb7e44	0.001918741

momentum_buffer f4 [16]
0	0xbc07321a	-0.008251691
1	0x3ae4fc39	0.0017470188
2	0x3c4e4176	0.012588849
3	0xbca59a74	-0.02021525
4	0xbaad0cde	-0.0013202687
5	0x3cb1c1bf	0.02169883
6	0x3c180835	0.0092793
7	0xbc968968	-0.018376067
8	0xba6582ed	-0.0008755166
9	0xba758a6c	-0.0009366635
10	0xbcb92ed2	-0.022605333
11	0x3a3b55e5	0.0007146283
12	0xbb709fa9	-0.0036716259
13	0xba831c09	-0.0010002862
14	0x3d0d9659	0.03456721
15	0xb9b6b871	-0.00034851165
