trained_custom/checkpoints/energy_profiling/input_data_size/ep_v1.24_512_epidenet_b_v3.2_qat_best.pth.tar (torch, 92175 bytes, 26 tensors)

block1_conv1d_bn_relu_1.op.weight f4 [4, 1, 4]
-0.4403338 1.9635442 -3.4477024 -3.0512242 -1.8452563 1.8828665 -0.031636298 4.770387
-2.2523668 2.1252759 -3.2268002 -1.9266744 -2.4614441 -1.7109668 -1.0727949 0.07636752
00000000: 6f73 e1be 6b55 fb3f 28a7 5cc0 4247 43c0
00000010: 5c31 ecbf c501 f13f 1095 01bd 03a7 9840
00000020: c726 10c0 8504 0840 e583 4ec0 449d f6bf
00000030: 4d88 1dc0 f600 dbbf 5851 89bf 9366 9c3d

block1_conv1d_bn_relu_1.op.bias f4 [4]
0.07834307 -0.031920698 0.030749151 0.09082765
00000000: 5572 a03d 47bf 02bd a5e5 fb3c d903 ba3d

block2_conv1d_bn_relu_1.op.weight f4 [16, 4, 5]
0.2690741 0.582977 -0.11899445 0.55654573 -0.09306188 0.09012498 0.64626604 -0.64479095
-0.43007362 -0.16980268 -0.25341508 0.60850596 -0.42899504 -0.2871196 -0.4677372 -0.6281521
-0.3974207 0.62022024 0.34428287 0.365756 0.06554626 -0.35267174 0.11318635 -0.6784063
-0.51189417 -0.45846248 0.36977595 0.41532263 -0.31068334 -0.030951116 0.50413257 0.7541838
0.29444903 0.100694045 0.5038242 -0.37649056 0.17378631 -0.5505843 -0.4982793 -0.35497567
0.25024357 0.24257836 -0.30393097 0.2030068 0.34290382 -0.13321774 -0.038864672 0.08236075
0.30888715 0.49756742 -0.40655437 -0.16153215 0.28155357 0.52584976 0.5504178 0.5234395
0.1531945 -0.43405277 0.10660418 -0.2912274 -0.5423556 0.5056513 0.42229888 -0.57736677
0.104456894 -0.10623378 -0.10709032 -0.26115566 0.20339014 -0.362608 0.20038892 0.2858086
0.40049225 0.20892574 -0.57107705 -0.38194558 0.28360552 0.10917347 -0.45784584 -0.33414444
0.73503906 0.5315214 -0.34683728 -0.22150853 -0.8150201 -0.020315979 -0.6437327 -0.66675264
-0.014123479 0.17024077 -0.392192 0.45886508 -0.49751845 0.7422225 0.5452285 -0.7496798
-0.2542175 0.031007167 0.11491628 0.16637796 0.25100407 0.039591618 -0.310464 0.31256112
-0.620829 -0.3933874 -0.17410542 -0.32975242 -0.2298393 -0.5194824 -0.13998815 0.14600897
-0.41338956 -0.024334598 0.47676125 -0.072181635 0.023215879 -0.04904715 0.14216112 0.42296708
0.7780944 0.51066685 0.7817382 -0.0787006 -0.7768948 -0.3824351 0.5689633 -0.007237221
-0.43015146 -0.6584242 -0.82309884 -0.74441534 -0.1961715 0.45104444 0.45012185 -0.8444376
0.50449204 -0.692551 -0.1991788 -0.35539287 -0.14085075 -0.113180906 -0.51979184 -0.5145882
-0.1094583 -0.017957551 -0.31123525 0.18965855 -0.51610947 -0.030122573 0.4690641 -0.23987518
0.5149323 0.19018489 -0.5378001 0.320069 -0.08138171 -0.2636897 0.43985564 -0.4842159
0.05468139 -0.32176095 0.8389275 0.25143066 0.5023505 0.38225952 -0.37525016 -0.37944338
-1.1539696 0.565341 0.96258724 0.8535779 -0.96896493 -0.029549684 -1.0066268 -0.7462146
-0.76481533 0.37714177 -0.83758783 -0.12629248 0.015433805 0.30079883 -0.36930415 -0.33245555
-0.28816962 0.32907173 -0.1754511 0.40345165 0.16057679 0.052789506 -0.0038425094 -0.10609902
0.05658964 -0.10977381 -0.006226065 0.06502075 -0.38764277 -0.26335683 0.39437523 -0.3942565
-0.09775171 0.60596025 0.21176004 0.006313162 -0.57665956 0.31041282 -0.49905542 -0.21293598
-0.23943074 -0.120040625 -0.030971998 0.5123213 0.07155763 0.5784344 0.3976197 -0.44695354
0.25941852 -0.47647896 -0.28283477 0.18818425 0.30163106 0.7049712 -0.25442013 0.011522356
0.49024737 -0.8784526 0.65054655 -0.8096695 0.037971415 -0.10220711 -0.48323864 0.14275685
0.81826687 -0.24322486 -0.52785224 -0.34519234 -0.8927608 0.46893623 -0.39982784 -0.5946587
-0.47981125 0.45911124 0.43823582 0.67610115 0.30869964 -0.34410617 -0.22806725 0.22828059
0.65539783 0.22198762 -0.393794 -0.41758257 -0.80876374 0.20350038 -0.46829075 -0.7412576
00000000: 15c4 893e fb3d 153f 5db3 f3bd c879 0e3f
00000010: 3a97 bebd 7293 b83d b171 253f 0511 25bf
00000020: 9c32 dcbe c1e0 2dbe 9fbf 81be 0cc7 1b3f
00000030: 3da5 dbbe 5701 93be 407b efbe 93ce 20bf
00000040: ba7a cbbe c1c6 1e3f d845 b03e 5f44 bb3e
00000050: 1e3d 863d 6491 b4be 3fce e73d 09ac 2dbf
00000060: 7f0b 03bf 98bb eabe 4653 bd3e 2ba5 d43e
00000070: e311 9fbe 328d fdbc d50e 013f 3112 413f
00000080: 06c2 963e ae38 ce3d 9ffa 003f 5fc3 c0be
00000090: 0af5 313e 18f3 0cbf 771e ffbe 5fbf b5be
000000a0: ed1f 803e 7666 783e d79c 9bbe 04e1 4f3e
000000b0: 1791 af3e 3b6a 08be 9030 1fbd c1ac a83d
000000c0: 7526 9e3e 28c1 fe3e e527 d0be af68 25be
000000d0: ca27 903e 179e 063f 2ee8 0c3f 2200 063f
000000e0: 05df 1c3e 2a3c debe 4b53 da3d c21b 95be
000000f0: d1d7 0abf 5d72 013f 8f37 d83e 4fce 13bf
00000100: 7fed d53d 1991 d9bd 2b52 dbbd 32b6 85be
00000110: 8145 503e c1a7 b9be c132 4d3e 8155 923e
00000120: 520d cd3e a1f0 553e 1b32 12bf 5f8e c3be
00000130: be34 913e 5796 df3d c56a eabe fb14 abbe
00000140: 852b 3c3f c911 083f a894 b1be 22d3 62be
00000150: 28a5 50bf b26d a6bc abcb 24bf 4db0 2abf
00000160: 2a66 67bc 9953 2e3e 64cd c8be 5df0 ea3e
00000170: bdba febe 4b02 3e3f 1894 0b3f 04eb 3fbf
00000180: cc28 82be be02 fe3c 3a59 eb3d fc5e 2a3e
00000190: 9b83 803e d22a 223d 23f5 9ebe 0308 a03e
000001a0: a6ee 1ebf 136a c9be b148 32be 4fd5 a8be
000001b0: fe5a 6bbe ccfc 04bf 0e59 0fbe 6083 153e
000001c0: cca7 d3be 5a59 c7bc 0d1a f43e f7d3 93bd
000001d0: 3a2f be3c aae5 48bd af92 113e 248f d83e
000001e0: 3231 473f 10bb 023f ff1f 483f c82d a1bd
000001f0: 94e2 46bf 89ce c3be 94a7 113f 3626 edbb
00000200: d03c dcbe 7d8e 28bf 9bb6 52bf 0192 3ebf
00000210: 2fe1 48be 4cef e63e 5f76 e63e 102d 58bf
00000220: 6426 013f 064b 31bf 87f5 4bbe 0ef6 b5be
00000230: 2e3b 10be 64cb e7bd 1411 05bf 0dbc 03bf
00000240: ac2b e0bd b71b 93bc 3a5a 9fbe da35 423e
00000250: c01f 04bf 9dc3 f6bc 2b29 f03e d7a1 75be
00000260: 9ad2 033f d4bf 423e 44ad 09bf 15e0 a33e
00000270: 74ab a6bd 5602 87be c234 e13e 25eb f7be
00000280: 98f9 5f3d dabd a4be f4c3 563f 85bb 803e
00000290: 0b9a 003f 85b7 c33e ca20 c0be 6746 c2be
000002a0: 47b5 93bf 30ba 103f 1e6c 763f 1584 5a3f
000002b0: 160e 78bf 2e12 f2bc 26d9 80bf ec07 3fbf
000002c0: f0ca 43bf ba18 c13e 286c 56bf d152 01be
000002d0: 12de 7c3c 4e02 9a3e 6f15 bdbe 9d37 aabe
000002e0: f88a 93be 177c a83e 74a9 33be 3791 ce3e
000002f0: 3e6e 243e cf39 583d 9cd2 7bbb 714a d9bd
00000300: 8aca 673d 17d1 e0bd 0504 ccbb 9929 853d
00000310: 1d79 c6be b5d6 86be 8deb c93e fddb c9be
00000320: 0c32 c8bd 3620 1b3f a0d7 583e a4de ce3b
00000330: f69f 13bf 6eee 9e3e 3184 ffbe e40b 5abe
00000340: 552d 75be dcd7 f5bd fdb8 fdbc 7d27 033f
00000350: cf8c 923d 4714 143f cf94 cb3e 18d7 e4be
00000360: 81d2 843e 0df5 f3be b8cf 90be 5fb3 403e
00000370: 636f 9a3e fe78 343f 5b43 82be 44c8 3c3c
00000380: b401 fb3e 45e2 60bf 388a 263f 8046 4fbf
00000390: ea87 1b3d f651 d1bd 0e6b f7be da2e 123e
000003a0: f079 513f f00f 79be 5321 07bf 0dbd b0be
000003b0: f98b 64bf 6918 f03e 3cb6 ccbe 8d3b 18bf
000003c0: d2a9 f5be a110 eb3e 7260 e03e f714 2d3f
000003d0: e10d 9e3e af2e b0be 768a 69be 63c2 693e
000003e0: 27c8 273f b950 633e 5e9f c9be 62cd d5be
000003f0: 240b 4fbf 6762 503e cec3 efbe 0fc3 3dbf

block2_conv1d_bn_relu_1.op.bias f4 [16]
-0.032317325 0.11495042 -0.295001 0.15194301 0.15855283 0.19111878 0.26339078 0.22884734
0.23660652 0.077099115 -0.0048515024 0.24039249 0.0540263 0.0800979 0.037557703 -0.23816839
00000000: 2c5f 04bd 206b eb3d 5f0a 97be f396 1b3e
00000010: ac5b 223e a4b4 433e 28db 863e f556 6a3e
00000020: fb48 723e 24e6 9d3d 5af9 9ebb 7329 763e
00000030: ae4a 5d3d 5e0a a43d 1bd6 193d 6ae2 73be

block2_conv1d_bn_relu_2.op.weight f4 [16, 16, 5]
-0.119222865 0.1296997 -0.22905773 0.051459868 -0.2167159 -0.32415435 -0.2566013 0.23226522
0.17238177 0.3107647 0.21826185 -0.28815326 -0.21808523 -0.055965524 -0.19992322 0.21155117
-0.23957661 -0.15693656 -0.29991272 -0.17907701 0.2638441 0.26594517 0.23276953 0.24196178
0.26536232 -0.07063035 0.13641177 0.25991872 0.08434903 0.29378745 0.17650986 0.18961392
-0.12550016 0.12568584 0.025554478 -0.08123355 -0.17678197 -0.17106132 -0.23571642 0.2076594
0.23733024 -0.015346917 -0.17051157 0.24362059 0.18500723 0.0005798237 -0.16490807 0.27410755
0.13140582 -0.20996916 0.26539823 0.20043017 -0.14287569 0.14457834 -0.19251868 -0.033957846
0.27427092 0.025343861 -0.20735842 -0.10289307 -0.09113244 -0.06458217 0.03057452 0.28788635
0.02768547 -0.18322504 -8.609093e-05 0.12117327 0.13045388 -0.28881842 -0.0726091 -0.24471325
-0.14079876 0.112985626 -0.2050241 0.06640639 0.22237398 -0.0034115831 -0.21671079 -0.11651401
0.05971092 -0.30236742 0.14416468 -0.35618722 -0.36152586 -0.35753793 -0.052411247 0.27099127
-0.3229829 0.3081899 -0.16206491 0.08070169 -0.0020444843 -0.3566297 0.2736845 0.21221542
0.3743542 0.15858863 -0.27381235 0.2832834 0.036868967 0.16541694 -0.31190977 -0.1289542
-0.37648064 -0.15164925 0.06578357 -0.30549595 0.09635012 0.17424718 0.036949053 -0.25832716
-0.30355817 -0.11909939 0.15734279 0.36790097 0.23468493 -0.022353021 0.13660061 -0.35019696
-0.2945523 0.1518796 -0.21154752 0.15414166 -0.26953697 -0.18945546 -0.29671562 0.2156991
-0.012961015 0.32288945 0.20074697 0.17627187 -0.020257723 -0.15048921 -0.09471272 0.066236034
0.19452097 -0.26104382 0.30024582 -0.04929368 -0.31249446 -0.19212304 0.3190819 0.3298997
-0.310183 0.23647518 0.14381564 0.18911804 0.3035664 -0.17162512 0.08906168 0.13700576
-0.102612264 0.124886595 -0.098344445 0.18589246 -0.13395956 -0.16943824 0.06753814 0.114336826
-0.13624084 0.021436691 0.16513619 -0.017447896 0.11144828 -0.056833874 0.12899464 -0.20899917
-0.17138252 -0.14474373 0.24565792 -0.09423344 -0.012155658 -0.16353467 0.27707386 0.33154872
-0.20361607 -0.2202979 -0.20348549 0.015542488 -0.058237232 -0.1830954 -0.08514363 0.06880645
-0.1323379 0.078904495 -0.056142867 -0.12684453 0.057368126 0.26018238 -0.18921877 0.019742038
-0.10413564 0.29535246 -0.27605528 -0.2748416 0.29958457 -0.17097263 0.06424934 -0.021091366
-0.052311823 -0.059678484 0.2010118 0.025224805 -0.28124788 -0.176455 -0.10806317 0.13576177
-0.20552345 0.2648699 -0.03863068 -0.035929877 0.24426365 0.15900484 0.27668947 0.18855464
-0.08176637 -0.188594 -0.008119184 0.2479299 -0.10823804 -0.2787386 0.09633115 0.26205745
-0.093888886 -0.23163654 -0.25746638 0.08784507 -0.006778492 -0.14358814 0.06718237 0.11493855
0.24802141 0.23034129 -0.042638484 -0.27203375 -0.27853078 0.2713571 0.13556413 0.1353356
-0.31029385 0.33709466 0.335734 0.35229793 -0.31624997 -0.14862807 -0.26082185 0.32957906
-0.16156441 -0.18831137 0.21675114 -0.13761573 -0.1550652 -0.008239225 -0.023929873 -0.2964071
00000000: 1e2b f4bd 00d0 043e 1c8e 6abe 95c7 523d
00000010: c6ea 5dbe 8ff7 a5be 3f61 83be efd6 6d3e
00000020: d984 303e 8d1c 9f3e 0980 5f3e d388 93be
00000030: bc51 5fbe 1b3c 65bd acb8 4cbe dfa0 583e
00000040: 9253 75be fab3 20be 298e 99be f75f 37be
00000050: 9316 873e f729 883e 235b 6e3e d4c4 773e
00000060: 92dd 873e a5a6 90bd 87af 0b3e 1114 853e
00000070: 2fbf ac3d 4f6b 963e 00bf 343e 272a 423e
00000080: 1d83 00be cab3 003e a057 d13c c75d a6bd
00000090: 5506 35be b32a 2fbe a55f 71be aaa4 543e
000000a0: b306 733e a371 7bbc 969a 2ebe ad77 793e
000000b0: 8972 3d3e 4fff 173a a9dd 28be d357 8c3e
000000c0: 3f8f 063e 2802 57be 47e2 873e 913d 4d3e
000000d0: 014e 12be 580c 143e 9e23 45be 6217 0bbd
000000e0: 3d6d 8c3e ee9d cf3c c455 54be 9ab9 d2bd
000000f0: a5a3 babd a843 84bd 6a77 fa3c d765 933e
00000100: a4cc e23c 589f 3bbe b78b b4b8 b129 f83d
00000110: b495 053e 02e0 93be 14b4 94bd 1c96 7abe
00000120: 8d2d 10be 0265 e73d d6f1 51be 1300 883d
00000130: 01b6 633e de94 5fbb 6fe9 5dbe e69e eebd
00000140: 7093 743d e7cf 9abe e89f 133e 2c5e b6be
00000150: eb19 b9be 360f b7be 2dad 56bd 5ebf 8a3e
00000160: 045e a5be 11cb 9d3e 58f4 25be ed46 a53d
00000170: c1fc 05bb 2b98 b6be 6020 8c3e 004f 593e
00000180: 5bab bf3e 0f65 223e 2231 8cbe 860a 913e
00000190: ea03 173d 0f63 293e a3b2 9fbe 920c 04be
000001a0: 12c2 c0be f149 1bbe 89b9 863d f769 9cbe
000001b0: 3653 c53d da6d 323e e457 173d 7543 84be
000001c0: fa6b 9bbe 62ea f3bd 781e 213e 845d bc3e
000001d0: 3f51 703e af1d b7bc 08e1 0b3e 044d b3be
000001e0: 8fcf 96be 5386 1b3e ea9f 58be 50d7 1d3e
000001f0: c000 8abe 9d00 42be 1ceb 97be 3ae0 5c3e
00000200: 705a 54bc c451 a53e 9d90 4d3e 9d80 343e
00000210: 86f3 a5bc d819 1abe bef8 c1bd c2a6 873d
00000220: 8130 473e 89a7 85be d2b9 993e 2be8 49bd
00000230: 46ff 9fbe e7bb 44be b45e a33e 9de8 a83e
00000240: 4ed0 9ebe 8d26 723e 6844 133e 29a8 413e
00000250: 0e6d 9b3e 7fbe 2fbe f865 b63d 3d4b 0c3e
00000260: 6126 d2bd 8bc4 ff3d d068 c9bd 985a 3e3e
00000270: b22c 09be 3881 2dbe 7051 8a3d 6d29 ea3d
00000280: b882 0bbe 009c af3c 7619 293e e4ee 8ebc
00000290: ff3e e43d a3ca 68bd 2c17 043e e103 56be
000002a0: e67e 2fbe b337 14be c08d 7b3e 76fd c0bd
000002b0: 8628 47bc a275 27be a0dc 8d3e c1c0 a93e
000002c0: bb80 50be c695 61be 805e 50be eba5 7e3c
000002d0: 2a8a 6ebd 5c7d 3bbe c95f aebd 65ea 8c3d
000002e0: 9683 07be ae98 a13d 10f6 65bd 88e3 01be
000002f0: d7fa 6a3d a036 853e 91c2 41be 0eba a13c
00000300: 1145 d5bd 7038 973e 1e57 8dbe 0ab8 8cbe
00000310: 2663 993e 7313 2fbe 2895 833d cdc7 acbc
00000320: ec44 56bd 6d71 74bd 0ad6 4d3e 40a4 ce3c
00000330: b9ff 8fbe 9fb0 34be 3950 ddbd 2205 0b3e
00000340: bd74 52be 079d 873e 343b 1ebd 352b 13bd
00000350: 4020 7a3e 2ad2 223e 3eaa 8d3e 7814 413e
00000360: 2075 a7bd c91e 41be 5306 05bc 56e1 7d3e
00000370: e8ab ddbd d3b6 8ebe 4449 c53d 652c 863e
00000380: d148 c0bd 2132 6dbe a2d2 83be 1ee8 b33d
00000390: 1d1e debb c508 13be e996 893d e764 eb3d
000003a0: 53f9 7d3e 96de 6b3e b1a5 2ebd 0248 8bbe
000003b0: 969b 8ebe 51ef 8a3e 53d1 0a3e 6a95 0a3e
000003c0: d6de 9ebe ac97 ac3e 54e5 ab3e 6560 b43e
000003d0: 84eb a1be f531 18be 718a 85be 96be a83e
000003e0: 2471 25be b2d4 40be 03f4 5d3e 23eb 0cbe
000003f0: 69c9 1ebe d0fd 06bc 9508 c4bc acc2 97be

block2_conv1d_bn_relu_2.op.bias f4 [16]
-0.057848435 0.055507846 0.031059757 -0.008914892 -0.07627339 -0.04939808 -0.4511145 0.11772888
0.1238374 0.4980031 0.16257799 -0.084005296 -0.15750685 0.36079392 -0.22214442 0.07917023
00000000: 7bf2 6cbd 325c 633d 0871 fe3c c40f 12bc
00000010: 3935 9cbd a455 4abd 7bf8 e6be d71b f13d
00000020: 769e fd3d 43fa fe3e d87a 263e f80a acbd
00000030: 7a49 21be fbb9 b83e d479 63be 0024 a23d

block2_conv1d_bn_relu_3.op.weight f4 [16, 16, 5]
-0.26234302 -0.24192075 0.15783133 0.25074914 0.02093551 -0.21746738 0.1369437 0.02711126
-0.3341156 -0.24606231 0.036227316 0.17236765 -0.16072991 0.14798123 -0.22626202 0.32938486
0.21927373 0.054340202 0.12178482 0.09798122 -0.229478 -0.002546344 0.0771605 -0.0896249
0.29280838 -0.17400786 -0.3411971 -0.18995312 -0.34733656 0.25054228 -0.19504116 -0.28554597
-0.080879666 -0.2792524 -0.22472781 0.1820503 -0.24703303 0.14794056 0.25012478 -0.017859917
0.16135749 -0.176307 0.27667162 0.3170063 0.05647435 0.33134592 -0.3344192 -0.034817286
0.0710541 -0.30521104 0.17563127 -0.14085701 -0.12900221 -0.29666057 0.1447369 -0.27305567
-0.09391819 0.1353042 0.2376525 0.04434754 -0.14886083 -0.18111418 0.15806437 0.030383669
0.28398302 0.112938605 0.29382578 -0.30456528 0.28284755 -0.18672107 -0.09966624 -0.0011270465
-0.098772645 0.035812855 0.28507856 -0.19977708 0.10196926 -0.30605853 0.027519729 0.2583097
0.14278047 0.1914565 0.112001285 -0.039390717 0.034686454 -0.11588575 0.18503518 0.11951975
-0.15772593 0.20821273 -0.011321348 -0.013924259 -0.07226998 -0.0759265 0.0018555301 -0.13295777
-0.23518924 -0.12551755 -0.04462736 0.17619318 0.15560222 -0.16200244 -0.025917798 -0.08107433
-0.13407351 -0.0683552 -0.09446144 0.13601065 -0.11115087 0.044799794 -0.15476917 -0.087474674
0.16866449 -0.13334352 -0.034732383 0.20446351 0.06659932 -0.12690702 -0.14739276 -0.08998754
-0.09319369 0.08486919 -0.06404986 0.19067875 -0.13512927 -0.06972076 0.08053837 0.17952235
0.2287661 0.041674156 0.003678753 -0.11658061 0.11244048 -0.13311027 -0.045070983 -0.19860443
-0.23859443 0.1109938 -0.001553836 0.17594297 0.15956002 0.11429221 0.10280674 -0.042447984
0.13904384 0.10837125 0.081067815 -0.0023364562 0.03576754 -0.004609985 -0.18676586 0.041563064
-0.17528705 0.106716685 -0.14855434 -0.10141714 -0.13759452 0.16671625 -0.1656314 0.14635989
0.10101392 0.15063262 0.038911995 0.115634724 0.1805538 0.052508764 0.08577618 -0.19248614
-0.08517441 0.00029707726 0.02778069 -0.08522849 -0.23547924 -0.060158815 0.090305716 0.19929169
-0.21527462 0.11146562 -0.2301022 -0.23103414 -0.15557076 -0.047700144 0.050842296 -0.19381846
0.18629363 0.22837591 0.01913146 0.18700346 -0.124575846 -0.114462435 -0.034104522 0.02252812
-0.17192422 -0.20594692 0.08171894 0.06440754 0.22932728 -0.10050744 0.08182104 -0.09641868
0.10742915 -0.019784572 0.18464984 0.14672448 0.2168786 0.12865628 0.0131573975 0.21768367
-0.1406341 0.22463073 0.236869 0.24545719 -0.0940402 -0.117263846 0.013736918 0.06636371
0.119271584 0.10245397 0.20942788 -0.05561509 -0.075653546 0.08028819 0.066758715 -0.14725296
0.0090620015 -0.18250784 -0.07540213 -0.09804724 0.20220648 -0.21888404 -0.14013025 -0.23076811
0.0623223 -0.17991343 0.08232561 -0.1656591 -0.13869292 -0.10035654 0.05475142 0.23043193
0.22896053 -0.044043113 -0.28837046 -0.11754795 -0.13251168 -0.058269903 0.10024273 0.13836536
0.10724633 0.04570727 -0.12670293 -0.03242746 0.005966148 -0.16436051 -0.0450716 -0.047185916
00000000: d351 86be 13ba 77be 899e 213e 3162 803e
00000010: f280 ab3c c5af 5ebe f83a 0c3e 6f18 de3c
00000020: 3311 abbe c2f7 7bbe 1863 143d 2581 303e
00000030: 6296 24be 6488 173e 3bb1 67be 22a5 a83e
00000040: 4b89 603e d593 5e3d 526a f93d 61aa c83d
00000050: 48fc 6abe 90e0 26bb 5306 9e3d 428d b7bd
00000060: fbea 953e 1e2f 32be 63b1 aebe 1283 42be
00000070: 19d6 b1be 1447 803e dfb8 47be 1533 92be
00000080: 3da4 a5bd 2cfa 8ebe 0c1f 66be 656b 3a3e
00000090: 3af6 7cbe bb7d 173e 5b10 803e f64e 92bc
000000a0: e63a 253e d289 34be e7a7 8d3e a64e a23e
000000b0: a651 673d 2ca6 a93e fe38 abbe 929c 0ebd
000000c0: d084 913d 9f44 9cbe afd8 333e d23c 10be
000000d0: 2819 04be e5e3 97be e935 143e f4cd 8bbe
000000e0: 2e58 c0bd 2f8d 0a3e 2d5b 733e c4a5 353d
000000f0: f96e 18be ff75 39be a0db 213e 2ce7 f83c
00000100: 3966 913e 5b4c e73d 5570 963e fbef 9bbe
00000110: 65d1 903e cf33 3fbe d01d ccbd 68b9 93ba
00000120: 5049 cabd 80b0 123d d1f5 913e 5d92 4cbe
00000130: 42d5 d03d b4b3 9cbe 0e71 e13c 2b41 843e
00000140: 0b35 123e 2c0d 443e ee60 e53d 2958 21bd
00000150: 6213 0e3d 8255 edbd dd79 3d3e c5c6 f43d
00000160: e882 21be b835 553e 2d7d 39bc 9322 64bc
00000170: 4902 94bd 5a7f 9bbd 4235 f33a 1526 08be
00000180: 73d5 70be ac87 00be 2ecb 36bd fc6b 343e
00000190: 3056 1f3e f8e3 25be 9051 d4bc 4c0a a6bd
000001a0: 914a 09be d0fd 8bbd 0075 c1bd 6046 0b3e
000001b0: 11a3 e3bd fd7f 373d cf7b 1ebe ec25 b3bd
000001c0: 62b6 2c3e 348b 08be 8b43 0ebd e25e 513e
000001d0: 3965 883d eaf3 01be 21ee 16be 634b b8bd
000001e0: 55dc bebd e6cf ad3d 932c 83bd 4a41 433e
000001f0: 545f 0abe c2c9 8ebd 4df1 a43d b5d4 373e
00000200: a941 6a3e 85b2 2a3d 3c17 713b d1c1 eebd
00000210: 3247 e63d 0f4e 08be 5a9c 38bd f65e 4bbe
00000220: 1952 74be b850 e33d 16aa cbba 652a 343e
00000230: b463 233e 0912 ea3d 578c d23d f0dd 2dbd
00000240: 8261 0e3e bff1 dd3d e206 a63d 3b1f 19bb
00000250: fc80 123d 5b0f 97bb 8d3f 3fbe 083e 2a3d
00000260: 737e 33be 478e da3d a11e 18be cab3 cfbd
00000270: 94e5 0cbe aab7 2a3e 479b 29be 5edf 153e
00000280: 63e0 ce3d 703f 1a3e 2f62 1f3d e6d1 ec3d
00000290: 18e3 383e 6e13 573d 6cab af3d 161b 45be
000002a0: ec6f aebd 09c1 9b39 5494 e33c 468c aebd
000002b0: 7821 71be 1769 76bd 34f2 b83d 1f13 4c3e
000002c0: f370 5cbe 1648 e43d e99f 6bbe 3794 6cbe
000002d0: f14d 1fbe 3a61 43bd 0340 503d 5978 46be
000002e0: c2c3 3e3e 60db 693e 94b9 9c3c d67d 3f3e
000002f0: 9f21 ffbd 486b eabd 2fb1 0bbd e48c b83c
00000300: e70c 30be c0e3 52be 425c a73d 1ae8 833d
00000310: c5d4 6a3e d8d6 cdbd ca91 a73d 2877 c5bd
00000320: d003 dc3d 4113 a2bc d914 3d3e f13e 163e
00000330: 6c15 5e3e 79be 033e 2092 573c 78e8 5e3e
00000340: 6302 10be 9905 663e ca8d 723e 2159 7b3e
00000350: 2698 c0bd 0728 f0bd cf10 613c b2e9 873d
00000360: a944 f43d 63d3 d13d 4374 563e a6cc 63bd
00000370: 3ff0 9abd 226e a43d cbb8 883d 7bc9 16be
00000380: ca78 143c 56e3 3abe 6f6c 9abd fecc c8bd
00000390: 370f 4f3e 2323 60be 4e7e 0fbe 7a4e 6cbe
000003a0: ab45 7f3d 3a3b 38be 549a a83d 8aa2 29be
000003b0: 8405 0ebe bb87 cdbd 0643 603d 59f6 6b3e
000003c0: a174 6a3e 8d66 34bd 4ba5 93be fbbc f0bd
000003d0: 24b1 07be 6cac 6ebd 0f4c cd3d a6af 0d3e
000003e0: f7a3 db3d 8c37 3b3d 6abe 01be a8d2 04bd
000003f0: ad7f c33b 1f4e 28be ff9c 38bd 0546 41bd

block2_conv1d_bn_relu_3.op.bias f4 [16]
0.102243766 0.01204003 -0.043541048 0.13777398 -0.14773726 0.011622711 0.16614437 -0.13676326
0.112073 0.04083376 0.12223689 0.16787185 0.024910796 0.20015197 0.1307786 -0.09394242
00000000: 2e65 d13d 8c43 453c 1958 32bd 9f14 0d3e
00000010: 7048 17be 2f6d 3e3c c021 2a3e ab0b 0cbe
00000020: 8786 e53d 4d41 273d 5657 fa3d 99e6 2b3e
00000030: ba11 cc3c a3f4 4c3e d3ea 053e e264 c0bd

block2_conv1d_bn_relu_4.op.weight f4 [16, 16, 4]
-0.19457175 0.026223725 -0.06926526 0.009110805 0.25027388 -0.32592413 0.38115317 0.2851786
0.0009581963 -0.15903594 0.110340446 -0.2495295 0.28725475 -0.22017795 0.08397023 -0.41550648
0.22151591 0.2838834 0.31264934 0.037450626 0.252531 0.14599922 0.2936004 0.2675284
-0.38267463 0.017629232 -0.1430116 -0.1978986 0.27899018 -0.058441214 0.07626964 0.30967057
0.27696437 0.21610378 -0.060736865 -0.36958802 -0.38856778 0.13930723 0.00942188 -0.2565974
0.18036468 0.38778812 0.25307474 -0.041135665 0.028810404 -0.29619297 0.15979955 -0.34667253
0.28004667 -0.20416337 -0.17324859 -0.3587323 -0.10403851 -0.045225643 -0.20877227 0.30055553
0.2495376 -0.3574902 -0.036544625 0.17309137 0.37887162 -0.10172563 0.26834765 -0.006346067
-0.20342256 0.37724733 -0.44605786 0.49556315 0.49053147 -0.20015992 0.1321379 0.46210787
0.12522246 0.17854662 0.1548213 -0.26024306 0.09498368 -0.3239001 0.37544763 -0.26448548
0.16471572 -0.07874038 0.34131816 0.067894995 0.24777515 -0.15803954 -0.33780634 0.15558289
-0.3252353 -0.46416825 0.16281982 -0.32818952 -0.22576647 -0.1497907 0.029021058 -0.19085743
-0.19582556 -0.12680218 0.42524737 0.20958494 -0.26739106 -0.37243414 -0.024804728 0.12514904
-0.02391456 0.29063278 0.42971194 0.1255387 0.17463997 0.29510614 -0.18338934 0.12327033
0.40065715 -0.24586603 0.050024893 -0.21038286 -0.42169875 0.24929985 0.40152016 -0.30511418
0.14453785 0.14668788 0.20206225 0.28838718 0.4581292 0.3493321 -0.49062982 -0.21322887
0.3045239 -0.29731652 0.09666176 -0.21738952 0.08769251 0.22579211 0.13607575 0.36513215
-0.0964403 0.24022996 0.14424095 -0.19447406 -0.39712352 0.43554804 -0.181816 0.3564843
0.320397 -0.056075975 -0.44727638 -0.0043295254 -0.28303528 0.10390655 -0.22655495 0.36097643
-0.48323184 -0.1485432 0.05864857 0.024322238 0.38045213 -0.19458535 -0.45052835 0.2872026
0.16488288 0.39406863 -0.28643605 -0.2880953 -0.21087563 0.02357154 0.14474146 -0.29577613
-0.063704565 -0.110425934 0.44847766 -0.19833711 0.5606982 -0.3075771 -0.20662117 -0.3980752
0.3615326 -0.35308757 0.22219285 -0.17779984 0.49345425 0.06861154 -0.44735864 0.063155234
0.029951999 -0.5254127 0.08081542 0.45215142 0.06246469 -0.051880624 -0.13833535 0.13555335
-0.17987756 0.37612924 0.31754342 0.17583288 -0.1546722 -0.37777635 -0.23785147 0.36557055
-0.340695 -0.35650963 -0.015998073 0.13044798 -0.40949067 -0.37670052 -0.008004308 -0.14393584
0.22580065 0.06922158 -0.37038466 -0.38734096 0.28398308 -0.051328022 -0.14931004 0.12386077
-0.07326371 0.19645374 0.11083158 -0.15660505 -0.3034455 0.20926322 -0.22930433 -0.034749217
0.058497857 -0.23088609 0.20439917 -0.27649504 0.08111549 0.02802877 0.13314694 -0.3878804
0.04188328 0.21584606 -0.23288968 0.11032895 -0.0012477726 0.3392223 -0.07412612 0.009186483
-0.15620221 -0.0953557 0.105599605 -0.39074522 0.30552197 0.29220745 0.17638977 0.30238166
-0.10394884 0.10751458 0.0307267 -0.26602596 -0.13636565 -0.12669052 -0.09961259 -0.34633994
00000000: d13d 47be 23d3 d63c f2da 8dbd 7c45 153c
00000010: e623 803e 87df a6be 8226 c33e ee02 923e
00000020: 772f 7b3a 51da 22be 2cfa e13d a984 7fbe
00000030: 0e13 933e 5476 61be 95f8 ab3d 44bd d4be
00000040: 11d5 623e 2a59 913e 9313 a03e d465 193d
00000050: be4b 813e d280 153e cb52 963e 7cf9 883e
00000060: eeed c3be 2e6b 903c a271 12be eea5 4abe
00000070: cdd7 8e3e 0e60 6fbd 4233 9c3d 248d 9e3e
00000080: 46ce 8d3e 4f4a 5d3e 38c7 78bd a43a bdbe
00000090: 5bf2 c6be 8ea6 0e3e 3b5e 1a3c bc60 83be
000000a0: 85b1 383e 2a8c c63e 0393 813e df7d 28bd
000000b0: cc03 ec3c 9ba6 97be 7ea2 233e 107f b1be
000000c0: 4762 8f3e 3410 51be 1468 31be c3ab b7be
000000d0: 2412 d5bd 863e 39bd 66c8 55be 6ae2 993e
000000e0: c986 7f3e f508 b7be d1af 15bd dd3e 313e
000000f0: 76fb c13e 8755 d0bd dd64 893e abf2 cfbb
00000100: 014e 50be 9026 c13e b261 e4be 74ba fd3e
00000110: f126 fb3e b9f6 4cbe 284f 073e 6799 ec3e
00000120: 513a 003e edd4 363e 7a89 1e3e 943e 85be
00000130: ce86 c23d 3cd6 a5be ac3a c03e a46a 87be
00000140: 3dab 283e a342 a1bd 41c1 ae3e 880c 8b3d
00000150: c5b8 7d3e 1ed5 21be f4f4 acbe 1f51 1f3e
00000160: 3e85 a6be 76a7 edbe 3dba 263e 7508 a8be
00000170: 532f 67be bc62 19be 92bd ed3c 2170 43be
00000180: 7f86 48be 6ed8 01be 06ba d93e 6f9d 563e
00000190: 7be7 88be b0af bebe 4933 cbbc 1227 003e
000001a0: 78e8 c3bc d2cd 943e 3403 dc3e 388d 003e
000001b0: d2d4 323e 2718 973e 6aca 3bbe 2875 fc3d
000001c0: ef22 cd3e 4ec4 7bbe e7e6 4c3d 9b6e 57be
000001d0: e6e8 d7be 7648 7f3e 0d94 cd3e ed37 9cbe
000001e0: bb01 143e 5935 163e 68e9 4e3e 7ca7 933e
000001f0: e98f ea3e a8db b23e d533 fbbe ab58 5abe
00000200: 8eea 9b3e df39 98be 9af6 c53d 5c9b 5ebe
00000210: 2198 b33d 0c36 673e 7157 0b3e 9af2 ba3e
00000220: 7e82 c5bd d8fe 753e e6b3 133e 3524 47be
00000230: c653 cbbe 2700 df3e f92d 3abe 1c85 b63e
00000240: 130b a43e ecaf 65bd 6901 e5be b1de 8dbb
00000250: 00ea 90be f5cc d43d 05fe 67be e7d1 b83e
00000260: 2a6a f7be b51b 18be 7c39 703d 6e3f c73c
00000270: 9fca c23e 6241 47be a7ab e6be 380c 933e
00000280: 0fd7 283e 5dc3 c93e bfa7 92be 3a81 93be
00000290: c8ef 57be 1a19 c13c 1b37 143e f86f 97be
000002a0: 8a77 82bd fe26 e2bd dd9e e53e e218 4bbe
000002b0: eb89 0f3f bf7a 9dbe 8094 53be 83d0 cbbe
000002c0: cd1a b93e e5c7 b4be 8686 633e 2911 36be
000002d0: 09a6 fc3e 3584 8c3d 310c e5be 8857 813d
000002e0: e55d f53c 7281 06bf 8e82 a53d 6480 e73e
000002f0: fada 7f3d c780 54bd c8a7 0dbe 7fce 0a3e
00000300: d331 38be 0394 c03e 0d95 a23e 890d 343e
00000310: 6462 1ebe e76b c1be 568f 73be 102c bb3e
00000320: 936f aebe 6e88 b6be 640e 83bc 2894 053e
00000330: c3a8 d1be e4de c0be 8024 03bc eb63 13be
00000340: 4938 673e 0bc4 8d3d 0fa3 bdbe 8e51 c6be
00000350: 3b66 913e 553d 52bd bbe4 18be b7aa fd3d
00000360: 490b 96bd 2b2b 493e abfb e23d 135d 20be
00000370: 355d 9bbe 1949 563e c1ce 6abe 3255 0ebd
00000380: 739b 6f3d 676d 6cbe 044e 513e c290 8dbe
00000390: e11f a63d 979c e53c ac57 083e 4398 c6be
000003a0: cd8d 2b3d c006 5d3e a27a 6ebe 25f4 e13d
000003b0: 4d8c a3ba 8cae ad3e 6fcf 97bd e782 163c
000003c0: 79f3 1fbe d949 c3bd 9b44 d83d c20f c8be
000003d0: 606d 9c3e 379c 953e 859f 343e c5d1 9a3e
000003e0: 21e3 d4bd 9b30 dc3d 8fb6 fb3c 8e34 88be
000003f0: 70a3 0bbe 29bb 01be b001 ccbd 7853 b1be

block2_conv1d_bn_relu_4.op.bias f4 [16]
-0.109592654 -0.15214892 0.025944063 0.19407365 -0.022304341 -0.03205509 0.1872015 -0.03880105
0.385764 0.26283887 0.125266 -0.17098929 -0.033036746 0.15023296 -0.33937097 0.041026417
00000000: 1d72 e0bd edcc 1bbe a588 d43c 3ebb 463e
00000010: 98b7 b6bc 334c 03bd c0b1 3f3e daed 1ebd
00000020: dc82 c53e d192 863e bb45 003e d117 2fbe
00000030: 8a51 07bd abd6 193e 08c2 adbe 510b 283d

block3_conv1d_bn_relu_1.op.weight f4 [16, 16, 8]
-0.18980412 -0.10032454 0.03130325 -0.23019262 0.00820405 0.06441746 0.16801615 0.16958827
0.1865757 -0.07967069 -0.024925862 0.20167375 0.114081025 -0.09740093 0.21619971 -0.21175286
0.19777125 0.13604966 -0.18874952 -0.25355855 0.17350976 0.25190032 0.04585551 -0.094135396
0.1488769 0.09360812 -0.065705486 0.20437966 0.15704624 0.053115435 0.17231661 -0.17615318
-0.14426385 0.056976113 0.028591137 -0.06627725 0.03512008 0.11000493 -0.23361734 0.07700201
-0.025820138 -0.17530021 0.03882597 -0.05350751 -0.14094862 -0.26913157 0.2903364 -0.11036514
0.016170153 0.20903663 -0.01401481 -0.15992837 -0.23632535 0.02177712 -0.054198124 0.052352622
0.093342654 -0.06524382 0.13454278 -0.04818823 -0.09657748 -0.15686019 0.11839322 -0.1397502
0.0946694 0.0007545037 0.19511667 -0.09698465 -0.08431748 -0.035464466 -0.10582471 0.11918905
-0.079103254 0.07237378 0.12956129 0.13407627 -0.0347042 0.12768339 -0.06573917 -0.18094474
0.017668067 -0.15172414 -0.19144975 0.032131743 0.21938543 -0.12552816 -0.024856454 -0.1829405
-0.0077010836 0.060247462 -0.083143994 0.14091334 -0.24825616 -0.03540132 -0.11880472 0.22970189
0.13447812 0.22749674 0.1806658 0.045764312 -0.23498565 -0.13719183 0.13360363 -0.2122278
0.15348524 0.07611169 0.036277786 -0.24201725 0.17104584 -0.08189531 -0.075205855 0.14879516
0.004755144 -0.14503843 0.04218843 -0.19196102 0.17648026 0.1564445 0.09288221 0.14044417
-0.2297138 -0.089312226 -0.22369635 -0.10837584 -0.23678419 0.17134404 0.09839929 0.13075498
-0.10454306 0.15211335 -0.044009265 -0.07302746 0.09407303 0.12112944 -0.16444913 0.18869154
-0.018285621 0.063192494 -0.2136222 0.022627156 -0.10860841 -0.13822562 -0.08236777 0.0020300287
-0.05678704 -0.13245381 0.15285324 0.0642968 -0.19687724 0.04581352 0.059256654 0.009611015
0.05562407 -0.010645967 0.1014222 -0.14451507 -0.08575152 0.16671528 -0.122338824 0.12114311
0.19767883 -0.2017553 -0.09786126 0.17321803 -0.023805795 0.030856898 0.025759278 0.08355367
-0.08924512 0.03117414 0.1478225 -0.017805941 -0.19517364 0.07265969 -0.04676898 -0.03554151
0.11182362 0.031778596 -0.12826899 -0.099670015 -0.033797 -0.061656836 -0.039112885 -0.14157645
0.15558295 0.1093475 0.034138426 0.04650201 0.019573316 0.15376219 0.05089263 0.034392398
-0.1172503 0.063148476 -0.20707282 0.05767291 -0.19560148 -0.10134885 0.107375465 -0.1336275
0.16835295 -0.11459409 0.20553131 0.062220205 -0.09055842 0.13275263 -0.18021153 -0.12316191
-0.13541096 0.017260846 0.0093755275 -0.1945473 0.18914017 -0.017049346 -0.12397517 -0.0037963872
-0.09355027 0.054600663 0.075452484 -0.06700856 0.008880575 0.12170237 -0.13572282 -0.046022985
-0.027555764 -0.13851637 0.017886553 0.011378525 -0.1721497 0.042464443 0.2103105 0.11831496
-0.118711375 0.1987423 -0.15150928 -0.11383013 0.08845022 0.16129902 0.20572107 0.18488756
-0.11810763 0.051774107 -0.1305202 0.0014733382 0.17778061 0.1069036 -0.19022842 -0.084209815
-0.17667331 0.09289376 -0.03143172 -0.16511996 -0.08124599 0.05503475 0.011800569 0.19450797
00000000: 035c 42be f476 cdbd d637 003d 9db7 6bbe
00000010: 486a 063c 4ded 833d 6d0c 2c3e 8ca8 2d3e
00000020: b30d 3f3e 632a a3bd 5231 ccbc 9083 4e3e
00000030: 50a3 e93d 247a c7bd 7563 5d3e bed5 58be
00000040: 8c84 4a3e 9a50 0b3e 8e47 41be 6dd2 81be
00000050: 8bac 313e 14f9 803e fdd2 3b3d 0fca c0bd
00000060: 3073 183e 9db5 bf3d 9990 86bd e748 513e
00000070: bbd0 203e 928f 593d c473 303e 8061 34be
00000080: e7b9 13be c95f 693d f637 ea3c 5ebc 87bd
00000090: 13da 0f3d 444a e13d 6239 6fbe 3bb3 9d3d
000000a0: c184 d3bc e681 33be fb07 1f3d b12a 5bbd
000000b0: d654 10be 9dcb 89be f9a6 943e 1e07 e2bd
000000c0: 4577 843c b30d 563e 609e 65bc 43c4 23be
000000d0: 46ff 71be ee65 b23c dafe 5dbd b46f 563d
000000e0: 6f2a bf3d 8d9e 85bd 95c5 093e 0561 45bd
000000f0: 6aca c5bd f59f 20be 2578 f23d ad1a 0fbe
00000100: 08e2 c13d e3c9 453a aacc 473e e39f c6bd
00000110: a5ae acbd 3043 11bd a0ba d8bd 6319 f43d
00000120: e300 a2bd b438 943d b7ab 043e 4a4b 093e
00000130: fe25 0ebd 6fbf 023e 42a2 86bd 9449 39be
00000140: 9fbc 903c 935d 1bbe 670b 44be 939c 033d
00000150: 93a6 603e 748a 00be c39f cbbc c154 3bbe
00000160: 5f59 fcbb 0bc6 763d 6647 aabd 964b 103e
00000170: dd36 7ebe f900 11bd e44f f3bd f936 6b3e
00000180: a2b4 093e e8f4 683e 7500 393e 5c73 3b3d
00000190: 14a0 70be 047c 0cbe 64cf 083e 3f52 59be
000001a0: 3c2b 1d3e 72e0 9b3d 0498 143d 5fd3 77be
000001b0: a426 2f3e bab8 a7bd 8705 9abd c25d 183e
000001c0: 0ad1 9b3b f484 14be c6cd 2c3d 6e91 44be
000001d0: 3eb7 343e fd32 203e 0739 be3d 99d0 0f3e
000001e0: 183a 6bbe 54e9 b6bd a810 65be 27f4 ddbd
000001f0: 8e77 72be d074 2f3e 9185 c93d a2e4 053e
00000200: ac1a d6bd 9ac3 1b3e 0f43 34bd 6c8f 95bd
00000210: 5ca9 c03d b612 f83d 5a65 28be 5b38 413e
00000220: bacb 95bc 116b 813d c7bf 5abe 965c b93c
00000230: 166e debd 048b 0dbe 6fb0 a8bd 3b0a 053b
00000240: 8799 68bd f9a1 07be 8f85 1c3e 0aae 833d
00000250: 309a 49be f5a6 3b3d 1bb7 723d 8577 1d3c
00000260: 11d6 633d 6c6c 2ebc 71b6 cf3d c2fb 13be
00000270: 7e9e afbd 69b7 2a3e c78c fabd e119 f83d
00000280: 526c 4a3e f198 4ebe 7c6b c8bd 1160 313e
00000290: 5f04 c3bc 9bc7 fc3c 1f05 d33c 301e ab3d
000002a0: 25c6 b6bd e960 ff3c c85e 173e c4dd 91bc
000002b0: 99db 47be 9bce 943d d490 3fbd f993 11bd
000002c0: c803 e53d 462a 023d f258 03be cb1f ccbd
000002d0: b96e 0abd e18b 7cbd d534 20bd 6bf9 10be
000002e0: 2351 1f3e 95f1 df3d bcd4 0b3d e478 3e3d
000002f0: 3858 a03c d673 1d3e ca74 503d 0bdf 0c3d
00000300: ed20 f0bd fd53 813d e60a 54be 6e3a 6c3d
00000310: c14b 48be fc8f cfbd abe7 db3d a6d5 08be
00000320: b764 2c3e 4eb0 eabd cd76 523e 9dda 7e3d
00000330: b176 b9bd 4ef0 073e 5f89 38be 503c fcbd
00000340: 2ca9 0abe 9e66 8d3c d09b 193c 6837 47be
00000350: f6ad 413e 12ab 8bbc b2e6 fdbd cfcc 78bb
00000360: 4997 bfbd f2a4 5f3d d586 9a3d c93b 89bd
00000370: d57f 113c 183f f93d ecfa 0abe 9982 3cbd
00000380: a0bc e1bc 3cd7 0dbe d286 923c fe6c 3a3c
00000390: 0348 30be 32ef 2d3d a35b 573e 1d4f f23d
000003a0: f31e f3bd 1a83 4b3e 4025 1bbe c51f e9bd
000003b0: 6425 b53d 922b 253e 8ba8 523e 2a53 3d3e
000003c0: 6ae2 f1bd 1611 543d 16a7 05be 071d c13a
000003d0: 1f0c 363e 46f0 da3d 3dcb 42be 3276 acbd
000003e0: d9e9 34be 153f be3d 8cbe 00bd 3515 29be
000003f0: 4c64 a6bd 1e6c 613d 2c57 413c 192d 473e

block3_conv1d_bn_relu_1.op.bias f4 [16]
0.06629399 0.105857745 0.37634262 -0.1704283 0.0130747715 0.4352931 0.042879846 0.5108858
0.22541426 -0.26938602 0.021539133 0.20566443 0.09060885 0.022898985 -0.18319105 0.0054659355
00000000: 25c5 873d f2cb d83d fbaf c03e c284 2ebe
00000010: 9137 563c bdde de3e c7a2 2f3d 69c9 023f
00000020: ffd2 663e f7ec 89be d672 b03c b299 523e
00000030: 2291 b93d a796 bb3c 6f96 3bbe 971b b33b

block6_dense.op.weight f4 [2, 16]
0.43732014 0.24655218 0.44977027 0.06483574 0.049460266 0.40496188 0.31433415 0.35016412
0.05507134 -0.1365339 0.4037953 0.31111544 0.37694702 -0.03378654 -0.079654455 0.25086895
-0.46476582 -0.121987216 -0.11537565 0.13386053 -0.19771689 -0.561567 -0.40642205 -0.23164223
-0.3415826 0.023485882 -0.3921585 -0.09321981 -0.057057843 0.028528387 0.02083422 -0.5156488
00000000: 6de8 df3e 2d78 7c3e 4a48 e63e 9ac8 843d
00000010: d996 4a3d 2a57 cf3e 68f0 a03e b648 b33e
00000020: 7c92 613d 8bcf 0bbe 42be ce3e 864a 9f3e
00000030: 33ff c03e c163 0abd e021 a3bd e571 803e
00000040: c9f5 edbe 6fd4 f9bd 124a ecbd bc12 093e
00000050: 4c76 4abe dbc2 0fbf 8d16 d0be 9f33 6dbe
00000060: eae3 aebe 7765 c03c 00c9 c8be 07ea bebd
00000070: 7cb5 69bd 5db4 e93c 87ac aa3c 8f01 04bf

momentum_buffer f4 [4, 1, 4]
0.012473723 0.0057129716 -0.0072060144 -0.006034401 0.0052491073 0.02411733 0.03470783 0.03892526
0.029248504 0.017885797 -0.0014008866 -0.00027939118 0.006325244 0.007041341 0.0017386877 -0.005685258
00000000: 965e 4c3c e133 bb3b 6e20 ecbb 39bc c5bb
00000010: b400 ac3b b591 c53c cc29 0e3d 1870 1f3d
00000020: 8f9a ef3c 3c85 923c f49d b7ba 407b 92b9
00000030: fe43 cf3b 0dbb e63b aee4 e33a 674b babb

momentum_buffer f4 [4]
-0.22855912 0.3875125 0.012859412 -0.041155178
00000000: 670b 6abe 0a68 c63e 48b0 523c 5592 28bd

momentum_buffer f4 [16, 4, 5]
0.01253368 0.008904432 0.01251191 0.0064887116 0.004329659 -0.0016779625 -0.00097359443 0.0037427326
0.004088358 0.0057474296 0.009998471 0.008235343 0.010442343 0.0041517997 0.0033463514 0.0100016985
0.009428791 0.012715924 0.00863272 0.006257372 -0.009910872 -0.0083724605 -0.0013644515 -0.00050291786
-0.0046053138 0.020995492 0.023662407 0.0107705835 0.0059710294 0.007871375 -0.011041143 -0.009481735
-0.00458959 0.0005117258 -0.0032079278 -0.011781065 -0.008949846 -0.005260448 -0.00089636625 -0.0047306926
0.019687984 0.013520405 0.015007852 0.008408912 0.0062129423 0.032456324 0.028738417 0.02291607
0.026491923 0.028837357 0.007279989 0.004713405 0.005363374 -0.00042367983 -0.004249078 0.012367756
0.011856714 0.010772077 0.0061591417 -0.0019389191 -0.0022472797 -0.008994463 -0.0021220206 -0.00022904933
-0.002326586 -0.003363844 0.0026099517 -0.0061685904 -0.015574635 -0.013184741 -0.0006117403 -0.008108946
-0.002309613 0.0009231552 -0.0027772281 -0.0017926439 -0.007725334 -0.0051979776 -0.00070202723 -0.0023002431
0.0013467195 -0.0017376605 -0.005581075 -0.00091639545 0.0016672126 -0.0032106817 -0.0033894456 -0.00045538327
-0.0010589769 -0.0015616985 0.001865296 -0.0008220611 -0.00499808 0.0003843645 0.0032638758 0.0030622678
-0.00080611324 -0.0039822822 -0.0015196207 0.0018523198 -0.0036823568 7.4971e-05 0.0029294826 0.0032395683
0.0034690152 0.0018430981 -0.0008088412 -0.002735833 0.00034955004 -0.00036285934 -0.005686657 -0.0014532283
0.0017576466 0.0017974654 0.0030241753 -0.006741277 -0.0016984275 0.0027537919 0.0025482846 0.003637903
0.0027503958 0.0024738326 -0.0019704395 -9.732979e-05 0.001732562 -0.0006604779 0.0046694255 0.0018133981
0.0024360633 -0.00030120902 5.6905585e-05 -0.00074518117 -0.0022931646 0.00017920544 0.0019955745 -0.00021977842
0.00093128724 -0.0022685996 -0.0005599214 0.0010063095 0.0003274714 -0.0016452405 -0.0020340213 0.0010414432
0.0011856765 -0.0014046202 0.002848465 0.0011475614 -0.0019183296 -0.0026133992 0.0019588803 -0.00073780696
-0.0007990885 0.0008824793 0.0001893412 0.0014839434 -0.00084686256 -0.0024041664 0.0012722573 0.0005049838
0.0035952053 0.0016414013 0.0049307994 0.002061961 0.00015730782 -0.0046773646 -0.0034503455 -0.0010741622
-0.00082065025 0.004434736 0.0032312362 0.0017936889 0.0023718337 0.0017021534 -0.001872248 0.0014874903
0.0011489483 0.0042245463 0.00030279212 -0.0003181258 0.0037318228 0.003028443 -0.00070887635 0.0037903618
0.0074991453 0.0051151793 0.009858638 0.014260355 0.01094792 0.006063538 0.0010210832 0.0024602762
-0.0016709641 0.0015947234 0.0043084533 0.00047239324 0.0013008751 -0.001172377 0.0022790453 0.0034183224
0.008379501 0.00022929872 0.0043424773 0.0010618274 0.00072860933 -0.000877242 0.0010951154 0.0038334487
-0.0024438945 -0.0016120455 0.005139334 -0.0011270819 0.00050795975 0.00039510254 0.000714742 0.005919444
-0.0008488997 0.00034256594 -0.00041620072 0.00036117586 0.0051258197 0.0020003272 -0.006732806 2.367841e-05
0.0048685926 -0.008108508 -0.0009533585 0.00092711905 -0.008609077 -0.011216172 0.003426949 0.0014455906
-0.0059947297 -0.0029516304 0.0024568446 0.0037076625 0.0013261698 -0.0067843385 -0.0054397434 0.0020099876
-0.003717887 -0.00050581177 -0.007033318 -0.012805324 -0.0062001436 -0.0017695725 -0.0037408127 0.0015821769
-0.0016838248 -0.008406139 -0.003272629 -0.0003897046 -0.005990757 -0.010891733 -0.008466257 -0.004230498
00000000: 105a 4d3c e5e3 113c c1fe 4c3c 429f d43b
00000010: d0df 8d3b 14ef dbba d138 7fba a248 753b
00000020: a2f7 853b ef54 bc3b a0d0 233c 88ed 063c
00000030: 5c16 2b3c d20b 883b 764e 5b3b 2ade 233c
00000040: 377b 1a3c 7356 503c 4170 0d3c a40a cd3b
00000050: 3661 22bc a52c 09bc 65d7 b2ba 3fd6 03ba
00000060: 2ce8 96bb bdfe ab3c aad7 c13c 1a77 303c
00000070: a0a8 c33b f1f6 003c e9e5 34bc 4759 1bbc
00000080: 4564 96bb 5625 063a 193c 52bb 5e05 41bc
00000090: 60a2 12bc d65f acbb 1ffa 6aba ed03 9bbb
000000a0: b248 a13c b084 5d3c 7ee3 753c 89c5 093c
000000b0: f095 cb3b ecf0 043d d46c eb3c 7bba bb3c
000000c0: 9705 d93c 523c ec3c f98c ee3b e872 9a3b
000000d0: 3ebf af3b 5821 deb9 da3b 8bbb 21a2 4a3c
000000e0: aa42 423c 5e7d 303c a0d2 c93b 5423 feba
000000f0: 1947 13bb 835d 13bc 9911 0bbb f62c 70b9
00000100: a379 18bb f073 5cbb b90b 2b3b e321 cabb
00000110: c12c 7fbc d004 58bc 325d 20ba 62db 04bc
00000120: e05c 17bb e6ff 713a 2802 36bb 26f7 eaba
00000130: cc24 fdbb cc53 aabb 4008 38ba adbf 16bb
00000140: 6884 b03a 36c2 e3ba 73e1 b6bb 423a 70ba
00000150: 5f86 da3a 4d6a 52bb 7621 5ebb 82c0 eeb9
00000160: 5ecd 8aba e8b1 ccba f37c f43a 967f 57ba
00000170: efc6 a3bb 8884 c939 c0e6 553b 54b0 483b
00000180: 5851 53ba ce7d 82bb 022e c7ba 8ac9 f23a
00000190: b253 71bb c039 9d38 90fc 3f3b f04e 543b
000001a0: 6b58 633b 1c94 f13a 6a08 54ba a94b 33bb
000001b0: d043 b739 283e beb9 2357 babb 407a beba
000001c0: d560 e63a ee98 eb3a 3e31 463b eee5 dcbb
000001d0: c59d deba f678 343b 1f01 273b e269 6e3b
000001e0: fc3f 343b 0620 223b 7d22 01bb 881d ccb8
000001f0: 2217 e33a ec23 2dba fb01 993b 8baf ed3a
00000200: 5ca6 1f3b 97eb 9db9 e8ad 6e38 4358 43ba
00000210: eb48 16bb 18e9 3b39 2fc8 023b 5274 66b9
00000220: a121 743a c9ac 14bb b0c7 12ba 25e6 833a
00000230: 78b0 ab39 1ca5 d7ba 374d 05bb 0981 883a
00000240: b468 9b3a 3c1b b8ba 50ad 3a3b c569 963a
00000250: 7670 fbba 9045 2bbb 8f60 003b 6369 41ba
00000260: ec79 51ba 2f56 673a e489 4639 e180 c23a
00000270: fcff 5dba 388f 1dbb dfc1 a63a e460 043a
00000280: 899d 6b3b 4a24 d73a 8b92 a13b f721 073b
00000290: fff2 2439 9444 99bb 311f 62bb e7ca 8cba
000002a0: e820 57ba 4351 913b 26c3 533b 361a eb3a
000002b0: c470 1b3b ca1a df3a 3866 f5ba e4f7 c23a
000002c0: 4f98 963a 106e 8a3b 12c0 9e39 1fca a6b9
000002d0: 9991 743b d878 463b e3d3 39ba b867 783b
000002e0: 64bb f53b 3c9d a73b 2086 213c 44a4 693c
000002f0: e85e 333c a5b0 c63b ded5 853a 963c 213b
00000300: 4004 dbba 0a06 d13a ed2d 8d3b 8cab f739
00000310: 2082 aa3a 72aa 99ba 095c 153b ef05 603b
00000320: 2d4a 093c e86f 7039 574b 8e3b 042d 8b3a
00000330: 2500 3f3a b7f6 65ba fa89 8f3a 993a 7b3b
00000340: bf29 20bb 454b d3ba dc67 a83b 98ba 93ba
00000350: 9a28 053a c425 cf39 865d 3b3a e5f7 c13b
00000360: b288 5eba 6c9a b339 8435 dab9 345c bd39
00000370: 7ef6 a73b ec17 033b df9e dcbb 00a1 c637
00000380: b788 9f3b 8cd9 04bc ceea 79ba e809 733a
00000390: 160d 0dbc 09c4 37bc aa96 603b f979 bd3a
000003a0: 706f c4bb 2470 41bb 0303 213b 41fc 723b
000003b0: e0d2 ad3a 284f debb e03f b2bb ffb9 033b
000003c0: cba7 73bb 7498 04ba bf77 e6bb 6ccd 51bc
000003d0: 932a cbbb 00f1 e7ba 6c28 75bb 0c61 cf3a
000003e0: c9b3 dcba e7b9 09bc 9b79 56bb 4451 ccb9
000003f0: 1d4e c4bb 3d73 32bc 0eb6 0abc fd9f 8abb

momentum_buffer f4 [16]
0.013765841 0.009222969 0.048156735 -0.026719412 -0.009474941 0.008570543 0.0038801704 0.0014680012
-0.009743667 0.028596837 -0.004479537 -0.0083197225 -0.013483722 0.014793838 0.014783869 -0.02449232
00000000: 1f8a 613c f01b 173c ff3f 453d abe2 dabc
00000010: c83c 1bbc 766b 0c3c 754a 7e3b f269 c03a
00000020: e7a3 1fbc ea43 ea3c 14c9 92bb 724f 08bc
00000030: d4ea 5cbc db61 723c 0a38 723c 1ea4 c8bc

momentum_buffer f4 [16, 16, 5]
-0.002077231 -0.003645734 -0.001397742 -0.00048422057 -0.00015088313 -0.0009944411 -0.00054016843 0.00029585068
-0.0004330146 -0.0011418603 0.00047285066 0.00015601813 -0.00017439241 -0.0018098243 -0.0021484063 -0.00033859783
-0.00015129652 -0.0031189488 -0.0018211977 -0.0008868264 5.5532582e-06 -0.00131209 4.1670988e-05 -0.0016578172
0.0003817014 -0.0006542978 -0.00039695008 0.00048959086 -0.00033305312 0.0006896147 3.3119788e-05 -0.0002597652
-6.458621e-05 3.2339864e-05 -3.181469e-05 -0.00010382457 -0.0004266206 -0.0008832842 -0.00019284787 -0.0010445404
0.00037484965 -0.0005452712 -0.0011099878 0.00025809923 -0.00048623086 -0.00044690218 -0.00050521665 -0.00012859743
0.00010680406 -0.00051781913 0.00014845567 -0.0014919768 -0.0009133245 -0.0014713318 0.00037373736 -0.001075587
0.00013045594 -0.0013705044 -0.0008266371 -0.00058296084 -0.0012777431 -0.0004742972 -0.0005197262 -0.0009957621
0.00050135667 -0.0024546413 -0.0022354452 -0.00062446756 -0.00039984277 -0.00062338606 -0.00235595 -0.00041432853
-0.00058918406 -0.00026169058 -0.00069094007 -0.0025619145 -0.0026167256 -0.0013655132 -0.0005412484 -0.00051239965
-0.0023236508 -0.000434517 -0.0010704175 -0.0011279121 -0.0001104968 0.000817504 -0.0005052098 -3.103091e-05
-0.0017674505 -0.00035051972 0.0035640742 0.0035964246 0.0020351307 0.00017886003 0.0013705019 0.00024101368
-0.0011052974 -0.0014130162 -0.00037775692 -0.0026834272 -0.0017375359 0.00022348022 -0.0013010998 0.00026478147
-0.000613353 3.336338e-05 0.0003275335 -0.0011934723 0.00030454257 0.0003286326 -9.8491284e-05 -0.0008345537
-0.00018403346 -7.846045e-05 0.00020117067 0.00067133014 -0.00033910348 0.00077869685 4.0831947e-06 -0.0010010632
-0.00011143544 0.00016773074 0.0007240925 0.0006219082 -0.0007420904 0.0012412765 0.0013481283 0.0014203796
0.0015623632 0.0015729675 -0.0006485965 -0.00059798756 -0.0013141131 8.312502e-05 -0.0014342234 -0.00027187724
-0.00027467526 -0.000932157 0.00046799768 -0.00024790296 -0.002374663 -8.525129e-05 0.0013543868 0.0022701914
0.00069935544 -0.0032215076 0.0002676546 0.00048093623 0.0024757069 -0.00032075646 -5.5741475e-05 0.0011516134
-5.9342536e-05 0.0007555543 -0.0007631799 0.0005390007 0.00040709638 0.0019236319 0.0022146972 0.00023821325
0.00023823362 0.0036624174 0.0014224343 0.0007343817 0.0014118265 -0.002301808 -0.0028411434 -0.00064659386
-0.000338414 1.6089594e-05 0.0037618987 0.006137268 0.0046024853 0.005364431 0.004911908 -0.0036315164
-0.0016983082 -0.0022100983 -0.0005365399 -0.0025889105 -0.0021218732 0.0006216866 -0.0021204008 -0.0017694245
-0.0011318119 -0.0017836996 -0.0001882858 -0.0008067114 -0.00089387817 1.64581e-05 -0.0009782817 0.0007657872
-0.0001461101 0.00044061433 0.00040885352 0.00028880796 -0.00084847456 -0.0008439708 -0.00040294678 -0.00012747804
3.7463527e-05 -0.000108424785 -0.0005958094 -0.0006695303 -0.0021600863 0.0018950372 0.0017321398 0.001688892
0.003099337 0.0033772627 -0.0024720929 0.00029687598 -0.0024508196 0.0003220407 -0.001331737 -0.00044919582
-0.00021740947 -0.00035646628 -0.00070058083 -0.0006000721 0.0061154696 0.006646327 0.0053691585 0.008518086
0.003345027 -0.00026594443 0.0006102902 -0.0015750716 0.0005913435 -0.001702414 0.002333327 0.0022140932
-1.7309096e-05 0.0025120773 0.0013297063 0.0074741617 0.0062236264 0.0056024007 0.0054039513 0.005716115
-0.0028006814 -0.0031938304 -0.0041073877 -0.0055133677 -0.0027943852 6.78036e-05 0.00045753238 0.003142209
0.00013414351 0.0002677048 -0.007382733 -0.008714246 -0.007953975 -0.0076103834 -0.008596715 0.001918741
00000000: 2722 08bb 44ed 6ebb 7034 b7ba fcde fdb9
00000010: 6236 1eb9 e857 82ba 179a 0dba 681c 9b39
00000020: 3c06 e3b9 79aa 95ba f1e8 f739 cc98 2339
00000030: 1bdd 36b9 a037 edba 47cc 0cbb d585 b1b9
00000040: 5aa5 1eb9 4767 4cbb 41b5 eeba ea79 68ba
00000050: 2056 ba36 6ffa abba e2c7 2e38 1d4b d9ba
00000060: 181f c839 2f85 2bba bd1d d0b9 e357 003a
00000070: a29d aeb9 42c7 343a 1aea 0a38 1831 88b9
00000080: 7572 87b8 aaa4 0738 c370 05b8 64bc d9b8
00000090: 0cac dfb9 338c 67ba 3537 4ab9 f6e8 88ba
000000a0: 7887 c439 88f0 0eba 037d 91ba 7e51 8739
000000b0: cdec feb9 324e eab9 8470 04ba 1cd8 06b9
000000c0: fefb df38 41be 07ba c4aa 1b39 6f8e c3ba
000000d0: 2b6c 6fba b4d9 c0ba 2ef2 c339 b6fa 8cba
000000e0: 00cb 0839 7fa2 b3ba adb2 58ba d7d1 18ba
000000f0: f279 a7ba 18ab f8b9 3c3e 08ba 3b84 82ba
00000100: 7a6d 033a 0cde 20bb 8c80 12bb 4fb3 23ba
00000110: fda1 d1b9 bb6a 23ba 4866 1abb 3c3a d9b9
00000120: 7973 1aba 8433 89b9 3420 35ba cbe5 27bb
00000130: 5f7d 2bbb 05fb b2ba 91e2 0dba 8f52 06ba
00000140: 6448 18bb e2cf e3b9 404d 8cba 73d6 93ba
00000150: 85ba e7b8 c44d 563a 0e70 04ba 3027 02b8
00000160: cca9 e7ba f6c5 b7b9 3e93 693b feb1 6b3b
00000170: d45f 053b 608c 3b39 6aa2 b33a 9eb8 7c39
00000180: a0df 90ba f534 b9ba ad0d c6b9 70dc 2fbb
00000190: 08be e3ba 0456 6a39 aa89 aaba 5ed2 8a39
000001a0: 6cc9 20ba a8ef 0b38 cdb8 ab39 496e 9cba
000001b0: 03ab 9f39 524c ac39 1b8d ceb8 f3c5 5aba
000001c0: 1bf9 40b9 228b a4b8 57f1 5239 34fc 2f3a
000001d0: b3c9 b1b9 7621 4c3a 6002 8936 1b36 83ba
000001e0: 72b2 e9b8 e1e0 2f39 06d1 3d3a 8e07 233a
000001f0: d888 42ba 54b2 a23a aeb3 b03a 082c ba3a
00000200: 36c8 cc3a 082c ce3a 9306 2aba 44c2 1cba
00000210: 523e acba 6853 ae38 8dfc bbba bf8a 8eb9
00000220: 4a02 90b9 ff5b 74ba 965d f539 f9f8 81b9
00000230: 3ca0 1bbb f0c8 b2b8 ae85 b13a 7ec7 143b
00000240: f354 373a ee1f 53bb fe53 8c39 2b26 fc39
00000250: 783f 223b 342b a8b9 f4cb 69b8 bcf1 963a
00000260: 90e6 78b8 6410 463a 2310 48ba ba4b 0d3a
00000270: 8d6f d539 6022 fc3a 7424 113b e2c8 7939
00000280: 5ace 7939 2b05 703b fa70 ba3a 8683 403a
00000290: 090d b93a eed9 16bb 7a32 3abb 2e80 29ba
000002a0: 296d b1b9 24f8 8637 308a 763b 231b c93b
000002b0: 72d0 963b 1cc8 af3b 12f4 a03b bcfe 6dbb
000002c0: c499 deba 4cd7 10bb 95a6 0cba b6aa 29bb
000002d0: 200f 0bbb aef8 223a 6cf6 0abb 09ec e7ba
000002e0: 4e59 94ba 07cb e9ba 966e 45b9 7c79 53ba
000002f0: 2653 6aba 800f 8a37 b039 80ba 1cbf 483a
00000300: 2235 19b9 4102 e739 645b d639 266b 9739
00000310: 2a6c 5eba ec3d 5dba 9a42 d3b9 a0ab 05b9
00000320: 2822 1d38 1d62 e3b8 1830 1cba 6b83 2fba
00000330: 3c90 0dbb e662 f83a f808 e33a d05d dd3a
00000340: 3f1e 4b3b 1155 5d3b d602 22bb 05a6 9b39
00000350: ee9d 20bb 92d7 a839 ae8d aeba 0b82 ebb9
00000360: 69f8 63b9 18e4 bab9 2fa7 37ba 284e 1dba
00000370: 4764 c83b 6fc9 d93b c4ef af3b 718f 0b3c
00000380: 3e38 5b3b 756e 8bb9 e2fb 1f3a a272 ceba
00000390: 6404 1b3a 8923 dfba bbea 183b 521a 113b
000003a0: 0033 91b7 aaa1 243b 8a49 ae3a d0e9 f43b
000003b0: 90ef cb3b 5894 b73b a113 b13b 3f4e bb3b
000003c0: a38b 37bb 954f 51bb 4497 86bb 7ba9 b4bb
000003d0: 0122 37bb c831 8e38 f5e0 ef39 85ed 4d3b
000003e0: e0a8 0c39 bb5a 8c39 daea f1bb 32c6 0ebc
000003f0: 6451 02bc 8660 f9bb 3cd9 0cbc 447e fb3a

momentum_buffer f4 [16]
-0.008251691 0.0017470188 0.012588849 -0.02021525 -0.0013202687 0.02169883 0.0092793 -0.018376067
-0.0008755166 -0.0009366635 -0.022605333 0.0007146283 -0.0036716259 -0.0010002862 0.03456721 -0.00034851165
00000000: 1a32 07bc 39fc e43a 7641 4e3c 749a a5bc
00000010: de0c adba bfc1 b13c 3508 183c 6889 96bc
00000020: ed82 65ba 6c8a 75ba d22e b9bc e555 3b3a
00000030: a99f 70bb 091c 83ba 5996 0d3d 71b8 b6b9
