trained_custom/checkpoints/energy_profiling/input_data_size/ep_v1.25_256_epidenet_b_v3.2_qat_best.pth.tar (torch, 92175 bytes, 26 tensors)

block1_conv1d_bn_relu_1.op.weight f4 [4, 1, 4]
000000 b0 62 7e bd 49 b7 1c 40 12 17 71 c0 19 18 59 c0
       -0.062105834 2.4486868 -3.767033 -3.3920958
000010 8f 25 f9 bf e1 af f5 3f 11 50 1e bd ee f5 98 40
       -1.9464587 1.9194299 -0.038650576 4.7800207
000020 47 e3 51 c0 e1 47 16 40 f4 00 2b c0 56 55 c9 bf
       -3.279497 2.3481371 -2.6719332 -1.5729167
000030 75 1b 20 c0 d4 26 dd bf bf f6 89 bf 3a 6b 94 3d
       -2.5016758 -1.7277474 -1.0778426 0.07247014

block1_conv1d_bn_relu_1.op.bias f4 [4]
000000 cb 93 e8 3d 85 65 1a bd 2a 01 c0 3d 59 c3 08 3e
       0.11356314 -0.037694473 0.09375222 0.13355769

block2_conv1d_bn_relu_1.op.weight f4 [16, 4, 5]
000000 a6 db 8c 3e 92 7e 13 3f cb 89 d6 bd 9f da 11 3f
       0.27511328 0.57615006 -0.10475501 0.56974214
000010 78 54 ba bd 15 07 dd 3d 81 5f 31 3f 7a 93 24 bf
       -0.090981424 0.107923664 0.6928635 -0.6428753
000020 ad 32 dc be c4 3a 28 be bd 3b 87 be 9c 40 17 3f
       -0.43007413 -0.16428667 -0.26412764 0.5908296
000030 b4 ac e3 be 23 5d 9c be a1 86 fb be dd d8 24 bf
       -0.444677 -0.30539808 -0.4912615 -0.6439341
000040 6e 32 db be 36 b0 22 3f 94 70 b4 3e f9 0a bb 3e
       -0.42811912 0.63550127 0.3524214 0.3653181
000050 59 fc 1b 3c 43 e6 a9 be 79 cd 01 3e 6d 20 2a bf
       0.009520614 -0.33183488 0.12676038 -0.6645573
000060 55 af ff be db 93 c6 be eb f2 ca 3e da d5 e4 3e
       -0.49938455 -0.3878468 0.39638457 0.44694406
000070 6a 39 a9 be 16 76 2e bd 19 da de 3e 7b 0e 42 3f
       -0.33051616 -0.042593084 0.4352577 0.75803345
000080 75 04 a1 3e 02 0e cd 3d e8 23 00 3f 79 0d ea be
       0.31448713 0.100124374 0.5005479 -0.45713404
000090 de 48 2e 3e 02 8a 02 bf 4b 31 fc be 2f 5f af be
       0.17019984 -0.50991833 -0.49256358 -0.34252307
0000a0 7b 32 91 3e 41 89 81 3e bf 5d ad be 17 f7 64 3e
       0.28358826 0.2530003 -0.33860585 0.22359882
0000b0 13 58 a5 3e b9 1d 7d bd 6d 5b 3b 3d c7 e6 05 3e
       0.32293758 -0.061795924 0.045741487 0.13076316
0000c0 9e a7 b0 3e 65 fa 10 3f 2b 19 db be a6 79 38 be
       0.34502882 0.5663207 -0.4279264 -0.18015155
0000d0 f7 17 8f 3e a4 ec 0f 3f 23 ae 0b 3f 9b b0 11 3f
       0.2794797 0.5622046 0.54562587 0.56910104
0000e0 4c df 22 3e 60 8d f9 be 28 81 e6 3d 3b 37 b4 be
       0.15905493 -0.48740673 0.11255103 -0.35198388
0000f0 c5 ff 13 bf 86 7e 03 3f 33 6e ca 3e 82 35 1f bf
       -0.5781215 0.51364934 0.395372 -0.6219102
000100 c8 e1 f6 3d fa fe ae bc c3 56 d0 bd 5c a7 83 be
       0.12054783 -0.021361817 -0.101727985 -0.25713623
000110 4c 3c 93 3e 96 65 a2 be fa 73 49 3e 01 d3 9a 3e
       0.2875694 -0.3171813 0.19673148 0.30239108
000120 f7 20 d1 3e ad a6 4e 3e 3b 46 12 bf 99 58 d1 be
       0.40845463 0.2018077 -0.57138413 -0.40887907
000130 f4 2c 94 3e d2 14 d5 3d 5e fb fd be bd 8e af be
       0.28940547 0.10404362 -0.4960584 -0.34288588
000140 da cc 3b 3f 56 6e f4 3e 68 85 cf be 16 a5 86 be
       0.73359454 0.4774043 -0.40531468 -0.26297826
000150 74 21 55 bf f2 dd 52 3b 39 84 25 bf 2d 56 2c bf
       -0.8325417 0.0032175747 -0.6465488 -0.67318994
000160 27 c0 f1 bc c0 83 2a 3e e2 0a c5 be 2d f6 d0 3e
       -0.02951057 0.16651821 -0.38484865 0.40812817
000170 81 a1 0d bf f4 ef 34 3f 41 6c 07 3f df d9 3d bf
       -0.5532456 0.7067864 0.5289956 -0.7416057
000180 bc 56 9a be 9f 51 6e bc 7d 2f 9a 3d 7a 0e 22 3e
       -0.30144298 -0.014545827 0.07528589 0.15825835
000190 f8 e1 8c 3e 0f 91 29 3d ae 8f a9 be 16 96 9b 3e
       0.2751615 0.041398104 -0.3311743 0.30387944
0001a0 62 9a 27 bf 7f 67 c8 be 6f 5b 3b be f8 d6 a7 be
       -0.65469944 -0.3914146 -0.18296598 -0.32781196
0001b0 0c 9f 6f be 18 f0 06 bf 41 0e f9 bd f5 31 1f 3e
       -0.23400515 -0.52710104 -0.12160922 0.15546401
0001c0 b5 8e dd be a0 3a 1c bd 4f 5f ea 3e 73 0e 64 bd
       -0.4327294 -0.038141847 0.4577584 -0.055677842
0001d0 32 fb d9 3c 10 8c 7e bd 5c 35 08 3e a2 d7 cf 3e
       0.026609037 -0.062145293 0.13301605 0.40594202
0001e0 54 21 51 3f 9e f2 f5 3e 54 29 46 3f f7 11 82 bd
       0.8169148 0.48036665 0.7740681 -0.06351083
0001f0 76 5c 4d bf a8 bc e0 be 9d 62 0f 3f 94 9f 83 3d
       -0.8021921 -0.43893933 0.56009847 0.064269215
000200 14 f7 e3 be f8 dc 3a bf 88 4c 47 bf 11 0d 44 bf
       -0.44524443 -0.7299342 -0.7785115 -0.7658244
000210 01 0f 5b be de 72 f7 3e 7f 68 e5 3e 41 30 47 bf
       -0.21392442 0.48329824 0.44806287 -0.77808005
000220 7c 30 00 3f ff 02 36 bf 31 d7 30 be 8d 57 ba be
       0.5007398 -0.7109832 -0.17269589 -0.3639492
000230 d1 f1 03 be 7c 91 a6 bd 87 f2 ff be 3f b9 05 bf
       -0.12885214 -0.08133218 -0.4998972 -0.5223579
000240 68 16 cd bd 4f 11 e2 bc 49 39 a8 be f9 50 1f 3e
       -0.10014039 -0.027596144 -0.32856205 0.15558232
000250 f1 7c 0f bf 85 3e b7 bd 4b 24 fc 3e 53 53 5d be
       -0.5605002 -0.089474715 0.4924644 -0.21613817
000260 d4 31 0d 3f 8d d1 47 3e 99 6a 08 bf 84 3f b3 3e
       0.55154157 0.19513531 -0.53287655 0.35009396
000270 a9 94 5b bd e7 0a 6f be 80 07 e7 3e 7e b6 f5 be
       -0.05360857 -0.23344003 0.4512291 -0.47990793
000280 ca 5f 9b 3b 50 28 a0 be 39 79 3e 3f 23 0b 23 3e
       0.0047416436 -0.31280756 0.7440372 0.15922217
000290 98 21 f5 3e 6a 7f ca 3e e8 20 8e be 26 12 8b be
       0.47877192 0.39550334 -0.2775948 -0.27162284
0002a0 46 00 8d bf a3 c3 e7 3e 31 79 5c 3f 83 5f 41 3f
       -1.1015708 0.45266446 0.86122423 0.75536364
0002b0 75 e3 6e bf 10 21 c9 bd 87 89 69 bf a8 39 35 bf
       -0.9331582 -0.09820759 -0.91225475 -0.707911
0002c0 3e 13 3a bf fd 6a ae 3e 6a 2e 5c bf 94 9b f4 bd
       -0.7268561 0.34066 -0.8600832 -0.11943737
0002d0 16 cd a8 3c 39 d0 93 3e 3f 10 bd be 17 da aa be
       0.020605605 0.288698 -0.36926457 -0.33369514
0002e0 6d ea 91 be 97 b1 a2 3e 01 78 25 be e4 c6 bf 3e
       -0.28499165 0.31776115 -0.16159059 0.3745643
0002f0 db bc 17 3e 42 65 47 3d 2c 38 fb ba 11 3d da bd
       0.14818136 0.04868055 -0.0019166521 -0.10656179
000300 60 ef 29 3d 5b d4 f1 bd b9 45 81 bc a2 44 83 3d
       0.04148805 -0.11808082 -0.015780317 0.06409575
000310 3d 94 c1 be b0 24 88 be bf ba bd 3e 9c fc c9 be
       -0.3780841 -0.2659049 0.37056538 -0.39450538
000320 46 6d 62 bd 7f 86 11 3f 71 80 63 3e 09 1c 0e 3d
       -0.055279993 0.5684585 0.22216965 0.034694705
000330 fa 05 09 bf d0 0c a5 3e eb 30 df be d3 3f 54 be
       -0.53524745 0.32236338 -0.4359201 -0.20727472
000340 d7 e1 5c be 76 99 aa bd 1d 23 af b9 4a 0a f4 3e
       -0.21570526 -0.083300516 -0.00033404763 0.476641
000350 51 c9 b4 3d 27 d9 0f 3f 28 a6 ba 3e e1 0b c4 be
       0.088274606 0.56190723 0.36454892 -0.38290313
000360 94 a4 78 3e 84 e8 d9 be 74 a8 6b be ce e8 2e 3e
       0.24281532 -0.42560208 -0.23013479 0.17080995
000370 05 c5 85 3e c0 98 2c 3f 06 a7 81 be 40 7b 9c 3c
       0.26126876 0.6742058 -0.2532274 0.019101739
000380 c3 cc 16 3f c5 8a 4c bf 22 38 4e 3f ea 97 63 bf
       0.5890619 -0.79899246 0.805544 -0.8890368
000390 c6 c5 85 3d 29 b6 7a bd 26 c1 13 bf b4 3e 66 3d
       0.06531863 -0.061208878 -0.57716596 0.056212142
0003a0 2c 95 65 3f bc bb 78 be cd ea 07 bf f5 11 d1 be
       0.89680743 -0.24290365 -0.5309265 -0.40834013
0003b0 aa 9e 8a bf 58 20 01 3f ac 26 d4 be 2f 71 1d bf
       -1.082967 0.5043998 -0.41435754 -0.6150083
0003c0 f6 57 db be 37 30 e7 3e 39 23 e4 3e 12 7b 16 3f
       -0.42840546 0.45153973 0.44558123 0.5878154
0003d0 71 ea 8b 3e 5f 63 ba be 88 4f 48 be 12 25 3a 3e
       0.27327302 -0.3640394 -0.19561589 0.18178204
0003e0 67 40 20 3f d3 27 5f 3e b0 87 bd be 0e 02 d7 be
       0.6259827 0.21792535 -0.37017584 -0.41993755
0003f0 e8 af 48 bf 94 be e0 3d 54 0d 04 bf d1 0e 33 bf
       -0.7839341 0.1097385 -0.5158284 -0.69944483

block2_conv1d_bn_relu_1.op.bias f4 [16]
000000 14 c8 1b bd 2a 07 00 3e 0a 9c 92 be 12 8b f8 3d
       -0.038032606 0.12502733 -0.28634673 0.121359006
000010 e2 5f 67 3e 7f e1 62 3e 1a 0b 80 3e b5 fa 74 3e
       0.2259517 0.22156332 0.2500847 0.23923762
000020 02 80 87 3e 50 53 de 3d 79 81 f3 bc 61 a4 86 3e
       0.2646485 0.10855734 -0.029724823 0.26297286
000030 f9 a2 16 3d e0 07 ed 3c cb c9 81 3d 88 30 75 be
       0.036776517 0.02893442 0.06337317 -0.23944294

block2_conv1d_bn_relu_2.op.weight f4 [16, 16, 5]
000000 43 60 16 be ce 98 16 3e 8c a3 50 be b7 11 cc 3d
       -0.14685158 0.14706728 -0.20374888 0.09964316
000010 e7 1d 57 be 6b f9 91 be 53 48 82 be 4f 40 5f 3e
       -0.210075 -0.28510603 -0.25445804 0.21801876
000020 92 09 23 3e b3 54 af 3e 41 c3 59 3e 7e 7f a2 be
       0.1592162 0.34244308 0.2126589 -0.31737894
000030 c8 21 75 be 6b e3 a3 bd 12 30 65 be 68 04 53 3e
       -0.23938668 -0.08002361 -0.22381619 0.2060715
000040 22 37 92 be 16 86 60 be f7 b1 93 be 5d f7 1b be
       -0.28557688 -0.2192615 -0.28846714 -0.1523108
000050 c1 25 88 3e 13 53 86 3e ec e0 73 3e d7 02 87 3e
       0.26591304 0.26235256 0.2381627 0.26369354
000060 7b 8e 96 3e 32 9d 76 bd 8a 5e 10 3e 10 70 81 3e
       0.2940558 -0.060208507 0.14098564 0.2528081
000070 8d 5c 9e 3d 20 fe a4 3e 2c 57 45 3e cf 2e 38 3e
       0.077324964 0.32225132 0.19271535 0.17986606
000080 a3 a6 22 be fa b1 f0 3d 7b db 2b 3d 19 a1 3d bd
       -0.1588388 0.11752696 0.04195736 -0.046296213
000090 28 75 4d be ff 0c 63 be 43 45 89 be 81 41 6e 3e
       -0.20064223 -0.22172926 -0.26810655 0.23267175
0000a0 70 57 8b 3e cc 35 e1 bc b7 8b 4f be f1 f9 73 3e
       0.27215147 -0.027491473 -0.2026814 0.23825814
0000b0 c5 5d 5f 3e 9f 32 32 3d 89 68 11 be 23 5d 97 3e
       0.21813114 0.043505307 -0.14200033 0.29563245
0000c0 12 23 13 3e 8b 70 58 be 50 46 78 3e e3 ad 58 3e
       0.14368847 -0.21136682 0.24245572 0.21160083
0000d0 b2 ca fc bd c4 26 47 3e b9 84 2c be dd 32 26 bd
       -0.123433486 0.19448382 -0.16847505 -0.04057585
0000e0 b1 cf 7b 3e a4 d0 de bc 34 13 69 be eb ac c8 bd
       0.24590947 -0.027199097 -0.22761232 -0.097986065
0000f0 c3 3a d2 bd 22 70 9d bd 4e 9c 27 3c c0 3c 9a 3e
       -0.10265114 -0.07687403 0.010230137 0.30124474
000100 16 ce 21 3d 19 51 13 be df ab 31 3d cc 76 1f 3e
       0.03950318 -0.14386405 0.0433768 0.15572661
000110 0e 41 1f 3e cb 20 8e be 9a fe 69 bd 26 9f 81 be
       0.1555216 -0.27759394 -0.057127573 -0.25316733
000120 5f a5 24 be b1 79 eb 3d 4c e7 4e be 1c a5 93 3d
       -0.16078709 0.1149782 -0.2020542 0.072092265
000130 fc 2d 80 3e d5 af 59 3c dd 0d 65 be 0a 19 05 be
       0.25035083 0.0132865505 -0.2236857 -0.12997833
000140 5d fb 9c 3d e6 36 9d be e9 2a 34 3e b9 93 c0 be
       0.07665131 -0.30705947 0.17594494 -0.37612703
000150 57 e2 bc be 78 cf c7 be dd dd 9d bd 82 03 93 3e
       -0.36891434 -0.39025474 -0.07708333 0.28713614
000160 57 61 b8 be 61 f1 a6 3e 29 83 1f be e4 a5 d0 3d
       -0.36011764 0.32606032 -0.15577377 0.10187891
000170 c1 d6 ae 3c 01 9c b0 be 49 f2 a8 3e 5a 0c 63 3e
       0.021342637 -0.34494022 0.3299735 0.2217268
000180 73 e9 d5 3e 9c 52 3e 3e 41 ef 95 be 0e 8f a0 3e
       0.4177967 0.185862 -0.292841 0.31359142
000190 f4 76 01 3d 3c 48 44 3e 9b 7f 9f be 97 7f fe bd
       0.031607583 0.1916818 -0.31152043 -0.124266796
0001a0 fc f1 bf be 7d 2a 14 be 44 73 c0 3d d6 0f 9d be
       -0.37489307 -0.14469333 0.09396985 -0.30676144
0001b0 14 1e e7 3d 23 66 5d 3e 04 5f 41 3d 90 6b 8e be
       0.11285034 0.21620993 0.047209755 -0.2781644
0001c0 d4 e0 9e be 7b 9b 07 be 52 0c 3c 3e d6 90 ca 3e
       -0.31030905 -0.13242905 0.18364075 0.39563626
0001d0 c8 da 82 3e 1b 14 47 bd 34 a1 f1 3d 5e 26 c9 be
       0.25557542 -0.04860316 0.11798325 -0.39287084
0001e0 70 c4 ac be 1c a8 33 3e c7 81 61 be 8c fa 3c 3e
       -0.3374362 0.17544597 -0.22022162 0.18454951
0001f0 a6 9c 90 be 31 fb 57 be 8a f7 a6 be c2 5d 57 3e
       -0.28244513 -0.21091916 -0.32610732 0.2103186
000200 53 a0 c1 bc db b2 a4 3e 12 d8 70 3e 50 7b 59 3e
       -0.023636019 0.32167706 0.23519924 0.21238446
000210 3e 14 1d 3c 4e 6c 0e be 3d 93 8a bd 3b 62 85 3d
       0.009587346 -0.13908502 -0.06766365 0.065128766
000220 e2 a8 57 3e c8 8f 8e be 44 44 a7 3e 87 a3 2a bd
       0.21060517 -0.2784407 0.3266927 -0.041659858
000230 b9 f5 a9 be f4 26 4a be 04 8b b4 3e 60 c0 ad 3e
       -0.33195284 -0.19741422 0.3526231 0.33935833
000240 77 b2 a9 be ae c3 90 3e 3f d4 32 3e 6a e4 58 3e
       -0.3314397 0.28274292 0.17463778 0.21180883
000250 38 ef 9a 3e 81 bf 3b be 6c 52 e4 3d 1e 3d 0f 3e
       0.30260634 -0.18334772 0.11148533 0.13988158
000260 21 7c 14 be 14 0a df 3d f0 fd d4 bd e4 e1 6f 3e
       -0.14500476 0.10890594 -0.10399997 0.23426014
000270 8f a4 f8 bd 76 bc 30 be 62 75 a1 3d b1 a0 04 3e
       -0.12140762 -0.17259392 0.07883717 0.12951924
000280 6e 61 04 be 88 d9 70 3c 58 17 20 3e 82 30 7f bc
       -0.12927791 0.014700301 0.15633905 -0.01557553
000290 d4 db e4 3d 74 f0 99 bd 61 7e aa 3d b0 a4 62 be
       0.111747414 -0.07516566 0.08324886 -0.22133136
0002a0 4f 1b 3c be 4f 81 14 be c7 1b 82 3e 43 4a bb bd
       -0.18369792 -0.14502452 0.25411817 -0.09145024
0002b0 34 47 86 3a ad 89 15 be 4b b3 92 3e e9 a5 8e 3e
       0.0010244609 -0.146033 0.28652415 0.27860954
0002c0 ce 3f 65 be fe 59 79 be 53 6d 61 be 8d 4a b1 ba
       -0.22387621 -0.24350736 -0.2201436 -0.0013526246
0002d0 67 89 a2 bd f5 99 4c be db 2b dd bd b3 23 69 3d
       -0.07936364 -0.19980605 -0.107993804 0.05691881
0002e0 59 0a 11 be 5d 83 54 3d 0f 0e 92 bd 9f 15 10 be
       -0.14164104 0.05188309 -0.07131588 -0.14070748
0002f0 77 97 15 3d 72 07 6e 3e 25 ee 44 be 99 14 2e 3c
       0.0365214 0.23245028 -0.1923147 0.010625028
000300 e6 73 dd bd a9 10 92 3e e6 43 8c be f6 03 90 be
       -0.108131215 0.28528336 -0.27395552 -0.28128022
000310 95 c2 8f 3e 35 98 3c be 95 72 32 3d 29 33 f3 bc
       0.28078142 -0.18417437 0.043566305 -0.029687481
000320 cc be 7a bd 22 64 8f bd 8d 30 41 3e 0b e1 66 3c
       -0.061217114 -0.07001521 0.18866177 0.01409174
000330 94 75 89 be f3 8d 34 be 07 5b e6 bd 2b 40 04 3e
       -0.26847517 -0.17632274 -0.11247831 0.12915103
000340 c3 7e 4e be 72 b5 8e 3e fe 5a 89 bd 88 c3 80 bd
       -0.20165543 0.27872807 -0.067068085 -0.062872946
000350 70 1d 4f 3e 35 92 06 3e 51 24 7a 3e 27 37 2b 3e
       0.20226073 0.13141711 0.24427916 0.16720258
000360 61 be bd bd b0 18 45 be 8e 99 4a bc fa dd 78 3e
       -0.092648275 -0.19247699 -0.012365712 0.24303427
000370 bf cf c0 bd 90 df 8b be 2c 0e fe 3d e5 69 92 3e
       -0.094146244 -0.27319002 0.12405047 0.28596416
000380 a4 0b 96 bd 7b 1f 6f be 45 6d 84 be 85 0c 98 3d
       -0.07326439 -0.23351853 -0.25864616 0.07424263
000390 b5 cf e9 bc 00 27 19 be 62 59 5e 3d 8e e5 cf 3d
       -0.028541425 -0.14956284 0.05428446 0.10151206
0003a0 03 00 77 3e e8 69 65 3e 2b a5 64 bd 88 17 7e be
       0.24121098 0.22403681 -0.05582158 -0.24813664
0003b0 cc 72 84 be 22 dc 8c 3e b4 a9 06 3e 25 23 fe 3d
       -0.25868833 0.27511698 0.13150674 0.12409047
0003c0 c5 bb a7 be f0 2e a5 3e 87 35 ab 3e 9c 13 a6 3e
       -0.32760444 0.32262373 0.33439276 0.32436836
0003d0 3f 51 9a be 5c 7b fc bd 04 cd 6b be 36 b6 bc 3e
       -0.3014011 -0.123282164 -0.23027426 0.36857766
0003e0 04 d6 19 be a8 87 1a be f1 2d 81 3e 5d a8 0d be
       -0.15023047 -0.15090811 0.25230363 -0.13833757
0003f0 a2 2f 1e be 80 17 c2 bb 9d eb 3b bc 89 6b 92 be
       -0.15447858 -0.0059232116 -0.011469749 -0.28597668

block2_conv1d_bn_relu_2.op.bias f4 [16]
000000 38 a9 98 bd 76 80 a1 3c 6c 11 bf 3d c9 cc 91 bd
       -0.07454151 0.019714575 0.09329495 -0.07119138
000010 1b 45 0e be a7 be 09 bd 77 22 06 bf c7 d6 07 3e
       -0.13893549 -0.033629086 -0.5239634 0.13265525
000020 99 80 18 3e 01 93 df 3e 0b cb 6a 3e b3 bc 42 be
       0.14892806 0.43666843 0.22929017 -0.19017296
000030 57 fd c6 bd 43 3f 7a 3e 7f 7d 17 be c1 20 bb 3d
       -0.097162895 0.24438195 -0.14793967 0.09137107

block2_conv1d_bn_relu_3.op.weight f4 [16, 16, 5]
000000 82 27 89 be 08 30 76 be a0 8d 02 3e ec c4 6f 3e
       -0.26787955 -0.2404176 0.12749338 0.23414963
000010 41 94 60 3c 1b 72 3d be 89 a2 23 3e 02 8f 4a 3c
       0.0137072215 -0.18500559 0.15979971 0.012363197
000020 fb 7c b0 be 23 92 64 be 2d b8 46 3d ce b1 35 3e
       -0.34470353 -0.22321372 0.048515487 0.17743608
000030 3e 84 3c be ca 33 02 3e 93 8a 6e be 43 0f a0 3e
       -0.18409821 0.12715068 -0.2329505 0.31261644
000040 91 67 78 3e 6e 7d 23 3d 63 da f5 3d ba 2a 65 3d
       0.24258257 0.03991454 0.120045446 0.05594895
000050 eb ec 6b be 80 ac bb bc 2b 50 bf 3d f9 2e df bd
       -0.23039596 -0.022909403 0.09341463 -0.10897631
000060 15 b0 91 3e 7d e6 09 be f3 c6 a8 be 32 6e 40 be
       0.28454652 -0.1346683 -0.32964286 -0.18792036
000070 04 09 ae be 68 f6 8e 3e 58 03 3a be 76 a3 91 be
       -0.33991253 0.27922368 -0.18165338 -0.28445023
000080 c0 1c d1 bd 4c 10 9c be c2 23 75 be ba ab 25 3e
       -0.10210562 -0.30481184 -0.23939422 0.1617879
000090 9f 35 94 be c8 54 ed 3d 35 3f 57 3e 15 cd 7a bd
       -0.2894716 0.11588436 0.21020205 -0.061230738
0000a0 9b e8 38 3e 60 1e 15 be 4a fa 89 3e f1 02 a8 3e
       0.18057482 -0.14562368 0.26948768 0.32814744
0000b0 24 3f a8 3d e0 78 c1 3e c5 51 ac be 24 58 00 bd
       0.08215168 0.37787533 -0.33656135 -0.031334057
0000c0 cc ff 9b 3d 78 7a 94 be 4c 33 41 3e 7e 1f e2 bd
       0.07617149 -0.28999686 0.18867224 -0.11041163
0000d0 fd df fb bd b2 11 73 be 33 b0 35 3e 08 57 98 be
       -0.12298582 -0.23737219 0.17742996 -0.297539
0000e0 a2 09 c7 bd 51 46 1a 3e 07 db 85 3e 8c 30 59 3d
       -0.09718634 0.15065886 0.26143667 0.053024814
0000f0 25 31 22 be a4 84 25 be 23 48 4d 3e dc d8 e6 3c
       -0.1583906 -0.1616388 0.20047049 0.028179578
000100 b9 37 88 3e 82 b3 f7 3d 8a f5 83 3e ba c7 98 be
       0.26605013 0.12094785 0.2577327 -0.2983988
000110 5e 5e 92 3e d5 20 46 be 68 01 ac bd 03 31 62 bc
       0.2858762 -0.19348462 -0.08398706 -0.013805631
000120 d7 fd d4 bd 1d 22 74 3c bc a6 8b 3e e7 5d 35 be
       -0.103999786 0.014900711 0.27275646 -0.17711602
000130 dd 3b 16 3e 8e 39 8b be 91 66 64 3d 47 33 8f 3e
       0.14671274 -0.27192348 0.055761877 0.2796881
000140 75 9f 25 3e 04 f4 46 3e e5 61 09 3e 71 b3 4c bc
       0.1617411 0.19429022 0.1341625 -0.012493954
000150 83 b6 78 3d 41 c2 c8 bd 53 fe 21 3e ce c2 ae 3d
       0.06072093 -0.09802676 0.15819673 0.0853325
000160 fc 0e 2c be 2c 5c 40 3e 4c 61 ca bb 5f a3 5c bd
       -0.16802591 0.18785161 -0.0061761495 -0.05386674
000170 11 9a ac bd 73 b5 80 bd 4f 98 08 3c 4a 15 e6 bd
       -0.08427823 -0.06284609 0.008337094 -0.11234529
000180 cc c0 5b be 9e 04 f8 bd 68 ba 81 bd eb ce 17 3e
       -0.21460265 -0.12110256 -0.06334382 0.14825027
000190 7a 41 13 3e 02 30 10 be 56 84 81 bb 57 2d 6f bd
       0.14380446 -0.14080814 -0.0039525433 -0.05839285
0001a0 e5 61 04 be 99 f5 22 bd 27 54 b3 bd 2c e3 c5 3d
       -0.12927969 -0.039785 -0.08756285 0.0966247
0001b0 34 40 f8 bd 6b 03 7f 3c f2 30 02 be e2 b1 98 bd
       -0.12121621 0.01556478 -0.12713984 -0.074558035
0001c0 22 6e 1e 3e eb d2 00 be 8d a6 fd bc cf 94 3f 3e
       0.154717 -0.12580459 -0.030963207 0.1870911
0001d0 ed 44 38 3d eb 09 08 be b1 69 0c be 95 b3 9d bd
       0.044987608 -0.13285033 -0.13712193 -0.07700268
0001e0 a6 e4 38 bd 55 e2 bc 3d 9c 9a 46 bd a4 c0 42 3e
       -0.04513993 0.09222857 -0.04848729 0.19018799
0001f0 63 e3 be bd 50 82 80 bd 4f f3 19 3d 71 68 fd 3d
       -0.09320714 -0.06274855 0.037585553 0.12373436
000200 31 31 4b 3e b4 f1 40 3d a4 35 cd 3c 9e 41 a1 bd
       0.19842984 0.047105506 0.025049992 -0.078738436
000210 09 c3 e1 3d d3 59 16 be 9a 91 4f bd 7f 3a 1a be
       0.11023528 -0.14682703 -0.050675966 -0.15061377
000220 22 af 3e be df da 11 3e 5c 87 9b 3c d3 aa 2e 3e
       -0.18621495 0.14243649 0.018985443 0.17057352
000230 7f 90 4b 3e d8 2a e7 3d a1 e3 c4 3d da 08 83 bd
       0.1987934 0.11287469 0.09613729 -0.06398173
000240 5d 1e d4 3d 15 55 c1 3d 68 04 73 3d b8 f9 a1 bc
       0.10357354 0.09440056 0.059330374 -0.019772395
000250 29 b8 a5 3c 03 2a 09 bc 71 ed 21 be a6 a1 1f 3d
       0.020229416 -0.008371833 -0.15813233 0.03897252
000260 34 b9 2d be 0e 86 bc 3d 90 92 0b be 73 01 5c bd
       -0.1696518 0.092052564 -0.13630128 -0.05371232
000270 87 09 f8 bd bd 01 24 3e ec 8e 22 be 5f 06 e8 3d
       -0.12111192 0.16016288 -0.15874833 0.1132934
000280 cd 9e f4 3d 49 5a 26 3e 2c 39 2f 3d 18 c7 02 3e
       0.11944351 0.16245379 0.042779133 0.1277126
000290 c6 d9 53 3e 3f 1a 75 3d 7a d9 ba 3d fe eb 4a be
       0.20688543 0.059839483 0.091235116 -0.19816586
0002a0 de 14 a4 bd 42 47 80 3c 43 aa 8b 3c 47 5e c8 bd
       -0.080117926 0.015658978 0.01704896 -0.09783607
0002b0 d9 be 81 be 06 81 39 bd 58 b2 fa 3d b9 dd 58 3e
       -0.25340918 -0.045289062 0.122410476 0.2117833
0002c0 1d f8 72 be a9 a7 f7 3d 6c 16 80 be 06 1d 74 be
       -0.2372746 0.120925255 -0.25017107 -0.23839197
0002d0 2f 37 25 be d3 fa 2f bd af 69 7a 3d 12 de 51 be
       -0.16134332 -0.042963814 0.061135944 -0.2049487
0002e0 b3 2a 4f 3e b3 5c 78 3e 97 20 eb 3c ac cb 53 3e
       0.20231132 0.24254112 0.028702063 0.20683163
0002f0 e9 65 f3 bd 7b ef e7 bd 39 12 dd bc 6d e3 fc 3c
       -0.11884672 -0.11324974 -0.026986228 0.030870164
000300 cf e3 3a be 70 d1 5c be 82 f4 c7 3d 47 6e 4e 3d
       -0.18250965 -0.21564269 0.09763433 0.050398137
000310 0d 04 75 3e a4 10 e1 bd 47 de bb 3d d9 c6 d2 bd
       0.23927327 -0.10989502 0.091732554 -0.102918334
000320 4f 45 02 3e c3 5d a7 bc fd b5 52 3e cf 45 1f 3e
       0.12721752 -0.020430451 0.20577236 0.15553974
000330 f6 6d 6a 3e 2c eb e2 3d 41 ab da 39 87 d7 62 3e
       0.2289351 0.11080012 0.00041707794 0.2215253
000340 21 7a 17 be 7a 8f 7d 3e f8 9d 88 3e 10 12 87 3e
       -0.14792682 0.24761763 0.2668302 0.26380968
000350 96 50 ff bd 2a ba 08 be d6 4b c9 3c b0 4d c6 3d
       -0.124665424 -0.13352266 0.024572294 0.096827865
000360 b2 f1 09 3e 62 fe dd 3d 5c c6 71 3e ff da 88 bd
       0.13471106 0.10839535 0.23610824 -0.06682395
000370 91 36 ab bd 35 c2 9c 3d 62 de 67 3d 99 92 28 be
       -0.08360017 0.076542296 0.056608565 -0.16462173
000380 0b 79 75 3c 60 bb 47 be 77 fa a9 bd 8b 00 e4 bd
       0.014982472 -0.19505072 -0.082997255 -0.11132916
000390 7a 76 64 3e 30 5e 71 be 80 6e 1b be f9 4f 7e be
       0.2231082 -0.23571086 -0.15178871 -0.24835195
0003a0 e8 d1 94 3d 20 5a 42 be 3f b9 c9 3d 68 80 34 be
       0.07266599 -0.18979692 0.09849786 -0.17627108
0003b0 af 51 25 be 66 91 f6 bd 99 c4 6f 3d 59 d6 82 3e
       -0.16144441 -0.12039451 0.0585371 0.2555416
0003c0 6a d9 ac 3e f5 6b 8d bd e6 28 c6 be e3 d8 25 be
       0.33759624 -0.06905357 -0.38703078 -0.16196017
0003d0 6e aa 41 be d1 83 8e 3b 19 57 0c 3e 51 a2 34 3e
       -0.1891267 0.00434921 0.137051 0.17640044
0003e0 53 3d b5 3d d4 c1 df 3c d8 5a d6 bd b1 d4 5a bb
       0.08849587 0.027314104 -0.10466546 -0.0033390934
0003f0 89 60 96 3d 3c 2b 21 be 55 76 2e 3c a9 38 27 bd
       0.07342631 -0.15739149 0.01064833 -0.04082552

block2_conv1d_bn_relu_3.op.bias f4 [16]
000000 71 77 8e 3d db a0 2b bc 7e fc 4b bd bf 89 11 3c
       0.069563754 -0.010475363 -0.049801342 0.008882939
000010 c6 81 1b be a5 0a de 3d a1 3a 5e 3e b4 ac d1 bd
       -0.15186223 0.10841874 0.21702053 -0.10238019
000020 3d 2f 4e be 6f 26 64 3d b3 ec 2e 3e aa 39 1e 3e
       -0.20135207 0.055700716 0.17082481 0.15451685
000030 ca d9 9b 3d 8d ab 47 3e ae 7e cb 3d 7a 83 a8 3c
       0.07609899 0.19499035 0.099362716 0.020570505

block2_conv1d_bn_relu_4.op.weight f4 [16, 16, 4]
000000 50 99 0a be 50 87 96 3d 56 64 a2 bc e9 b2 fd 3c
       -0.13535047 0.073500276 -0.019823235 0.0309691
000010 03 4d 51 3e 71 9b 94 be f3 0d aa 3e c8 16 88 3e
       0.20439534 -0.29024842 0.33213767 0.2657988
000020 08 d0 fd bc 77 f8 2e be 92 f0 ad 3d 8e e9 6d be
       -0.030982986 -0.1708697 0.08493151 -0.23233625
000030 a9 cf 8b 3e db d3 3c be ad 3f c7 3d 0e d1 a4 be
       0.2730687 -0.18440191 0.09728942 -0.32190746
000040 03 e7 71 3e 5b 5e a0 3e c5 16 af 3e 0d 91 b7 3d
       0.2362328 0.31321988 0.3419706 0.08963213
000050 2f 0a 57 3e a4 05 d8 3d 07 66 59 3e d8 63 44 3e
       0.20999978 0.10547951 0.21230327 0.19178712
000060 48 af b0 be 1e 61 e5 3a b3 df 07 be 5d 5d 38 be
       -0.3450873 0.0017500257 -0.13268928 -0.18004365
000070 08 e8 6e 3e c3 ff 68 bd b3 aa 60 3d fb c7 7c 3e
       0.233307 -0.05688454 0.05485029 0.24685661
000080 e2 ff a1 3e c5 ae 7b 3e 86 01 82 bc cf e7 8e be
       0.31640536 0.24578388 -0.015869867 -0.2791123
000090 72 75 b8 be bd 18 eb 3d 90 1a 3f 3c 5b 82 56 be
       -0.36027104 0.11479328 0.011664048 -0.20948164
0000a0 f5 66 04 3e 71 c7 a1 3e e7 56 4d 3e 1c b6 4c bd
       0.129299 0.31597474 0.20052682 -0.04997836
0000b0 2b 78 17 3d 05 93 85 be 45 4d 1e 3e 7e cb 91 be
       0.036979835 -0.2608873 0.15459163 -0.28475565
0000c0 39 0c 84 3e 38 71 49 be c9 69 30 be bc ec a4 be
       0.25790575 -0.19672096 -0.17227854 -0.32211864
0000d0 8d 8b b9 bd 53 1b 60 bd db 71 62 be 50 c8 63 3e
       -0.0905982 -0.05471356 -0.22113745 0.22244382
0000e0 ad a5 43 3e 7a 61 ad be 2e 3b 76 bd 23 b1 f5 3d
       0.19106169 -0.3386343 -0.060115032 0.11996677
0000f0 2f 7b ae 3e 9e a4 eb bd 8b c6 4d 3e 1e a4 0b bd
       0.34078357 -0.115060076 0.2009527 -0.03409206
000100 d8 c5 84 be 60 e0 a4 3e c5 b6 14 bf 81 c6 08 3f
       -0.25932193 0.32202435 -0.58091384 0.5342789
000110 16 70 0f 3f fc 8a 8c be b2 3f f2 3d 00 93 f1 3e
       0.56030405 -0.27449787 0.11828555 0.47182465
000120 6e 3c 4f 3e 7d 1c 7e 3e 74 63 14 3e ff 94 a8 be
       0.20237896 0.24815555 0.14491063 -0.32926175
000130 1f 46 74 3c 54 f8 cf be 54 83 55 3e 26 1b b0 be
       0.014909296 -0.40619147 0.20850879 -0.34395713
000140 1b f3 20 3e d3 2f b2 bd e8 87 bc 3e 53 4e 09 3d
       0.15717737 -0.08700528 0.36822438 0.03352196
000150 02 9d a4 3e ea a0 12 be 48 37 af be 14 e2 45 3e
       0.32151037 -0.14319196 -0.34221864 0.19324523
000160 c6 d3 e2 be ed 4d 0a bf ff f7 3e 3e 3b 78 bb be
       -0.44302195 -0.54025155 0.1864929 -0.36615166
000170 9b a8 76 be f6 c2 37 be e9 80 75 3d c4 70 60 be
       -0.24087755 -0.17945465 0.05993739 -0.21918017
000180 d2 11 96 be 49 74 2d be 11 95 cc 3e 8f b9 63 3e
       -0.2931047 -0.1693889 0.3995748 0.22238754
000190 dd 27 a4 be 5d e1 f4 be 34 d1 ca bd 33 b8 b9 3d
       -0.32061663 -0.4782819 -0.099031836 0.09068336
0001a0 e1 14 39 bd c7 10 96 3e f6 f4 e8 3e a9 6f 00 3e
       -0.045185927 0.29309675 0.4549939 0.12542595
0001b0 57 54 28 3e d5 83 9f 3e c2 a6 83 be fc 1d bc 3d
       0.16438423 0.31155267 -0.25713164 0.091854066
0001c0 de 5b a1 3e 4b d0 b6 be 13 00 8d bd 81 50 a3 be
       0.31515402 -0.3570579 -0.0688478 -0.31897357
0001d0 29 0e 05 bf a0 4b 73 3e e6 39 ec 3e a9 b7 aa be
       -0.5197473 0.23759317 0.46137923 -0.33343247
0001e0 db 4a 83 3e ee 17 79 3e 95 9a 85 3e f2 bd a1 3e
       0.25643048 0.24325535 0.260945 0.3159023
0001f0 5a 18 f1 3e 01 34 c3 3e 59 88 0e bf f2 97 84 be
       0.4708889 0.38125613 -0.556768 -0.25897175
000200 d2 20 9c 3e 9f df 83 be f3 ef 93 3d e2 54 64 be
       0.3049379 -0.25756547 0.07223501 -0.22298005
000210 66 12 87 3d 2f 14 31 3e 69 32 b7 3d 78 6b a7 3e
       0.06595306 0.17292856 0.08945162 0.3269918
000220 30 ee ab bd 3c a2 82 3e f4 4a 0e 3e 40 97 24 be
       -0.0839504 0.255144 0.1389578 -0.16073322
000230 f3 e8 ca be 70 52 c2 3e 06 18 22 be 19 b6 8f 3e
       -0.3963085 0.3795352 -0.15829477 0.28068617
000240 ae 2b 84 3e 8f f1 a0 bd f9 c5 fd be dc f4 9b bd
       0.25814575 -0.07858574 -0.49565104 -0.076150626
000250 28 45 81 be 64 9f d8 3d dc ba 41 be 09 9d bf 3e
       -0.25248075 0.10577276 -0.18918937 0.37424496
000260 61 58 db be f4 35 f0 bd 6e b0 9b 3d 03 cc 29 3d
       -0.42840865 -0.11729041 0.07602011 0.041454326
000270 9b bc ba 3e 63 39 29 be 15 39 d1 be 29 a9 9c 3e
       0.3647202 -0.16525798 -0.40863863 0.3059781
000280 f3 ff bc 3d 08 c4 8f 3e c1 20 9e be 24 d2 a6 be
       0.09228506 0.28079247 -0.30884364 -0.325822
000290 e7 14 52 be 6b 72 fa 3b c0 37 db 3d 09 f0 a8 be
       -0.20515786 0.007643034 0.10703993 -0.32995632
0002a0 ca b4 4d bd 1a 0f c7 bd eb 5c cb 3e 71 7e 41 be
       -0.050221242 -0.09719677 0.39719328 -0.1889589
0002b0 01 88 ea 3e cb 5a 96 be f4 8a 41 be 2f 54 bf be
       0.45806888 -0.29366145 -0.18900663 -0.37368914
0002c0 10 7a b6 3e ef 92 ac be 57 5e 5d 3e a6 ca 35 be
       0.3564 -0.3370585 0.21618019 -0.17753085
0002d0 57 6f ef 3e 61 12 69 3d 2e 2f d4 be 02 f0 a5 3d
       0.46764633 0.056902293 -0.41442245 0.081024185
0002e0 52 4b 08 3d 1a a0 f5 be f8 f8 b5 3d 6d 5c e4 3e
       0.033274956 -0.4797371 0.08885378 0.44601765
0002f0 2c 7a f3 3d c6 14 5c bc 4b 29 c9 bd 52 72 19 3e
       0.11888537 -0.013432687 -0.09822329 0.14985016
000300 50 76 40 be 66 07 c5 3e 2a 36 9e 3e ec 6e 20 3e
       -0.18795133 0.38482207 0.309007 0.15667313
000310 d7 d2 1d be 1c d8 c4 be b4 2f 6f be cd b1 ca 3e
       -0.1541246 -0.38446128 -0.23358041 0.39588776
000320 08 e8 be be 4a d3 c9 be 7d e6 12 bd 6c 3e 08 3e
       -0.372864 -0.39419013 -0.035864342 0.13305062
000330 c9 a0 db be fe a6 c9 be 5d 7a 7c 3a e5 da 14 be
       -0.42896107 -0.39385217 0.00096312707 -0.14536627
000340 41 e8 8e 3e 58 53 c6 3d 89 d1 c0 be 8f 1f c9 be
       0.2791157 0.09683865 -0.37659863 -0.3928189
000350 87 8b 82 3e b3 52 9b bd b3 f1 31 be 95 88 08 3e
       0.25497076 -0.07584133 -0.17377357 0.13333352
000360 e3 a5 d8 bd d5 8a 5c 3e 4e 86 dc 3d 6e b0 3f be
       -0.105785154 0.21537335 0.10767804 -0.18719646
000370 30 ad b5 be f8 60 4c 3e 23 c5 7d be b8 7c 3e bd
       -0.35483694 0.19958866 -0.24782233 -0.04650566
000380 95 3d 73 3d b9 f4 6b be 81 7f 54 3e 74 f9 95 be
       0.0593849 -0.23042573 0.20751764 -0.2929188
000390 0f bb b1 3d 81 63 4d 3d c2 c1 1b 3e 51 93 d6 be
       0.08678257 0.050143722 0.15210631 -0.41909268
0003a0 2a 11 a4 3c 6e 5d 5e 3e d4 89 82 be 72 2e e9 3d
       0.020027716 0.21715328 -0.2549578 0.11385812
0003b0 13 90 41 3c 96 27 b1 3e 72 41 b5 bd 48 96 d5 3b
       0.011814135 0.34600514 -0.08850373 0.006518159
0003c0 e1 6c 36 be d3 75 bc bd 57 88 17 3e 67 8b c5 be
       -0.17814972 -0.09202161 0.14798103 -0.38582918
0003d0 b6 77 99 3e db 92 9b 3e eb 26 50 3e ed 0f 9b 3e
       0.29974145 0.3038548 0.20327346 0.30285588
0003e0 8d 5e 14 be e5 35 ab 3d d6 41 0a 3d 7d 4b 93 be
       -0.14489193 0.08359889 0.033754192 -0.2876853
0003f0 d0 a7 1b be cd 36 0f be c4 3e bf bd 64 8e bc be
       -0.15200734 -0.13985749 -0.093381435 -0.36827385

block2_conv1d_bn_relu_4.op.bias f4 [16]
000000 59 a3 9f bd bd f3 32 bb f8 cb 30 3d 59 2a 58 3e
       -0.07794828 -0.0027305924 0.04316327 0.21109904
000010 1c 57 94 bd 4a 50 ae bc 2e 1b 2f 3e 1d 8f ab bc
       -0.07243177 -0.02127852 0.17100212 -0.020942265
000020 67 4e 06 3f 55 09 d1 3e 39 37 c6 3d fe 49 47 be
       0.5246338 0.40827432 0.09678502 -0.1946182
000030 47 43 05 be 95 1d 48 3e eb 3e 94 be 23 a1 b1 3d
       -0.13013946 0.19542535 -0.28954253 0.086733125

block3_conv1d_bn_relu_1.op.weight f4 [16, 16, 8]
000000 6b d6 01 be 7e d6 9c bd ff 65 87 3c 98 62 13 be
       -0.1267945 -0.07658099 0.016528128 -0.1439308
000010 64 25 33 3d 8d d2 98 3d d1 28 25 3e 99 62 02 3e
       0.04373683 0.074620344 0.16128851 0.12732925
000020 33 64 c4 3d 0a 7b 8f bd 4b fa 4b bc d3 c6 f6 3d
       0.09589424 -0.0700589 -0.012449811 0.120496415
000030 1c e2 c6 3d cf 85 98 bd 0b 18 3e 3e dd 03 41 be
       0.09711096 -0.07447397 0.18563859 -0.1884913
000040 57 c3 dd 3d 93 2e 4e 3d f3 7d e4 bd fb d3 03 be
       0.10828274 0.050337385 -0.111568354 -0.12873833
000050 ab 0a d7 3d fc 21 01 3e 0e 13 73 3d 97 07 b5 bd
       0.10500082 0.1261062 0.059344344 -0.08839338
000060 62 65 2d 3d 1c 5c 88 3d 5b 64 bd bc 2b 4e 11 3e
       0.042333014 0.066581935 -0.023119142 0.14189975
000070 e8 15 be 3d 6f 9e 11 3d 2e 5a 23 3e 38 ae 2c be
       0.09281522 0.035551485 0.1595237 -0.16863334
000080 d5 84 0c be 7c 63 8b ba f6 b9 bd 3c d7 70 5e bd
       -0.13722546 -0.0010634507 0.023159962 -0.05430683
000090 80 6a 11 3d 0d 70 51 3d d0 79 15 be e9 99 15 3d
       0.035501957 0.05113225 -0.14597249 0.036523733
0000a0 3f 57 1b bd c7 b9 0c be 6d 69 ba 3c dc 16 0b bd
       -0.037925 -0.13742743 0.022755349 -0.033957347
0000b0 48 27 9f bd c1 05 7b be f8 03 8c 3e 51 8a 51 be
       -0.07771164 -0.24513914 0.27346778 -0.2046292
0000c0 92 ee c5 bc 4e d5 d3 3d 69 98 07 bd 36 5d bf bd
       -0.02416161 0.10343419 -0.033104334 -0.093439505
0000d0 e6 5e 16 be 4b 6b 0e bd 46 60 3d 3d 86 c3 6d bd
       -0.14684638 -0.03477029 0.04623439 -0.058047794
0000e0 76 6b 05 3b b0 ed 91 bd 03 52 7b 3d 5c 83 99 bd
       0.002035824 -0.071254134 0.06135751 -0.07495758
0000f0 f1 1c b1 bd a5 9f 04 be cb 38 9f 3d 45 6c 04 be
       -0.08648098 -0.12951525 0.07774504 -0.12931927
000100 a4 d8 1e 3d e0 fb 43 bc 81 b3 01 3e c3 cb 23 bd
       0.038780823 -0.011961907 0.12666132 -0.039989244
000110 5f d7 8a bc d4 ae 82 3c 0a 48 6e 3c 97 23 ab 3d
       -0.0169484 0.015952505 0.014543543 0.083563976
000120 08 e0 ac bd 83 cf 51 3d c8 30 c4 3d 6a 32 ed 3d
       -0.08441168 0.05122329 0.09579617 0.11581881
000130 a2 ec 52 bc 83 00 f3 3d d6 64 6d 3b 0b 55 22 be
       -0.0128738005 0.11865332 0.0036223433 -0.15852754
000140 d5 9f 8e bc 04 ca cd bd 2e 6e e3 bd d9 b7 2c 3d
       -0.017410198 -0.10048297 -0.111049995 0.04216752
000150 e6 3e 31 3e 98 27 65 bd 57 11 38 3d a8 8f 02 be
       0.1730915 -0.055945963 0.04493841 -0.12750113
000160 1c 6a 7a bc 46 f6 8b bc e0 79 a3 bd 74 07 c4 3d
       -0.0152840875 -0.017085206 -0.0798223 0.09571734
000170 1c 9a 36 be 12 8e e0 bc c3 29 c7 bd 59 73 11 3e
       -0.17832226 -0.027411494 -0.09724762 0.14204158
000180 1b 97 65 3d 64 93 de 3d 1d c2 c3 3d bf 03 73 3c
       0.05605231 0.10867956 0.095585085 0.014832436
000190 1d 6b 1a be 53 1b 18 be 56 3e c4 3d 2f 99 46 be
       -0.15079923 -0.14854173 0.09582202 -0.19394372
0001a0 e9 b1 80 3d 4f 73 58 3d ab 4e 0f 3c 64 cc 2c be
       0.06283934 0.05284434 0.008746783 -0.16874844
0001b0 16 aa fb 3d d4 dd 2f bd 28 63 04 bc 58 a7 9e 3d
       0.12288301 -0.04293616 -0.008080281 0.07746762
0001c0 69 be c5 3b d3 7f da bd 33 eb 46 3d bf 68 0b be
       0.0060346616 -0.10668912 0.048564147 -0.13614176
0001d0 82 90 d6 3d d2 67 b4 3d 3b 5a 9b 3d ee 11 66 3d
       0.104767814 0.08808865 0.075855695 0.056169443
0001e0 9e b7 50 be 37 b7 ab bd af c7 0c be b8 e6 67 bd
       -0.20382544 -0.08384555 -0.13748048 -0.056616515
0001f0 71 44 25 be ef 89 a7 3d ba 04 17 3e 51 d1 2e 3d
       -0.1613939 0.081806056 0.14747897 0.04268009
000200 a6 b0 eb bd f6 cc 24 3e 60 f0 94 bd 75 de eb bd
       -0.115083024 0.16093811 -0.072724104 -0.1151704
000210 f4 d9 a9 3d 71 e9 ef 3d e0 ca 4d be 52 0c 4c 3e
       0.082935244 0.11714447 -0.20096922 0.19926575
000220 2a 59 23 bd 48 cf 64 3d 74 c5 85 be 88 07 1a 3c
       -0.039879955 0.05586174 -0.26127207 0.00940121
000230 5b 71 0b be db f7 2d be ce 69 b2 bd 19 6c 2f 3c
       -0.1361746 -0.1698908 -0.08711587 0.010706925
000240 f5 13 8e bd 9f 03 1c be a6 26 46 3e 22 64 a3 3d
       -0.069374 -0.15235756 0.1935068 0.07978083
000250 c1 82 5f be 42 33 63 3d 15 c9 c2 3d e2 8b 24 3d
       -0.21827222 0.055468805 0.095110096 0.040172465
000260 94 fe 93 3d 0d 26 30 bc e9 61 07 3e 07 fa 25 be
       0.07226291 -0.0107512595 0.13220944 -0.16208659
000270 7b 0e be bd f7 c5 42 3e ed c7 fc bd 48 1d 27 3e
       -0.09280106 0.1902083 -0.1234282 0.16319764
000280 80 3f 52 3e a1 3c 7e be 40 5e 0d be 52 60 2f 3e
       0.20532036 -0.24827816 -0.13805485 0.17126587
000290 a7 7c 54 bd 83 f3 ad bb 8c 64 15 3c a3 9f b6 3d
       -0.05187669 -0.00530857 0.0091182105 0.08917167
0002a0 ac ea c9 bd 9e 7b 11 3d b9 9d 31 3e 5e 4f fc bb
       -0.09859213 0.03551828 0.17345323 -0.007699891
0002b0 a5 78 59 be a9 c7 e1 3c 1b b7 0c bd 3b 7e 49 3c
       -0.21237428 0.027561026 -0.03435431 0.012298162
0002c0 80 e3 04 3e 86 d2 19 3d c7 9f 10 be 2d e0 ca bd
       0.1297741 0.037554286 -0.1412345 -0.099060394
0002d0 fa 58 c2 bc 56 b3 c9 bd c0 f4 a6 bc d8 2e e8 bd
       -0.023724068 -0.09848659 -0.020380378 -0.1133706
0002e0 92 9a 25 3e 56 8f b3 3d 25 35 5a 3b 83 98 c1 3b
       0.16172245 0.087675735 0.0033295837 0.0059080734
0002f0 87 78 af bc ab 58 fa 3d 7b c0 ed 3c 03 35 75 3c
       -0.021419777 0.12223943 0.029022446 0.014966252
000300 24 11 0b be 4b b6 8e 3d 98 ad 71 be 06 ee 8e 3d
       -0.13580757 0.069683634 -0.23601377 0.06978993
000310 ed ac 5a be 85 b2 c9 bd 99 3b 1c 3e 36 dd 04 be
       -0.21355028 -0.09848503 0.1525711 -0.1297501
000320 02 61 53 3e 57 bb 01 be df 1a 7f 3e e5 9b ab 3d
       0.20642474 -0.1266912 0.24912594 0.08379344
000330 a1 7a c4 bd a6 2a 2b 3e 1e 1a 2f be ce c6 ee bd
       -0.09593702 0.16715488 -0.17099807 -0.11659013
000340 b0 2f 28 be 7f da a4 39 cf 7e 88 bc b0 64 7f be
       -0.16424441 0.0003144331 -0.01666203 -0.24940753
000350 16 6d 44 3e b7 14 21 bd 77 24 1b be 5e 42 7c bc
       0.19182238 -0.039326396 -0.15150629 -0.015396683
000360 4d 70 06 be 99 16 21 3d bd 16 45 3d 10 58 dc bd
       -0.13128777 0.03932819 0.048117388 -0.10758984
000370 07 74 d1 bc 10 ac e5 3d fe eb 34 be b0 c2 96 bd
       -0.025568021 0.11214459 -0.17668149 -0.073613524
000380 e7 49 54 bd 4d ee 41 be 4f 92 e5 bc 36 f7 14 bd
       -0.05182829 -0.18938561 -0.028023867 -0.03636857
000390 b0 de 75 be b2 f6 d2 bc 75 a3 48 3e 65 7c e4 3d
       -0.2401073 -0.0257524 0.19593604 0.11156539
0003a0 99 84 05 be 2d c1 57 3e bf 2f 3b be e7 d6 0f be
       -0.13038863 0.21069784 -0.18279932 -0.14046822
0003b0 27 eb b5 3d 9a 49 23 3e 1e eb 78 3e ee 9d 5b 3e
       0.088827424 0.15946046 0.2430844 0.21446964
0003c0 ff 68 14 be b9 9e 74 3d 87 a6 12 be 5c 82 54 3c
       -0.14493178 0.059721682 -0.14321338 0.012970533
0003d0 3b 1b 55 3e 2c 03 ed 3d 03 3b 4b be 9b 64 91 bd
       0.20811169 0.115728706 -0.1984673 -0.07099267
0003e0 0c 2a 4c be 21 d0 f4 3d fa b6 78 bc 8a e7 24 be
       -0.19937915 0.1195376 -0.015180344 -0.1610395
0003f0 ac 13 83 bd 45 2a 85 3d 2c 4d 44 3d 7f f5 8d 3e
       -0.064002365 0.06502203 0.04792516 0.2772636

block3_conv1d_bn_relu_1.op.bias f4 [16]
000000 70 1d 07 3e f8 fc 42 3e a9 e2 4a 3e 6d d2 0a bd
       0.13194823 0.19041812 0.19813026 -0.033892084
000010 54 5b 4e bd 22 81 e1 3e 1b 90 62 3d f6 7a d5 3e
       -0.050380066 0.44043833 0.05531321 0.41695374
000020 9e 6f fc 3d 05 67 45 be 35 5c a1 bd 95 1b 63 3e
       0.12325977 -0.1927758 -0.07878915 0.2217849
000030 3f e7 c5 bd c2 41 5a be 92 05 20 be a1 2a 8d be
       -0.09663247 -0.21314147 -0.15627125 -0.27571586

block6_dense.op.weight f4 [2, 16]
000000 fe 86 00 3f c8 26 7b 3e 73 82 03 3f 23 3c 77 3d
       0.5020598 0.24526513 0.51370925 0.060360085
000010 c6 d4 f0 3d 5f 89 f6 3e a3 6e b5 3e 55 e2 c7 3e
       0.11759333 0.4815168 0.35435972 0.39039865
000020 1a 24 e7 3d 6d f5 11 be 06 a1 ea 3e 6f 3a b1 3e
       0.11286183 -0.14253779 0.45825976 0.34614894
000030 a9 b0 df 3e 61 84 46 be ca 12 24 bd d9 76 a1 3e
       0.43689469 -0.19386436 -0.04005698 0.31535986
000040 cd 9c 06 bf ee 45 c9 bd 90 99 35 be 7a 63 15 3e
       -0.5258301 -0.09827791 -0.1773436 0.14588729
000050 67 61 80 be df 55 23 bf 43 b0 dc be 29 32 8d be
       -0.25074312 -0.63802904 -0.43103227 -0.27577332
000060 6e c3 c7 be c9 2d 01 3d 6b a2 e0 be 67 f0 f7 bd
       -0.3901629 0.031537805 -0.43873915 -0.121064
000070 0d ba e9 bd 12 a1 5b 3e f7 16 58 bc fa c7 12 bf
       -0.114124395 0.21448162 -0.013189069 -0.5733639

momentum_buffer f4 [4, 1, 4]
000000 58 d8 aa 3a 88 82 1b 3b 60 b2 8a 3a 7d a6 05 3c
       0.0013034446 0.0023728926 0.0010581724 0.00815737
000010 14 45 26 bc 72 38 0c bc 1c 77 d5 bb c0 3e c0 3b
       -0.010148305 -0.0085583795 -0.006514443 0.0058668554
000020 d8 8a 78 3d e6 9f a2 3d 13 fb b2 3d 6b d6 b7 3d
       0.060679287 0.079406545 0.08739295 0.08976444
000030 c8 b3 79 3b 6c b9 1a 3b 04 fa 4b bb bc e6 14 bc
       0.0038101543 0.0023609055 -0.0031124363 -0.0090882145

momentum_buffer f4 [4]
000000 f0 79 5f 3e 50 1b 55 3c 18 ff a0 bf 65 6b 8a 3e
       0.21823859 0.013007 -1.2577848 0.2703506

momentum_buffer f4 [16, 4, 5]
000000 a6 de 19 3c 6c 27 53 3c bf 46 86 3c 48 37 8b 3b
       0.009391462 0.012887817 0.016391156 0.0042485334
000010 40 d3 03 3b b8 33 52 bb f8 4e 18 bb 8e 09 57 bb
       0.0020114928 -0.0032074284 -0.0023240428 -0.0032812092
000020 60 0f 38 3a 19 27 a6 3b 78 a6 e2 3b 30 4f 34 3c
       0.0007021334 0.005070579 0.0069168173 0.011005208
000030 57 46 7e 3c 84 1a fc 3b a8 e4 7a 3b ee 4e 02 3c
       0.0155197 0.0076935906 0.0038283262 0.007953389
000040 00 9b 23 3c ff 77 94 3c 4c 43 d0 3b 50 2e 3a 3b
       0.009985685 0.018123625 0.0063556787 0.0028408952
000050 d6 6a 05 bc f2 fc a0 bb 64 47 11 bb c4 32 50 bb
       -0.008143147 -0.004912966 -0.0022167796 -0.003176854
000060 3e f8 ec bb 5c 6a 47 bb d4 a6 94 bb fa 65 f4 bb
       -0.007231741 -0.0030428385 -0.004536489 -0.0074584456
000070 6c 02 f0 bb 80 11 2e ba f6 8e c4 bb a8 2a 61 bb
       -0.0073245075 -0.0006640181 -0.0059984876 -0.00343577
000080 e6 bf b5 ba bc 8f 4a ba b6 8a 32 bb 41 aa 12 bc
       -0.0013866394 -0.00077271066 -0.0027243323 -0.0089517245
000090 00 29 9a bb 22 2a 1b bb 39 89 11 bb 1d 44 7c bb
       -0.0047045946 -0.0023676236 -0.0022207035 -0.0038492747
0000a0 63 23 df bc 28 29 ed bc c0 a5 78 bc 34 d8 df bc
       -0.027238553 -0.028950289 -0.015176237 -0.027324773
0000b0 ac ce bf bc d8 63 b8 bb 58 a0 8e bb d0 4a 33 bc
       -0.023413979 -0.0056271367 -0.0043526106 -0.01094313
0000c0 a5 13 13 bc d7 3a f2 bb ea e1 e0 bc 42 e7 c1 bc
       -0.008976852 -0.007392268 -0.027451474 -0.023669843
0000d0 cd a2 3e bc d3 99 a6 bc 4c b8 8b bc 11 47 f8 bc
       -0.011635494 -0.020337021 -0.017055653 -0.030307325
0000e0 ea 29 f6 bc b5 89 83 bc 07 df c6 bc d6 d0 a5 bc
       -0.030049283 -0.016056875 -0.02427627 -0.020241182
0000f0 24 40 30 bc 82 d4 31 bd 22 95 43 bd 49 08 c6 bc
       -0.01075748 -0.043415554 -0.047749646 -0.024173873
000100 1d b5 ac bc 15 e9 3e bd fa 7c 85 bc 15 97 e0 bc
       -0.021082455 -0.046609003 -0.016294945 -0.027415792
000110 98 38 32 bd e2 ec 1e bd c0 ff a0 39 ef 01 ea bc
       -0.043511003 -0.038800128 0.00030708127 -0.028565375
000120 45 52 1a bd 62 02 8d bc 79 46 30 bc 1c e8 8e bb
       -0.037676115 -0.01721305 -0.0107589895 -0.0043611657
000130 9a 0d fb bc f7 47 3c bd 65 6e c0 bc 40 f1 59 bc
       -0.030646134 -0.04596707 -0.02349014 -0.013302147
000140 d8 6b bf 3b 06 6e 44 3c 77 24 b8 3b 8e 1a 70 bb
       0.0058417134 0.011989122 0.0056195813 -0.0036636922
000150 b8 27 69 3a b4 af 15 3b 71 d9 58 3b bd b4 d8 3a
       0.0008894163 0.0022840323 0.003308859 0.0016533356
000160 08 0b 5c 3b ed dd a0 3b cb ac 24 3b f1 71 0b 3c
       0.003357591 0.004909268 0.0025127407 0.0085110525
000170 93 20 78 3b d0 9e ae b9 1c 2b b1 39 3d 8b 82 3b
       0.0037861213 -0.0003330619 0.0003379219 0.0039838837
000180 42 12 25 3c 36 e5 cc 3b 43 9c c7 3a 58 f9 47 3a
       0.010075154 0.00625291 0.0015229065 0.00076284027
000190 6f d3 a2 bc 16 74 49 bc 61 04 2b bc 06 2c 81 bc
       -0.01987621 -0.012295743 -0.010438056 -0.015768062
0001a0 8c b5 89 bc 80 86 25 bb a0 40 65 bb 57 85 d4 bb
       -0.016810201 -0.002525717 -0.0034981146 -0.006485622
0001b0 85 82 57 ba b6 d2 73 bb 78 ee 90 bc 06 b7 53 bc
       -0.0008221048 -0.003720445 -0.017691836 -0.012922054
0001c0 ac bf c6 bb a5 81 3d bc 4e c1 64 bc 11 34 9f bc
       -0.0060653295 -0.011566554 -0.013962103 -0.019434007
0001d0 dd 46 7a bc 58 8f dc bb 70 47 5a bc f2 08 7b bc
       -0.015275684 -0.006730955 -0.013322696 -0.015321957
0001e0 ab 51 1e 3c 2b bf 27 3c 40 d4 91 b9 26 72 0e bc
       0.009663026 0.010238449 -0.00027814694 -0.008694207
0001f0 ea 35 d6 bb 90 87 72 bb f0 07 ed bb 0a e6 40 bb
       -0.006537189 -0.003700707 -0.0072336122 -0.002943399
000200 7e 79 68 bb 8d 15 ac bb 8d 9c 9e 3b 18 3f c3 3b
       -0.0035472806 -0.0052515925 0.0048404397 0.005958449
000210 ee 8c 96 3a 9e 0c f4 bb d2 b3 8f bb ec e7 81 3b
       0.0011486092 -0.007447793 -0.00438545 0.003964415
000220 f2 80 0d 3c 71 83 2b 3b 29 0d 12 bc 68 37 da bb
       0.0086367 0.0026170874 -0.00891427 -0.006659437
000230 07 8e 9c 3c 00 a7 93 3c f8 81 81 3c f3 b1 81 3b
       0.019110693 0.018023968 0.015809044 0.003957981
000240 81 9e 1f 3b 6e 0f 6d b9 9f 23 90 3b 51 19 d1 3b
       0.002435595 -0.0002260783 0.0043987776 0.006381192
000250 a1 bf 81 3b c8 c7 32 3b a5 e8 a0 3c 5a de 8e 3c
       0.0039596115 0.0027279723 0.019642184 0.01744001
000260 d6 14 8a 3c 2a 84 e6 3b 04 b6 3b 3a ec 12 a8 3c
       0.016855638 0.007034798 0.00071606063 0.020516835
000270 d1 37 a1 3c 88 7f a0 3c f6 24 1d 3c 50 f7 2c 3b
       0.019679936 0.019592062 0.009591332 0.0026392527
000280 ba 95 b1 bc 5d 81 82 bc 84 21 81 bc b8 09 3c bc
       -0.02167784 -0.015930826 -0.015763052 -0.0114769265
000290 21 b2 93 bc 49 78 b5 bc 8e a6 5c bc eb 55 f9 bb
       -0.018029274 -0.022152083 -0.013467444 -0.007609119
0002a0 84 2d 2d bc 3d d3 a2 bc 40 94 5a bc f0 e3 12 bc
       -0.010569934 -0.019876117 -0.01334101 -0.008965477
0002b0 9f 9d 3e bc 76 69 b7 bb d4 d4 34 bc 3e f4 a1 bc
       -0.0116342595 -0.0055972887 -0.01103707 -0.019769784
0002c0 35 4d 69 bc 17 75 7e bc 8d 4a 1e bc 39 64 52 bc
       -0.014239599 -0.015530846 -0.009661329 -0.012841278
0002d0 50 06 40 bb 0c d0 20 ba f0 b2 3d 39 b5 e2 20 3c
       -0.0029300638 -0.0006134517 0.00018091104 0.009819676
0002e0 62 ab 0b 3c dc db ee 3b 4e 83 88 ba 58 ca 38 bb
       0.008524748 0.007289393 -0.0010415108 -0.0028196778
0002f0 8d ca 60 bb 17 49 54 bb 16 1d 59 bb 37 8b fc ba
       -0.0034300417 -0.0032392198 -0.0033128909 -0.0019267563
000300 f0 f2 8c b8 98 93 e6 3b c4 30 c0 3b b9 da 5f bb
       -6.720971e-05 0.0070366375 0.0058651883 -0.0034157468
000310 95 8e 03 bb 9e 04 76 ba 87 14 0a 3c 62 3e 0b 3c
       -0.0020074 -0.0009384843 0.008427746 0.00849876
000320 24 fb 76 bc 9a 5b 0a bd 12 8c c4 bc 44 73 83 bc
       -0.015074525 -0.033778764 -0.023992572 -0.016046174
000330 f2 1f b1 bc 8d d2 8c bc cb 94 0d bc 91 85 55 bc
       -0.021621678 -0.017190242 -0.008641432 -0.013032333
000340 02 df 45 bc 79 c6 93 bc 84 51 cd bb 90 fb c4 bc
       -0.012077095 -0.018038975 -0.006265821 -0.024045736
000350 e3 f0 95 bc 5a 70 2e bc 14 33 69 bc 88 c4 28 bc
       -0.01830334 -0.010646904 -0.014233369 -0.010300763
000360 c0 e5 f6 bc 03 96 bc bc e1 d1 80 bc b1 e1 90 bc
       -0.03013885 -0.02302075 -0.015725078 -0.017685743
000370 5e 5d 2c bc 9c d0 7a bc eb 34 b4 bc b8 df 32 bc
       -0.010520307 -0.015308525 -0.02199789 -0.0109175965
000380 fc ab 51 bc 61 d1 e0 bc 2b 8b 99 bc f3 49 46 bb
       -0.012797352 -0.02744359 -0.018743118 -0.003025648
000390 74 44 2d bc c0 3e 47 bc d1 a4 b3 bb a8 2a 14 bc
       -0.0105754025 -0.012160957 -0.005482294 -0.009043373
0003a0 a8 3b 8f bc 74 f4 32 bc 05 c6 e3 bb 32 5e 0d bc
       -0.017484501 -0.01092254 -0.006951096 -0.008628415
0003b0 b6 86 28 bc 3a 64 a0 bc 02 1c 58 bc 34 47 f1 bb
       -0.010286024 -0.019579042 -0.013190271 -0.0073632244
0003c0 b2 7a 87 3c 1e 7c d6 3c d3 7f d4 3c b2 6b 1b 3d
       0.016537998 0.02618223 0.025939858 0.037944503
0003d0 a0 28 21 3d f8 23 c2 3c da b3 f8 3b 4b 63 47 3c
       0.039345384 0.023698792 0.0075897994 0.012169669
0003e0 9e 24 b2 3c 1e 81 a7 3c a0 32 c6 3b f9 75 47 3c
       0.021745976 0.02044731 0.0060485154 0.012174123
0003f0 1d e4 5e 3c 5f 31 cb 3c 00 56 dd 3c 21 ad 38 3c
       0.013604191 0.024803815 0.027018547 0.011271746

momentum_buffer f4 [16]
000000 b8 6d b6 3c 5b fd a9 bc b2 18 6b bd 38 22 d4 bd
       0.022269115 -0.020750692 -0.0573966 -0.10358089
000010 25 fc c4 3c 24 08 15 bd 4c ca 20 bc 7b 00 b0 3c
       0.024046013 -0.036384717 -0.009813856 0.021484604
000020 a4 e2 47 bd 18 b1 69 3b 60 a6 7d bd 55 de 4f bd
       -0.048800126 0.0035658535 -0.061926246 -0.05074914
000030 a0 18 90 3d 06 f8 18 be a0 18 c7 ba 8e 7a b5 bd
       0.07035947 -0.14938363 -0.0015189834 -0.08861266
