trained_custom/checkpoints/energy_profiling/input_data_size/ep_v1.23_768_epidenet_b_v3.2_qat_best-q.pth.tar (torch, 83087 bytes, 26 tensors)

block1_conv1d_bn_relu_1.op.weight f4 [4, 1, 4]
0	0xc0c00000	-6.0
1	0x42040000	33.0
2	0xc2680000	-58.0
3	0xc24c0000	-51.0
4	0xc2000000	-32.0
5	0x41f80000	31.0
6	0xbf800000	-1.0
7	0x42a00000	80.0
8	0xc2080000	-34.0
9	0x42180000	38.0
10	0xc2600000	-56.0
11	0xc2040000	-33.0
12	0xc2200000	-40.0
13	0xc1e00000	-28.0
14	0xc1900000	-18.0
15	0x3f800000	1.0

block1_conv1d_bn_relu_1.op.bias f4 [4]
0	0x43000000	128.0
1	0x00000000	0.0
2	0x43000000	128.0
3	0x43000000	128.0

block2_conv1d_bn_relu_1.op.weight f4 [16, 4, 5]
0	0x41880000	17.0
1	0x42180000	38.0
2	0xc1000000	-8.0
3	0x420c0000	35.0
4	0xc0c00000	-6.0
5	0x40c00000	6.0
6	0x42280000	42.0
7	0xc2280000	-42.0
8	0xc1e00000	-28.0
9	0xc1300000	-11.0
10	0xc1880000	-17.0
11	0x421c0000	39.0
12	0xc1e00000	-28.0
13	0xc1980000	-19.0
14	0xc1f00000	-30.0
15	0xc2240000	-41.0
16	0xc1d00000	-26.0
17	0x42200000	40.0
18	0x41b00000	22.0
19	0x41b80000	23.0
20	0x40400000	3.0
21	0xc1b00000	-22.0
22	0x40e00000	7.0
23	0xc2280000	-42.0
24	0xc2040000	-33.0
25	0xc1d00000	-26.0
26	0x41c80000	25.0
27	0x41d00000	26.0
28	0xc1980000	-19.0
29	0xbf800000	-1.0
30	0x41f00000	30.0
31	0x42340000	45.0
32	0x41900000	18.0
33	0x40c00000	6.0
34	0x41f00000	30.0
35	0xc1c00000	-24.0
36	0x41100000	9.0
37	0xc2080000	-34.0
38	0xc1f80000	-31.0
39	0xc1b80000	-23.0
40	0x41880000	17.0
41	0x41800000	16.0
42	0xc1a00000	-20.0
43	0x41500000	13.0
44	0x41a80000	21.0
45	0xc1000000	-8.0
46	0xc0000000	-2.0
47	0x40a00000	5.0
48	0x41a00000	20.0
49	0x42000000	32.0
50	0xc1d00000	-26.0
51	0xc1200000	-10.0
52	0x41880000	17.0
53	0x42040000	33.0
54	0x42080000	34.0
55	0x42080000	34.0
56	0x41200000	10.0
57	0xc1e00000	-28.0
58	0x40e00000	7.0
59	0xc1a00000	-20.0
60	0xc2080000	-34.0
61	0x42000000	32.0
62	0x41d80000	27.0
63	0xc2180000	-38.0
64	0x40c00000	6.0
65	0xc0e00000	-7.0
66	0xc0c00000	-6.0
67	0xc1880000	-17.0
68	0x41500000	13.0
69	0xc1b80000	-23.0
70	0x41500000	13.0
71	0x41900000	18.0
72	0x41c80000	25.0
73	0x41500000	13.0
74	0xc2140000	-37.0
75	0xc1c00000	-24.0
76	0x41900000	18.0
77	0x40e00000	7.0
78	0xc1f00000	-30.0
79	0xc1b00000	-22.0
80	0x423c0000	47.0
81	0x42040000	33.0
82	0xc1b80000	-23.0
83	0xc1600000	-14.0
84	0xc2500000	-52.0
85	0xc0000000	-2.0
86	0xc2240000	-41.0
87	0xc22c0000	-43.0
88	0xc0000000	-2.0
89	0x41100000	9.0
90	0xc1c00000	-24.0
91	0x41e00000	28.0
92	0xc2000000	-32.0
93	0x423c0000	47.0
94	0x42080000	34.0
95	0xc23c0000	-47.0
96	0xc1880000	-17.0
97	0x3f800000	1.0
98	0x40e00000	7.0
99	0x41200000	10.0
100	0x41800000	16.0
101	0x40400000	3.0
102	0xc1980000	-19.0
103	0x41a00000	20.0
104	0xc21c0000	-39.0
105	0xc1c80000	-25.0
106	0xc1300000	-11.0
107	0xc1a80000	-21.0
108	0xc1700000	-15.0
109	0xc2040000	-33.0
110	0xc1100000	-9.0
111	0x41100000	9.0
112	0xc1d00000	-26.0
113	0xbf800000	-1.0
114	0x41f00000	30.0
115	0xc0a00000	-5.0
116	0x3f800000	1.0
117	0xc0400000	-3.0
118	0x41100000	9.0
119	0x41d80000	27.0
120	0x42480000	50.0
121	0x42040000	33.0
122	0x424c0000	51.0
123	0xc0a00000	-5.0
124	0xc2440000	-49.0
125	0xc1c80000	-25.0
126	0x42100000	36.0
127	0xc0000000	-2.0
128	0xc1e00000	-28.0
129	0xc2280000	-42.0
130	0xc2540000	-53.0
131	0xc2400000	-48.0
132	0xc1400000	-12.0
133	0x41e80000	29.0
134	0x41e80000	29.0
135	0xc2580000	-54.0
136	0x42000000	32.0
137	0xc2300000	-44.0
138	0xc1500000	-13.0
139	0xc1b80000	-23.0
140	0xc1100000	-9.0
141	0xc1000000	-8.0
142	0xc2040000	-33.0
143	0xc2000000	-32.0
144	0xc0e00000	-7.0
145	0xbf800000	-1.0
146	0xc1980000	-19.0
147	0x41400000	12.0
148	0xc2000000	-32.0
149	0xbf800000	-1.0
150	0x41e80000	29.0
151	0xc1800000	-16.0
152	0x42000000	32.0
153	0x41400000	12.0
154	0xc2080000	-34.0
155	0x41a00000	20.0
156	0xc0c00000	-6.0
157	0xc1880000	-17.0
158	0x41e00000	28.0
159	0xc1f00000	-30.0
160	0x40a00000	5.0
161	0xc1b00000	-22.0
162	0x42540000	53.0
163	0x41880000	17.0
164	0x42080000	34.0
165	0x41b00000	22.0
166	0xc1d00000	-26.0
167	0xc1c80000	-25.0
168	0xc2940000	-74.0
169	0x420c0000	35.0
170	0x427c0000	63.0
171	0x42540000	53.0
172	0xc2780000	-62.0
173	0xbf800000	-1.0
174	0xc27c0000	-63.0
175	0xc23c0000	-47.0
176	0xc2480000	-50.0
177	0x41c00000	24.0
178	0xc2540000	-53.0
179	0xc0e00000	-7.0
180	0x3f800000	1.0
181	0x41980000	19.0
182	0xc1c00000	-24.0
183	0xc1a80000	-21.0
184	0xc1900000	-18.0
185	0x41a80000	21.0
186	0xc1300000	-11.0
187	0x41c80000	25.0
188	0x41200000	10.0
189	0x40400000	3.0
190	0x00000000	0.0
191	0xc0e00000	-7.0
192	0x40400000	3.0
193	0xc0e00000	-7.0
194	0x00000000	0.0
195	0x40800000	4.0
196	0xc1c80000	-25.0
197	0xc1880000	-17.0
198	0x41c80000	25.0
199	0xc1c80000	-25.0
200	0xc0a00000	-5.0
201	0x421c0000	39.0
202	0x41500000	13.0
203	0x00000000	0.0
204	0xc2180000	-38.0
205	0x41980000	19.0
206	0xc2000000	-32.0
207	0xc1600000	-14.0
208	0xc1800000	-16.0
209	0xc1000000	-8.0
210	0xbf800000	-1.0
211	0x42040000	33.0
212	0x40800000	4.0
213	0x42100000	36.0
214	0x41c80000	25.0
215	0xc1e00000	-28.0
216	0x41880000	17.0
217	0xc1f80000	-31.0
218	0xc1980000	-19.0
219	0x41300000	11.0
220	0x41a00000	20.0
221	0x42340000	45.0
222	0xc1880000	-17.0
223	0x3f800000	1.0
224	0x41f80000	31.0
225	0xc2640000	-57.0
226	0x42280000	42.0
227	0xc24c0000	-51.0
228	0x40000000	2.0
229	0xc0e00000	-7.0
230	0xc1f00000	-30.0
231	0x41100000	9.0
232	0x424c0000	51.0
233	0xc1800000	-16.0
234	0xc2080000	-34.0
235	0xc1a80000	-21.0
236	0xc2640000	-57.0
237	0x41e80000	29.0
238	0xc1d00000	-26.0
239	0xc21c0000	-39.0
240	0xc1f80000	-31.0
241	0x41f00000	30.0
242	0x41e00000	28.0
243	0x422c0000	43.0
244	0x41980000	19.0
245	0xc1a80000	-21.0
246	0xc1700000	-15.0
247	0x41700000	15.0
248	0x422c0000	43.0
249	0x41600000	14.0
250	0xc1c80000	-25.0
251	0xc1d80000	-27.0
252	0xc2500000	-52.0
253	0x41400000	12.0
254	0xc1f80000	-31.0
255	0xc2400000	-48.0

block2_conv1d_bn_relu_1.op.bias f4 [16]
0	0xc3000000	-128.0
1	0x44800000	1024.0
2	0xc5200000	-2560.0
3	0x44a00000	1280.0
4	0x44c00000	1536.0
5	0x44c00000	1536.0
6	0x45080000	2176.0
7	0x44f00000	1920.0
8	0x44f00000	1920.0
9	0x44200000	640.0
10	0x00000000	0.0
11	0x45000000	2048.0
12	0x43c00000	384.0
13	0x44200000	640.0
14	0x43c00000	384.0
15	0xc5000000	-2048.0

block2_conv1d_bn_relu_2.op.weight f4 [16, 16, 5]
0	0xc1700000	-15.0
1	0x41800000	16.0
2	0xc1e00000	-28.0
3	0x40c00000	6.0
4	0xc1d80000	-27.0
5	0xc2200000	-40.0
6	0xc2000000	-32.0
7	0x41e80000	29.0
8	0x41a80000	21.0
9	0x42180000	38.0
10	0x41d80000	27.0
11	0xc2100000	-36.0
12	0xc1e00000	-28.0
13	0xc1000000	-8.0
14	0xc1d00000	-26.0
15	0x41d00000	26.0
16	0xc1f00000	-30.0
17	0xc1980000	-19.0
18	0xc2140000	-37.0
19	0xc1b00000	-22.0
20	0x42040000	33.0
21	0x42040000	33.0
22	0x41e80000	29.0
23	0x41f00000	30.0
24	0x42040000	33.0
25	0xc1100000	-9.0
26	0x41880000	17.0
27	0x42040000	33.0
28	0x41300000	11.0
29	0x42100000	36.0
30	0x41b00000	22.0
31	0x41c80000	25.0
32	0xc1600000	-14.0
33	0x41800000	16.0
34	0x40400000	3.0
35	0xc1200000	-10.0
36	0xc1b00000	-22.0
37	0xc1a80000	-21.0
38	0xc1e80000	-29.0
39	0x41d00000	26.0
40	0x41e80000	29.0
41	0xc0000000	-2.0
42	0xc1a80000	-21.0
43	0x41f80000	31.0
44	0x41b80000	23.0
45	0x00000000	0.0
46	0xc1a00000	-20.0
47	0x42080000	34.0
48	0x41800000	16.0
49	0xc1d80000	-27.0
50	0x42040000	33.0
51	0x41c80000	25.0
52	0xc1900000	-18.0
53	0x41900000	18.0
54	0xc1c00000	-24.0
55	0xc0a00000	-5.0
56	0x42080000	34.0
57	0x40800000	4.0
58	0xc1c80000	-25.0
59	0xc1400000	-12.0
60	0xc1300000	-11.0
61	0xc1000000	-8.0
62	0x40400000	3.0
63	0x420c0000	35.0
64	0x40400000	3.0
65	0xc1b80000	-23.0
66	0x00000000	0.0
67	0x41700000	15.0
68	0x41800000	16.0
69	0xc2100000	-36.0
70	0xc1100000	-9.0
71	0xc1f00000	-30.0
72	0xc1900000	-18.0
73	0x41500000	13.0
74	0xc1d00000	-26.0
75	0x41000000	8.0
76	0x41d80000	27.0
77	0xbf800000	-1.0
78	0xc1d80000	-27.0
79	0xc1700000	-15.0
80	0x40c00000	6.0
81	0xc2200000	-40.0
82	0x41980000	19.0
83	0xc2380000	-46.0
84	0xc23c0000	-47.0
85	0xc2340000	-45.0
86	0xc0e00000	-7.0
87	0x42080000	34.0
88	0xc2240000	-41.0
89	0x421c0000	39.0
90	0xc1b00000	-22.0
91	0x41200000	10.0
92	0xc0000000	-2.0
93	0xc2380000	-46.0
94	0x42080000	34.0
95	0x41d00000	26.0
96	0x423c0000	47.0
97	0x41a00000	20.0
98	0xc20c0000	-35.0
99	0x42100000	36.0
100	0x40800000	4.0
101	0x41a80000	21.0
102	0xc2200000	-40.0
103	0xc1800000	-16.0
104	0xc2400000	-48.0
105	0xc1980000	-19.0
106	0x41000000	8.0
107	0xc21c0000	-39.0
108	0x41400000	12.0
109	0x41b00000	22.0
110	0x40a00000	5.0
111	0xc2040000	-33.0
112	0xc2180000	-38.0
113	0xc1600000	-14.0
114	0x41a80000	21.0
115	0x42400000	48.0
116	0x41f00000	30.0
117	0xc0400000	-3.0
118	0x41880000	17.0
119	0xc2340000	-45.0
120	0xc2180000	-38.0
121	0x41980000	19.0
122	0xc1d80000	-27.0
123	0x41980000	19.0
124	0xc20c0000	-35.0
125	0xc1c00000	-24.0
126	0xc2140000	-37.0
127	0x41e00000	28.0
128	0xbf800000	-1.0
129	0x42240000	41.0
130	0x41c80000	25.0
131	0x41a80000	21.0
132	0xc0400000	-3.0
133	0xc1980000	-19.0
134	0xc1500000	-13.0
135	0x41100000	9.0
136	0x41c80000	25.0
137	0xc2000000	-32.0
138	0x421c0000	39.0
139	0xc0c00000	-6.0
140	0xc21c0000	-39.0
141	0xc1c00000	-24.0
142	0x42240000	41.0
143	0x422c0000	43.0
144	0xc2200000	-40.0
145	0x41e00000	28.0
146	0x41980000	19.0
147	0x41c80000	25.0
148	0x421c0000	39.0
149	0xc1b00000	-22.0
150	0x41400000	12.0
151	0x41900000	18.0
152	0xc1500000	-13.0
153	0x41800000	16.0
154	0xc1500000	-13.0
155	0x41b80000	23.0
156	0xc1900000	-18.0
157	0xc1b00000	-22.0
158	0x41000000	8.0
159	0x41600000	14.0
160	0xc1880000	-17.0
161	0x40400000	3.0
162	0x41b00000	22.0
163	0xc0400000	-3.0
164	0x41600000	14.0
165	0xc1000000	-8.0
166	0x41700000	15.0
167	0xc1d80000	-27.0
168	0xc1b00000	-22.0
169	0xc1980000	-19.0
170	0x42000000	32.0
171	0xc1300000	-11.0
172	0x00000000	0.0
173	0xc1980000	-19.0
174	0x42140000	37.0
175	0x42200000	40.0
176	0xc1d00000	-26.0
177	0xc1e00000	-28.0
178	0xc1d80000	-27.0
179	0x3f800000	1.0
180	0xc1000000	-8.0
181	0xc1c00000	-24.0
182	0xc1300000	-11.0
183	0x41000000	8.0
184	0xc1880000	-17.0
185	0x41200000	10.0
186	0xc1000000	-8.0
187	0xc1880000	-17.0
188	0x40c00000	6.0
189	0x42000000	32.0
190	0xc1c00000	-24.0
191	0x40000000	2.0
192	0xc1500000	-13.0
193	0x42140000	37.0
194	0xc20c0000	-35.0
195	0xc20c0000	-35.0
196	0x42180000	38.0
197	0xc1b00000	-22.0
198	0x41000000	8.0
199	0xc0400000	-3.0
200	0xc0c00000	-6.0
201	0xc0e00000	-7.0
202	0x41c80000	25.0
203	0x40400000	3.0
204	0xc2100000	-36.0
205	0xc1b00000	-22.0
206	0xc1600000	-14.0
207	0x41880000	17.0
208	0xc1d00000	-26.0
209	0x42080000	34.0
210	0xc0c00000	-6.0
211	0xc0a00000	-5.0
212	0x41f80000	31.0
213	0x41980000	19.0
214	0x420c0000	35.0
215	0x41b80000	23.0
216	0xc1200000	-10.0
217	0xc1c00000	-24.0
218	0xc0000000	-2.0
219	0x41f80000	31.0
220	0xc1500000	-13.0
221	0xc20c0000	-35.0
222	0x41600000	14.0
223	0x42080000	34.0
224	0xc1300000	-11.0
225	0xc1e80000	-29.0
226	0xc2040000	-33.0
227	0x41300000	11.0
228	0xc0000000	-2.0
229	0xc1980000	-19.0
230	0x41000000	8.0
231	0x41600000	14.0
232	0x41f80000	31.0
233	0x41f00000	30.0
234	0xc0a00000	-5.0
235	0xc2040000	-33.0
236	0xc2080000	-34.0
237	0x42100000	36.0
238	0x41900000	18.0
239	0x41900000	18.0
240	0xc2300000	-44.0
241	0x42400000	48.0
242	0x42440000	49.0
243	0x42440000	49.0
244	0xc2300000	-44.0
245	0xc1a80000	-21.0
246	0xc2100000	-36.0
247	0x42400000	48.0
248	0xc1b80000	-23.0
249	0xc1d00000	-26.0
250	0x41d80000	27.0
251	0xc1c00000	-24.0
252	0xc1d80000	-27.0
253	0xc0c00000	-6.0
254	0xc0e00000	-7.0
255	0xc2240000	-41.0

block2_conv1d_bn_relu_2.op.bias f4 [16]
0	0xc4400000	-768.0
1	0x44800000	1024.0
2	0x44000000	512.0
3	0xc3000000	-128.0
4	0xc4900000	-1152.0
5	0xc4000000	-512.0
6	0xc5d40000	-6784.0
7	0x45100000	2304.0
8	0x44f00000	1920.0
9	0x460c0000	8960.0
10	0x45280000	2688.0
11	0xc4c00000	-1536.0
12	0xc5280000	-2688.0
13	0x45b00000	5632.0
14	0xc5600000	-3584.0
15	0x44a00000	1280.0

block2_conv1d_bn_relu_3.op.weight f4 [16, 16, 5]
0	0xc2820000	-65.0
1	0xc26c0000	-59.0
2	0x42280000	42.0
3	0x42860000	67.0
4	0x41100000	9.0
5	0xc2580000	-54.0
6	0x42080000	34.0
7	0x40e00000	7.0
8	0xc2a60000	-83.0
9	0xc2700000	-60.0
10	0x41100000	9.0
11	0x42380000	46.0
12	0xc2180000	-38.0
13	0x42180000	38.0
14	0xc26c0000	-59.0
15	0x429e0000	79.0
16	0x42500000	52.0
17	0x41100000	9.0
18	0x41f00000	30.0
19	0x41b80000	23.0
20	0xc2680000	-58.0
21	0xc0400000	-3.0
22	0x41a80000	21.0
23	0xc1a80000	-21.0
24	0x429c0000	78.0
25	0xc22c0000	-43.0
26	0xc2ac0000	-86.0
27	0xc2400000	-48.0
28	0xc2ac0000	-86.0
29	0x42820000	65.0
30	0xc2480000	-50.0
31	0xc2920000	-73.0
32	0xc1a00000	-20.0
33	0xc28e0000	-71.0
34	0xc2640000	-57.0
35	0x42240000	41.0
36	0xc2860000	-67.0
37	0x420c0000	35.0
38	0x42740000	61.0
39	0xc0e00000	-7.0
40	0x42300000	44.0
41	0xc2300000	-44.0
42	0x42900000	72.0
43	0x42a40000	82.0
44	0x41600000	14.0
45	0x42a80000	84.0
46	0xc2a80000	-84.0
47	0xc1000000	-8.0
48	0x41980000	19.0
49	0xc2980000	-76.0
50	0x42300000	44.0
51	0xc2100000	-36.0
52	0xc20c0000	-35.0
53	0xc2980000	-76.0
54	0x42080000	34.0
55	0xc2840000	-66.0
56	0xc1a80000	-21.0
57	0x420c0000	35.0
58	0x42700000	60.0
59	0x41300000	11.0
60	0xc2240000	-41.0
61	0xc2400000	-48.0
62	0x421c0000	39.0
63	0x40e00000	7.0
64	0x428a0000	69.0
65	0x41e00000	28.0
66	0x428e0000	71.0
67	0xc2980000	-76.0
68	0x42900000	72.0
69	0xc2340000	-45.0
70	0xc1e80000	-29.0
71	0xc0a00000	-5.0
72	0xc1d80000	-27.0
73	0x41100000	9.0
74	0x428a0000	69.0
75	0xc2480000	-50.0
76	0x41d00000	26.0
77	0xc29a0000	-77.0
78	0x40a00000	5.0
79	0x427c0000	63.0
80	0x42180000	38.0
81	0x42440000	49.0
82	0x41e00000	28.0
83	0xc1400000	-12.0
84	0x41000000	8.0
85	0xc1f00000	-30.0
86	0x42440000	49.0
87	0x41f80000	31.0
88	0xc2280000	-42.0
89	0x425c0000	55.0
90	0xc0000000	-2.0
91	0xc0400000	-3.0
92	0xc1900000	-18.0
93	0xc1a00000	-20.0
94	0x00000000	0.0
95	0xc20c0000	-35.0
96	0xc2740000	-61.0
97	0xc2040000	-33.0
98	0xc1300000	-11.0
99	0x423c0000	47.0
100	0x42200000	40.0
101	0xc2300000	-44.0
102	0xc1000000	-8.0
103	0xc1b00000	-22.0
104	0xc2100000	-36.0
105	0xc1880000	-17.0
106	0xc1c00000	-24.0
107	0x42140000	37.0
108	0xc1e00000	-28.0
109	0x41500000	13.0
110	0xc21c0000	-39.0
111	0xc1b00000	-22.0
112	0x42340000	45.0
113	0xc2080000	-34.0
114	0xc1100000	-9.0
115	0x42580000	54.0
116	0x41900000	18.0
117	0xc2040000	-33.0
118	0xc2180000	-38.0
119	0xc1b80000	-23.0
120	0xc1c80000	-25.0
121	0x41b00000	22.0
122	0xc1880000	-17.0
123	0x42480000	50.0
124	0xc20c0000	-35.0
125	0xc1900000	-18.0
126	0x41b80000	23.0
127	0x42440000	49.0
128	0x42740000	61.0
129	0x41300000	11.0
130	0x3f800000	1.0
131	0xc1f80000	-31.0
132	0x41f80000	31.0
133	0xc2080000	-34.0
134	0xc1200000	-10.0
135	0xc2540000	-53.0
136	0xc2800000	-64.0
137	0x41e00000	28.0
138	0xbf800000	-1.0
139	0x42380000	46.0
140	0x42280000	42.0
141	0x41f80000	31.0
142	0x41e00000	28.0
143	0xc1200000	-10.0
144	0x42140000	37.0
145	0x41e80000	29.0
146	0x41b00000	22.0
147	0x3f800000	1.0
148	0x41200000	10.0
149	0xbf800000	-1.0
150	0xc2400000	-48.0
151	0x41400000	12.0
152	0xc2340000	-45.0
153	0x41e80000	29.0
154	0xc2180000	-38.0
155	0xc1d80000	-27.0
156	0xc2100000	-36.0
157	0x42300000	44.0
158	0xc22c0000	-43.0
159	0x421c0000	39.0
160	0x41d80000	27.0
161	0x42200000	40.0
162	0x41300000	11.0
163	0x41f80000	31.0
164	0x423c0000	47.0
165	0x41600000	14.0
166	0x41b00000	22.0
167	0xc2480000	-50.0
168	0xc1b00000	-22.0
169	0x3f800000	1.0
170	0x41000000	8.0
171	0xc1b00000	-22.0
172	0xc2740000	-61.0
173	0xc1700000	-15.0
174	0x41b80000	23.0
175	0x42540000	53.0
176	0xc25c0000	-55.0
177	0x41f00000	30.0
178	0xc26c0000	-59.0
179	0xc2700000	-60.0
180	0xc2200000	-40.0
181	0xc1400000	-12.0
182	0x41600000	14.0
183	0xc2440000	-49.0
184	0x42440000	49.0
185	0x426c0000	59.0
186	0x40800000	4.0
187	0x42400000	48.0
188	0xc2000000	-32.0
189	0xc1e80000	-29.0
190	0xc1000000	-8.0
191	0x40c00000	6.0
192	0xc2300000	-44.0
193	0xc2540000	-53.0
194	0x41a80000	21.0
195	0x41900000	18.0
196	0x42700000	60.0
197	0xc1c80000	-25.0
198	0x41b00000	22.0
199	0xc1c00000	-24.0
200	0x41e80000	29.0
201	0xc0a00000	-5.0
202	0x42400000	48.0
203	0x42140000	37.0
204	0x42600000	56.0
205	0x42080000	34.0
206	0x40400000	3.0
207	0x42600000	56.0
208	0xc2100000	-36.0
209	0x426c0000	59.0
210	0x42780000	62.0
211	0x42800000	64.0
212	0xc1c80000	-25.0
213	0xc1f80000	-31.0
214	0x40400000	3.0
215	0x41900000	18.0
216	0x41f80000	31.0
217	0x41d00000	26.0
218	0x42540000	53.0
219	0xc1700000	-15.0
220	0xc1a00000	-20.0
221	0x41a00000	20.0
222	0x41800000	16.0
223	0xc21c0000	-39.0
224	0x40000000	2.0
225	0xc23c0000	-47.0
226	0xc1a00000	-20.0
227	0xc1c80000	-25.0
228	0x42540000	53.0
229	0xc2600000	-56.0
230	0xc20c0000	-35.0
231	0xc2700000	-60.0
232	0x41880000	17.0
233	0xc2380000	-46.0
234	0x41b00000	22.0
235	0xc22c0000	-43.0
236	0xc2140000	-37.0
237	0xc1d80000	-27.0
238	0x41500000	13.0
239	0x426c0000	59.0
240	0x42700000	60.0
241	0xc1300000	-11.0
242	0xc2980000	-76.0
243	0xc1f80000	-31.0
244	0xc20c0000	-35.0
245	0xc1800000	-16.0
246	0x41d80000	27.0
247	0x42180000	38.0
248	0x41f00000	30.0
249	0x41400000	12.0
250	0xc2040000	-33.0
251	0xc1000000	-8.0
252	0x3f800000	1.0
253	0xc22c0000	-43.0
254	0xc1400000	-12.0
255	0xc1500000	-13.0

block2_conv1d_bn_relu_3.op.bias f4 [16]
0	0x45600000	3584.0
1	0x43800000	256.0
2	0xc4d00000	-1664.0
3	0x458c0000	4480.0
4	0xc5780000	-3968.0
5	0x43000000	128.0
6	0x45a00000	5120.0
7	0xc5580000	-3456.0
8	0x45480000	3200.0
9	0x44b00000	1408.0
10	0x45600000	3584.0
11	0x45a00000	5120.0
12	0xc4200000	-640.0
13	0x45c40000	6272.0
14	0x458c0000	4480.0
15	0xc5780000	-3968.0

block2_conv1d_bn_relu_4.op.weight f4 [16, 16, 4]
0	0xc1b80000	-23.0
1	0x40800000	4.0
2	0xc0e00000	-7.0
3	0x3f800000	1.0
4	0x41f00000	30.0
5	0xc2200000	-40.0
6	0x42340000	45.0
7	0x42040000	33.0
8	0x00000000	0.0
9	0xc1980000	-19.0
10	0x41400000	12.0
11	0xc1f80000	-31.0
12	0x42040000	33.0
13	0xc1d80000	-27.0
14	0x41200000	10.0
15	0xc2440000	-49.0
16	0x41c00000	24.0
17	0x42000000	32.0
18	0x42100000	36.0
19	0x40400000	3.0
20	0x41f00000	30.0
21	0x41900000	18.0
22	0x420c0000	35.0
23	0x42000000	32.0
24	0xc23c0000	-47.0
25	0x40000000	2.0
26	0xc1900000	-18.0
27	0xc1c00000	-24.0
28	0x42040000	33.0
29	0xc0e00000	-7.0
30	0x41100000	9.0
31	0x42100000	36.0
32	0x420c0000	35.0
33	0x41e00000	28.0
34	0xc0c00000	-6.0
35	0xc2300000	-44.0
36	0xc2380000	-46.0
37	0x41880000	17.0
38	0x00000000	0.0
39	0xc1f80000	-31.0
40	0x41b00000	22.0
41	0x423c0000	47.0
42	0x41f00000	30.0
43	0xc0c00000	-6.0
44	0x40400000	3.0
45	0xc20c0000	-35.0
46	0x41980000	19.0
47	0xc2240000	-41.0
48	0x42080000	34.0
49	0xc1b80000	-23.0
50	0xc1a00000	-20.0
51	0xc22c0000	-43.0
52	0xc1500000	-13.0
53	0xc0c00000	-6.0
54	0xc1c80000	-25.0
55	0x42100000	36.0
56	0x41f00000	30.0
57	0xc2280000	-42.0
58	0xc0800000	-4.0
59	0x41a80000	21.0
60	0x42340000	45.0
61	0xc1600000	-14.0
62	0x41f00000	30.0
63	0xbf800000	-1.0
64	0xc1c80000	-25.0
65	0x42340000	45.0
66	0xc2600000	-56.0
67	0x42700000	60.0
68	0x42740000	61.0
69	0xc1c00000	-24.0
70	0x41900000	18.0
71	0x426c0000	59.0
72	0x41800000	16.0
73	0x41b00000	22.0
74	0x41a00000	20.0
75	0xc2000000	-32.0
76	0x41400000	12.0
77	0xc2200000	-40.0
78	0x42440000	49.0
79	0xc2000000	-32.0
80	0x41b80000	23.0
81	0xc1100000	-9.0
82	0x422c0000	43.0
83	0x41100000	9.0
84	0x42000000	32.0
85	0xc1a00000	-20.0
86	0xc2280000	-42.0
87	0x41a00000	20.0
88	0xc2200000	-40.0
89	0xc2640000	-57.0
90	0x41a80000	21.0
91	0xc2240000	-41.0
92	0xc1d80000	-27.0
93	0xc1900000	-18.0
94	0x40800000	4.0
95	0xc1c00000	-24.0
96	0xc1c00000	-24.0
97	0xc1880000	-17.0
98	0x424c0000	51.0
99	0x41c80000	25.0
100	0xc20c0000	-35.0
101	0xc23c0000	-47.0
102	0xc0400000	-3.0
103	0x41800000	16.0
104	0xc0000000	-2.0
105	0x42100000	36.0
106	0x42540000	53.0
107	0x41700000	15.0
108	0x41b00000	22.0
109	0x42100000	36.0
110	0xc1b80000	-23.0
111	0x41800000	16.0
112	0x42540000	53.0
113	0xc1e80000	-29.0
114	0x40e00000	7.0
115	0xc1c00000	-24.0
116	0xc2500000	-52.0
117	0x42000000	32.0
118	0x42480000	50.0
119	0xc2180000	-38.0
120	0x41900000	18.0
121	0x41880000	17.0
122	0x41c00000	24.0
123	0x420c0000	35.0
124	0x42800000	64.0
125	0x42440000	49.0
126	0xc26c0000	-59.0
127	0xc1c00000	-24.0
128	0x42080000	34.0
129	0xc2200000	-40.0
130	0x41300000	11.0
131	0xc1f00000	-30.0
132	0x41400000	12.0
133	0x41f00000	30.0
134	0x41a00000	20.0
135	0x423c0000	47.0
136	0xc1400000	-12.0
137	0x41f00000	30.0
138	0x41880000	17.0
139	0xc1c00000	-24.0
140	0xc2440000	-49.0
141	0x42640000	57.0
142	0xc1a80000	-21.0
143	0x42380000	46.0
144	0x42240000	41.0
145	0xc0a00000	-5.0
146	0xc2580000	-54.0
147	0x40000000	2.0
148	0xc2100000	-36.0
149	0x41400000	12.0
150	0xc1e80000	-29.0
151	0x42340000	45.0
152	0xc2700000	-60.0
153	0xc1900000	-18.0
154	0x41000000	8.0
155	0x40400000	3.0
156	0x423c0000	47.0
157	0xc1c80000	-25.0
158	0xc2640000	-57.0
159	0x420c0000	35.0
160	0x41980000	19.0
161	0x423c0000	47.0
162	0xc2180000	-38.0
163	0xc2140000	-37.0
164	0xc1d00000	-26.0
165	0x40a00000	5.0
166	0x41a80000	21.0
167	0xc20c0000	-35.0
168	0xc1000000	-8.0
169	0xc1600000	-14.0
170	0x425c0000	55.0
171	0xc1c80000	-25.0
172	0x428e0000	71.0
173	0xc2180000	-38.0
174	0xc1d80000	-27.0
175	0xc2480000	-50.0
176	0x42380000	46.0
177	0xc2300000	-44.0
178	0x41d80000	27.0
179	0xc1a80000	-21.0
180	0x42740000	61.0
181	0x41000000	8.0
182	0xc2640000	-57.0
183	0x40e00000	7.0
184	0x40400000	3.0
185	0xc2860000	-67.0
186	0x41100000	9.0
187	0x42600000	56.0
188	0x41300000	11.0
189	0xc0a00000	-5.0
190	0xc1800000	-16.0
191	0x41900000	18.0
192	0xc1a80000	-21.0
193	0x42280000	42.0
194	0x42100000	36.0
195	0x41a00000	20.0
196	0xc1880000	-17.0
197	0xc22c0000	-43.0
198	0xc1d80000	-27.0
199	0x42240000	41.0
200	0xc2180000	-38.0
201	0xc2200000	-40.0
202	0xbf800000	-1.0
203	0x41700000	15.0
204	0xc2380000	-46.0
205	0xc2280000	-42.0
206	0xbf800000	-1.0
207	0xc1800000	-16.0
208	0x41d00000	26.0
209	0x41100000	9.0
210	0xc2240000	-41.0
211	0xc22c0000	-43.0
212	0x42000000	32.0
213	0xc0c00000	-6.0
214	0xc1880000	-17.0
215	0x41600000	14.0
216	0xc1000000	-8.0
217	0x41b00000	22.0
218	0x41500000	13.0
219	0xc1880000	-17.0
220	0xc2040000	-33.0
221	0x41c00000	24.0
222	0xc1c80000	-25.0
223	0xc0800000	-4.0
224	0x40c00000	6.0
225	0xc1d00000	-26.0
226	0x41b00000	22.0
227	0xc1f80000	-31.0
228	0x41100000	9.0
229	0x40400000	3.0
230	0x41700000	15.0
231	0xc2300000	-44.0
232	0x40a00000	5.0
233	0x41c00000	24.0
234	0xc1d00000	-26.0
235	0x41400000	12.0
236	0xbf800000	-1.0
237	0x42140000	37.0
238	0xc1100000	-9.0
239	0x3f800000	1.0
240	0xc1900000	-18.0
241	0xc1300000	-11.0
242	0x41300000	11.0
243	0xc2300000	-44.0
244	0x42080000	34.0
245	0x42040000	33.0
246	0x41a00000	20.0
247	0x42080000	34.0
248	0xc1400000	-12.0
249	0x41400000	12.0
250	0x40800000	4.0
251	0xc1f00000	-30.0
252	0xc1700000	-15.0
253	0xc1600000	-14.0
254	0xc1200000	-10.0
255	0xc21c0000	-39.0

block2_conv1d_bn_relu_4.op.bias f4 [16]
0	0xc4c00000	-1536.0
1	0xc5300000	-2816.0
2	0x43800000	256.0
3	0x45300000	2816.0
4	0xc3c00000	-384.0
5	0xc4200000	-640.0
6	0x45380000	2944.0
7	0xc4200000	-640.0
8	0x45b80000	5888.0
9	0x45800000	4096.0
10	0x45180000	2432.0
11	0xc5380000	-2944.0
12	0xc3c00000	-384.0
13	0x45180000	2432.0
14	0xc5a80000	-5376.0
15	0x44200000	640.0

block3_conv1d_bn_relu_1.op.weight f4 [16, 16, 8]
0	0xc24c0000	-51.0
1	0xc1d80000	-27.0
2	0x41300000	11.0
3	0xc2580000	-54.0
4	0x40a00000	5.0
5	0x41a80000	21.0
6	0x42380000	46.0
7	0x423c0000	47.0
8	0x42300000	44.0
9	0xc1a80000	-21.0
10	0xc0c00000	-6.0
11	0x424c0000	51.0
12	0x41e80000	29.0
13	0xc1c00000	-24.0
14	0x42580000	54.0
15	0xc2580000	-54.0
16	0x42400000	48.0
17	0x42080000	34.0
18	0xc2480000	-50.0
19	0xc2800000	-64.0
20	0x422c0000	43.0
21	0x42800000	64.0
22	0x40e00000	7.0
23	0xc1e00000	-28.0
24	0x42140000	37.0
25	0x41b00000	22.0
26	0xc1880000	-17.0
27	0x42480000	50.0
28	0x421c0000	39.0
29	0x41300000	11.0
30	0x42140000	37.0
31	0xc2480000	-50.0
32	0xc2100000	-36.0
33	0x41600000	14.0
34	0x40c00000	6.0
35	0xc1800000	-16.0
36	0x41400000	12.0
37	0x41f00000	30.0
38	0xc2700000	-60.0
39	0x41a00000	20.0
40	0xc1000000	-8.0
41	0xc2380000	-46.0
42	0x41100000	9.0
43	0xc1500000	-13.0
44	0xc2140000	-37.0
45	0xc2860000	-67.0
46	0x42880000	68.0
47	0xc2000000	-32.0
48	0x40800000	4.0
49	0x42580000	54.0
50	0xc0400000	-3.0
51	0xc21c0000	-39.0
52	0xc2700000	-60.0
53	0x41300000	11.0
54	0xc1900000	-18.0
55	0x41400000	12.0
56	0x41b00000	22.0
57	0xc1880000	-17.0
58	0x42140000	37.0
59	0xc1500000	-13.0
60	0xc1b80000	-23.0
61	0xc2240000	-41.0
62	0x41e80000	29.0
63	0xc2080000	-34.0
64	0x41b00000	22.0
65	0xbf800000	-1.0
66	0x424c0000	51.0
67	0xc1b80000	-23.0
68	0xc1a00000	-20.0
69	0xc0e00000	-7.0
70	0xc1d00000	-26.0
71	0x42040000	33.0
72	0xc1b00000	-22.0
73	0x41800000	16.0
74	0x42040000	33.0
75	0x42040000	33.0
76	0xc1300000	-11.0
77	0x41f00000	30.0
78	0xc1b00000	-22.0
79	0xc2480000	-50.0
80	0x3f800000	1.0
81	0xc2240000	-41.0
82	0xc2340000	-45.0
83	0x41400000	12.0
84	0x42680000	58.0
85	0xc1f80000	-31.0
86	0xc0400000	-3.0
87	0xc2280000	-42.0
88	0xc0400000	-3.0
89	0x41700000	15.0
90	0xc1a00000	-20.0
91	0x421c0000	39.0
92	0xc2800000	-64.0
93	0xc1100000	-9.0
94	0xc2000000	-32.0
95	0x42640000	57.0
96	0x42140000	37.0
97	0x42700000	60.0
98	0x423c0000	47.0
99	0x41200000	10.0
100	0xc26c0000	-59.0
101	0xc20c0000	-35.0
102	0x41e00000	28.0
103	0xc2640000	-57.0
104	0x42100000	36.0
105	0x41980000	19.0
106	0x41300000	11.0
107	0xc2700000	-60.0
108	0x42300000	44.0
109	0xc1a00000	-20.0
110	0xc1b00000	-22.0
111	0x42100000	36.0
112	0x3f800000	1.0
113	0xc2180000	-38.0
114	0x41300000	11.0
115	0xc23c0000	-47.0
116	0x423c0000	47.0
117	0x42240000	41.0
118	0x41a80000	21.0
119	0x42040000	33.0
120	0xc26c0000	-59.0
121	0xc1c80000	-25.0
122	0xc2680000	-58.0
123	0xc1d80000	-27.0
124	0xc26c0000	-59.0
125	0x423c0000	47.0
126	0x41c80000	25.0
127	0x420c0000	35.0
128	0xc1d00000	-26.0
129	0x42200000	40.0
130	0xc1200000	-10.0
131	0xc1800000	-16.0
132	0x41d80000	27.0
133	0x42040000	33.0
134	0xc2200000	-40.0
135	0x42440000	49.0
136	0xc0a00000	-5.0
137	0x41800000	16.0
138	0xc2580000	-54.0
139	0x40c00000	6.0
140	0xc1d00000	-26.0
141	0xc2080000	-34.0
142	0xc1a80000	-21.0
143	0x00000000	0.0
144	0xc1700000	-15.0
145	0xc2080000	-34.0
146	0x42180000	38.0
147	0x41800000	16.0
148	0xc2480000	-50.0
149	0x41200000	10.0
150	0x41600000	14.0
151	0x40000000	2.0
152	0x41500000	13.0
153	0xc0800000	-4.0
154	0x41c00000	24.0
155	0xc2180000	-38.0
156	0xc1b80000	-23.0
157	0x42240000	41.0
158	0xc2040000	-33.0
159	0x41e00000	28.0
160	0x42480000	50.0
161	0xc24c0000	-51.0
162	0xc1c00000	-24.0
163	0x42340000	45.0
164	0xc0a00000	-5.0
165	0x41100000	9.0
166	0x40e00000	7.0
167	0x41a80000	21.0
168	0xc1b80000	-23.0
169	0x40e00000	7.0
170	0x42140000	37.0
171	0xc0a00000	-5.0
172	0xc2440000	-49.0
173	0x41900000	18.0
174	0xc1500000	-13.0
175	0xc1200000	-10.0
176	0x41e00000	28.0
177	0x41000000	8.0
178	0xc2000000	-32.0
179	0xc1c80000	-25.0
180	0xc1000000	-8.0
181	0xc1700000	-15.0
182	0xc1300000	-11.0
183	0xc2140000	-37.0
184	0x421c0000	39.0
185	0x41e00000	28.0
186	0x41200000	10.0
187	0x41400000	12.0
188	0x40c00000	6.0
189	0x42200000	40.0
190	0x41400000	12.0
191	0x41100000	9.0
192	0xc1f00000	-30.0
193	0x41900000	18.0
194	0xc24c0000	-51.0
195	0x41800000	16.0
196	0xc2400000	-48.0
197	0xc1b80000	-23.0
198	0x41e00000	28.0
199	0xc2040000	-33.0
200	0x42280000	42.0
201	0xc1f00000	-30.0
202	0x424c0000	51.0
203	0x41700000	15.0
204	0xc1b80000	-23.0
205	0x42040000	33.0
206	0xc23c0000	-47.0
207	0xc2040000	-33.0
208	0xc2080000	-34.0
209	0x40c00000	6.0
210	0x40800000	4.0
211	0xc23c0000	-47.0
212	0x42480000	50.0
213	0xc0000000	-2.0
214	0xc1e80000	-29.0
215	0x00000000	0.0
216	0xc1c00000	-24.0
217	0x41600000	14.0
218	0x41980000	19.0
219	0xc1800000	-16.0
220	0x40400000	3.0
221	0x41f80000	31.0
222	0xc20c0000	-35.0
223	0xc1400000	-12.0
224	0xc0e00000	-7.0
225	0xc2100000	-36.0
226	0x40800000	4.0
227	0x40400000	3.0
228	0xc2300000	-44.0
229	0x41200000	10.0
230	0x42500000	52.0
231	0x41e80000	29.0
232	0xc1f00000	-30.0
233	0x42480000	50.0
234	0xc2180000	-38.0
235	0xc1e80000	-29.0
236	0x41b80000	23.0
237	0x42280000	42.0
238	0x424c0000	51.0
239	0x42380000	46.0
240	0xc1f00000	-30.0
241	0x41500000	13.0
242	0xc2080000	-34.0
243	0x00000000	0.0
244	0x42340000	45.0
245	0x41d80000	27.0
246	0xc2440000	-49.0
247	0xc1b00000	-22.0
248	0xc2340000	-45.0
249	0x41c00000	24.0
250	0xc0e00000	-7.0
251	0xc2240000	-41.0
252	0xc1a00000	-20.0
253	0x41700000	15.0
254	0x40400000	3.0
255	0x42440000	49.0

block3_conv1d_bn_relu_1.op.bias f4 [16]
0	0x45380000	2944.0
1	0x45300000	2816.0
2	0x463e0000	12160.0
3	0xc5c80000	-6400.0
4	0xc3800000	-256.0
5	0x46580000	13824.0
6	0x44b00000	1408.0
7	0x467e0000	16256.0
8	0x45c00000	6144.0
9	0xc5f80000	-7936.0
10	0x44a00000	1280.0
11	0x45cc0000	6528.0
12	0x45680000	3712.0
13	0x45280000	2688.0
14	0xc5b80000	-5888.0
15	0x44200000	640.0

block6_dense.op.weight f4 [2, 16]
0	0x425c0000	55.0
1	0x41f80000	31.0
2	0x42600000	56.0
3	0x41400000	12.0
4	0x40800000	4.0
5	0x424c0000	51.0
6	0x421c0000	39.0
7	0x42340000	45.0
8	0x40a00000	5.0
9	0xc1700000	-15.0
10	0x424c0000	51.0
11	0x42180000	38.0
12	0x42380000	46.0
13	0xc0c00000	-6.0
14	0xc0c00000	-6.0
15	0x41f80000	31.0
16	0xc2680000	-58.0
17	0xc1600000	-14.0
18	0xc1500000	-13.0
19	0x41600000	14.0
20	0xc1b00000	-22.0
21	0xc28e0000	-71.0
22	0xc2480000	-50.0
23	0xc1e80000	-29.0
24	0xc2240000	-41.0
25	0x3f800000	1.0
26	0xc2400000	-48.0
27	0xc1100000	-9.0
28	0xc0800000	-4.0
29	0x40e00000	7.0
30	0xbf800000	-1.0
31	0xc2800000	-64.0

momentum_buffer f4 [4, 1, 4]
0	0x3ca0c6bb	0.019626012
1	0x3c5ef144	0.013607327
2	0xbb8d38ae	-0.0043097353
3	0xbc26437c	-0.0101479255
4	0xbcdd50d9	-0.02701609
5	0xbc675d5c	-0.01412138
6	0xbbfed9ce	-0.007777429
7	0xbb2da120	-0.0026493743
8	0x3d5df85e	0.05419194
9	0x3d494f75	0.04914804
10	0x3cf9b641	0.030482413
11	0x3ce381da	0.027771879
12	0xbbc468fd	-0.005993961
13	0xbbe5b6de	-0.007010325
14	0x38e7aa80	0.000110466965
15	0x3c4761c8	0.012169309

momentum_buffer f4 [4]
0	0xbe3f0f66	-0.18658218
1	0xbe2ef926	-0.1708723
2	0xbe282376	-0.16419777
3	0x3e1830c5	0.14862354

momentum_buffer f4 [16, 4, 5]
0	0x3c2c9c21	0.010535271
1	0x3c78e821	0.015192063
2	0x3c309d0f	0.010779633
3	0x3c0be47c	0.008538362
4	0x3b173924	0.002307483
5	0xbc0ae608	-0.008477695
6	0xbc136b79	-0.008997791
7	0x3b2884a4	0.0025713826
8	0x3b57b209	0.0032912514
9	0x3bb7c651	0.005608358
10	0x3bf7a227	0.007557172
11	0x3c5d1d0b	0.013495694
12	0x3c1202f9	0.008911842
13	0x3ba6e70a	0.00509346
14	0x3ae36a3e	0.0017350388
15	0x3bdb4de7	0.0066926363
16	0x3c5f281d	0.013620404
17	0x3c598222	0.013275655
18	0x3c03d045	0.008045261
19	0x3b2f9016	0.0026788763
20	0xbc828a30	-0.015935034
21	0xbbfe039f	-0.0077518965
22	0xbab165fc	-0.0013534422
23	0xba4dbf1a	-0.0007848606
24	0xbbb9cb56	-0.0056699915
25	0x392b10b8	0.00016314059
26	0xbc13a0e0	-0.009010524
27	0xbc88218e	-0.016617563
28	0xbc88a081	-0.016678097
29	0xbc97bff4	-0.018524148
30	0xbc9f831d	-0.0194717
31	0xbc2f307d	-0.010692713
32	0xbb93f1a0	-0.004514888
33	0xba6a2006	-0.00089311635
34	0xbb7b8040	-0.0038376004
35	0xbcbc188e	-0.022960927
36	0xbc555b01	-0.013022185
37	0xbbaec03e	-0.0053329756
38	0xba9a3b1c	-0.0011766884
39	0xbb93648e	-0.004498071
40	0xbbd74048	-0.006568942
41	0xbb39e9f3	-0.0028368204
42	0xbc197826	-0.0093670245
43	0xbc4988ae	-0.012300653
44	0xbcdd16f6	-0.026988488
45	0xbc8ca380	-0.017167807
46	0xbce4c63c	-0.027926557
47	0xbd1bb96c	-0.03801863
48	0xbd008056	-0.03137239
49	0xbca2b264	-0.019860454
50	0xbc9af4da	-0.018915582
51	0xbc5094ec	-0.012730818
52	0xbc9370a8	-0.017998055
53	0xbca167dd	-0.019702846
54	0xbd02adc8	-0.031904012
55	0xbc8b9d90	-0.017042905
56	0xbc402cf5	-0.011729469
57	0xbc7b7a21	-0.015348942
58	0xbc8295c7	-0.01594056
59	0xbcf9201c	-0.030410819
60	0xbbf32e1c	-0.007421268
61	0xbc53e5e4	-0.012933228
62	0xbc235bc3	-0.009970608
63	0xbb984425	-0.0046467953
64	0xba7b6548	-0.0009589982
65	0xba6df342	-0.0009077081
66	0x3bc649e1	0.0060512875
67	0xbb02c8f9	-0.0019956215
68	0x3921be48	0.00015425042
69	0xbb71c9cf	-0.003689397
70	0xbb9a7d71	-0.004714661
71	0xbc51ce2d	-0.012805504
72	0xbc3fbaf0	-0.011702284
73	0xbb931630	-0.004488729
74	0xbb28ab26	-0.0025736778
75	0xbba9c715	-0.005181203
76	0xbc4a42f7	-0.012345067
77	0xbc5690ef	-0.013096078
78	0xbbd5bf40	-0.006523043
79	0xbb3de9d3	-0.0028978481
80	0x3ad81fe3	0.0016488995
81	0x39d8aed0	0.00041328976
82	0xbc14deee	-0.009086354
83	0xbb77b483	-0.0037796802
84	0xba8deeca	-0.0010828611
85	0xba960498	-0.0011445461
86	0xba932cbd	-0.0011228543
87	0x3b611b3f	0.0034348515
88	0xbb28edd8	-0.0025776532
89	0xbb2ceb53	-0.0026385381
90	0x3ac5a9a7	0.0015080468
91	0x3a5b0468	0.00083548436
92	0xbc017d0e	-0.0079033505
93	0xbb6f098e	-0.00364742
94	0x3a07a238	0.0005174014
95	0x3ae56405	0.0017501122
96	0x3a11c4ac	0.00055606174
97	0xbb9ac0ef	-0.0047227065
98	0xbbcf5ab4	-0.0063279513
99	0xb9545880	-0.00020250864
100	0xbc282e03	-0.010264876
101	0xbc176a01	-0.009241582
102	0xbbe9774c	-0.007124817
103	0xbc14e326	-0.0090873595
104	0xbc35e9d2	-0.01110311
105	0x3ade5334	0.0016962052
106	0x398cd1d2	0.0002685921
107	0xbb78ce22	-0.0037964662
108	0xba3c6551	-0.0007186728
109	0xba97d57e	-0.0011584011
110	0xbc39e8c7	-0.011347002
111	0xbc34f93a	-0.011045748
112	0xbc0c5ffc	-0.008567806
113	0xbc25d196	-0.01012077
114	0xbc3abc0c	-0.011397373
115	0xbc3931b6	-0.011303356
116	0xbc56b7b6	-0.013105324
117	0xbc043660	-0.008069605
118	0xbc1b812e	-0.009491248
119	0xbc36f0f6	-0.011165848
120	0x3b8afb52	0.0042413855
121	0x3b525cd4	0.0032098787
122	0xb87c2160	-6.0112565e-05
123	0xbb37422c	-0.0027963025
124	0xbb3ff8e4	-0.0029292637
125	0xbb8ad3d0	-0.004236676
126	0x3abc0b40	0.0014346614
127	0x3b9b34ff	0.0047365422
128	0x3b3f3214	0.0029174136
129	0x3ba66529	0.005077977
130	0x3ab54055	0.0013828377
131	0x3ab7286c	0.0013973839
132	0xbb376898	-0.0027985927
133	0xbb6bc35e	-0.0035974602
134	0xbb0500d0	-0.0020294674
135	0x3a3bc567	0.0007162899
136	0x3b67b2eb	0.0035354446
137	0xbad599b0	-0.0016296413
138	0xbb8deeda	-0.004331452
139	0xbb17d2b4	-0.002316636
140	0x3c8b0b4a	0.016973156
141	0x3bd382a3	0.006454782
142	0x3b9d025c	0.004791541
143	0x3af072b8	0.0018344736
144	0x3b2e7999	0.002662277
145	0x3a7e59dc	0.0009702721
146	0x3bff89a7	0.007798392
147	0x3c732b9e	0.014841942
148	0x3c51106b	0.012760262
149	0x3c6b253d	0.01435214
150	0x3c8a7667	0.016902162
151	0x3bd52150	0.0065042153
152	0x3b989f9e	0.0046576997
153	0x3a87be80	0.0010356456
154	0x3a216190	0.00061562005
155	0x3c9a9a09	0.018872278
156	0x3c18dd49	0.009330102
157	0x3ba9af68	0.0051783808
158	0x3b4a9ea8	0.003091732
159	0x39be5f18	0.00036310474
160	0x3b71f64f	0.0036920493
161	0x3b3d4e1c	0.0028885668
162	0x3bbc0186	0.0057374863
163	0x3bf624b2	0.0075116986
164	0x3bc8fb24	0.006133454
165	0x3c1c9604	0.009557251
166	0x3b807966	0.003920722
167	0x3bbf857c	0.00584477
168	0x39e2d68c	0.0004326593
169	0x3c011674	0.007878888
170	0x3b712448	0.0036795307
171	0x3b883010	0.00415612
172	0x3b45a712	0.0030159396
173	0x3bcaa9b2	0.00618478
174	0x3b7ad1a5	0.003827193
175	0x3a86fc01	0.0010298492
176	0x3b1c5263	0.0023852817
177	0x3b8f7359	0.004377764
178	0x3b90a021	0.00441362
179	0x3bdbbf4d	0.0067061544
180	0x3b672b04	0.0035273442
181	0x3b96eac3	0.0046056225
182	0x3b029e68	0.0019930843
183	0x3adde22d	0.0016928368
184	0x3a518112	0.000799195
185	0x3c1c0217	0.009521983
186	0x3c480d25	0.012210165
187	0x3ccb00e2	0.024780694
188	0x3d059054	0.032608345
189	0x3cd61112	0.026131187
190	0xbabc3e18	-0.0014361767
191	0x3b28fbb0	0.0025784783
192	0x3ab3d2ac	0.0013719401
193	0x39595178	0.00020725082
194	0xb9caba50	-0.00038667256
195	0xbac65941	-0.0015132801
196	0x3b3ea8d0	0.002909232
197	0x3b78d883	0.0037970848
198	0x394b7f40	0.00019406993
199	0xba542fdd	-0.00080942904
200	0xbb25b37b	-0.002528398
201	0xbbb23754	-0.0054387245
202	0xbb52651f	-0.003210373
203	0xb9fb2ca4	-0.0004790771
204	0xbbd094b8	-0.006365385
205	0xbbd10acc	-0.006379461
206	0x3a8deede	0.0010828634
207	0xbb41eed7	-0.0029591823
208	0xbb15efb0	-0.002287846
209	0x3b4ccc19	0.0031249581
210	0xbba2de4a	-0.0049703466
211	0xbc0061bf	-0.0078358045
212	0xbbdce776	-0.0067414595
213	0xbace7bcc	-0.0015753447
214	0xbbf6018a	-0.0075075077
215	0xbbc96d8a	-0.0061470913
216	0xbc1315e6	-0.008977389
217	0xbbee6d27	-0.0072761956
218	0xba9f5e05	-0.0012158757
219	0xbbf521bf	-0.0074808295
220	0xbb83e7fc	-0.0040254574
221	0xbc2bba6a	-0.010481456
222	0xbc99e8e0	-0.018787801
223	0xbbd31442	-0.006441624
224	0xbbbf90bc	-0.005846111
225	0xbc43af5a	-0.011943663
226	0xbbd02bc0	-0.0063528717
227	0xba9af99e	-0.0011823659
228	0xbc46c309	-0.012131461
229	0xbbeecdd0	-0.0072877184
230	0xbb5e71b6	-0.0033942289
231	0xbc0db197	-0.008648298
232	0xbc875e19	-0.016524361
233	0xbc056382	-0.0081414
234	0xbbb8d020	-0.005640045
235	0xbb7fb558	-0.0039018001
236	0xbc272cb2	-0.010203527
237	0xbca467ca	-0.020069022
238	0xbc36bc52	-0.0111532975
239	0xbbe4225a	-0.006962103
240	0xbc0b401e	-0.008499173
241	0xb8fa3e51	-0.00011932536
242	0x3a107840	0.00055110827
243	0xbbeaf162	-0.0071698884
244	0xbb08184c	-0.0020766435
245	0xbc73eb26	-0.014887607
246	0xbc398c06	-0.011324888
247	0xbb0ea01d	-0.0021762915
248	0x3b1ec188	0.002422424
249	0xbad4c169	-0.0016231957
250	0xbbd9f820	-0.0066518933
251	0xbb3b6d14	-0.0028598951
252	0x3a5816d4	0.0008243148
253	0xbbb653de	-0.005564197
254	0xbb80da31	-0.0039322604
255	0xbb9d8d69	-0.004808117

momentum_buffer f4 [16]
0	0x3c2ec07c	0.010666009
1	0xbcb5be48	-0.02218546
2	0xbd413d37	-0.04717752
3	0xbba951a6	-0.005167204
4	0xbbb10230	-0.005401872
5	0x3b2f583e	0.0026755477
6	0x3b8556ad	0.0040691704
7	0x3d20710d	0.039170314
8	0x3cab726f	0.02092859
9	0x3d00f30d	0.03148179
10	0xbc82c822	-0.015964571
11	0xbd0ef074	-0.034897283
12	0xbd07b2f9	-0.033129666
13	0xbccc0c20	-0.024908125
14	0x3cd41680	0.025889635
15	0xbc8554eb	-0.016275844

momentum_buffer f4 [16, 16, 5]
0	0xbad67671	-0.0016362203
1	0xbaedf406	-0.001815439
2	0xbaba0231	-0.0014191327
3	0xbab1ade1	-0.0013555848
4	0xba416446	-0.00073773076
5	0xb8ae78ff	-8.319504e-05
6	0xb9650183	-0.00021839705
7	0x3a8369af	0.0010026003
8	0x3a0423d9	0.0005040742
9	0x3a2d1064	0.00066018687
10	0x39f108e7	0.00045973735
11	0xba4b98a4	-0.00077665807
12	0xba0690e0	-0.00051332824
13	0xba9ea2e7	-0.0012102992
14	0xbac7d970	-0.0015247297
15	0xb9a49579	-0.00031391883
16	0x39ff96a6	0.00048749632
17	0xba1650df	-0.00057340966
18	0xba6e46fa	-0.0009089556
19	0xbaa4786b	-0.0012548094
20	0xba7846cc	-0.0009470999
21	0xbadbc87a	-0.0016768121
22	0xba4c9741	-0.0007804521
23	0xbadb49e2	-0.0016730393
24	0xba22e211	-0.0006213496
25	0xbab6ada8	-0.0013937252
26	0xbad73dfe	-0.0016421673
27	0xba77e4c1	-0.0009456389
28	0xbafaa6be	-0.0019123179
29	0xb9c25918	-0.00037068943
30	0xba1a1a28	-0.00058785314
31	0xba598edd	-0.00082991814
32	0xba80e8db	-0.0009835021
33	0xba24e6af	-0.0006290478
34	0xb9ae36d8	-0.00033228728
35	0xb921ad2e	-0.00015418671
36	0xba3bca1c	-0.00071636005
37	0xba389770	-0.0007041609
38	0xb8b9ead8	-8.8652305e-05
39	0xba0a8b7b	-0.00052850664
40	0xba2f589e	-0.0006688925
41	0xba250edc	-0.00062964647
42	0xba6e2cca	-0.00090856536
43	0xb93fda9e	-0.0001829662
44	0xba855bc0	-0.0010174438
45	0x393871ca	0.00017589997
46	0xb96970b6	-0.000222626
47	0x39059038	0.00012737594
48	0x3a4aeac0	0.0007740669
49	0x391c2a98	0.00014893187
50	0xba036c78	-0.00050134165
51	0xba96b242	-0.0011497217
52	0xba8ba4c2	-0.001065396
53	0xbabecf5a	-0.0014557645
54	0xba23deef	-0.0006251176
55	0xba739b8f	-0.00092928944
56	0xb80aedc8	-3.3123215e-05
57	0xba3799c0	-0.00070038065
58	0xbaae5ca3	-0.0013302754
59	0xba956295	-0.0011397178
60	0xba8d5df5	-0.0010785448
61	0x3887d6be	6.4773005e-05
62	0xb92f6bcb	-0.00016729457
63	0xb9713bc2	-0.00023005813
64	0xb9d1c198	-0.00040007825
65	0xba8414dd	-0.0010077019
66	0xb869378a	-5.5603254e-05
67	0x39b1b45d	0.00033894452
68	0xb660af80	-3.3480756e-06
69	0xb9ddeb0c	-0.00042327528
70	0xb8806ba0	-6.123562e-05
71	0xb8a1ea18	-7.7206816e-05
72	0xb8ae678c	-8.316254e-05
73	0xb90391d5	-0.0001254746
74	0xb9bec4b5	-0.00036386182
75	0xba1664ad	-0.0005737048
76	0xba88ae23	-0.0010427873
77	0xbab902b9	-0.0014115191
78	0xbac9e6c1	-0.0015403853
79	0xba7c9144	-0.00096346834
80	0xbbc94c2c	-0.0061431136
81	0xbbbb7d0a	-0.005721693
82	0xb9447ad3	-0.00018737772
83	0xba1d4600	-0.00059995055
84	0xba018c37	-0.0004941853
85	0x3b374428	0.0027964208
86	0xb9d07253	-0.0003975803
87	0xb98313d6	-0.00025001046
88	0xb9a3d67e	-0.00031249592
89	0x3b6886b0	0.003548067
90	0x3a90b90a	0.0011041474
91	0x3b7d2c82	0.0038631265
92	0x3a018477	0.0004940698
93	0xba90368c	-0.0011002584
94	0xbaad3aab	-0.0013216337
95	0xba9cb3ce	-0.0011955441
96	0xbb99f7e0	-0.0046987385
97	0xbb2b7539	-0.00261624
98	0x3a77f33c	0.0009458547
99	0xba31f965	-0.0006789177
100	0xbaeed6df	-0.0018221996
101	0xb8106350	-3.4424767e-05
102	0xba7067a6	-0.0009170718
103	0xba0dac36	-0.00054043846
104	0xb8d362b0	-0.00010079646
105	0xba803965	-0.000978273
106	0xb8dc0dbc	-0.00010492976
107	0xba4820d5	-0.0007634287
108	0xb9b81920	-0.00035113934
109	0x39821022	0.00024807552
110	0x39bc1657	0.000358748
111	0xba1998c3	-0.000585925
112	0x39b6f223	0.0003489415
113	0x3878a8dc	5.928507e-05
114	0x3ae7fad5	0.0017698655
115	0x3aee85ba	0.0018197813
116	0x3a455f43	0.0007529149
117	0xb9e93fdc	-0.00044488802
118	0xba95785e	-0.001140367
119	0xbaf8850b	-0.0018960548
120	0x3783b560	1.5700876e-05
121	0x3ad3a3a2	0.0016146789
122	0xbabeb32b	-0.0014549246
123	0x38dbb828	0.000104770355
124	0xb9f2fffb	-0.00046348557
125	0x39eaf50b	0.0004481453
126	0x3af484b6	0.0018655274
127	0x3b077d84	0.0020674178
128	0x3b9e307e	0.004827558
129	0x3b954fb8	0.0045566224
130	0xbb9149f2	-0.004433864
131	0xbba22a99	-0.0049489257
132	0xbb71959f	-0.0036862863
133	0xba430586	-0.0007439483
134	0xba036b75	-0.0005013266
135	0xba3f997e	-0.0007308944
136	0xbac028da	-0.0014660612
137	0xb9bb29f9	-0.00035698691
138	0x3ac4c5bb	0.0015012542
139	0x39fbb056	0.0004800583
140	0xbad51ca8	-0.001625915
141	0x394e7ca4	0.00019692123
142	0x3ba1601c	0.004924787
143	0x3b8c2b04	0.004277589
144	0xbaa7ee90	-0.0012812186
145	0xbb1111e9	-0.002213592
146	0x3aa9a1d2	0.0012941903
147	0x3aabccef	0.001310734
148	0x3b09f6bd	0.0021051608
149	0xba542160	-0.00080921315
150	0x39b3bd1a	0.00034282432
151	0x3a29a292	0.0006471063
152	0x3a98572d	0.001162266
153	0x3b2a74a2	0.002600946
154	0xb93bbfa6	-0.00017905104
155	0xbbb9c5a9	-0.005669315
156	0xbba67db2	-0.005080902
157	0xba7be443	-0.0009608904
158	0xb9477988	-0.00019023393
159	0xbab3f6d3	-0.0013730176
160	0xbad19c26	-0.001599197
161	0xb7b69040	-2.1763262e-05
162	0xbb37ea59	-0.0028063266
163	0xbab8af9f	-0.0014090425
164	0xba8f32e0	-0.0010925196
165	0xbb8c66dc	-0.0042847227
166	0xbbc3a2d1	-0.005970337
167	0xbb450639	-0.0030063523
168	0xbb1666e1	-0.0022949504
169	0xbac61f9a	-0.0015115619
170	0xbbaefe16	-0.005340348
171	0xbb9b0cbb	-0.004731742
172	0xbb810327	-0.0039371434
173	0xbb1a8ade	-0.0023581306
174	0xbac3ad56	-0.0014928977
175	0xbbc37cf4	-0.0059658233
176	0xbb1e5fa5	-0.0024165895
177	0xbb814dea	-0.0039460557
178	0xbb10cc82	-0.0022094552
179	0xbb5ff9b2	-0.003417593
180	0xbb257cb7	-0.0025251338
181	0xba686552	-0.00088651956
182	0xbb766838	-0.003759874
183	0xbab014ff	-0.0013433992
184	0xbab226fd	-0.0013591942
185	0xbb08e83f	-0.0020890383
186	0xbafbf208	-0.0019221911
187	0xbb1fab8d	-0.0024363727
188	0xba9e07c1	-0.0012056754
189	0xb9c872d9	-0.0003823254
190	0xb9caa3fb	-0.00038650617
191	0xb9061592	-0.00012787271
192	0x3a1497f7	0.00056683965
193	0x3a324042	0.00067997363
194	0xb99f34d3	-0.000303662
195	0xba39aa86	-0.00070826
196	0xbb04104c	-0.0020151315
197	0xbab8f80c	-0.001411201
198	0xba721dd5	-0.00092360127
199	0xb9f41218	-0.00046552788
200	0xba60a5e6	-0.00085696427
201	0xb91ea055	-0.00015127783
202	0xba88a96d	-0.0010426469
203	0xbae742e0	-0.0017643832
204	0xba88bef8	-0.001043289
205	0xbaafdd20	-0.0013417341
206	0xbb1ced6d	-0.0023945228
207	0xbb361b60	-0.0027787313
208	0xbb85fbc4	-0.0040888507
209	0xbaff51db	-0.0019479351
210	0xbbc9c6bd	-0.0061577247
211	0xbaddd184	-0.0016923402
212	0xbbaaa8b2	-0.0052080983
213	0xbabe57ac	-0.0014521978
214	0xbb2b0302	-0.0026094322
215	0xba3fc46b	-0.00073153403
216	0xb9d06006	-0.00039744395
217	0xbaad3b40	-0.001321651
218	0xbad65a04	-0.0016353731
219	0xba7c65f5	-0.000962823
220	0xbad67c72	-0.0016363992
221	0xba1d453c	-0.00059993914
222	0x3a16ed0f	0.00057573704
223	0x3adb41ee	0.0016728023
224	0x39ea87c0	0.000447331
225	0xbb211f08	-0.0024585146
226	0xba98223a	-0.001160688
227	0xbb006dc8	-0.0019596685
228	0xbba5bded	-0.0050580413
229	0xbae6eb54	-0.0017617741
230	0xbb4d4e38	-0.003132714
231	0xbb3590cc	-0.0027704714
232	0xbb709b1d	-0.0036713548
233	0xba0c9d78	-0.0005364041
234	0xbb07d5ce	-0.0020726803
235	0xb9097bf0	-0.00013111508
236	0xb9d1c068	-0.0004000694
237	0xbb37caa5	-0.002804437
238	0xbb5673c0	-0.00327228
239	0xbb4e97d4	-0.0031523602
240	0x3ab0ea95	0.0013497645
241	0x3b4fd2a7	0.0031711252
242	0x3b696a51	0.0035616348
243	0x3b8e95f4	0.004351372
244	0x3bf12020	0.007358566
245	0x3b2a65c6	0.0026000603
246	0xba87a1a8	-0.001034786
247	0x3a0bccb6	0.00053329335
248	0x3a270f09	0.0006372785
249	0x3a229c42	0.0006203094
250	0x3c0a1508	0.008427866
251	0x3beef0a0	0.0072918683
252	0x3bb3a96e	0.005482844
253	0x3bf207a9	0.007386167
254	0x3c18f934	0.009336758
255	0x3a729b10	0.00092546735

momentum_buffer f4 [16]
0	0xbbea78e6	-0.0071555255
1	0x3b17ed50	0.002318222
2	0xba015a98	-0.0004934459
3	0xbb23f9f1	-0.0025020803
4	0xba0a6aa9	-0.0005280176
5	0xbc002d70	-0.007823333
6	0xbca37f48	-0.019958153
7	0xbb87cd7c	-0.0041443687
8	0xbb85115b	-0.004060907
9	0xbc5de721	-0.013543875
10	0xbc25610d	-0.0100939395
11	0xbbd3d4be	-0.00646457
12	0xbb7f2091	-0.0038929323
13	0xbb935b8c	-0.004496997
14	0xbc604e14	-0.01369049
15	0x3c569df9	0.013099187
