trained_custom/checkpoints/energy_profiling/input_data_size/ep_v1.23_768_epidenet_b_v3.2_qat_best.pth.tar (torch, 92175 bytes, 26 tensors)

block1_conv1d_bn_relu_1.op.weight f4 [4, 1, 4]
0	0xbebf0446	-0.37307948
1	0x40059663	2.0873039
2	0xc066b910	-3.6050453
3	0xc04b43cc	-3.176013
4	0xbfffe79d	-1.9992558
5	0x3ff4e38e	1.9131944
6	0xbd51092d	-0.05103414
7	0x409f07c8	4.9697
8	0xc00681b8	-2.1016674
9	0x4016ce9b	2.3563602
10	0xc06102bb	-3.5157917
11	0xc00270a0	-2.038124
12	0xc0210387	-2.5158403
13	0xbfdf73f4	-1.7457261
14	0xbf8c2f9a	-1.0952027
15	0x3d9c6e91	0.07638276

block1_conv1d_bn_relu_1.op.bias f4 [4]
0	0x3db41d5f	0.087946646
1	0xbcf8d1a6	-0.030373406
2	0x3d099365	0.033587832
3	0x3d0d8162	0.034547217

block2_conv1d_bn_relu_1.op.weight f4 [16, 4, 5]
0	0x3e866716	0.26250523
1	0x3f169a79	0.58829457
2	0xbe036f17	-0.12835346
3	0x3f0d3e93	0.55173606
4	0xbdcb6ae7	-0.099324994
5	0x3db4d5ac	0.08829817
6	0x3f26ad4b	0.65108174
7	0xbf26cba9	-0.6515451
8	0xbee2142a	-0.4415601
9	0xbe2f8b02	-0.17142871
10	0xbe87cfb3	-0.2652565
11	0x3f1dccec	0.6164081
12	0xbee0d110	-0.43909502
13	0xbe99ab68	-0.30013585
14	0xbef35bdf	-0.4753103
15	0xbf25adae	-0.6471814
16	0xbecf440e	-0.4048161
17	0x3f204422	0.6260396
18	0x3eaf5406	0.34243792
19	0x3ebb9638	0.36638045
20	0x3d530a95	0.051523764
21	0xbeb2b4e6	-0.3490364
22	0x3de43db0	0.111445785
23	0xbf28499f	-0.65737337
24	0xbf02104f	-0.50806135
25	0xbecf8073	-0.40527686
26	0x3ec42531	0.38309625
27	0x3ecc511d	0.39905635
28	0xbe98439d	-0.29739085
29	0xbcb610b8	-0.022224769
30	0x3eefdd29	0.4684842
31	0x3f349bf4	0.70550466
32	0x3e8ecd98	0.2789123
33	0x3db48950	0.08815253
34	0x3eed631d	0.4636468
35	0xbebfc8b9	-0.37457827
36	0x3e177ae5	0.14792974
37	0xbf06f2f5	-0.52714473
38	0xbef72afc	-0.48274982
39	0xbeb73c24	-0.3578807
40	0x3e85cc4b	0.26132426
41	0x3e7ec6e2	0.24880555
42	0xbe9db920	-0.30805302
43	0x3e4f11ef	0.20221685
44	0x3ea96938	0.33088088
45	0xbdf2cf62	-0.118559614
46	0xbcf647e3	-0.030063575
47	0x3da7946a	0.081826046
48	0x3e9e54c3	0.30924043
49	0x3f0151b4	0.50515294
50	0xbecf3f23	-0.40477857
51	0xbe279b87	-0.16367923
52	0x3e8b8fd4	0.2725817
53	0x3f0581ad	0.52150995
54	0x3f08d909	0.5345617
55	0x3f07e71a	0.5308701
56	0x3e2001be	0.15625665
57	0xbee2e4ce	-0.4431519
58	0x3dd3f818	0.103500545
59	0xbe9ccf3a	-0.3062685
60	0xbf09b692	-0.53794205
61	0x3eff04c1	0.49808314
62	0x3ed5e1f9	0.41773966
63	0xbf16abcf	-0.5885591
64	0x3dc557f8	0.09635919
65	0xbdda8a2c	-0.106708854
66	0xbdcf83a5	-0.10132531
67	0xbe8490ce	-0.25891727
68	0x3e50b610	0.20381951
69	0xbeb89fe9	-0.36059502
70	0x3e526c05	0.20549019
71	0x3e8e76a8	0.27824903
72	0x3ec9873d	0.3936099
73	0x3e49c439	0.19703759
74	0xbf141779	-0.57848316
75	0xbec0ca4d	-0.37654343
76	0x3e8e92cd	0.27846375
77	0x3dd32e05	0.10311512
78	0xbef00e5c	-0.46885955
79	0xbeaf7777	-0.34270832
80	0x3f3b49fd	0.7315977
81	0x3f02623b	0.5093114
82	0xbeb6185e	-0.35565466
83	0xbe66fd03	-0.22557454
84	0xbf509ea1	-0.8149205
85	0xbce40298	-0.027833268
86	0xbf2304d8	-0.63679266
87	0xbf2a2a02	-0.6647035
88	0xbd0f8a1c	-0.03504382
89	0x3e138e8e	0.14409849
90	0xbec3dc59	-0.3825405
91	0x3ee0c0dd	0.43897143
92	0xbf010b05	-0.5040744
93	0x3f3a0837	0.72668785
94	0x3f0792ac	0.5295818
95	0xbf3cafc3	-0.7370569
96	0xbe85b27b	-0.26112732
97	0x3c933b53	0.017972624
98	0x3ddace5a	0.1068389
99	0x3e2596cc	0.16170806
100	0x3e7b0759	0.24514522
101	0x3d2a2607	0.041540172
102	0xbe98f98c	-0.2987789
103	0x3ea0f1f9	0.3143461
104	0xbf1ca4dd	-0.6118906
105	0xbec4962b	-0.3839582
106	0xbe2d8a3e	-0.16947266
107	0xbea80709	-0.32817867
108	0xbe6a551a	-0.22884026
109	0xbf035102	-0.51295483
110	0xbe1003e6	-0.14063987
111	0x3e12b9aa	0.14328638
112	0xbecd4d84	-0.40098202
113	0xbc90ffcb	-0.017700097
114	0x3eeefcc8	0.46677232
115	0xbd97cdc0	-0.074122906
116	0x3cad8c1c	0.021184973
117	0xbd2d1c9a	-0.042263605
118	0x3e15c73a	0.1462678
119	0x3ed5766f	0.4169192
120	0x3f46ca1e	0.77652156
121	0x3f02d146	0.51100576
122	0x3f4a4e00	0.7902527
123	0xbda55e5e	-0.0807464
124	0xbf45ac8a	-0.772164
125	0xbec52dbb	-0.38511452
126	0x3f0f0d92	0.5588008
127	0xbcc17726	-0.023616385
128	0xbeddd875	-0.43329206
129	0xbf28d6fb	-0.65953034
130	0xbf531213	-0.82449454
131	0xbf3e8110	-0.74415684
132	0xbe413d3e	-0.18871018
133	0x3ee60915	0.44928804
134	0x3ee7e25c	0.45289886
135	0xbf58c769	-0.84679276
136	0x3f0172a4	0.5056555
137	0xbf2edb70	-0.68303585
138	0xbe4ae280	-0.19812965
139	0xbeb5808c	-0.35449636
140	0xbe137c06	-0.1440278
141	0xbdf91062	-0.12161328
142	0xbf05547f	-0.52082056
143	0xbf01f8dc	-0.50770354
144	0xbdd9f789	-0.10642917
145	0xbc9338d1	-0.017971428
146	0xbe9a01d3	-0.30079517
147	0x3e47f4ac	0.19526929
148	0xbf0033ca	-0.50079024
149	0xbcb5d59b	-0.022196582
150	0x3ee90e9c	0.4551896
151	0xbe7bf3d3	-0.2460473
152	0x3efdf984	0.49604428
153	0x3e3cd7cd	0.18441696
154	0xbf07508c	-0.5285728
155	0x3e9f12e4	0.310691
156	0xbdb723ea	-0.08942397
157	0xbe898426	-0.26858634
158	0x3edc2238	0.42994857
159	0xbef38ef5	-0.47570005
160	0x3d98d001	0.074615486
161	0xbead74fe	-0.3387832
162	0x3f5555f9	0.8333431
163	0x3e86f377	0.26357624
164	0x3f07927b	0.52957886
165	0x3eae2413	0.34011897
166	0xbed05904	-0.40692914
167	0xbec73bbb	-0.38912758
168	0xbf93ffe9	-1.1562473
169	0x3f0af632	0.54281914
170	0x3f7adf02	0.9799653
171	0x3f553938	0.83290434
172	0xbf78afb7	-0.9714312
173	0xbca4a3c1	-0.020097615
174	0xbf7b4086	-0.9814533
175	0xbf3b1c88	-0.7309041
176	0xbf47d808	-0.7806401
177	0x3ec00be3	0.3750907
178	0xbf553628	-0.8328576
179	0xbdd9e1af	-0.10638749
180	0x3c3a0b93	0.011355299
181	0x3e964227	0.29347345
182	0xbebc788f	-0.3681073
183	0xbea77396	-0.32705373
184	0xbe90a198	-0.28248286
185	0x3ea80e36	0.32823342
186	0xbe2db011	-0.16961695
187	0x3ecaa9fc	0.39582813
188	0x3e239d20	0.15977907
189	0x3d4d5890	0.050133288
190	0xbbf73259	-0.0075438437
191	0xbdda8b90	-0.10671151
192	0x3d59d2b6	0.053179465
193	0xbddbcd91	-0.10732568
194	0xbba0c746	-0.0049065677
195	0x3d717699	0.058950994
196	0xbec4db7b	-0.384487
197	0xbe864681	-0.26225665
198	0x3ec71c5a	0.38888818
199	0xbec63faa	-0.38720447
200	0xbdaab255	-0.083347954
201	0x3f1db729	0.61607605
202	0x3e550c2c	0.20805424
203	0xbbd611b0	-0.0065328702
204	0xbf16bc77	-0.58881325
205	0x3e999ab8	0.30000854
206	0xbf00fae4	-0.5038283
207	0xbe5b6677	-0.21425806
208	0xbe7945f3	-0.2434309
209	0xbdffad71	-0.12484253
210	0xbcaa5900	-0.020794392
211	0x3f04c6c5	0.518658
212	0x3d8073f7	0.062721185
213	0x3f111b40	0.56682205
214	0x3ec67574	0.38761485
215	0xbee238c4	-0.44183934
216	0x3e89edfe	0.26939386
217	0xbef92950	-0.4866433
218	0xbe98a69a	-0.29814607
219	0x3e368231	0.17823102
220	0x3e9fccc7	0.3121092
221	0x3f33f5f7	0.7029719
222	0xbe849fad	-0.25903073
223	0x3c81afe1	0.015830936
224	0x3ef67e4e	0.48143238
225	0xbf62aa18	-0.8854079
226	0x3f27b950	0.6551714
227	0xbf4a951a	-0.7913376
228	0x3d0da209	0.034578357
229	0xbdefc18e	-0.117068395
230	0xbef29f40	-0.47387123
231	0x3e0c26d0	0.13686681
232	0x3f4dbd31	0.8036681
233	0xbe7d04a6	-0.24708804
234	0xbf096570	-0.53670406
235	0xbeab4d7f	-0.33457562
236	0xbf65a366	-0.8970245
237	0x3ee8dc71	0.45480683
238	0xbecf7ec1	-0.40526393
239	0xbf1a2ce9	-0.6022478
240	0xbef47b4b	-0.47750315
241	0x3eee8695	0.46587053
242	0x3edfa09a	0.43677217
243	0x3f2a3fcb	0.6650359
244	0x3e9627d0	0.2932725
245	0xbea422df	-0.32057855
246	0xbe69961c	-0.22811168
247	0x3e7466fb	0.23867409
248	0x3f2ca733	0.67442626
249	0x3e629885	0.22128494
250	0xbec8126b	-0.39076552
251	0xbed4cf75	-0.41564527
252	0xbf50eb88	-0.8160939
253	0x3e43fa8e	0.19138548
254	0xbef9331f	-0.48671815
255	0xbf3e2a1d	-0.7428301

block2_conv1d_bn_relu_1.op.bias f4 [16]
0	0xbc9202c4	-0.017823584
1	0x3df84a10	0.12123501
2	0xbea095f6	-0.3136441
3	0x3e18c8aa	0.14920297
4	0x3e3c174d	0.18368264
5	0x3e385539	0.1800126
6	0x3e87c33c	0.2651614
7	0x3e69d735	0.22836001
8	0x3e755a70	0.2396028
9	0x3d9168a0	0.07100034
10	0xbbc0294a	-0.005864297
11	0x3e819535	0.25309148
12	0x3d5fe131	0.05465812
13	0x3daa7345	0.08322767
14	0x3d4556ec	0.0481786
15	0xbe81c7f2	-0.2534786

block2_conv1d_bn_relu_2.op.weight f4 [16, 16, 5]
0	0xbdeccda5	-0.11562661
1	0x3e0183d5	0.12647946
2	0xbe61c57c	-0.2204799
3	0x3d4e00fd	0.05029391
4	0xbe598ede	-0.21245906
5	0xbea12dc7	-0.31480238
6	0xbe804979	-0.25056055
7	0x3e67f8e5	0.2265354
8	0x3e2662ac	0.16248578
9	0x3e972ae1	0.29524902
10	0x3e586045	0.21130474
11	0xbe913d05	-0.28366867
12	0xbe5c4a2f	-0.21512674
13	0xbd79f2a5	-0.06102242
14	0xbe5085b9	-0.20363511
15	0x3e518963	0.20462565
16	0xbe6d93c1	-0.23200895
17	0xbe1a0629	-0.15041412
18	0xbe93818a	-0.28809768
19	0xbe2e2645	-0.17006786
20	0x3e83fa26	0.25776786
21	0x3e83ae65	0.2571899
22	0x3e6a229e	0.22864768
23	0x3e713a0b	0.23557298
24	0x3e844114	0.258309
25	0xbd885568	-0.06656915
26	0x3e09aacb	0.13444059
27	0x3e83ac8a	0.25717574
28	0x3dab2bb9	0.08357949
29	0x3e9019ab	0.28144583
30	0x3e31e846	0.17373762
31	0x3e443b64	0.1916328
32	0xbde790c7	-0.11306911
33	0x3e0142dd	0.12623163
34	0x3cc254e9	0.023722129
35	0xbda6af62	-0.0813892
36	0xbe2f2cdb	-0.17106955
37	0xbe27513f	-0.16339587
38	0xbe673353	-0.22578172
39	0x3e527758	0.20553339
40	0x3e680009	0.22656263
41	0xbc961bed	-0.018323863
42	0xbe24001a	-0.16015664
43	0x3e7404f7	0.23830019
44	0x3e395ffe	0.18103024
45	0x3b0d8d5e	0.0021599154
46	0xbe23159c	-0.15926212
47	0x3e87745a	0.26455957
48	0x3dfd3268	0.1236313
49	0xbe55cfd6	-0.20880064
50	0x3e830aec	0.2559427
51	0x3e44111c	0.19147152
52	0xbe0d5dfb	-0.13805382
53	0x3e0da3c0	0.13831997
54	0xbe41f116	-0.18939623
55	0xbd13012d	-0.035889793
56	0x3e8941f9	0.26808146
57	0x3cecdb89	0.028913276
58	0xbe4aa092	-0.19787815
59	0xbdc309af	-0.095233314
60	0xbdb5afa1	-0.08871389
61	0xbd85e88e	-0.06538497
62	0x3ccda368	0.025102332
63	0x3e8d3892	0.27582222
64	0x3cc6e382	0.024278406
65	0xbe384c6a	-0.179979
66	0xb9187512	-0.00014539462
67	0x3df6ddd2	0.120540276
68	0x3e0225ef	0.12709783
69	0xbe907271	-0.28212312
70	0xbd8e12c0	-0.0693717
71	0xbe71302d	-0.23553534
72	0xbe0da230	-0.13831401
73	0x3dd3622a	0.10321458
74	0xbe53d1c2	-0.20685485
75	0x3d731686	0.059347652
76	0x3e596441	0.2122965
77	0xbb95a64e	-0.004566944
78	0xbe5745d6	-0.21022734
79	0xbdee2325	-0.11627797
80	0x3d386067	0.04501381
81	0xbe9f19d5	-0.31074396
82	0x3e153ecb	0.14574735
83	0xbeb764ac	-0.35818994
84	0xbebaef52	-0.36510712
85	0xbeb46fb1	-0.35241464
86	0xbd62397c	-0.055230603
87	0x3e89b8a3	0.2689868
88	0xbea58010	-0.32324266
89	0x3e9b4ab0	0.3033042
90	0xbe2c8616	-0.16848025
91	0x3da2cdee	0.07949434
92	0xbc66c2b1	-0.014084504
93	0xbeb965b4	-0.36210406
94	0x3e86e662	0.26347643
95	0x3e53b94b	0.20676152
96	0x3eba4033	0.36377105
97	0x3e225d6c	0.1585595
98	0xbe8c9823	-0.2745982
99	0x3e8e880e	0.27838176
100	0x3cf9052f	0.03039798
101	0x3e27a943	0.16373162
102	0xbea03d31	-0.31296685
103	0xbe00cde5	-0.12578543
104	0xbec15f75	-0.3776814
105	0xbe168786	-0.14700136
106	0x3d853b98	0.06505507
107	0xbe9d9cf4	-0.30783808
108	0x3dc43543	0.09580471
109	0x3e31f0fc	0.17377084
110	0x3d14f91c	0.03637038
111	0xbe83398a	-0.25629836
112	0xbe97f675	-0.2968022
113	0xbde47477	-0.111550264
114	0x3e276014	0.16345245
115	0x3ebece40	0.3726673
116	0x3e701625	0.23445947
117	0xbcb4cf3d	-0.022071475
118	0x3e09476b	0.1340615
119	0xbeb3a682	-0.35087973
120	0xbe969c35	-0.29416052
121	0x3e18a406	0.1490632
122	0xbe5a08bc	-0.21292394
123	0x3e1a6c1d	0.15080304
124	0xbe8b70af	-0.27234408
125	0xbe41478a	-0.18874946
126	0xbe94b9d5	-0.2904803
127	0x3e632576	0.22182259
128	0xbbaf6a43	-0.0053532436
129	0x3ea4b3d3	0.32168445
130	0x3e445888	0.19174397
131	0x3e267646	0.16256055
132	0xbcd3db4b	-0.025861403
133	0xbe189094	-0.14898902
134	0xbdce21e0	-0.10065055
135	0x3d8cca79	0.06874556
136	0x3e4b2324	0.19837624
137	0xbe819898	-0.25311732
138	0x3e9bdeea	0.30443507
139	0xbd3ccb1e	-0.046092145
140	0xbe9c3e56	-0.3051631
141	0xbe422f22	-0.18963292
142	0x3ea434f9	0.32071665
143	0x3ead691e	0.3386926
144	0xbea1b251	-0.31581357
145	0x3e63a69e	0.22231528
146	0x3e14d6ad	0.14535017
147	0x3e47d777	0.19515787
148	0x3e9d09b2	0.3067146
149	0xbe2ee56a	-0.17079702
150	0x3dc5b5ef	0.09653842
151	0x3e0e34f8	0.13887393
152	0xbdce374f	-0.10069143
153	0x3dfdca7b	0.12392136
154	0xbdd71160	-0.10501361
155	0x3e3655aa	0.17806116
156	0xbe0c58aa	-0.13705698
157	0xbe2f4a16	-0.17118105
158	0x3d820ccf	0.06350099
159	0x3de0a465	0.10968856
160	0xbe082713	-0.13296156
161	0x3cd7c801	0.026340486
162	0x3e2dbe77	0.16967188
163	0xbcb9352c	-0.022608362
164	0x3de21ab3	0.11040249
165	0xbd7dabcf	-0.061931428
166	0x3dee1bb4	0.11626378
167	0xbe58c0cf	-0.211673
168	0xbe2e5e5d	-0.17028184
169	0xbe1478b6	-0.14499173
170	0x3e817125	0.25281635
171	0xbdab5051	-0.083649285
172	0x3b309d35	0.0026949171
173	0xbe191911	-0.14950968
174	0x3e9426cd	0.28935853
175	0x3ea1bb41	0.31588176
176	0xbe516b08	-0.20450985
177	0xbe6176e4	-0.2201801
178	0xbe5512b1	-0.20807911
179	0x3c2e75aa	0.0106481705
180	0xbd80c1f1	-0.062869914
181	0xbe3d48e4	-0.18484837
182	0xbdb25451	-0.08707488
183	0x3d7397b1	0.059470836
184	0xbe09d7dd	-0.13461252
185	0x3d9952ab	0.07486471
186	0xbd78b8ec	-0.06072323
187	0xbe0419a2	-0.12900403
188	0x3d4dcf52	0.050246544
189	0x3e81788b	0.2528728
190	0xbe4346cd	-0.19069977
191	0x3c8a84d4	0.01690904
192	0xbdd53a4e	-0.10411511
193	0x3e94a429	0.29031494
194	0xbe8b280c	-0.2717899
195	0xbe8a94f8	-0.2706678
196	0x3e978593	0.29594097
197	0xbe2ff929	-0.17184891
198	0x3d7fb58f	0.062429007
199	0xbcb162d8	-0.021653578
200	0xbd4ed54c	-0.050496385
201	0xbd6ce951	-0.057839695
202	0x3e4754d1	0.19465949
203	0x3cb70f5f	0.022346197
204	0xbe904381	-0.281765
205	0xbe31e99d	-0.17374273
206	0xbddd2c3f	-0.10799455
207	0x3e099c99	0.13438644
208	0xbe4ea05e	-0.20178363
209	0x3e86f817	0.26361153
210	0xbd319a7a	-0.04336021
211	0xbd1ec206	-0.038759254
212	0x3e788bdc	0.24272102
213	0x3e18609c	0.14880604
214	0x3e8a183c	0.26971614
215	0x3e399cdc	0.18126243
216	0xbda6d06e	-0.081452236
217	0xbe40edd2	-0.18840721
218	0xbc5dfb80	-0.013548732
219	0x3e78d228	0.24298918
220	0xbdd6f70d	-0.1049634
221	0xbe8d2fda	-0.2757557
222	0x3ddfe214	0.10931793
223	0x3e87fe68	0.26561284
224	0xbdb0a8b4	-0.086259276
225	0xbe6ac41c	-0.22926372
226	0xbe84d5eb	-0.25944456
227	0x3daaee0c	0.08346185
228	0xbc82578f	-0.015910892
229	0xbe15b8c8	-0.1462127
230	0x3d7d2701	0.061804775
231	0x3de5009c	0.11181757
232	0x3e78f1ad	0.24310942
233	0x3e6c749f	0.23091362
234	0xbd2291c1	-0.039689783
235	0xbe8221c0	-0.25416374
236	0xbe869beb	-0.2629083
237	0x3e8e03cb	0.2773727
238	0x3e0f017a	0.13965407
239	0x3e0e6480	0.13905525
240	0xbeaeee9c	-0.3416642
241	0x3ec16f38	0.37780166
242	0x3ec53df6	0.38523835
243	0x3ec4e670	0.3845706
244	0xbeafdddd	-0.34348956
245	0xbe2aefb7	-0.16693006
246	0xbe917897	-0.28412315
247	0x3ebfbdb8	0.3744943
248	0xbe35da9b	-0.17759173
249	0xbe526ace	-0.20548555
250	0x3e556ab6	0.20841488
251	0xbe422321	-0.18958713
252	0xbe55a71d	-0.2086453
253	0xbd347b57	-0.04406294
254	0xbd60432e	-0.054751568
255	0xbea52a35	-0.32258764

block2_conv1d_bn_relu_2.op.bias f4 [16]
0	0xbd470326	-0.048586987
1	0x3d74879c	0.05969964
2	0x3d00fe77	0.031492677
3	0xbbdb6430	-0.006695293
4	0xbd89b844	-0.06724599
5	0xbd0ecd8c	-0.034863994
6	0xbed20afa	-0.41024
7	0x3e12cf6a	0.14336935
8	0x3df11b56	0.11772792
9	0x3f0b359e	0.5437869
10	0x3e277788	0.16354191
11	0xbdba9592	-0.091105595
12	0xbe28d292	-0.16486576
13	0x3eb1a6f0	0.34697676
14	0xbe5eea4d	-0.21769066
15	0x3da37dbe	0.07982968

block2_conv1d_bn_relu_3.op.weight f4 [16, 16, 5]
0	0xbe823480	-0.2543068
1	0xbe6d4626	-0.23171291
2	0x3e293a95	0.16526254
3	0x3e856299	0.26051787
4	0x3d0ecdb2	0.034864135
5	0xbe56ed19	-0.20988883
6	0x3e0927ca	0.13394085
7	0x3ce13a74	0.027493693
8	0xbea6c5b6	-0.32572716
9	0xbe71aea3	-0.23601775
10	0x3d1466c3	0.036230814
11	0x3e360455	0.1777509
12	0xbe17e37c	-0.14832872
13	0x3e169074	0.14703542
14	0xbe6c3a1e	-0.23069045
15	0x3e9d5dea	0.30735713
16	0x3e50c790	0.20388627
17	0x3d08a2c0	0.033358335
18	0x3dee94a7	0.11649447
19	0x3dba5a6f	0.0909928
20	0xbe67758f	-0.22603439
21	0xbc38bfee	-0.011276228
22	0x3daa4e98	0.08315772
23	0xbda608b6	-0.0810713
24	0x3e9b51c7	0.3033583
25	0xbe2c51ad	-0.16828032
26	0xbeab9e0d	-0.3351902
27	0xbe3f747e	-0.18696782
28	0xbeabf689	-0.3358653
29	0x3e829cdf	0.25510308
30	0xbe47334d	-0.19453163
31	0xbe9252bc	-0.28578746
32	0xbda2d706	-0.07951169
33	0xbe8d1977	-0.2755849
34	0xbe6514c9	-0.2237121
35	0x3e23e716	0.16006121
36	0xbe86d9a4	-0.26337922
37	0x3e0b9608	0.13631451
38	0x3e7229d2	0.23648766
39	0xbce2e947	-0.027699126
40	0x3e301587	0.17195712
41	0xbe2eaaee	-0.17057392
42	0x3e8f9194	0.28040755
43	0x3ea4bd2e	0.32175583
44	0x3d6603c6	0.056155942
45	0x3ea8911f	0.3292322
46	0xbea77c72	-0.32712132
47	0xbd051055	-0.03248628
48	0x3d9a041d	0.07520316
49	0xbe979a3c	-0.2960986
50	0x3e308d7c	0.17241472
51	0xbe1096ff	-0.141201
52	0xbe0dee40	-0.13860416
53	0xbe982379	-0.29714563
54	0x3e09f598	0.13472593
55	0xbe83f7bd	-0.25774947
56	0xbda8b8a4	-0.082383424
57	0x3e0a52e3	0.13508181
58	0x3e71558b	0.23567788
59	0x3d2e1513	0.042500567
60	0xbe257720	-0.16158724
61	0xbe3e2bfa	-0.18571463
62	0x3e1d1216	0.1533893
63	0x3cd218c9	0.025646584
64	0x3e8a6937	0.27033398
65	0x3de3b48e	0.111184224
66	0x3e8edb9b	0.2790192
67	0xbe97ea9f	-0.2967119
68	0x3e8f8d3d	0.28037444
69	0xbe3384f0	-0.1753118
70	0xbdea765c	-0.114483565
71	0xbc92c3a3	-0.017915552
72	0xbdd4265f	-0.10358881
73	0x3d09d579	0.03365085
74	0x3e8a38fa	0.26996595
75	0xbe473ae4	-0.19456059
76	0x3dce2c6a	0.10067065
77	0xbe99d78c	-0.30047262
78	0x3c9fb1a0	0.019493878
79	0x3e7d9f74	0.24767858
80	0x3e17dc5e	0.14830157
81	0x3e455126	0.19269237
82	0x3de07a53	0.109608315
83	0xbd3af64a	-0.045645036
84	0x3d02a08e	0.031891398
85	0xbdeed039	-0.11660809
86	0x3e436620	0.19081926
87	0x3df9de96	0.12200658
88	0xbe28a970	-0.16470885
89	0x3e5de2d8	0.21668565
90	0xbc1f7ec9	-0.009734818
91	0xbc3caaa3	-0.011515292
92	0xbd92ce9b	-0.07168313
93	0xbd9f5fb1	-0.077819236
94	0xb810ddec	-3.4538956e-05
95	0xbe0d74dc	-0.1381411
96	0xbe749d82	-0.2388821
97	0xbe02407b	-0.1271991
98	0xbd30118a	-0.042985477
99	0x3e3d8e68	0.18511355
100	0x3e1ebfbf	0.15502833
101	0xbe2e8954	-0.17044574
102	0xbcf44a7d	-0.029820675
103	0xbdafe3ef	-0.08588397
104	0xbe0efc0d	-0.13963337
105	0xbd86b73e	-0.065779194
106	0xbdbd709e	-0.09249996
107	0x3e12ae13	0.14324217
108	0xbddeca0f	-0.10878383
109	0x3d4c750d	0.049916316
110	0xbe1d63b6	-0.15370068
111	0xbdace9c9	-0.084430285
112	0x3e34078e	0.17581007
113	0xbe08fed9	-0.13378467
114	0xbd109cbe	-0.03530573
115	0x3e57a500	0.21059036
116	0x3d930693	0.07178988
117	0xbe038dd2	-0.12847069
118	0xbe199cd7	-0.15001236
119	0xbdb77b7c	-0.089591
120	0xbdc68391	-0.09693063
121	0x3db3a380	0.087714195
122	0xbd8962bc	-0.06708285
123	0x3e46a774	0.19399816
124	0xbe0ceebb	-0.13762943
125	0xbd90acab	-0.07064184
126	0x3db5edc3	0.0888324
127	0x3e431213	0.19049864
128	0x3e745bd5	0.23863156
129	0x3d3349bb	0.043771487
130	0x3b7825bd	0.003786429
131	0xbdf4998c	-0.11943349
132	0x3df67fac	0.1203607
133	0xbe07c669	-0.13259281
134	0xbd22bccf	-0.039730843
135	0xbe543818	-0.20724523
136	0xbe7e136d	-0.24812098
137	0x3de2cea7	0.11074572
138	0xbb8dfd41	-0.0043331687
139	0x3e3971bb	0.18109791
140	0x3e294658	0.1653074
141	0x3dfb0142	0.12256099
142	0x3de3f061	0.11129833
143	0xbd2112f8	-0.03932473
144	0x3e1213c5	0.14265354
145	0x3de414cb	0.111367784
146	0x3dace624	0.08442333
147	0x3b045ceb	0.0020196985
148	0x3d27ea35	0.04099484
149	0xbb6484e2	-0.0034869243
150	0xbe40812a	-0.18799272
151	0x3d452c1b	0.048137765
152	0xbe33f80a	-0.17575088
153	0x3de40938	0.11134571
154	0xbe19db39	-0.15025033
155	0xbdd8b0d8	-0.10580605
156	0xbe101064	-0.14068753
157	0x3e319070	0.17340255
158	0xbe2b7903	-0.16745381
159	0x3e1dd417	0.15412937
160	0x3dd465a5	0.1037095
161	0x3e1fd4da	0.1560854
162	0x3d36c4cc	0.044621274
163	0x3df7617a	0.12079139
164	0x3e3cc598	0.18434751
165	0x3d58fd3f	0.05297589
166	0x3db0ea55	0.08638445
167	0xbe49eb97	-0.19718777
168	0xbdb2fb1d	-0.08739302
169	0x3b00fd59	0.0019682257
170	0x3cfe6341	0.031053187
171	0xbdac56ec	-0.084150165
172	0xbe721d0e	-0.23643896
173	0xbd771c35	-0.060329635
174	0x3db9713e	0.09054802
175	0x3e5230c6	0.20526418
176	0xbe5d9712	-0.2163966
177	0x3dedb1a1	0.11606146
178	0xbe6b3c67	-0.2297226
179	0xbe6fa5da	-0.23403111
180	0xbe1f66c8	-0.15566552
181	0xbd3d8bf8	-0.046276063
182	0x3d6544b9	0.055973742
183	0xbe43e9aa	-0.19132105
184	0x3e458d77	0.19292246
185	0x3e6b8c21	0.23002674
186	0x3c867407	0.016412748
187	0x3e40d87f	0.18832587
188	0xbdfe9389	-0.12430484
189	0xbde7b23d	-0.11313293
190	0xbd02459d	-0.03180467
191	0x3cc2fec7	0.023803128
192	0xbe315e4a	-0.17321125
193	0xbe53a558	-0.20668542
194	0x3da9dea7	0.08294421
195	0x3d8dacd7	0.06917732
196	0x3e70c38b	0.23512094
197	0xbdc9f058	-0.09860295
198	0x3db3b769	0.08775217
199	0xbdc3bcee	-0.0955752
200	0x3de77bdf	0.113029234
201	0xbc9456f3	-0.018107867
202	0x3e403dd4	0.18773586
203	0x3e15921f	0.14606522
204	0x3e5e4c06	0.21708688
205	0x3e064a6a	0.13114324
206	0x3c4cefee	0.012508376
207	0x3e60c4dc	0.21950096
208	0xbe1182a5	-0.14209993
209	0x3e6a6a0f	0.2289202
210	0x3e76fc69	0.24119724
211	0x3e7f7e2d	0.24950476
212	0xbdc82b2e	-0.09773861
213	0xbdf40536	-0.119150564
214	0x3c56ebd3	0.013117748
215	0x3d8e0c3e	0.06935929
216	0x3df7a412	0.12091841
217	0x3dceb782	0.10093595
218	0x3e533a2f	0.20627664
219	0xbd715810	-0.058921874
220	0xbda0ee52	-0.07857956
221	0x3da051cf	0.07828104
222	0x3d837e2d	0.064205505
223	0xbe1b635c	-0.15174621
224	0x3c0476e0	0.008084983
225	0xbe3bc970	-0.18338561
226	0xbd9e7ef2	-0.07739057
227	0xbdc8e5d5	-0.09809462
228	0x3e54f04d	0.20794792
229	0xbe5e43ab	-0.21705501
230	0xbe0daa08	-0.13834393
231	0xbe6e8d4a	-0.23296085
232	0x3d861581	0.0654707
233	0xbe39da6d	-0.18149729
234	0x3daebdf5	0.08532325
235	0xbe2b0e3e	-0.16704652
236	0xbe140c6d	-0.14457865
237	0xbdd96c9a	-0.10616417
238	0x3d553934	0.052056506
239	0x3e6afa16	0.22946963
240	0x3e710f81	0.2354107
241	0xbd2f0767	-0.04273167
242	0xbe974313	-0.2954336
243	0xbdf59592	-0.11991419
244	0xbe0a20b7	-0.13489042
245	0xbd7b9f3a	-0.061431147
246	0x3dd7c564	0.10535696
247	0x3e16844f	0.14698909
248	0x3decc8e9	0.11561758
249	0x3d4365cc	0.047704503
250	0xbe04c2f7	-0.12964998
251	0xbd06fe7b	-0.032957535
252	0x3ba74a7e	0.0051053157
253	0xbe2de9ed	-0.16983767
254	0xbd3befce	-0.045882992
255	0xbd52e6c1	-0.051489595

block2_conv1d_bn_relu_3.op.bias f4 [16]
0	0x3ddcab3c	0.10774848
1	0x3be9063c	0.007111339
2	0xbd4febd1	-0.050762
3	0x3e0d70ee	0.1381261
4	0xbdf940e8	-0.12170583
5	0x3b96e58e	0.004605002
6	0x3e1e7a2b	0.15476291
7	0xbdd87fa6	-0.10571222
8	0x3dc5d6cf	0.09660112
9	0x3d3768a9	0.044777546
10	0x3ddfec7f	0.1093378
11	0x3e211b79	0.15733136
12	0xbc9a38ee	-0.018825974
13	0x3e43292d	0.19058676
14	0x3e0a011d	0.13476987
15	0xbdf9457c	-0.12171456

block2_conv1d_bn_relu_4.op.weight f4 [16, 16, 4]
0	0xbe34c5b3	-0.17653541
1	0x3d0dcfb5	0.034621913
2	0xbd62e94e	-0.055398278
3	0x3c270c49	0.0101958
4	0x3e6e4310	0.2326777
5	0xbe9f6572	-0.31132084
6	0x3eb2d8ba	0.34930974
7	0x3e83d6cf	0.25749823
8	0x39fcf3dc	0.00048246875
9	0xbe1b40e8	-0.15161479
10	0x3dc27ac1	0.0949607
11	0xbe78afc4	-0.242858
12	0x3e83345d	0.25625888
13	0xbe57ac15	-0.21061738
14	0x3d99fc18	0.07518786
15	0xbec5d1e4	-0.38636696
16	0x3e4242e9	0.18970837
17	0x3e813d26	0.25241965
18	0x3e90ad10	0.28257036
19	0x3cd6426d	0.026154721
20	0x3e6dfc4a	0.23240772
21	0x3e0c60de	0.13708827
22	0x3e8c3008	0.27380395
23	0x3e7db7dd	0.2477717
24	0xbeba7b64	-0.36422265
25	0x3c782bad	0.015147132
26	0xbe0fc629	-0.14040436
27	0xbe3caa0a	-0.1842424
28	0x3e844926	0.25837058
29	0xbd672976	-0.056436025
30	0x3d8c1440	0.068398
31	0x3e8fd470	0.28091764
32	0x3e8c3cc8	0.27390122
33	0x3e5d96b0	0.21639514
34	0xbd4f71ad	-0.05064552
35	0xbeb0d372	-0.3453632
36	0xbeb61e7a	-0.35570127
37	0x3e061db9	0.13097276
38	0xba7a0b39	-0.00095384155
39	0xbe7a470a	-0.24441162
40	0x3e330804	0.17483526
41	0x3ebba941	0.36652568
42	0x3e7380f4	0.2377966
43	0xbd309ff7	-0.043121304
44	0x3cc9d726	0.024638724
45	0xbe8ddf6a	-0.27709514
46	0x3e1b0e92	0.15142277
47	0xbea426b0	-0.32060766
48	0x3e89ecd9	0.26938513
49	0xbe3b20db	-0.18274252
50	0xbe221d25	-0.1583143
51	0xbeac5048	-0.33655
52	0xbdd29b32	-0.102835074
53	0xbd497978	-0.049188107
54	0xbe49203c	-0.19641203
55	0x3e8f427a	0.27980405
56	0x3e71eb75	0.23624976
57	0xbea9b4fd	-0.33145896
58	0xbce47865	-0.02788944
59	0x3e27d515	0.16389878
60	0x3eb34995	0.35017076
61	0xbde35d0b	-0.11101731
62	0x3e725341	0.23664571
63	0xbc284de2	-0.010272475
64	0xbe4be534	-0.19911653
65	0x3eb4765f	0.3524656
66	0xbee1621c	-0.44020164
67	0x3eef74e1	0.4676886
68	0x3ef41235	0.4767014
69	0xbe3ee97c	-0.18643755
70	0x3e0e8a3e	0.13919923
71	0x3eebe2c5	0.4607145
72	0x3dfbf421	0.12302423
73	0x3e3078e6	0.17233619
74	0x3e1c5681	0.15267374
75	0xbe7e52bd	-0.2483625
76	0x3db82f8e	0.08993445
77	0xbea12805	-0.31475845
78	0x3ec41f14	0.3830496
79	0xbe7cb8a9	-0.24679817
80	0x3e37c61b	0.17946665
81	0xbd8ef964	-0.06981161
82	0x3eaccd34	0.33750308
83	0x3d90af47	0.070646815
84	0x3e7e58e2	0.24838594
85	0xbe21af56	-0.15789542
86	0xbea8a3f8	-0.32937598
87	0x3e1e2e0a	0.1544725
88	0xbe9f2c02	-0.31088263
89	0xbee320cd	-0.44360963
90	0x3e2adb5a	0.16685238
91	0xbea3e23f	-0.3200855
92	0xbe5bead0	-0.21476293
93	0xbe1394a4	-0.1441217
94	0x3cf13c23	0.02944762
95	0xbe4160ac	-0.18884534
96	0xbe4296fa	-0.19002905
97	0xbe04a5ea	-0.12953916
98	0x3eccbbf0	0.39987135
99	0x3e440868	0.19143832
100	0xbe8a2fe6	-0.2698967
101	0xbebd647a	-0.3699072
102	0xbcbe15cb	-0.023203751
103	0x3e01fcf4	0.1269415
104	0xbc9909cf	-0.018681435
105	0x3e8f9e4d	0.2805046
106	0x3ed48847	0.4151022
107	0x3ded19ff	0.11577224
108	0x3e2c2919	0.16812553
109	0x3e91e407	0.28494284
110	0xbe34646a	-0.1761643
111	0x3e012118	0.1261028
112	0x3ed4897d	0.41511145
113	0xbe690369	-0.22755207
114	0x3d5d8f1a	0.05409155
115	0xbe3cc508	-0.18434536
116	0xbed0e2a5	-0.40797916
117	0x3e7e8132	0.24853972
118	0x3ec73b1f	0.38912293
119	0xbe9849e6	-0.2974388
120	0x3e100f11	0.14068247
121	0x3e04a620	0.12953997
122	0x3e3ca59b	0.18422548
123	0x3e8c041b	0.27346882
124	0x3effb4dd	0.49942675
125	0x3ec21c92	0.37912422
126	0xbeea6737	-0.45781872
127	0xbe40982b	-0.18808047
128	0x3e895d66	0.2682907
129	0xbe9eeb30	-0.3103881
130	0x3dab0a6e	0.08351599
131	0xbe6c0243	-0.23047738
132	0x3dbdf992	0.092761174
133	0x3e73a6f8	0.23794162
134	0x3e1ecf11	0.15508677
135	0x3ebcfd93	0.36912212
136	0xbdc47ac4	-0.09593728
137	0x3e6c8795	0.23098595
138	0x3e0af4b0	0.13569903
139	0xbe43f596	-0.19136652
140	0xbec294a6	-0.38004035
141	0x3ee431c6	0.44569224
142	0xbe28cce1	-0.16484405
143	0x3eb7769f	0.35832688
144	0x3ea2990d	0.31757393
145	0xbd1751df	-0.036943313
146	0xbed67066	-0.41882628
147	0x3c9bd40a	0.019022007
148	0xbe8e594f	-0.27802512
149	0x3dbe09db	0.092792235
150	0xbe6b0a25	-0.22953089
151	0x3eb37469	0.3504975
152	0xbeee7546	-0.46573848
153	0xbe0ca619	-0.13735236
154	0x3d7c7190	0.06163174
155	0x3ccee25a	0.025254417
156	0x3ebde1ae	0.37086242
157	0xbe447281	-0.19184305
158	0xbee28217	-0.44239876
159	0x3e8c586c	0.2741121
160	0x3e1ab1a9	0.15106834
161	0x3ebb5b70	0.365932
162	0xbe97d84d	-0.29657212
163	0xbe95e5f3	-0.29277
164	0xbe4e9ad8	-0.20176256
165	0x3d276a4a	0.04087285
166	0x3e2a92af	0.16657518
167	0xbe8d45e9	-0.275924
168	0xbd864c04	-0.065574676
169	0xbde388dd	-0.11110089
170	0x3edc65dc	0.43046463
171	0xbe4a225d	-0.19739671
172	0x3f0d8913	0.55287284
173	0xbe98dcd7	-0.29855987
174	0xbe573b0b	-0.21018617
175	0xbec6d3af	-0.38833377
176	0x3eb66d27	0.35630152
177	0xbeae4189	-0.34034374
178	0x3e5a9eac	0.21349591
179	0xbe2be78b	-0.16787545
180	0x3ef5adb5	0.4798409
181	0x3d81513b	0.063143216
182	0xbee44f90	-0.4459195
183	0x3d6169b9	0.055032466
184	0x3cb6742f	0.022272198
185	0xbf0585da	-0.52157366
186	0x3d8c8878	0.06861967
187	0x3edeb5dd	0.43498126
188	0x3db0db96	0.08635633
189	0xbd1a9994	-0.03774412
190	0xbdfae7ac	-0.12251219
191	0x3e13df99	0.14440764
192	0xbe25c325	-0.16187723
193	0x3ea63692	0.3246351
194	0x3e90fd1b	0.28318104
195	0x3e1eb73d	0.15499587
196	0xbe0b48a6	-0.13601932
197	0xbeaa2f34	-0.33239138
198	0xbe594a7e	-0.21219823
199	0x3ea32468	0.31863713
200	0xbe97dd41	-0.2966099
201	0xbe9ec416	-0.31008977
202	0xbc3e0817	-0.011598608
203	0x3deb8fb7	0.11502021
204	0xbeb6e56b	-0.35721907
205	0xbea8a67d	-0.3293952
206	0xbbfffab9	-0.007811871
207	0xbdfdf2e0	-0.1239984
208	0x3e53e326	0.20692119
209	0x3d8cd7f2	0.06877126
210	0xbea2fe1e	-0.318345
211	0xbeaa3c29	-0.33249024
212	0x3e7d7857	0.24752937
213	0xbd320980	-0.04346609
214	0xbe067c61	-0.13133384
215	0x3de08428	0.10962707
216	0xbd80213d	-0.0625634
217	0x3e31e062	0.17370752
218	0x3dcafe79	0.09911818
219	0xbe099108	-0.13434231
220	0xbe85f81b	-0.26165852
221	0x3e43d8c7	0.19125663
222	0xbe466086	-0.19372758
223	0xbcf29717	-0.02961306
224	0x3d33c547	0.04388931
225	0xbe534f51	-0.20635726
226	0x3e33b1da	0.17548314
227	0xbe7a902c	-0.2446906
228	0x3d912f7e	0.070891365
229	0x3cc31a4e	0.023816254
230	0x3de8536c	0.113440365
231	0xbeafaed8	-0.34313083
232	0x3d17e6c6	0.037085317
233	0x3e3fa686	0.18715867
234	0xbe51a03a	-0.20471278
235	0x3dc0710f	0.09396564
236	0xbb90b422	-0.0044160048
237	0x3e93be68	0.28856206
238	0xbd8be1d5	-0.068301834
239	0x3c256c80	0.010096669
240	0xbe123bd4	-0.14280635
241	0xbdb0d23c	-0.08633849
242	0x3db5a27e	0.088688836
243	0xbeae2588	-0.3401301
244	0x3e88d7e6	0.26727217
245	0x3e82a7f5	0.25518766
246	0x3e2021cd	0.15637894
247	0x3e87cf43	0.26525316
248	0xbdbb6da7	-0.09151774
249	0x3dbe7859	0.09300298
250	0x3cedf6ad	0.029048288
251	0xbe6ddae3	-0.2322803
252	0xbded42e8	-0.11585027
253	0xbdde7121	-0.108614214
254	0xbda68753	-0.0813128
255	0xbe9b27ab	-0.30303702

block2_conv1d_bn_relu_4.op.bias f4 [16]
0	0xbdc42232	-0.09576835
1	0xbe2c38fe	-0.16818616
2	0x3c8ea695	0.017413417
3	0x3e2e2fd3	0.17010431
4	0xbcab6792	-0.02092341
5	0xbd1835d5	-0.037160713
6	0x3e3607d5	0.17776425
7	0xbd2da5b4	-0.042394355
8	0x3eb8078c	0.35943258
9	0x3e7d31fa	0.24726096
10	0x3e15a8a6	0.14615116
11	0xbe3659e5	-0.1780773
12	0xbcb5fa94	-0.022214212
13	0x3e1597ef	0.1460874
14	0xbea870de	-0.3289861
15	0x3d140b7f	0.036143776

block3_conv1d_bn_relu_1.op.weight f4 [16, 16, 8]
0	0xbe4c932b	-0.19978015
1	0xbddabc05	-0.10680393
2	0x3d2fc873	0.042915773
3	0xbe59407c	-0.21216005
4	0x3cac3ac1	0.02102411
5	0x3da43a5f	0.08018946
6	0x3e38c510	0.18043923
7	0x3e3d1235	0.18463977
8	0x3e3198ef	0.17343496
9	0xbda8dbc4	-0.08245042
10	0xbcbb19a2	-0.022839371
11	0x3e4cddbc	0.2000646
12	0x3de6c3e6	0.112678334
13	0xbdbc1e4c	-0.09185466
14	0x3e58a1b6	0.21155438
15	0xbe567610	-0.20943475
16	0x3e40b794	0.1882003
17	0x3e09cea6	0.13457736
18	0xbe476a1f	-0.19474076
19	0xbe7efe2a	-0.24901643
20	0x3e2c92b0	0.16852832
21	0x3e7f31bb	0.24921314
22	0x3cd48f24	0.025947161
23	0xbde074b3	-0.109597586
24	0x3e14283e	0.14468476
25	0x3dacf939	0.08445973
26	0xbd878697	-0.06617468
27	0x3e46c13c	0.1940965
28	0x3e1b215e	0.15149447
29	0x3d2bb979	0.041924927
30	0x3e14e3fe	0.14540097
31	0xbe475a76	-0.19468102
32	0xbe10adbf	-0.14128779
33	0x3d5d4a40	0.05402589
34	0x3cbdeea2	0.023185078
35	0xbd7b25c1	-0.0613153
36	0x3d425fb3	0.047454547
37	0x3deeccf4	0.116601855
38	0xbe6f7d5b	-0.23387663
39	0x3d9cbd90	0.07653344
40	0xbd048029	-0.032348786
41	0xbe377fde	-0.17919871
42	0x3d09cd43	0.03364302
43	0xbd54feb1	-0.052000705
44	0xbe1303af	-0.14356874
45	0xbe86dd09	-0.2634051
46	0x3e87accc	0.2649902
47	0xbdfde793	-0.12397685
48	0x3c8649fa	0.016392697
49	0x3e59c0e8	0.21264994
50	0xbc4362ed	-0.011925441
51	0xbe1b6a22	-0.15177205
52	0xbe6f51dc	-0.2337107
53	0x3d2f6eca	0.042830266
54	0xbd90379d	-0.070418574
55	0x3d38331e	0.044970624
56	0x3db2780d	0.08714304
57	0xbd84466b	-0.06458744
58	0x3e153cf3	0.14574032
59	0xbd4ef826	-0.05052962
60	0xbdbb3178	-0.09140295
61	0xbe23f16f	-0.16010068
62	0x3de4de89	0.11175258
63	0xbe082afe	-0.1329765
64	0x3dae305a	0.08505316
65	0xbb2c375f	-0.002627812
66	0x3e4c8c48	0.19975388
67	0xbdb6e05c	-0.08929512
68	0xbd9ef9ca	-0.07762487
69	0xbcee767f	-0.029109238
70	0xbdcd8bb1	-0.1003641
71	0x3e04e9f9	0.12979878
72	0xbdb27722	-0.08714129
73	0x3d82ec7a	0.063927606
74	0x3e0483c4	0.1294089
75	0x3e0490f0	0.12945914
76	0xbd30aaaa	-0.043131508
77	0x3ded8191	0.115969785
78	0xbdae4356	-0.08508937
79	0xbe488e55	-0.19585545
80	0x3b965d8a	0.0045887874
81	0xbe239d18	-0.15977895
82	0xbe34719f	-0.17621468
83	0x3d4138a5	0.04717316
84	0x3e675418	0.22590673
85	0xbdf5ef2f	-0.12008511
86	0xbc3607d8	-0.0111102685
87	0xbe281326	-0.16413555
88	0xbc2fc6c4	-0.010728542
89	0x3d77620f	0.06039625
90	0xbd9fe9f4	-0.07808295
91	0x3e1a42ae	0.15064499
92	0xbe7f2709	-0.24917234
93	0xbd0b8050	-0.034057915
94	0xbe001a96	-0.12510142
95	0x3e64b5a1	0.22334911
96	0x3e14286d	0.14468546
97	0x3e705dc6	0.23473272
98	0x3e3b9c16	0.18321261
99	0x3d267fd3	0.040649246
100	0xbe6a6fe8	-0.22894251
101	0xbe0d1e21	-0.13781025
102	0x3de1435f	0.10999178
103	0xbe639832	-0.22226027
104	0x3e0fac8c	0.14030665
105	0x3d9891ff	0.074497215
106	0x3d2da00b	0.042388957
107	0xbe6f94f7	-0.2339667
108	0x3e30dabb	0.17270939
109	0xbd9f3301	-0.077734
110	0xbdb0eebb	-0.08639284
111	0x3e104338	0.14088142
112	0x3b01cd63	0.0019806258
113	0xbe186810	-0.14883447
114	0x3d2cd908	0.042199165
115	0xbe3a19b3	-0.18173866
116	0x3e3a1ee7	0.18175851
117	0x3e22068e	0.15822813
118	0x3da9a242	0.08282901
119	0x3e036176	0.12830147
120	0xbe6def78	-0.23235881
121	0xbdca004b	-0.09863337
122	0xbe66db00	-0.2254448
123	0xbdd8454a	-0.10560091
124	0xbe6a4714	-0.22878677
125	0x3e3a7cbd	0.18211646
126	0x3dc4d00b	0.096099935
127	0x3e0a72a6	0.13520297
128	0xbdcff2ed	-0.10153756
129	0x3e1fe51c	0.15614742
130	0xbd18f8c3	-0.037346613
131	0xbd82e51f	-0.06391358
132	0x3dd5f579	0.10447211
133	0x3e03581b	0.12826578
134	0xbe210e11	-0.15728022
135	0x3e45a684	0.19301802
136	0xbcabfcae	-0.02099451
137	0x3d7db92b	0.061944168
138	0xbe56c16f	-0.20972227
139	0x3cc03415	0.023462335
140	0xbdd37454	-0.10324922
141	0xbe09b7fb	-0.13449089
142	0xbdab77b3	-0.0837244
143	0x3a637c72	0.00086779066
144	0xbd71cb2f	-0.05903166
145	0xbe09ee4b	-0.13469808
146	0x3e1928b8	0.14956939
147	0x3d7dd749	0.06197289
148	0xbe48b147	-0.19598876
149	0x3d24f2ae	0.0402705
150	0x3d5aed79	0.053449128
151	0x3bfd9e9c	0.007739855
152	0x3d51897f	0.051156517
153	0xbc8163f9	-0.015794741
154	0x3dc29f17	0.09503
155	0xbe17a753	-0.14809923
156	0xbdb643db	-0.08899661
157	0x3e244464	0.16041714
158	0xbe0286d0	-0.1274674
159	0x3de3674d	0.111036874
160	0x3e4768cc	0.1947357
161	0xbe4aaae3	-0.1979175
162	0xbdbdc547	-0.09266143
163	0x3e340f52	0.17583969
164	0xbca2484d	-0.019809866
165	0x3d11c6bb	0.035589915
166	0x3cde5759	0.02714126
167	0x3dab6045	0.08367971
168	0xbdb7dbf1	-0.08977497
169	0x3ce357b7	0.027751787
170	0x3e12dbca	0.14341655
171	0xbca29f74	-0.019851424
172	0xbe45e7de	-0.19326732
173	0x3d926a34	0.07149163
174	0xbd4eb242	-0.05046297
175	0xbd221a0a	-0.039575614
176	0x3de26083	0.110535644
177	0x3d06b2cc	0.032885358
178	0xbe0078b1	-0.1254604
179	0xbdc7b303	-0.09750941
180	0xbd005114	-0.031327322
181	0xbd6d01ff	-0.05786323
182	0xbd2d8240	-0.042360544
183	0xbe1204b4	-0.14259607
184	0x3e1c6d5c	0.15276092
185	0x3de1406c	0.109986156
186	0x3d1e9cda	0.038723804
187	0x3d43425d	0.04767071
188	0x3cb9162d	0.022593582
189	0x3e203caa	0.15648142
190	0x3d47f657	0.048818912
191	0x3d0b1684	0.03395702
192	0xbdecac23	-0.1155627
193	0x3d8e1c30	0.0693897
194	0xbe4a3f34	-0.19750673
195	0x3d81f5be	0.063457
196	0xbe3ef53b	-0.18648235
197	0xbdbab854	-0.09117189
198	0x3ddfe552	0.10932411
199	0xbe025723	-0.12728553
200	0x3e278238	0.16358268
201	0xbdec7002	-0.11544801
202	0x3e4d6e48	0.200616
203	0x3d75aab8	0.059977263
204	0xbdbb1073	-0.09133997
205	0x3e049aa4	0.12949616
206	0xbe3cca71	-0.184366
207	0xbe02fa89	-0.12790884
208	0xbe07ea83	-0.13273053
209	0x3cc8ff4c	0.024535798
210	0x3c8d150d	0.017221952
211	0xbe3d7905	-0.18503197
212	0x3e480169	0.19531788
213	0xbbeed34c	-0.007288372
214	0xbdebdcaa	-0.11516698
215	0x3afe539b	0.0019403578
216	0xbdbd77ec	-0.09251389
217	0x3d5ce047	0.053924825
218	0x3d984b36	0.0743622
219	0xbd817989	-0.06322009
220	0x3c21e641	0.009881557
221	0x3df8b59d	0.12144015
222	0xbe0a4f1f	-0.13506745
223	0xbd3c5162	-0.04597605
224	0xbce7ae24	-0.028281279
225	0xbe0eb1d9	-0.13935031
226	0x3c8f7e7f	0.017516373
227	0x3c36ffb3	0.011169362
228	0xbe2f2d1a	-0.17107049
229	0x3d274ed8	0.040846676
230	0x3e4fc3a5	0.20289476
231	0x3de81f98	0.11334151
232	0xbdf0b54f	-0.11753332
233	0x3e47ff1c	0.1953091
234	0xbe17ae28	-0.14812529
235	0xbde4bfa5	-0.11169366
236	0x3db82138	0.08990711
237	0x3e266f24	0.16253334
238	0x3e4b1e3d	0.19835754
239	0x3e378436	0.17921528
240	0xbdef8c68	-0.11696702
241	0x3d4a6d97	0.04942092
242	0xbe06aae0	-0.13151121
243	0xb71005aa	-8.584388e-06
244	0x3e34985f	0.1763625
245	0x3dd7f4cb	0.105447374
246	0xbe42c418	-0.19020116
247	0xbdaf2060	-0.08551097
248	0xbe358ea9	-0.17730202
249	0x3dbd04e8	0.092294514
250	0xbcd6a45c	-0.02620142
251	0xbe23e1fc	-0.16004175
252	0xbd9f3d00	-0.07775307
253	0x3d752760	0.059852004
254	0x3c53c9d0	0.012926534
255	0x3e459086	0.19293413

block3_conv1d_bn_relu_1.op.bias f4 [16]
0	0x3db72209	0.089420386
1	0x3db009f4	0.085956484
2	0x3ebea138	0.37232375
3	0xbe494765	-0.19656141
4	0xbbd9dad6	-0.0066484017
5	0x3ed89a06	0.4230501
6	0x3d37c947	0.044869687
7	0x3efd3441	0.4945393
8	0x3e3ec718	0.18630636
9	0xbe79a9a9	-0.24381126
10	0x3d2382f6	0.039919816
11	0x3e4a3776	0.19747719
12	0x3de78085	0.1130381
13	0x3da741f1	0.08166874
14	0xbe38e0d1	-0.1805451
15	0x3c9d2af1	0.019185515

block6_dense.op.weight f4 [2, 16]
0	0x3edb5cc0	0.428442
1	0x3e77eb12	0.24210766
2	0x3ee1eec6	0.44127482
3	0x3dc0ce9a	0.09414406
4	0x3cfaa9c7	0.030598534
5	0x3ecc6a1d	0.39924708
6	0x3e9cbc3d	0.30612364
7	0x3eb48d12	0.35263878
8	0x3d19cf1c	0.03755103
9	0xbde8da87	-0.11369806
10	0x3ecb1fc4	0.39672673
11	0x3e98a3f4	0.29812586
12	0x3eb7b4f4	0.35880244
13	0xbd4ea654	-0.05045159
14	0xbd442b09	-0.047892604
15	0x3e75e0aa	0.24011484
16	0xbee6779f	-0.4501314
17	0xbde3a9c0	-0.111163616
18	0xbdc805cc	-0.09766731
19	0x3de24ba6	0.11049585
20	0xbe304569	-0.17213978
21	0xbf0d48aa	-0.55189
22	0xbec8d24d	-0.39222947
23	0xbe6b4284	-0.22974592
24	0xbea392af	-0.31947848
25	0x3bea7955	0.007155577
26	0xbec1b2a0	-0.37831593
27	0xbd93c5ff	-0.07215499
28	0xbcf49c53	-0.029859697
29	0x3d580cd5	0.052746613
30	0xbbe3ffaa	-0.0069579678
31	0xbf0018e7	-0.50038

momentum_buffer f4 [4, 1, 4]
0	0x3ca0c6bb	0.019626012
1	0x3c5ef144	0.013607327
2	0xbb8d38ae	-0.0043097353
3	0xbc26437c	-0.0101479255
4	0xbcdd50d9	-0.02701609
5	0xbc675d5c	-0.01412138
6	0xbbfed9ce	-0.007777429
7	0xbb2da120	-0.0026493743
8	0x3d5df85e	0.05419194
9	0x3d494f75	0.04914804
10	0x3cf9b641	0.030482413
11	0x3ce381da	0.027771879
12	0xbbc468fd	-0.005993961
13	0xbbe5b6de	-0.007010325
14	0x38e7aa80	0.000110466965
15	0x3c4761c8	0.012169309

momentum_buffer f4 [4]
0	0xbe3f0f66	-0.18658218
1	0xbe2ef926	-0.1708723
2	0xbe282376	-0.16419777
3	0x3e1830c5	0.14862354

momentum_buffer f4 [16, 4, 5]
0	0x3c2c9c21	0.010535271
1	0x3c78e821	0.015192063
2	0x3c309d0f	0.010779633
3	0x3c0be47c	0.008538362
4	0x3b173924	0.002307483
5	0xbc0ae608	-0.008477695
6	0xbc136b79	-0.008997791
7	0x3b2884a4	0.0025713826
8	0x3b57b209	0.0032912514
9	0x3bb7c651	0.005608358
10	0x3bf7a227	0.007557172
11	0x3c5d1d0b	0.013495694
12	0x3c1202f9	0.008911842
13	0x3ba6e70a	0.00509346
14	0x3ae36a3e	0.0017350388
15	0x3bdb4de7	0.0066926363
16	0x3c5f281d	0.013620404
17	0x3c598222	0.013275655
18	0x3c03d045	0.008045261
19	0x3b2f9016	0.0026788763
20	0xbc828a30	-0.015935034
21	0xbbfe039f	-0.0077518965
22	0xbab165fc	-0.0013534422
23	0xba4dbf1a	-0.0007848606
24	0xbbb9cb56	-0.0056699915
25	0x392b10b8	0.00016314059
26	0xbc13a0e0	-0.009010524
27	0xbc88218e	-0.016617563
28	0xbc88a081	-0.016678097
29	0xbc97bff4	-0.018524148
30	0xbc9f831d	-0.0194717
31	0xbc2f307d	-0.010692713
32	0xbb93f1a0	-0.004514888
33	0xba6a2006	-0.00089311635
34	0xbb7b8040	-0.0038376004
35	0xbcbc188e	-0.022960927
36	0xbc555b01	-0.013022185
37	0xbbaec03e	-0.0053329756
38	0xba9a3b1c	-0.0011766884
39	0xbb93648e	-0.004498071
40	0xbbd74048	-0.006568942
41	0xbb39e9f3	-0.0028368204
42	0xbc197826	-0.0093670245
43	0xbc4988ae	-0.012300653
44	0xbcdd16f6	-0.026988488
45	0xbc8ca380	-0.017167807
46	0xbce4c63c	-0.027926557
47	0xbd1bb96c	-0.03801863
48	0xbd008056	-0.03137239
49	0xbca2b264	-0.019860454
50	0xbc9af4da	-0.018915582
51	0xbc5094ec	-0.012730818
52	0xbc9370a8	-0.017998055
53	0xbca167dd	-0.019702846
54	0xbd02adc8	-0.031904012
55	0xbc8b9d90	-0.017042905
56	0xbc402cf5	-0.011729469
57	0xbc7b7a21	-0.015348942
58	0xbc8295c7	-0.01594056
59	0xbcf9201c	-0.030410819
60	0xbbf32e1c	-0.007421268
61	0xbc53e5e4	-0.012933228
62	0xbc235bc3	-0.009970608
63	0xbb984425	-0.0046467953
64	0xba7b6548	-0.0009589982
65	0xba6df342	-0.0009077081
66	0x3bc649e1	0.0060512875
67	0xbb02c8f9	-0.0019956215
68	0x3921be48	0.00015425042
69	0xbb71c9cf	-0.003689397
70	0xbb9a7d71	-0.004714661
71	0xbc51ce2d	-0.012805504
72	0xbc3fbaf0	-0.011702284
73	0xbb931630	-0.004488729
74	0xbb28ab26	-0.0025736778
75	0xbba9c715	-0.005181203
76	0xbc4a42f7	-0.012345067
77	0xbc5690ef	-0.013096078
78	0xbbd5bf40	-0.006523043
79	0xbb3de9d3	-0.0028978481
80	0x3ad81fe3	0.0016488995
81	0x39d8aed0	0.00041328976
82	0xbc14deee	-0.009086354
83	0xbb77b483	-0.0037796802
84	0xba8deeca	-0.0010828611
85	0xba960498	-0.0011445461
86	0xba932cbd	-0.0011228543
87	0x3b611b3f	0.0034348515
88	0xbb28edd8	-0.0025776532
89	0xbb2ceb53	-0.0026385381
90	0x3ac5a9a7	0.0015080468
91	0x3a5b0468	0.00083548436
92	0xbc017d0e	-0.0079033505
93	0xbb6f098e	-0.00364742
94	0x3a07a238	0.0005174014
95	0x3ae56405	0.0017501122
96	0x3a11c4ac	0.00055606174
97	0xbb9ac0ef	-0.0047227065
98	0xbbcf5ab4	-0.0063279513
99	0xb9545880	-0.00020250864
100	0xbc282e03	-0.010264876
101	0xbc176a01	-0.009241582
102	0xbbe9774c	-0.007124817
103	0xbc14e326	-0.0090873595
104	0xbc35e9d2	-0.01110311
105	0x3ade5334	0.0016962052
106	0x398cd1d2	0.0002685921
107	0xbb78ce22	-0.0037964662
108	0xba3c6551	-0.0007186728
109	0xba97d57e	-0.0011584011
110	0xbc39e8c7	-0.011347002
111	0xbc34f93a	-0.011045748
112	0xbc0c5ffc	-0.008567806
113	0xbc25d196	-0.01012077
114	0xbc3abc0c	-0.011397373
115	0xbc3931b6	-0.011303356
116	0xbc56b7b6	-0.013105324
117	0xbc043660	-0.008069605
118	0xbc1b812e	-0.009491248
119	0xbc36f0f6	-0.011165848
120	0x3b8afb52	0.0042413855
121	0x3b525cd4	0.0032098787
122	0xb87c2160	-6.0112565e-05
123	0xbb37422c	-0.0027963025
124	0xbb3ff8e4	-0.0029292637
125	0xbb8ad3d0	-0.004236676
126	0x3abc0b40	0.0014346614
127	0x3b9b34ff	0.0047365422
128	0x3b3f3214	0.0029174136
129	0x3ba66529	0.005077977
130	0x3ab54055	0.0013828377
131	0x3ab7286c	0.0013973839
132	0xbb376898	-0.0027985927
133	0xbb6bc35e	-0.0035974602
134	0xbb0500d0	-0.0020294674
135	0x3a3bc567	0.0007162899
136	0x3b67b2eb	0.0035354446
137	0xbad599b0	-0.0016296413
138	0xbb8deeda	-0.004331452
139	0xbb17d2b4	-0.002316636
140	0x3c8b0b4a	0.016973156
141	0x3bd382a3	0.006454782
142	0x3b9d025c	0.004791541
143	0x3af072b8	0.0018344736
144	0x3b2e7999	0.002662277
145	0x3a7e59dc	0.0009702721
146	0x3bff89a7	0.007798392
147	0x3c732b9e	0.014841942
148	0x3c51106b	0.012760262
149	0x3c6b253d	0.01435214
150	0x3c8a7667	0.016902162
151	0x3bd52150	0.0065042153
152	0x3b989f9e	0.0046576997
153	0x3a87be80	0.0010356456
154	0x3a216190	0.00061562005
155	0x3c9a9a09	0.018872278
156	0x3c18dd49	0.009330102
157	0x3ba9af68	0.0051783808
158	0x3b4a9ea8	0.003091732
159	0x39be5f18	0.00036310474
160	0x3b71f64f	0.0036920493
161	0x3b3d4e1c	0.0028885668
162	0x3bbc0186	0.0057374863
163	0x3bf624b2	0.0075116986
164	0x3bc8fb24	0.006133454
165	0x3c1c9604	0.009557251
166	0x3b807966	0.003920722
167	0x3bbf857c	0.00584477
168	0x39e2d68c	0.0004326593
169	0x3c011674	0.007878888
170	0x3b712448	0.0036795307
171	0x3b883010	0.00415612
172	0x3b45a712	0.0030159396
173	0x3bcaa9b2	0.00618478
174	0x3b7ad1a5	0.003827193
175	0x3a86fc01	0.0010298492
176	0x3b1c5263	0.0023852817
177	0x3b8f7359	0.004377764
178	0x3b90a021	0.00441362
179	0x3bdbbf4d	0.0067061544
180	0x3b672b04	0.0035273442
181	0x3b96eac3	0.0046056225
182	0x3b029e68	0.0019930843
183	0x3adde22d	0.0016928368
184	0x3a518112	0.000799195
185	0x3c1c0217	0.009521983
186	0x3c480d25	0.012210165
187	0x3ccb00e2	0.024780694
188	0x3d059054	0.032608345
189	0x3cd61112	0.026131187
190	0xbabc3e18	-0.0014361767
191	0x3b28fbb0	0.0025784783
192	0x3ab3d2ac	0.0013719401
193	0x39595178	0.00020725082
194	0xb9caba50	-0.00038667256
195	0xbac65941	-0.0015132801
196	0x3b3ea8d0	0.002909232
197	0x3b78d883	0.0037970848
198	0x394b7f40	0.00019406993
199	0xba542fdd	-0.00080942904
200	0xbb25b37b	-0.002528398
201	0xbbb23754	-0.0054387245
202	0xbb52651f	-0.003210373
203	0xb9fb2ca4	-0.0004790771
204	0xbbd094b8	-0.006365385
205	0xbbd10acc	-0.006379461
206	0x3a8deede	0.0010828634
207	0xbb41eed7	-0.0029591823
208	0xbb15efb0	-0.002287846
209	0x3b4ccc19	0.0031249581
210	0xbba2de4a	-0.0049703466
211	0xbc0061bf	-0.0078358045
212	0xbbdce776	-0.0067414595
213	0xbace7bcc	-0.0015753447
214	0xbbf6018a	-0.0075075077
215	0xbbc96d8a	-0.0061470913
216	0xbc1315e6	-0.008977389
217	0xbbee6d27	-0.0072761956
218	0xba9f5e05	-0.0012158757
219	0xbbf521bf	-0.0074808295
220	0xbb83e7fc	-0.0040254574
221	0xbc2bba6a	-0.010481456
222	0xbc99e8e0	-0.018787801
223	0xbbd31442	-0.006441624
224	0xbbbf90bc	-0.005846111
225	0xbc43af5a	-0.011943663
226	0xbbd02bc0	-0.0063528717
227	0xba9af99e	-0.0011823659
228	0xbc46c309	-0.012131461
229	0xbbeecdd0	-0.0072877184
230	0xbb5e71b6	-0.0033942289
231	0xbc0db197	-0.008648298
232	0xbc875e19	-0.016524361
233	0xbc056382	-0.0081414
234	0xbbb8d020	-0.005640045
235	0xbb7fb558	-0.0039018001
236	0xbc272cb2	-0.010203527
237	0xbca467ca	-0.020069022
238	0xbc36bc52	-0.0111532975
239	0xbbe4225a	-0.006962103
240	0xbc0b401e	-0.008499173
241	0xb8fa3e51	-0.00011932536
242	0x3a107840	0.00055110827
243	0xbbeaf162	-0.0071698884
244	0xbb08184c	-0.0020766435
245	0xbc73eb26	-0.014887607
246	0xbc398c06	-0.011324888
247	0xbb0ea01d	-0.0021762915
248	0x3b1ec188	0.002422424
249	0xbad4c169	-0.0016231957
250	0xbbd9f820	-0.0066518933
251	0xbb3b6d14	-0.0028598951
252	0x3a5816d4	0.0008243148
253	0xbbb653de	-0.005564197
254	0xbb80da31	-0.0039322604
255	0xbb9d8d69	-0.004808117

momentum_buffer f4 [16]
0	0x3c2ec07c	0.010666009
1	0xbcb5be48	-0.02218546
2	0xbd413d37	-0.04717752
3	0xbba951a6	-0.005167204
4	0xbbb10230	-0.005401872
5	0x3b2f583e	0.0026755477
6	0x3b8556ad	0.0040691704
7	0x3d20710d	0.039170314
8	0x3cab726f	0.02092859
9	0x3d00f30d	0.03148179
10	0xbc82c822	-0.015964571
11	0xbd0ef074	-0.034897283
12	0xbd07b2f9	-0.033129666
13	0xbccc0c20	-0.024908125
14	0x3cd41680	0.025889635
15	0xbc8554eb	-0.016275844
