trained_custom/checkpoints/energy_profiling/input_data_size/ep_v1.25_256_epidenet_b_v3.2_qat_best-q.pth.tar (torch, 83087 bytes, 26 tensors)

block1_conv1d_bn_relu_1.op.weight f4 [4, 1, 4]
00000000: 0000 80bf 0000 1c42 0000 70c2 0000 58c2
00000010: 0000 f8c1 0000 f841 0000 80bf 0000 9842
00000020: 0000 50c2 0000 1842 0000 2cc2 0000 c8c1
00000030: 0000 20c2 0000 e0c1 0000 88c1 0000 803f
-1.0 39.0 -60.0 -54.0 -31.0 31.0 -1.0 76.0
-52.0 38.0 -43.0 -25.0 -40.0 -28.0 -17.0 1.0

block1_conv1d_bn_relu_1.op.bias f4 [4]
00000000: 0000 8043 0000 00c3 0000 8043 0000 8043
256.0 -128.0 256.0 256.0

block2_conv1d_bn_relu_1.op.weight f4 [16, 4, 5]
00000000: 0000 9041 0000 1442 0000 e0c0 0000 1042
00000010: 0000 c0c0 0000 e040 0000 3042 0000 24c2
00000020: 0000 e0c1 0000 30c1 0000 88c1 0000 1842
00000030: 0000 e0c1 0000 a0c1 0000 f8c1 0000 24c2
00000040: 0000 d8c1 0000 2442 0000 b841 0000 b841
00000050: 0000 803f 0000 a8c1 0000 0041 0000 2cc2
00000060: 0000 00c2 0000 c8c1 0000 c841 0000 e841
00000070: 0000 a8c1 0000 40c0 0000 e041 0000 4442
00000080: 0000 a041 0000 c040 0000 0042 0000 e8c1
00000090: 0000 3041 0000 04c2 0000 00c2 0000 b0c1
000000a0: 0000 9041 0000 8041 0000 b0c1 0000 6041
000000b0: 0000 a841 0000 80c0 0000 4040 0000 0041
000000c0: 0000 b041 0000 1042 0000 d8c1 0000 40c1
000000d0: 0000 9041 0000 1042 0000 0c42 0000 1042
000000e0: 0000 2041 0000 f8c1 0000 e040 0000 b8c1
000000f0: 0000 14c2 0000 0442 0000 c841 0000 20c2
00000100: 0000 0041 0000 80bf 0000 e0c0 0000 80c1
00000110: 0000 9041 0000 a0c1 0000 5041 0000 9841
00000120: 0000 d041 0000 5041 0000 14c2 0000 d0c1
00000130: 0000 9841 0000 e040 0000 00c2 0000 b0c1
00000140: 0000 3c42 0000 f841 0000 d0c1 0000 88c1
00000150: 0000 54c2 0000 0000 0000 24c2 0000 2cc2
00000160: 0000 00c0 0000 3041 0000 c8c1 0000 d041
00000170: 0000 0cc2 0000 3442 0000 0842 0000 3cc2
00000180: 0000 98c1 0000 80bf 0000 a040 0000 2041
00000190: 0000 9041 0000 4040 0000 a8c1 0000 9841
000001a0: 0000 28c2 0000 c8c1 0000 40c1 0000 a8c1
000001b0: 0000 70c1 0000 08c2 0000 00c1 0000 2041
000001c0: 0000 e0c1 0000 00c0 0000 e841 0000 80c0
000001d0: 0000 0040 0000 80c0 0000 1041 0000 d041
000001e0: 0000 5042 0000 f841 0000 4842 0000 80c0
000001f0: 0000 4cc2 0000 e0c1 0000 1042 0000 8040
00000200: 0000 e0c1 0000 3cc2 0000 48c2 0000 44c2
00000210: 0000 60c1 0000 f841 0000 e841 0000 48c2
00000220: 0000 0042 0000 38c2 0000 30c1 0000 b8c1
00000230: 0000 00c1 0000 a0c0 0000 00c2 0000 04c2
00000240: 0000 c0c0 0000 00c0 0000 a8c1 0000 2041
00000250: 0000 10c2 0000 c0c0 0000 0042 0000 60c1
00000260: 0000 0c42 0000 4041 0000 08c2 0000 b041
00000270: 0000 40c0 0000 70c1 0000 e841 0000 f8c1
00000280: 0000 0000 0000 a0c1 0000 4042 0000 2041
00000290: 0000 f841 0000 c841 0000 90c1 0000 88c1
000002a0: 0000 8ec2 0000 e841 0000 5c42 0000 4042
000002b0: 0000 70c2 0000 c0c0 0000 68c2 0000 34c2
000002c0: 0000 3cc2 0000 b041 0000 5cc2 0000 00c1
000002d0: 0000 803f 0000 9041 0000 c0c1 0000 a8c1
000002e0: 0000 90c1 0000 a041 0000 20c1 0000 c041
000002f0: 0000 1041 0000 4040 0000 0000 0000 e0c0
00000300: 0000 4040 0000 00c1 0000 80bf 0000 8040
00000310: 0000 c0c1 0000 88c1 0000 c041 0000 c8c1
00000320: 0000 80c0 0000 1042 0000 6041 0000 0040
00000330: 0000 08c2 0000 a841 0000 e0c1 0000 50c1
00000340: 0000 60c1 0000 a0c0 0000 0000 0000 f841
00000350: 0000 c040 0000 1042 0000 b841 0000 c8c1
00000360: 0000 8041 0000 d8c1 0000 70c1 0000 3041
00000370: 0000 8841 0000 2c42 0000 80c1 0000 803f
00000380: 0000 1842 0000 4cc2 0000 5042 0000 64c2
00000390: 0000 8040 0000 80c0 0000 14c2 0000 8040
000003a0: 0000 6442 0000 80c1 0000 08c2 0000 d0c1
000003b0: 0000 8ac2 0000 0042 0000 d8c1 0000 1cc2
000003c0: 0000 d8c1 0000 e841 0000 e841 0000 1842
000003d0: 0000 8841 0000 b8c1 0000 50c1 0000 4041
000003e0: 0000 2042 0000 6041 0000 c0c1 0000 d8c1
000003f0: 0000 48c2 0000 e040 0000 04c2 0000 34c2
18.0 37.0 -7.0 36.0 -6.0 7.0 44.0 -41.0
-28.0 -11.0 -17.0 38.0 -28.0 -20.0 -31.0 -41.0
-27.0 41.0 23.0 23.0 1.0 -21.0 8.0 -43.0
-32.0 -25.0 25.0 29.0 -21.0 -3.0 28.0 49.0
20.0 6.0 32.0 -29.0 11.0 -33.0 -32.0 -22.0
18.0 16.0 -22.0 14.0 21.0 -4.0 3.0 8.0
22.0 36.0 -27.0 -12.0 18.0 36.0 35.0 36.0
10.0 -31.0 7.0 -23.0 -37.0 33.0 25.0 -40.0
8.0 -1.0 -7.0 -16.0 18.0 -20.0 13.0 19.0
26.0 13.0 -37.0 -26.0 19.0 7.0 -32.0 -22.0
47.0 31.0 -26.0 -17.0 -53.0 0.0 -41.0 -43.0
-2.0 11.0 -25.0 26.0 -35.0 45.0 34.0 -47.0
-19.0 -1.0 5.0 10.0 18.0 3.0 -21.0 19.0
-42.0 -25.0 -12.0 -21.0 -15.0 -34.0 -8.0 10.0
-28.0 -2.0 29.0 -4.0 2.0 -4.0 9.0 26.0
52.0 31.0 50.0 -4.0 -51.0 -28.0 36.0 4.0
-28.0 -47.0 -50.0 -49.0 -14.0 31.0 29.0 -50.0
32.0 -46.0 -11.0 -23.0 -8.0 -5.0 -32.0 -33.0
-6.0 -2.0 -21.0 10.0 -36.0 -6.0 32.0 -14.0
35.0 12.0 -34.0 22.0 -3.0 -15.0 29.0 -31.0
0.0 -20.0 48.0 10.0 31.0 25.0 -18.0 -17.0
-71.0 29.0 55.0 48.0 -60.0 -6.0 -58.0 -45.0
-47.0 22.0 -55.0 -8.0 1.0 18.0 -24.0 -21.0
-18.0 20.0 -10.0 24.0 9.0 3.0 0.0 -7.0
3.0 -8.0 -1.0 4.0 -24.0 -17.0 24.0 -25.0
-4.0 36.0 14.0 2.0 -34.0 21.0 -28.0 -13.0
-14.0 -5.0 0.0 31.0 6.0 36.0 23.0 -25.0
16.0 -27.0 -15.0 11.0 17.0 43.0 -16.0 1.0
38.0 -51.0 52.0 -57.0 4.0 -4.0 -37.0 4.0
57.0 -16.0 -34.0 -26.0 -69.0 32.0 -27.0 -39.0
-27.0 29.0 29.0 38.0 17.0 -23.0 -13.0 12.0
40.0 14.0 -24.0 -27.0 -50.0 7.0 -33.0 -45.0

block2_conv1d_bn_relu_1.op.bias f4 [16]
00000000: 0000 80c3 0000 8044 0000 10c5 0000 8044
00000010: 0000 e044 0000 e044 0000 0045 0000 f044
00000020: 0000 0845 0000 6044 0000 80c3 0000 0845
00000030: 0000 8043 0000 8043 0000 0044 0000 f0c4
-256.0 1024.0 -2304.0 1024.0 1792.0 1792.0 2048.0 1920.0
2176.0 896.0 -256.0 2176.0 256.0 256.0 512.0 -1920.0

block2_conv1d_bn_relu_2.op.weight f4 [16, 16, 5]
00000000: 0000 98c1 0000 9841 0000 d0c1 0000 5041
00000010: 0000 d8c1 0000 10c2 0000 04c2 0000 e041
00000020: 0000 a041 0000 3042 0000 d841 0000 24c2
00000030: 0000 f8c1 0000 20c1 0000 e8c1 0000 d041
00000040: 0000 14c2 0000 e0c1 0000 14c2 0000 98c1
00000050: 0000 0842 0000 0842 0000 f041 0000 0842
00000060: 0000 1842 0000 00c1 0000 9041 0000 0042
00000070: 0000 2041 0000 2442 0000 c841 0000 b841
00000080: 0000 a0c1 0000 7041 0000 a040 0000 c0c0
00000090: 0000 d0c1 0000 e0c1 0000 08c2 0000 f041
000000a0: 0000 0c42 0000 80c0 0000 d0c1 0000 f041
000000b0: 0000 e041 0000 c040 0000 90c1 0000 1842
000000c0: 0000 9041 0000 d8c1 0000 f841 0000 d841
000000d0: 0000 80c1 0000 c841 0000 b0c1 0000 a0c0
000000e0: 0000 f841 0000 40c0 0000 e8c1 0000 50c1
000000f0: 0000 50c1 0000 20c1 0000 803f 0000 1c42
00000100: 0000 a040 0000 90c1 0000 c040 0000 a041
00000110: 0000 a041 0000 10c2 0000 e0c0 0000 00c2
00000120: 0000 a8c1 0000 7041 0000 d0c1 0000 1041
00000130: 0000 0042 0000 0040 0000 e8c1 0000 88c1
00000140: 0000 2041 0000 1cc2 0000 b841 0000 40c2
00000150: 0000 3cc2 0000 48c2 0000 20c1 0000 1442
00000160: 0000 38c2 0000 2842 0000 a0c1 0000 5041
00000170: 0000 4040 0000 30c2 0000 2842 0000 e041
00000180: 0000 5442 0000 c041 0000 14c2 0000 2042
00000190: 0000 8040 0000 c841 0000 20c2 0000 80c1
000001a0: 0000 40c2 0000 98c1 0000 4041 0000 1cc2
000001b0: 0000 6041 0000 e041 0000 c040 0000 10c2
000001c0: 0000 20c2 0000 88c1 0000 c041 0000 4c42
000001d0: 0000 0442 0000 c0c0 0000 7041 0000 48c2
000001e0: 0000 2cc2 0000 b041 0000 e0c1 0000 c041
000001f0: 0000 10c2 0000 d8c1 0000 28c2 0000 d841
00000200: 0000 40c0 0000 2442 0000 f041 0000 d841
00000210: 0000 803f 0000 90c1 0000 10c1 0000 0041
00000220: 0000 d841 0000 10c2 0000 2842 0000 a0c0
00000230: 0000 28c2 0000 c8c1 0000 3442 0000 2c42
00000240: 0000 28c2 0000 1042 0000 b041 0000 d841
00000250: 0000 1c42 0000 b8c1 0000 6041 0000 9041
00000260: 0000 98c1 0000 6041 0000 50c1 0000 f041
00000270: 0000 80c1 0000 b0c1 0000 2041 0000 8841
00000280: 0000 88c1 0000 0040 0000 a041 0000 00c0
00000290: 0000 6041 0000 20c1 0000 3041 0000 e0c1
000002a0: 0000 c0c1 0000 98c1 0000 0442 0000 40c1
000002b0: 0000 0000 0000 98c1 0000 1442 0000 1042
000002c0: 0000 e8c1 0000 f8c1 0000 e0c1 0000 0000
000002d0: 0000 20c1 0000 d0c1 0000 60c1 0000 e040
000002e0: 0000 90c1 0000 e040 0000 10c1 0000 90c1
000002f0: 0000 a040 0000 f041 0000 c8c1 0000 803f
00000300: 0000 60c1 0000 1442 0000 0cc2 0000 10c2
00000310: 0000 1042 0000 c0c1 0000 c040 0000 80c0
00000320: 0000 00c1 0000 10c1 0000 c041 0000 0040
00000330: 0000 08c2 0000 b8c1 0000 60c1 0000 8841
00000340: 0000 d0c1 0000 1042 0000 10c1 0000 00c1
00000350: 0000 d041 0000 8841 0000 f841 0000 a841
00000360: 0000 40c1 0000 c8c1 0000 00c0 0000 f841
00000370: 0000 40c1 0000 0cc2 0000 8041 0000 1442
00000380: 0000 10c1 0000 f0c1 0000 04c2 0000 2041
00000390: 0000 80c0 0000 98c1 0000 e040 0000 5041
000003a0: 0000 f841 0000 e841 0000 e0c0 0000 00c2
000003b0: 0000 04c2 0000 0c42 0000 8841 0000 8041
000003c0: 0000 28c2 0000 2442 0000 2c42 0000 2842
000003d0: 0000 1cc2 0000 80c1 0000 e8c1 0000 3c42
000003e0: 0000 98c1 0000 98c1 0000 0042 0000 90c1
000003f0: 0000 a0c1 0000 80bf 0000 80bf 0000 14c2
-19.0 19.0 -26.0 13.0 -27.0 -36.0 -33.0 28.0
20.0 44.0 27.0 -41.0 -31.0 -10.0 -29.0 26.0
-37.0 -28.0 -37.0 -19.0 34.0 34.0 30.0 34.0
38.0 -8.0 18.0 32.0 10.0 41.0 25.0 23.0
-20.0 15.0 5.0 -6.0 -26.0 -28.0 -34.0 30.0
35.0 -4.0 -26.0 30.0 28.0 6.0 -18.0 38.0
18.0 -27.0 31.0 27.0 -16.0 25.0 -22.0 -5.0
31.0 -3.0 -29.0 -13.0 -13.0 -10.0 1.0 39.0
5.0 -18.0 6.0 20.0 20.0 -36.0 -7.0 -32.0
-21.0 15.0 -26.0 9.0 32.0 2.0 -29.0 -17.0
10.0 -39.0 23.0 -48.0 -47.0 -50.0 -10.0 37.0
-46.0 42.0 -20.0 13.0 3.0 -44.0 42.0 28.0
53.0 24.0 -37.0 40.0 4.0 25.0 -40.0 -16.0
-48.0 -19.0 12.0 -39.0 14.0 28.0 6.0 -36.0
-40.0 -17.0 24.0 51.0 33.0 -6.0 15.0 -50.0
-43.0 22.0 -28.0 24.0 -36.0 -27.0 -42.0 27.0
-3.0 41.0 30.0 27.0 1.0 -18.0 -9.0 8.0
27.0 -36.0 42.0 -5.0 -42.0 -25.0 45.0 43.0
-42.0 36.0 22.0 27.0 39.0 -23.0 14.0 18.0
-19.0 14.0 -13.0 30.0 -16.0 -22.0 10.0 17.0
-17.0 2.0 20.0 -2.0 14.0 -10.0 11.0 -28.0
-24.0 -19.0 33.0 -12.0 0.0 -19.0 37.0 36.0
-29.0 -31.0 -28.0 0.0 -10.0 -26.0 -14.0 7.0
-18.0 7.0 -9.0 -18.0 5.0 30.0 -25.0 1.0
-14.0 37.0 -35.0 -36.0 36.0 -24.0 6.0 -4.0
-8.0 -9.0 24.0 2.0 -34.0 -23.0 -14.0 17.0
-26.0 36.0 -9.0 -8.0 26.0 17.0 31.0 21.0
-12.0 -25.0 -2.0 31.0 -12.0 -35.0 16.0 37.0
-9.0 -30.0 -33.0 10.0 -4.0 -19.0 7.0 13.0
31.0 29.0 -7.0 -32.0 -33.0 35.0 17.0 16.0
-42.0 41.0 43.0 42.0 -39.0 -16.0 -29.0 47.0
-19.0 -19.0 32.0 -18.0 -20.0 -1.0 -1.0 -37.0

block2_conv1d_bn_relu_2.op.bias f4 [16]
00000000: 0000 a0c4 0000 c043 0000 c044 0000 90c4
00000010: 0000 10c5 0000 00c4 0000 06c6 0000 0845
00000020: 0000 1845 0000 e045 0000 6845 0000 40c5
00000030: 0000 c0c4 0000 7845 0000 18c5 0000 c044
-1280.0 384.0 1536.0 -1152.0 -2304.0 -512.0 -8576.0 2176.0
2432.0 7168.0 3712.0 -3072.0 -1536.0 3968.0 -2432.0 1536.0

block2_conv1d_bn_relu_3.op.weight f4 [16, 16, 5]
00000000: 0000 8ac2 0000 78c2 0000 0442 0000 7042
00000010: 0000 8040 0000 3cc2 0000 2442 0000 4040
00000020: 0000 b0c2 0000 64c2 0000 4041 0000 3442
00000030: 0000 3cc2 0000 0442 0000 70c2 0000 a042
00000040: 0000 7842 0000 2041 0000 f841 0000 6041
00000050: 0000 6cc2 0000 c0c0 0000 c041 0000 e0c1
00000060: 0000 9242 0000 08c2 0000 a8c2 0000 40c2
00000070: 0000 aec2 0000 8e42 0000 3cc2 0000 92c2
00000080: 0000 d0c1 0000 9cc2 0000 74c2 0000 2442
00000090: 0000 94c2 0000 f041 0000 5842 0000 80c1
000000a0: 0000 3842 0000 14c2 0000 8a42 0000 a842
000000b0: 0000 a841 0000 c242 0000 acc2 0000 00c1
000000c0: 0000 9841 0000 94c2 0000 4042 0000 e0c1
000000d0: 0000 f8c1 0000 74c2 0000 3442 0000 98c2
000000e0: 0000 c8c1 0000 1c42 0000 8642 0000 6041
000000f0: 0000 24c2 0000 24c2 0000 4c42 0000 e040
00000100: 0000 8842 0000 f841 0000 8442 0000 98c2
00000110: 0000 9242 0000 48c2 0000 b0c1 0000 80c0
00000120: 0000 d8c1 0000 8040 0000 8c42 0000 34c2
00000130: 0000 1842 0000 8cc2 0000 6041 0000 9042
00000140: 0000 2442 0000 4842 0000 0842 0000 40c0
00000150: 0000 8041 0000 c8c1 0000 2042 0000 b041
00000160: 0000 2cc2 0000 4042 0000 00c0 0000 60c1
00000170: 0000 b0c1 0000 80c1 0000 0040 0000 e8c1
00000180: 0000 5cc2 0000 f8c1 0000 80c1 0000 1842
00000190: 0000 1442 0000 10c2 0000 80bf 0000 70c1
000001a0: 0000 04c2 0000 20c1 0000 b0c1 0000 c841
000001b0: 0000 f8c1 0000 8040 0000 04c2 0000 98c1
000001c0: 0000 2042 0000 00c2 0000 00c1 0000 4042
000001d0: 0000 4041 0000 08c2 0000 0cc2 0000 a0c1
000001e0: 0000 40c1 0000 c041 0000 40c1 0000 4442
000001f0: 0000 c0c1 0000 80c1 0000 2041 0000 0042
00000200: 0000 4c42 0000 4041 0000 c040 0000 a0c1
00000210: 0000 e041 0000 18c2 0000 50c1 0000 1cc2
00000220: 0000 40c2 0000 1042 0000 a040 0000 3042
00000230: 0000 4c42 0000 e841 0000 c841 0000 80c1
00000240: 0000 d841 0000 c041 0000 7041 0000 a0c0
00000250: 0000 a040 0000 00c0 0000 20c2 0000 2041
00000260: 0000 2cc2 0000 c041 0000 0cc2 0000 60c1
00000270: 0000 f8c1 0000 2442 0000 24c2 0000 e841
00000280: 0000 f841 0000 2842 0000 3041 0000 0442
00000290: 0000 5442 0000 7041 0000 b841 0000 4cc2
000002a0: 0000 a8c1 0000 8040 0000 8040 0000 c8c1
000002b0: 0000 82c2 0000 40c1 0000 f841 0000 5842
000002c0: 0000 74c2 0000 f841 0000 80c2 0000 74c2
000002d0: 0000 24c2 0000 30c1 0000 8041 0000 50c2
000002e0: 0000 5042 0000 7842 0000 e040 0000 5442
000002f0: 0000 f0c1 0000 e8c1 0000 e0c0 0000 0041
00000300: 0000 3cc2 0000 5cc2 0000 c841 0000 5041
00000310: 0000 7442 0000 e0c1 0000 b841 0000 d0c1
00000320: 0000 0442 0000 a0c0 0000 5442 0000 2042
00000330: 0000 6c42 0000 e041 0000 0000 0000 6442
00000340: 0000 18c2 0000 7c42 0000 8842 0000 8842
00000350: 0000 00c2 0000 08c2 0000 c040 0000 c841
00000360: 0000 0842 0000 e041 0000 7042 0000 88c1
00000370: 0000 a8c1 0000 a041 0000 6041 0000 28c2
00000380: 0000 8040 0000 48c2 0000 a8c1 0000 e8c1
00000390: 0000 6442 0000 70c2 0000 1cc2 0000 80c2
000003a0: 0000 9841 0000 44c2 0000 c841 0000 34c2
000003b0: 0000 24c2 0000 f8c1 0000 7041 0000 8242
000003c0: 0000 ac42 0000 90c1 0000 c6c2 0000 24c2
000003d0: 0000 40c2 0000 803f 0000 0c42 0000 3442
000003e0: 0000 b841 0000 e040 0000 d8c1 0000 80bf
000003f0: 0000 9841 0000 20c2 0000 4040 0000 20c1
-69.0 -62.0 33.0 60.0 4.0 -47.0 41.0 3.0
-88.0 -57.0 12.0 45.0 -47.0 33.0 -60.0 80.0
62.0 10.0 31.0 14.0 -59.0 -6.0 24.0 -28.0
73.0 -34.0 -84.0 -48.0 -87.0 71.0 -47.0 -73.0
-26.0 -78.0 -61.0 41.0 -74.0 30.0 54.0 -16.0
46.0 -37.0 69.0 84.0 21.0 97.0 -86.0 -8.0
19.0 -74.0 48.0 -28.0 -31.0 -61.0 45.0 -76.0
-25.0 39.0 67.0 14.0 -41.0 -41.0 51.0 7.0
68.0 31.0 66.0 -76.0 73.0 -50.0 -22.0 -4.0
-27.0 4.0 70.0 -45.0 38.0 -70.0 14.0 72.0
41.0 50.0 34.0 -3.0 16.0 -25.0 40.0 22.0
-43.0 48.0 -2.0 -14.0 -22.0 -16.0 2.0 -29.0
-55.0 -31.0 -16.0 38.0 37.0 -36.0 -1.0 -15.0
-33.0 -10.0 -22.0 25.0 -31.0 4.0 -33.0 -19.0
40.0 -32.0 -8.0 48.0 12.0 -34.0 -35.0 -20.0
-12.0 24.0 -12.0 49.0 -24.0 -16.0 10.0 32.0
51.0 12.0 6.0 -20.0 28.0 -38.0 -13.0 -39.0
-48.0 36.0 5.0 44.0 51.0 29.0 25.0 -16.0
27.0 24.0 15.0 -5.0 5.0 -2.0 -40.0 10.0
-43.0 24.0 -35.0 -14.0 -31.0 41.0 -41.0 29.0
31.0 42.0 11.0 33.0 53.0 15.0 23.0 -51.0
-21.0 4.0 4.0 -25.0 -65.0 -12.0 31.0 54.0
-61.0 31.0 -64.0 -61.0 -41.0 -11.0 16.0 -52.0
52.0 62.0 7.0 53.0 -30.0 -29.0 -7.0 8.0
-47.0 -55.0 25.0 13.0 61.0 -28.0 23.0 -26.0
33.0 -5.0 53.0 40.0 59.0 28.0 0.0 57.0
-38.0 63.0 68.0 68.0 -32.0 -34.0 6.0 25.0
34.0 28.0 60.0 -17.0 -21.0 20.0 14.0 -42.0
4.0 -50.0 -21.0 -29.0 57.0 -60.0 -39.0 -64.0
19.0 -49.0 25.0 -45.0 -41.0 -31.0 15.0 65.0
86.0 -18.0 -99.0 -41.0 -48.0 1.0 35.0 45.0
23.0 7.0 -27.0 -1.0 19.0 -40.0 3.0 -10.0

block2_conv1d_bn_relu_3.op.bias f4 [16]
00000000: 0000 1045 0000 c0c3 0000 d0c4 0000 8043
00000010: 0000 9cc5 0000 6045 0000 e045 0000 50c5
00000020: 0000 d0c5 0000 e044 0000 b045 0000 a045
00000030: 0000 1845 0000 c845 0000 4845 0000 2044
2304.0 -384.0 -1664.0 256.0 -4992.0 3584.0 7168.0 -3328.0
-6656.0 1792.0 5632.0 5120.0 2432.0 6400.0 3200.0 640.0

block2_conv1d_bn_relu_4.op.weight f4 [16, 16, 4]
00000000: 0000 88c1 0000 1041 0000 40c0 0000 8040
00000010: 0000 d041 0000 14c2 0000 2c42 0000 0842
00000020: 0000 80c0 0000 b0c1 0000 3041 0000 f0c1
00000030: 0000 0c42 0000 c0c1 0000 4041 0000 24c2
00000040: 0000 f041 0000 2042 0000 3042 0000 3041
00000050: 0000 d841 0000 6041 0000 d841 0000 c841
00000060: 0000 30c2 0000 0000 0000 88c1 0000 b8c1
00000070: 0000 f041 0000 e0c0 0000 e040 0000 0042
00000080: 0000 2042 0000 f841 0000 00c0 0000 10c2
00000090: 0000 38c2 0000 7041 0000 803f 0000 d8c1
000000a0: 0000 8841 0000 2042 0000 d041 0000 c0c0
000000b0: 0000 a040 0000 04c2 0000 a041 0000 10c2
000000c0: 0000 0442 0000 c8c1 0000 b0c1 0000 24c2
000000d0: 0000 40c1 0000 e0c0 0000 e0c1 0000 e041
000000e0: 0000 c041 0000 2cc2 0000 00c1 0000 7041
000000f0: 0000 3042 0000 70c1 0000 d041 0000 80c0
00000100: 0000 04c2 0000 2442 0000 94c2 0000 8842
00000110: 0000 9042 0000 0cc2 0000 7041 0000 7042
00000120: 0000 d041 0000 0042 0000 9841 0000 28c2
00000130: 0000 0040 0000 50c2 0000 d841 0000 30c2
00000140: 0000 a041 0000 30c1 0000 3c42 0000 8040
00000150: 0000 2442 0000 90c1 0000 30c2 0000 c841
00000160: 0000 64c2 0000 8ac2 0000 c041 0000 3cc2
00000170: 0000 f8c1 0000 b8c1 0000 0041 0000 e0c1
00000180: 0000 18c2 0000 b0c1 0000 4c42 0000 e041
00000190: 0000 24c2 0000 74c2 0000 50c1 0000 4041
000001a0: 0000 c0c0 0000 1842 0000 6842 0000 8041
000001b0: 0000 a841 0000 2042 0000 04c2 0000 4041
000001c0: 0000 2042 0000 38c2 0000 10c1 0000 24c2
000001d0: 0000 86c2 0000 f041 0000 6c42 0000 2cc2
000001e0: 0000 0442 0000 f841 0000 0442 0000 2042
000001f0: 0000 7042 0000 4442 0000 8ec2 0000 04c2
00000200: 0000 1c42 0000 04c2 0000 1041 0000 e8c1
00000210: 0000 0041 0000 b041 0000 3041 0000 2842
00000220: 0000 30c1 0000 0442 0000 9041 0000 a8c1
00000230: 0000 4cc2 0000 4442 0000 a0c1 0000 1042
00000240: 0000 0442 0000 20c1 0000 7cc2 0000 20c1
00000250: 0000 00c2 0000 6041 0000 c0c1 0000 4042
00000260: 0000 5cc2 0000 70c1 0000 2041 0000 a040
00000270: 0000 3c42 0000 a8c1 0000 50c2 0000 1c42
00000280: 0000 4041 0000 1042 0000 20c2 0000 28c2
00000290: 0000 d0c1 0000 803f 0000 6041 0000 28c2
000002a0: 0000 c0c0 0000 40c1 0000 4c42 0000 c0c1
000002b0: 0000 6c42 0000 18c2 0000 c0c1 0000 40c2
000002c0: 0000 3842 0000 2cc2 0000 e041 0000 b8c1
000002d0: 0000 7042 0000 e040 0000 54c2 0000 2041
000002e0: 0000 8040 0000 74c2 0000 3041 0000 6442
000002f0: 0000 7041 0000 00c0 0000 50c1 0000 9841
00000300: 0000 c0c1 0000 4442 0000 2042 0000 a041
00000310: 0000 a0c1 0000 44c2 0000 f0c1 0000 4c42
00000320: 0000 40c2 0000 48c2 0000 a0c0 0000 8841
00000330: 0000 5cc2 0000 48c2 0000 0000 0000 98c1
00000340: 0000 1042 0000 4041 0000 40c2 0000 48c2
00000350: 0000 0442 0000 20c1 0000 b0c1 0000 8841
00000360: 0000 60c1 0000 e041 0000 6041 0000 c0c1
00000370: 0000 34c2 0000 d041 0000 00c2 0000 c0c0
00000380: 0000 0041 0000 e8c1 0000 d841 0000 14c2
00000390: 0000 3041 0000 c040 0000 9841 0000 58c2
000003a0: 0000 4040 0000 e041 0000 04c2 0000 7041
000003b0: 0000 0040 0000 3042 0000 30c1 0000 803f
000003c0: 0000 b8c1 0000 40c1 0000 9841 0000 44c2
000003d0: 0000 1842 0000 1c42 0000 d041 0000 1c42
000003e0: 0000 98c1 0000 3041 0000 8040 0000 14c2
000003f0: 0000 98c1 0000 90c1 0000 40c1 0000 3cc2
-17.0 9.0 -3.0 4.0 26.0 -37.0 43.0 34.0
-4.0 -22.0 11.0 -30.0 35.0 -24.0 12.0 -41.0
30.0 40.0 44.0 11.0 27.0 14.0 27.0 25.0
-44.0 0.0 -17.0 -23.0 30.0 -7.0 7.0 32.0
40.0 31.0 -2.0 -36.0 -46.0 15.0 1.0 -27.0
17.0 40.0 26.0 -6.0 5.0 -33.0 20.0 -36.0
33.0 -25.0 -22.0 -41.0 -12.0 -7.0 -28.0 28.0
24.0 -43.0 -8.0 15.0 44.0 -15.0 26.0 -4.0
-33.0 41.0 -74.0 68.0 72.0 -35.0 15.0 60.0
26.0 32.0 19.0 -42.0 2.0 -52.0 27.0 -44.0
20.0 -11.0 47.0 4.0 41.0 -18.0 -44.0 25.0
-57.0 -69.0 24.0 -47.0 -31.0 -23.0 8.0 -28.0
-38.0 -22.0 51.0 28.0 -41.0 -61.0 -13.0 12.0
-6.0 38.0 58.0 16.0 21.0 40.0 -33.0 12.0
40.0 -46.0 -9.0 -41.0 -67.0 30.0 59.0 -43.0
33.0 31.0 33.0 40.0 60.0 49.0 -71.0 -33.0
39.0 -33.0 9.0 -29.0 8.0 22.0 11.0 42.0
-11.0 33.0 18.0 -21.0 -51.0 49.0 -20.0 36.0
33.0 -10.0 -63.0 -10.0 -32.0 14.0 -24.0 48.0
-55.0 -15.0 10.0 5.0 47.0 -21.0 -52.0 39.0
12.0 36.0 -40.0 -42.0 -26.0 1.0 14.0 -42.0
-6.0 -12.0 51.0 -24.0 59.0 -38.0 -24.0 -48.0
46.0 -43.0 28.0 -23.0 60.0 7.0 -53.0 10.0
4.0 -61.0 11.0 57.0 15.0 -2.0 -13.0 19.0
-24.0 49.0 40.0 20.0 -20.0 -49.0 -30.0 51.0
-48.0 -50.0 -5.0 17.0 -55.0 -50.0 0.0 -19.0
36.0 12.0 -48.0 -50.0 33.0 -10.0 -22.0 17.0
-14.0 28.0 14.0 -24.0 -45.0 26.0 -32.0 -6.0
8.0 -29.0 27.0 -37.0 11.0 6.0 19.0 -54.0
3.0 28.0 -33.0 15.0 2.0 44.0 -11.0 1.0
-23.0 -12.0 19.0 -49.0 38.0 39.0 26.0 39.0
-19.0 11.0 4.0 -37.0 -19.0 -18.0 -12.0 -47.0

block2_conv1d_bn_relu_4.op.bias f4 [16]
00000000: 0000 a0c4 0000 0000 0000 4044 0000 5845
00000010: 0000 90c4 0000 c0c3 0000 3045 0000 c0c3
00000020: 0000 0646 0000 d045 0000 c044 0000 48c5
00000030: 0000 08c5 0000 4845 0000 94c5 0000 b044
-1280.0 0.0 768.0 3456.0 -1152.0 -384.0 2816.0 -384.0
8576.0 6656.0 1536.0 -3200.0 -2176.0 3200.0 -4736.0 1408.0

block3_conv1d_bn_relu_1.op.weight f4 [16, 16, 8]
00000000: 0000 00c2 0000 a0c1 0000 8040 0000 14c2
00000010: 0000 3041 0000 9841 0000 2442 0000 0442
00000020: 0000 c841 0000 90c1 0000 40c0 0000 f841
00000030: 0000 c841 0000 98c1 0000 4042 0000 40c2
00000040: 0000 e041 0000 5041 0000 e8c1 0000 04c2
00000050: 0000 d841 0000 0042 0000 7041 0000 b8c1
00000060: 0000 3041 0000 8841 0000 c0c0 0000 1042
00000070: 0000 c041 0000 1041 0000 2442 0000 2cc2
00000080: 0000 0cc2 0000 0000 0000 c040 0000 60c1
00000090: 0000 1041 0000 5041 0000 14c2 0000 1041
000000a0: 0000 20c1 0000 0cc2 0000 c040 0000 10c1
000000b0: 0000 a0c1 0000 7cc2 0000 8c42 0000 50c2
000000c0: 0000 c0c0 0000 d041 0000 00c1 0000 c0c1
000000d0: 0000 18c2 0000 10c1 0000 4041 0000 70c1
000000e0: 0000 803f 0000 90c1 0000 8041 0000 98c1
000000f0: 0000 b0c1 0000 04c2 0000 a041 0000 04c2
00000100: 0000 2041 0000 40c0 0000 0042 0000 20c1
00000110: 0000 80c0 0000 8040 0000 8040 0000 a841
00000120: 0000 b0c1 0000 5041 0000 c841 0000 f041
00000130: 0000 40c0 0000 f041 0000 803f 0000 24c2
00000140: 0000 80c0 0000 d0c1 0000 e0c1 0000 3041
00000150: 0000 3042 0000 60c1 0000 4041 0000 04c2
00000160: 0000 80c0 0000 80c0 0000 a0c1 0000 c841
00000170: 0000 38c2 0000 e0c0 0000 c8c1 0000 1042
00000180: 0000 6041 0000 e041 0000 c041 0000 8040
00000190: 0000 1cc2 0000 18c2 0000 c841 0000 48c2
000001a0: 0000 8041 0000 6041 0000 0040 0000 2cc2
000001b0: 0000 f841 0000 30c1 0000 00c0 0000 a041
000001c0: 0000 0040 0000 d8c1 0000 4041 0000 0cc2
000001d0: 0000 d841 0000 b841 0000 9841 0000 6041
000001e0: 0000 50c2 0000 a8c1 0000 0cc2 0000 60c1
000001f0: 0000 24c2 0000 a841 0000 1842 0000 3041
00000200: 0000 e8c1 0000 2442 0000 98c1 0000 e8c1
00000210: 0000 a841 0000 f041 0000 4cc2 0000 4c42
00000220: 0000 20c1 0000 6041 0000 86c2 0000 0040
00000230: 0000 0cc2 0000 2cc2 0000 b0c1 0000 4040
00000240: 0000 90c1 0000 1cc2 0000 4842 0000 a041
00000250: 0000 60c2 0000 6041 0000 c041 0000 2041
00000260: 0000 9041 0000 40c0 0000 0842 0000 24c2
00000270: 0000 c0c1 0000 4442 0000 00c2 0000 2842
00000280: 0000 5442 0000 80c2 0000 0cc2 0000 3042
00000290: 0000 50c1 0000 80bf 0000 0040 0000 b841
000002a0: 0000 c8c1 0000 1041 0000 3042 0000 00c0
000002b0: 0000 58c2 0000 e040 0000 10c1 0000 4040
000002c0: 0000 0442 0000 2041 0000 10c2 0000 c8c1
000002d0: 0000 c0c0 0000 c8c1 0000 a0c0 0000 e8c1
000002e0: 0000 2442 0000 b041 0000 803f 0000 0040
000002f0: 0000 a0c0 0000 f841 0000 e040 0000 8040
00000300: 0000 0cc2 0000 9041 0000 70c2 0000 9041
00000310: 0000 5cc2 0000 c8c1 0000 1c42 0000 04c2
00000320: 0000 5442 0000 00c2 0000 8042 0000 a841
00000330: 0000 c8c1 0000 2c42 0000 30c2 0000 f0c1
00000340: 0000 28c2 0000 0000 0000 80c0 0000 80c2
00000350: 0000 4442 0000 20c1 0000 1cc2 0000 80c0
00000360: 0000 08c2 0000 2041 0000 4041 0000 e0c1
00000370: 0000 e0c0 0000 e841 0000 34c2 0000 98c1
00000380: 0000 50c1 0000 40c2 0000 e0c0 0000 10c1
00000390: 0000 74c2 0000 e0c0 0000 4842 0000 e841
000003a0: 0000 04c2 0000 5842 0000 3cc2 0000 10c2
000003b0: 0000 b841 0000 2442 0000 7842 0000 5c42
000003c0: 0000 14c2 0000 7041 0000 14c2 0000 4040
000003d0: 0000 5442 0000 f041 0000 4cc2 0000 90c1
000003e0: 0000 4cc2 0000 f841 0000 80c0 0000 24c2
000003f0: 0000 80c1 0000 8841 0000 4041 0000 8e42
-32.0 -20.0 4.0 -37.0 11.0 19.0 41.0 33.0
25.0 -18.0 -3.0 31.0 25.0 -19.0 48.0 -48.0
28.0 13.0 -29.0 -33.0 27.0 32.0 15.0 -23.0
11.0 17.0 -6.0 36.0 24.0 9.0 41.0 -43.0
-35.0 0.0 6.0 -14.0 9.0 13.0 -37.0 9.0
-10.0 -35.0 6.0 -9.0 -20.0 -63.0 70.0 -52.0
-6.0 26.0 -8.0 -24.0 -38.0 -9.0 12.0 -15.0
1.0 -18.0 16.0 -19.0 -22.0 -33.0 20.0 -33.0
10.0 -3.0 32.0 -10.0 -4.0 4.0 4.0 21.0
-22.0 13.0 25.0 30.0 -3.0 30.0 1.0 -41.0
-4.0 -26.0 -28.0 11.0 44.0 -14.0 12.0 -33.0
-4.0 -4.0 -20.0 25.0 -46.0 -7.0 -25.0 36.0
14.0 28.0 24.0 4.0 -39.0 -38.0 25.0 -50.0
16.0 14.0 2.0 -43.0 31.0 -11.0 -2.0 20.0
2.0 -27.0 12.0 -35.0 27.0 23.0 19.0 14.0
-52.0 -21.0 -35.0 -14.0 -41.0 21.0 38.0 11.0
-29.0 41.0 -19.0 -29.0 21.0 30.0 -51.0 51.0
-10.0 14.0 -67.0 2.0 -35.0 -43.0 -22.0 3.0
-18.0 -39.0 50.0 20.0 -56.0 14.0 24.0 10.0
18.0 -3.0 34.0 -41.0 -24.0 49.0 -32.0 42.0
53.0 -64.0 -35.0 44.0 -13.0 -1.0 2.0 23.0
-25.0 9.0 44.0 -2.0 -54.0 7.0 -9.0 3.0
33.0 10.0 -36.0 -25.0 -6.0 -25.0 -5.0 -29.0
41.0 22.0 1.0 2.0 -5.0 31.0 7.0 4.0
-35.0 18.0 -60.0 18.0 -55.0 -25.0 39.0 -33.0
53.0 -32.0 64.0 21.0 -25.0 43.0 -44.0 -30.0
-42.0 0.0 -4.0 -64.0 49.0 -10.0 -39.0 -4.0
-34.0 10.0 12.0 -28.0 -7.0 29.0 -45.0 -19.0
-13.0 -48.0 -7.0 -9.0 -61.0 -7.0 50.0 29.0
-33.0 54.0 -47.0 -36.0 23.0 41.0 62.0 55.0
-37.0 15.0 -37.0 3.0 53.0 30.0 -51.0 -18.0
-51.0 31.0 -4.0 -41.0 -16.0 17.0 12.0 71.0

block3_conv1d_bn_relu_1.op.bias f4 [16]
00000000: 0000 8845 0000 c445 0000 cc45 0000 90c4
00000010: 0000 d0c4 0000 6246 0000 e044 0000 5646
00000020: 0000 8045 0000 c4c5 0000 20c5 0000 e445
00000030: 0000 48c5 0000 dcc5 0000 a0c5 0000 0ec6
4352.0 6272.0 6528.0 -1152.0 -1664.0 14464.0 1792.0 13696.0
4096.0 -6272.0 -2560.0 7296.0 -3200.0 -7040.0 -5120.0 -9088.0

block6_dense.op.weight f4 [2, 16]
00000000: 0000 8042 0000 f841 0000 8442 0000 0041
00000010: 0000 7041 0000 7842 0000 3442 0000 4842
00000020: 0000 6041 0000 90c1 0000 6c42 0000 3042
00000030: 0000 6042 0000 c8c1 0000 a0c0 0000 2042
00000040: 0000 86c2 0000 50c1 0000 b8c1 0000 9841
00000050: 0000 00c2 0000 a4c2 0000 5cc2 0000 0cc2
00000060: 0000 48c2 0000 8040 0000 60c2 0000 70c1
00000070: 0000 70c1 0000 d841 0000 00c0 0000 92c2
64.0 31.0 66.0 8.0 15.0 62.0 45.0 50.0
14.0 -18.0 59.0 44.0 56.0 -25.0 -5.0 40.0
-67.0 -13.0 -23.0 19.0 -32.0 -82.0 -55.0 -35.0
-50.0 4.0 -56.0 -15.0 -15.0 27.0 -2.0 -73.0

momentum_buffer f4 [4, 1, 4]
00000000: 58d8 aa3a 8882 1b3b 60b2 8a3a 7da6 053c
00000010: 1445 26bc 7238 0cbc 1c77 d5bb c03e c03b
00000020: d88a 783d e69f a23d 13fb b23d 6bd6 b73d
00000030: c8b3 793b 6cb9 1a3b 04fa 4bbb bce6 14bc
0.0013034446 0.0023728926 0.0010581724 0.00815737 -0.010148305 -0.0085583795 -0.006514443 0.0058668554
0.060679287 0.079406545 0.08739295 0.08976444 0.0038101543 0.0023609055 -0.0031124363 -0.0090882145

momentum_buffer f4 [4]
00000000: f079 5f3e 501b 553c 18ff a0bf 656b 8a3e
0.21823859 0.013007 -1.2577848 0.2703506

momentum_buffer f4 [16, 4, 5]
00000000: a6de 193c 6c27 533c bf46 863c 4837 8b3b
00000010: 40d3 033b b833 52bb f84e 18bb 8e09 57bb
00000020: 600f 383a 1927 a63b 78a6 e23b 304f 343c
00000030: 5746 7e3c 841a fc3b a8e4 7a3b ee4e 023c
00000040: 009b 233c ff77 943c 4c43 d03b 502e 3a3b
00000050: d66a 05bc f2fc a0bb 6447 11bb c432 50bb
00000060: 3ef8 ecbb 5c6a 47bb d4a6 94bb fa65 f4bb
00000070: 6c02 f0bb 8011 2eba f68e c4bb a82a 61bb
00000080: e6bf b5ba bc8f 4aba b68a 32bb 41aa 12bc
00000090: 0029 9abb 222a 1bbb 3989 11bb 1d44 7cbb
000000a0: 6323 dfbc 2829 edbc c0a5 78bc 34d8 dfbc
000000b0: acce bfbc d863 b8bb 58a0 8ebb d04a 33bc
000000c0: a513 13bc d73a f2bb eae1 e0bc 42e7 c1bc
000000d0: cda2 3ebc d399 a6bc 4cb8 8bbc 1147 f8bc
000000e0: ea29 f6bc b589 83bc 07df c6bc d6d0 a5bc
000000f0: 2440 30bc 82d4 31bd 2295 43bd 4908 c6bc
00000100: 1db5 acbc 15e9 3ebd fa7c 85bc 1597 e0bc
00000110: 9838 32bd e2ec 1ebd c0ff a039 ef01 eabc
00000120: 4552 1abd 6202 8dbc 7946 30bc 1ce8 8ebb
00000130: 9a0d fbbc f747 3cbd 656e c0bc 40f1 59bc
00000140: d86b bf3b 066e 443c 7724 b83b 8e1a 70bb
00000150: b827 693a b4af 153b 71d9 583b bdb4 d83a
00000160: 080b 5c3b eddd a03b cbac 243b f171 0b3c
00000170: 9320 783b d09e aeb9 1c2b b139 3d8b 823b
00000180: 4212 253c 36e5 cc3b 439c c73a 58f9 473a
00000190: 6fd3 a2bc 1674 49bc 6104 2bbc 062c 81bc
000001a0: 8cb5 89bc 8086 25bb a040 65bb 5785 d4bb
000001b0: 8582 57ba b6d2 73bb 78ee 90bc 06b7 53bc
000001c0: acbf c6bb a581 3dbc 4ec1 64bc 1134 9fbc
000001d0: dd46 7abc 588f dcbb 7047 5abc f208 7bbc
000001e0: ab51 1e3c 2bbf 273c 40d4 91b9 2672 0ebc
000001f0: ea35 d6bb 9087 72bb f007 edbb 0ae6 40bb
00000200: 7e79 68bb 8d15 acbb 8d9c 9e3b 183f c33b
00000210: ee8c 963a 9e0c f4bb d2b3 8fbb ece7 813b
00000220: f280 0d3c 7183 2b3b 290d 12bc 6837 dabb
00000230: 078e 9c3c 00a7 933c f881 813c f3b1 813b
00000240: 819e 1f3b 6e0f 6db9 9f23 903b 5119 d13b
00000250: a1bf 813b c8c7 323b a5e8 a03c 5ade 8e3c
00000260: d614 8a3c 2a84 e63b 04b6 3b3a ec12 a83c
00000270: d137 a13c 887f a03c f624 1d3c 50f7 2c3b
00000280: ba95 b1bc 5d81 82bc 8421 81bc b809 3cbc
00000290: 21b2 93bc 4978 b5bc 8ea6 5cbc eb55 f9bb
000002a0: 842d 2dbc 3dd3 a2bc 4094 5abc f0e3 12bc
000002b0: 9f9d 3ebc 7669 b7bb d4d4 34bc 3ef4 a1bc
000002c0: 354d 69bc 1775 7ebc 8d4a 1ebc 3964 52bc
000002d0: 5006 40bb 0cd0 20ba f0b2 3d39 b5e2 203c
000002e0: 62ab 0b3c dcdb ee3b 4e83 88ba 58ca 38bb
000002f0: 8dca 60bb 1749 54bb 161d 59bb 378b fcba
00000300: f0f2 8cb8 9893 e63b c430 c03b b9da 5fbb
00000310: 958e 03bb 9e04 76ba 8714 0a3c 623e 0b3c
00000320: 24fb 76bc 9a5b 0abd 128c c4bc 4473 83bc
00000330: f21f b1bc 8dd2 8cbc cb94 0dbc 9185 55bc
00000340: 02df 45bc 79c6 93bc 8451 cdbb 90fb c4bc
00000350: e3f0 95bc 5a70 2ebc 1433 69bc 88c4 28bc
00000360: c0e5 f6bc 0396 bcbc e1d1 80bc b1e1 90bc
00000370: 5e5d 2cbc 9cd0 7abc eb34 b4bc b8df 32bc
00000380: fcab 51bc 61d1 e0bc 2b8b 99bc f349 46bb
00000390: 7444 2dbc c03e 47bc d1a4 b3bb a82a 14bc
000003a0: a83b 8fbc 74f4 32bc 05c6 e3bb 325e 0dbc
000003b0: b686 28bc 3a64 a0bc 021c 58bc 3447 f1bb
000003c0: b27a 873c 1e7c d63c d37f d43c b26b 1b3d
000003d0: a028 213d f823 c23c dab3 f83b 4b63 473c
000003e0: 9e24 b23c 1e81 a73c a032 c63b f975 473c
000003f0: 1de4 5e3c 5f31 cb3c 0056 dd3c 21ad 383c
0.009391462 0.012887817 0.016391156 0.0042485334 0.0020114928 -0.0032074284 -0.0023240428 -0.0032812092
0.0007021334 0.005070579 0.0069168173 0.011005208 0.0155197 0.0076935906 0.0038283262 0.007953389
0.009985685 0.018123625 0.0063556787 0.0028408952 -0.008143147 -0.004912966 -0.0022167796 -0.003176854
-0.007231741 -0.0030428385 -0.004536489 -0.0074584456 -0.0073245075 -0.0006640181 -0.0059984876 -0.00343577
-0.0013866394 -0.00077271066 -0.0027243323 -0.0089517245 -0.0047045946 -0.0023676236 -0.0022207035 -0.0038492747
-0.027238553 -0.028950289 -0.015176237 -0.027324773 -0.023413979 -0.0056271367 -0.0043526106 -0.01094313
-0.008976852 -0.007392268 -0.027451474 -0.023669843 -0.011635494 -0.020337021 -0.017055653 -0.030307325
-0.030049283 -0.016056875 -0.02427627 -0.020241182 -0.01075748 -0.043415554 -0.047749646 -0.024173873
-0.021082455 -0.046609003 -0.016294945 -0.027415792 -0.043511003 -0.038800128 0.00030708127 -0.028565375
-0.037676115 -0.01721305 -0.0107589895 -0.0043611657 -0.030646134 -0.04596707 -0.02349014 -0.013302147
0.0058417134 0.011989122 0.0056195813 -0.0036636922 0.0008894163 0.0022840323 0.003308859 0.0016533356
0.003357591 0.004909268 0.0025127407 0.0085110525 0.0037861213 -0.0003330619 0.0003379219 0.0039838837
0.010075154 0.00625291 0.0015229065 0.00076284027 -0.01987621 -0.012295743 -0.010438056 -0.015768062
-0.016810201 -0.002525717 -0.0034981146 -0.006485622 -0.0008221048 -0.003720445 -0.017691836 -0.012922054
-0.0060653295 -0.011566554 -0.013962103 -0.019434007 -0.015275684 -0.006730955 -0.013322696 -0.015321957
0.009663026 0.010238449 -0.00027814694 -0.008694207 -0.006537189 -0.003700707 -0.0072336122 -0.002943399
-0.0035472806 -0.0052515925 0.0048404397 0.005958449 0.0011486092 -0.007447793 -0.00438545 0.003964415
0.0086367 0.0026170874 -0.00891427 -0.006659437 0.019110693 0.018023968 0.015809044 0.003957981
0.002435595 -0.0002260783 0.0043987776 0.006381192 0.0039596115 0.0027279723 0.019642184 0.01744001
0.016855638 0.007034798 0.00071606063 0.020516835 0.019679936 0.019592062 0.009591332 0.0026392527
-0.02167784 -0.015930826 -0.015763052 -0.0114769265 -0.018029274 -0.022152083 -0.013467444 -0.007609119
-0.010569934 -0.019876117 -0.01334101 -0.008965477 -0.0116342595 -0.0055972887 -0.01103707 -0.019769784
-0.014239599 -0.015530846 -0.009661329 -0.012841278 -0.0029300638 -0.0006134517 0.00018091104 0.009819676
0.008524748 0.007289393 -0.0010415108 -0.0028196778 -0.0034300417 -0.0032392198 -0.0033128909 -0.0019267563
-6.720971e-05 0.0070366375 0.0058651883 -0.0034157468 -0.0020074 -0.0009384843 0.008427746 0.00849876
-0.015074525 -0.033778764 -0.023992572 -0.016046174 -0.021621678 -0.017190242 -0.008641432 -0.013032333
-0.012077095 -0.018038975 -0.006265821 -0.024045736 -0.01830334 -0.010646904 -0.014233369 -0.010300763
-0.03013885 -0.02302075 -0.015725078 -0.017685743 -0.010520307 -0.015308525 -0.02199789 -0.0109175965
-0.012797352 -0.02744359 -0.018743118 -0.003025648 -0.0105754025 -0.012160957 -0.005482294 -0.009043373
-0.017484501 -0.01092254 -0.006951096 -0.008628415 -0.010286024 -0.019579042 -0.013190271 -0.0073632244
0.016537998 0.02618223 0.025939858 0.037944503 0.039345384 0.023698792 0.0075897994 0.012169669
0.021745976 0.02044731 0.0060485154 0.012174123 0.013604191 0.024803815 0.027018547 0.011271746

momentum_buffer f4 [16]
00000000: b86d b63c 5bfd a9bc b218 6bbd 3822 d4bd
00000010: 25fc c43c 2408 15bd 4cca 20bc 7b00 b03c
00000020: a4e2 47bd 18b1 693b 60a6 7dbd 55de 4fbd
00000030: a018 903d 06f8 18be a018 c7ba 8e7a b5bd
0.022269115 -0.020750692 -0.0573966 -0.10358089 0.024046013 -0.036384717 -0.009813856 0.021484604
-0.048800126 0.0035658535 -0.061926246 -0.05074914 0.07035947 -0.14938363 -0.0015189834 -0.08861266

momentum_buffer f4 [16, 16, 5]
00000000: 9213 4c3b 3e60 6a3b 5673 293a c457 de38
00000010: 54d0 6fb8 dabb e1b8 fb3d f8b9 a70b b539
00000020: 1be2 a739 ab11 f93a 2477 293b 2221 483a
00000030: 49da b03a a048 6a37 a8ab 4fba 7101 b4b9
00000040: caed 563a 58f2 103b faea 1f3a 8579 d93a
00000050: b312 303a a07d 183a fcb3 613a 6959 8f39
00000060: d0f0 e836 ba3a 573a 482f 323a 6460 8c3a
00000070: 58f2 983a 2039 813a 0054 0d3b 76b9 8c3a
00000080: 7270 1039 8e95 8739 0cca 693a a0ca 8ab8
00000090: a240 d438 c0b6 0b3a 7e51 bc3a f2ab c93a
000000a0: ea30 0cb9 9aa2 dc38 bf38 9639 165a f139
000000b0: 5aa8 be3a 59e6 273a f861 8439 e43d 503a
000000c0: d11c 8c39 1150 7e38 b641 de3a ca63 4b3b
000000d0: 6994 033b a06c 153a 9074 8538 b058 3539
000000e0: 6a7e a13a 96f2 023a f1be e5b9 ee1d 5a3a
000000f0: e2ca 7e3a 585f 1cb9 5008 abb7 6176 5dba
00000100: 05ac 2cb9 40c5 5d3a 681b e83a 5bc2 ef3a
00000110: e578 f238 4071 2837 3534 6a3a cc81 3237
00000120: 248c eab9 c06a f3b9 4f0e dab9 2a6b 473b
00000130: 02da 683b e43a cc3a 61ea a2b9 604e f4b9
00000140: a286 77bb 0b37 49bb 83b2 d6ba 6086 89b9
00000150: 3a36 6d3a abac 923a 615f df39 47c5 9ab9
00000160: 757e 32bb 670e 083a 6ef0 95ba 506c 7cba
00000170: c067 d639 80da 59b8 c022 9e38 e030 003b
00000180: 0a0c 07bb 712f 8abb 5633 00bb 381d b43a
00000190: dee8 a539 8076 9e37 aafa 80ba fbfd 9238
000001a0: 6e6a f2b8 d487 a4b9 9ae8 e43a 652d a239
000001b0: 5ef4 983a 693b b039 d478 b8b9 a092 3fba
000001c0: 947d c7ba 704e a8ba 108c 9039 49c2 a53a
000001d0: 992d 953a e0b1 8339 22dc daba 9a64 cfba
000001e0: b08d 9337 f77e 04ba f493 4fba 5b55 86b9
000001f0: 511a 90b9 36f5 2a3b d51c 103b c078 063b
00000200: 291f 6a3a 35c3 663a 80ba 5938 9bec 20bb
00000210: 1cfc fbba 32de 96ba 50cd 3e39 bc1e 97b9
00000220: 80e4 0ab9 9ad3 ffba efe1 c839 9a0f 16ba
00000230: cceb ba39 340b a9ba 9083 a93a d282 d13a
00000240: ba1c 293b e05a a23a adda c13a dcf9 683b
00000250: c8ce 223b 983f 393b ed34 663a 4629 9a3a
00000260: aca6 8b3a a87a 803b 6233 793b c035 6abb
00000270: 0a9d 2cbb 20a1 c1b9 1dac 0f3b 779f 283b
00000280: 405c ffb8 00be 0e3a 3ca8 1e3b 2077 cb3a
00000290: 4028 1d39 06c5 4d3a 8031 d137 e3d1 7339
000002a0: db47 8d39 5342 8a39 47e6 21bb 40f0 8fb9
000002b0: c470 993a cc32 d03a 349c 483b 90bd 683b
000002c0: f64e 953a cc21 5539 69a8 2d3b 560d b8ba
000002d0: d967 193a cc1b 0c3a 0950 8a3a 3d86 03b9
000002e0: 007e f83a 16ea 493a 23a3 0e3a c641 913a
000002f0: ce5c fb3a a636 793b ea92 373a 0a63 92b9
00000300: 002b 6f3a 8657 7539 a012 deb8 b4bb a5b9
00000310: a8a4 f738 d0f4 033a 8067 e1b9 9c51 9fba
00000320: 8e3e c53a 28ca 0e3a 32bb de39 7812 0d3a
00000330: b0c0 b5ba cec6 01ba f52f 263a 42f5 9db9
00000340: b480 213a 321c 7439 a035 a2b9 c8e0 e2b9
00000350: 8a5f a2ba 3c86 c539 e662 0c3b 4c16 353b
00000360: bcce 093a e7f5 653a 9271 313b e80e 19b9
00000370: b8ed 8a3a 18de 8b3a 3431 023b 7695 5b3b
00000380: 2f0b 2c3b 396d 00bb 74a7 3e3b 0a66 d13a
00000390: 7249 243b 3044 cab9 a1b3 a33a 2f47 543a
000003a0: ab48 453b 3666 7a3b 4810 593b 4442 3bbb
000003b0: a60c 96ba 8098 8439 cca6 ea3a f2ef 553b
000003c0: 14c1 b03b 07ca c53b 8038 c93b b48e ad3b
000003d0: cea5 803b 1c58 16ba 86fb 01bb 7629 b13a
000003e0: a038 a13a b1f5 0e39 623b 023c 5798 c43b
000003f0: ae42 d13b 0d79 063c 54d1 f33b d899 c936
0.0031139595 0.0035762931 0.0006464025 0.000106021325 -5.717606e-05 -0.00010763826 -0.00047348425 0.00034531692
0.00032021184 0.0019002458 0.0025858367 0.00076343317 0.0013492788 1.3964396e-05 -0.0007922002 -0.0003433335
0.00081988855 0.0022117104 0.0006100383 0.0016592002 0.00067166536 0.00058170594 0.00086098886 0.000273417
6.942173e-06 0.000821035 0.00067972066 0.0010709879 0.0011668904 0.0009858944 0.002156496 0.0010736424
0.000137748 0.00025860633 0.0008918352 -6.6180946e-05 0.000101209866 0.0005329661 0.0014367548 0.0015386327
-0.00013369662 0.000105207044 0.0002865251 0.0004603422 0.0014546022 0.0006404869 0.00025249994 0.0007943793
0.0002672435 6.0632887e-05 0.0016956839 0.003103482 0.0020077473 0.00057000853 6.363646e-05 0.00017294544
0.0012321 0.00049952546 -0.00043820546 0.00083205 0.0009719563 -0.00014912838 -2.038866e-05 -0.0008448121
-0.0001646728 0.00084598735 0.0017708363 0.0018292175 0.000115619776 1.0039948e-05 0.0008934171 1.06398475e-05
-0.0004473637 -0.00046428107 -0.0004159086 0.0030428865 0.0035530333 0.0015581516 -0.00031073674 -0.000465977
-0.0037769456 -0.0030702974 -0.0016380105 -0.00026230793 0.0009048913 0.0011190375 0.00042604937 -0.00029520152
-0.0027236019 0.00051901344 -0.0011439451 -0.0009629177 0.0004089456 -5.1940326e-05 7.5405e-05 0.0019560382
-0.002060654 -0.0042170812 -0.0019561849 0.0013741618 0.00031644752 1.8890249e-05 -0.0009840329 7.00913e-05
-0.00011559283 -0.00031381717 0.001746434 0.0003093287 0.0011669507 0.000336136 -0.0003518524 -0.00073079206
-0.001521992 -0.0012840759 0.00027570175 0.0012646402 0.0011381387 0.00025118794 -0.0016697685 -0.0015822828
1.7589744e-05 -0.00050543196 -0.000791847 -0.00025622066 -0.00027485428 0.0026086099 0.0021989841 0.002051875
0.0008931035 0.0008802892 5.1910523e-05 -0.002455509 -0.0019224915 -0.0011510311 0.00018196297 -0.00028823863
-0.00013245828 -0.0019518018 0.00038315306 -0.0005724371 0.00035652367 -0.0012897016 0.0012932885 0.0015984422
0.0025804476 0.0012386702 0.0014789902 0.0035549318 0.002484249 0.0028266665 0.000878169 0.0011761568
0.001065453 0.0039208718 0.0038025011 -0.0035737604 -0.002633872 -0.00036931876 0.0021922656 0.0025729814
-0.000121765304 0.00054451823 0.0024209162 0.0015523173 0.00014987681 0.0007849488 2.4937792e-05 0.00023252475
0.00026947152 0.00026370827 -0.0024703906 -0.00027454086 0.001170658 0.0015884279 0.0030610682 0.0035513379
0.001139133 0.00020325853 0.0026498085 -0.001404206 0.00058519613 0.0005344718 0.0010552417 -0.00012543141
0.0018958449 0.0007702423 0.00054411794 0.0011082224 0.0019177438 0.0038026958 0.0007002788 -0.0002792108
0.0009123534 0.00023397626 -0.00010589254 -0.00031611102 0.000118085474 0.00050337333 -0.00042992458 -0.0012155059
0.001504855 0.0005446994 0.0004248261 0.0005381475 -0.001386663 -0.00049505837 0.00063395436 -0.00030128105
0.0006160841 0.00023280157 -0.00030939002 -0.00043273554 -0.0012388092 0.0003767478 0.0021421253 0.0027631698
0.0005256941 0.0008772299 0.002707575 -0.0001459677 0.001059941 0.0010671047 0.0019865753 0.0033505834
0.0026251783 -0.0019596352 0.002909151 0.0015975845 0.002506819 -0.00038579246 0.0012489447 0.00080977654
0.0030103128 0.0038207895 0.0033121277 -0.0028573433 -0.0011447861 0.00025290623 0.0017902493 0.003264424
0.0053941105 0.0060360464 0.0061407685 0.0052965526 0.0039260155 -0.0005735175 -0.0019833758 0.0013516385
0.0012300201 0.00013633702 0.007948728 0.0059996056 0.0063861227 0.008207572 0.0074407253 6.0081766e-06

momentum_buffer f4 [16]
00000000: babb d73b 388b f33a 3213 6b3c 41d0 8a3c
00000010: d316 25bd 0f9a 7ebc 12d3 63bd f108 e43c
00000020: 8b20 583b 18fd a23c 1c4c 803b 5a99 eebc
00000030: 886e 533b e894 e5bc 0451 823c f1e4 b5bb
0.006583658 0.0018580919 0.014347838 0.016945006 -0.04030497 -0.01553966 -0.055621214 0.027836295
0.0032978381 0.019896075 0.003915323 -0.029125858 0.0032261927 -0.028025106 0.015907772 -0.0055509736

momentum_buffer f4 [16, 16, 5]
00000000: 171e a3b9 94e6 f938 aeae e439 cc15 123a
00000010: 0626 ab38 96a0 efb9 98cc e439 8e2c 2d3a
00000020: 16e0 023a 95cb 903a 99ec 4d3b 357e ef3a
00000030: 9b37 733b e6f2 963a fe2a fa39 1d74 213b
00000040: f569 563b 1c21 1839 e286 443b 2e08 4c3a
00000050: 2560 4a3a 5659 093b 9a93 2c3b e1ec bd3a
00000060: 9001 673b 387e 173a 33d9 d9b9 1665 0339
00000070: d1b5 d23a 9afa 133b 9248 703a 3573 353a
00000080: b689 fd39 b874 aa3a 5432 d43a ef98 143b
00000090: 8610 543b af08 2e3b a6de 8b3b e83b 313b
000000a0: 2249 603a 3ceb b8b8 b54b 0c3a 72e7 a239
000000b0: c804 1f3a eddf cb3a 3ec9 ad39 a18f 153a
000000c0: 33ad eab8 a101 2b38 8d7e d439 2292 4e3a
000000d0: 00e9 8c39 725d 413a c62a b63a 27b9 1f3a
000000e0: 2a44 a339 5223 bf3a 7d11 86b9 46d9 8b3a
000000f0: cc22 32b9 d8f2 2339 f427 3ab9 6c6a ab39
00000100: a0e9 263a a437 e93a 7a25 013b b391 213b
00000110: c0ea 883b 0ef1 4b3b 4c22 df3a 41ef ab3a
00000120: 3da4 1f3b be7d 253b 0322 de3a fa42 a4b9
00000130: 6507 6d39 a43b 9db8 ad32 6cb9 3910 5639
00000140: 1cf6 a539 668e df39 8159 9038 af43 8a39
00000150: a6a6 4ab8 fcc4 b937 969d edb8 a0ba 7ab7
00000160: 688b 463a 5ee3 643a 1491 3eb9 0024 8cb8
00000170: 68e4 3338 00ca 6aba b87b adb9 3076 c638
00000180: dc59 36b9 cdf3 57ba 0b6d 48ba 5567 92ba
00000190: 72a0 dcb9 181c 0eb9 1ce2 91b8 be7b f3b9
000001a0: 524b 94b8 c79f 42ba 927b 2cba 2fcf 94b9
000001b0: af75 8539 7234 223a 620c 8fb9 be83 59ba
000001c0: 3c2b 2abb 694a dfb9 68e2 b3b7 2083 0aba
000001d0: 9c47 a638 5410 26ba 309f 1dba bfb3 41b9
000001e0: e429 ccb8 678a 1b39 1625 54b9 2f24 be39
000001f0: d799 dcb8 ba2f 80b8 b041 c539 ac4c e438
00000200: 7ab0 f9b9 9cfc 30b9 0a59 c839 40d9 f639
00000210: 23f8 8b39 fd60 1b3a 7024 76b7 5869 8ab9
00000220: c81d a8ba 710f 2dba 0c00 0e3a eeed d339
00000230: fcb2 243a f142 cb39 4860 1b3a a3b6 6b3a
00000240: e085 063a 5063 35ba e6a7 d739 96ee ac39
00000250: aca3 e7b8 ecea c2b9 0484 93ba 5848 67ba
00000260: 9ea9 5bba 3946 62ba 8ce3 9dba 1c87 e337
00000270: d4d3 10b9 d110 1bb9 2f67 46ba 8c78 45ba
00000280: 46a1 ee38 6a74 9039 581f 30b7 89b9 8739
00000290: 5cb1 2b39 44e9 ac3a 86d8 873a e23f 283a
000002a0: 8dcc f039 55fc 033a 2ab4 ebb9 8779 f238
000002b0: a25f 053a 72fb 8a3a 5671 cb3a ed53 2d3a
000002c0: b48b c5b8 cc5f efb8 3291 0338 0668 18b9
000002d0: 74a1 a3b8 78ea 3c38 d6a8 b739 3e83 ebb9
000002e0: 2084 1c39 d660 853a dfc4 ab3a 67f7 843a
000002f0: b007 3139 2709 5d39 d28c 56b9 3035 9e37
00000300: 3cdd 3fb9 1af3 f8b8 bb55 1839 92d4 ea39
00000310: c653 503a 2238 8439 d01d 6c39 a87d 9739
00000320: a808 1a39 fb8b 0039 86f6 083a 3845 9d39
00000330: 4db0 8339 be36 4d39 6505 2339 531c 433a
00000340: f8e8 ad39 0e44 b43a 0c63 c23a e8df 653a
00000350: 7a83 493a bf8c 83b8 3262 a239 814d 6339
00000360: 0c45 d839 6425 dd39 897a 263a 89a5 083a
00000370: cfbe 8938 7f7e ef39 a45f 0c3a c646 10b9
00000380: 86c6 6b38 2336 943a 0e89 363a cdbe 9039
00000390: 0381 9039 1835 e4b7 f544 3639 ad59 04ba
000003a0: ea76 8839 d3d4 003a 54ab e739 a635 8bb9
000003b0: b670 90b8 a003 7e37 2171 5839 64d2 8d39
000003c0: 2e49 45b8 c4fc bbb8 da76 87ba 5eee 59ba
000003d0: 858e 8cba 3555 8dbb c31a 42bb 2940 17bb
000003e0: fa43 74bb 2297 32bb 8c34 36bc d078 24bc
000003f0: 7429 02bc b244 bbbb 144b f8bb 9bb3 e7bb
-0.000311122 0.00011916194 0.00043617695 0.0005572706 8.160998e-05 -0.00045705278 0.00043639983 0.00066060654
0.0004992498 0.0011047 0.003142154 0.0018271866 0.0037112 0.0011516481 0.00047715747 0.002463586
0.0032716964 0.00014508184 0.0029987623 0.0007783201 0.0007720015 0.002095779 0.0026333095 0.0014490151
0.0035248734 0.0005779001 -0.0004155129 0.00012530791 0.0016075914 0.002257979 0.0009166087 0.0006921769
0.00048358523 0.0013004756 0.0016189315 0.0022674163 0.0032358482 0.0026555469 0.004268485 0.0027043764
0.00085558195 -8.8176195e-05 0.00053518574 0.00031071488 0.0006066081 0.0015554406 0.00033147068 0.00057053013
-0.000111902504 4.0771094e-05 0.0004053008 0.0007880052 0.0002687648 0.000737629 0.0013898246 0.00060929585
0.0003114057 0.001458267 -0.00025571501 0.0010669611 -0.00016988366 0.00015635358 -0.00017753226 0.00032694952
0.00063672103 0.0017793071 0.0019706176 0.0024653494 0.004178375 0.0031119022 0.0017023771 0.0013117568
0.0024359368 0.002525195 0.0016947392 -0.0003133042 0.00022604836 -7.497452e-05 -0.00022525592 0.00020414674
0.00031654618 0.0004263997 6.8831265e-05 0.0002637184 -4.8315756e-05 2.2145447e-05 -0.00011330393 -1.4944613e-05
0.0007573874 0.000873139 -0.00018173858 -6.682426e-05 4.2889646e-05 -0.0008956492 -0.0003308931 9.46339e-05
-0.00017390348 -0.0008237928 -0.0007645643 -0.0011169711 -0.0004208121 -0.00013552641 -6.956255e-05 -0.00046440767
-7.0712194e-05 -0.00074243214 -0.00065796927 -0.00028383124 0.00025455418 0.00061876245 -0.0002728431 -0.0008297524
-0.002596571 -0.00042589314 -2.1443891e-05 -0.00052838214 7.928835e-05 -0.00063348305 -0.00060127955 -0.00018472875
-9.735281e-05 0.00014833511 -0.00020231711 0.00036266583 -0.000105190724 -6.1124054e-05 0.0003762371 0.000108861685
-0.00047624466 -0.00016878772 0.00038213312 0.0004708264 0.00026697022 0.0005927233 -1.4671226e-05 -0.00026399898
-0.0012826258 -0.0006601727 0.0005416877 0.00040422328 0.0006282774 0.00038769052 0.0005927128 0.00089917536
0.0005131643 -0.0006919401 0.0004113309 0.00032984157 -0.000110454246 -0.00037177594 -0.0011254554 -0.0008822731
-0.0008379462 -0.000863168 -0.0012045964 2.7123424e-05 -0.00013811822 -0.00014788217 -0.0007568476 -0.00075329165
0.00011378764 0.00027552556 -1.0497715e-05 0.0002588744 0.00016373902 0.0013192077 0.0010364212 0.00064182107
0.0004592877 0.0005034854 -0.00044956926 0.000115620955 0.0005087798 0.0010603501 0.0015521448 0.0006611932
-9.419714e-05 -0.00011414252 3.1368058e-05 -0.00014534601 -7.802519e-05 4.504106e-05 0.00035030273 -0.00044920476
0.0001492654 0.0010175954 0.0013104937 0.0010144532 0.00016882899 0.00021079612 -0.0002046109 1.8859835e-05
-0.00018297596 -0.00011870843 0.00014527787 0.00044790335 0.00079470535 0.00025218824 0.0002251782 0.00028894586
0.00014689809 0.00012259178 0.0005224723 0.00029996946 0.0002511762 0.00019570717 0.00015546901 0.00074428803
0.00033170707 0.0013753192 0.0014830544 0.00087690214 0.0007687133 -6.272783e-05 0.0003097221 0.0002167728
0.00041250174 0.00042180263 0.00063506566 0.0005212655 6.56821e-05 0.0004567988 0.0005354828 -0.00013759275
5.6213255e-05 0.0011307638 0.0006963172 0.00027607978 0.00027561942 -2.7204442e-05 0.00017382561 -0.0005048763
0.0002602854 0.0004914526 0.00044187403 -0.00026552117 -6.887449e-05 1.5140424e-05 0.00020641509 0.0002705037
-4.7036614e-05 -8.963936e-05 -0.0010335103 -0.00083134125 -0.0010723626 -0.004313136 -0.0029618002 -0.0023079014
-0.0037271963 -0.0027250727 -0.011120927 -0.01003857 -0.0079444535 -0.005714976 -0.0075773094 -0.007070971

momentum_buffer f4 [16]
00000000: 22af 083c f004 b3b9 eba2 943b 884d bbbc
00000010: f9b1 dfbb e8c3 a63b e40b deba d39b 24bb
00000020: ced0 a1bc 06eb 273a 36ee 543b 0e99 5f3b
00000030: 4a36 b03a bc10 2e3b 8a0a a6ba f4f8 883b
0.008342536 -0.0003414522 0.004536023 -0.022864118 -0.006826636 0.005089272 -0.00169408 -0.0025117293
-0.019752886 0.00064055657 0.0032490618 0.0034118327 0.0013443914 0.0026560267 -0.0012667936 0.004180068
