trained_custom/checkpoints/energy_profiling/input_data_size/epidenet_b_v3.2_1016_baseline_qat_best-q.pth.tar (torch, 83087 bytes, 26 tensors)

block1_conv1d_bn_relu_1.op.weight f4 [4, 1, 4]
-8.0 32.0 -57.0 -50.0 -32.0 31.0 -1.0 79.0
-30.0 45.0 -63.0 -39.0 -40.0 -27.0 -18.0 0.0
00000000: 0000 00c1 0000 0042 0000 64c2 0000 48c2
00000010: 0000 00c2 0000 f841 0000 80bf 0000 9e42
00000020: 0000 f0c1 0000 3442 0000 7cc2 0000 1cc2
00000030: 0000 20c2 0000 d8c1 0000 90c1 0000 0000

block1_conv1d_bn_relu_1.op.bias f4 [4]
128.0 0.0 128.0 -128.0
00000000: 0000 0043 0000 0000 0000 0043 0000 00c3

block2_conv1d_bn_relu_1.op.weight f4 [16, 4, 5]
14.0 35.0 -9.0 35.0 -7.0 7.0 42.0 -42.0
-29.0 -12.0 -19.0 37.0 -29.0 -19.0 -31.0 -43.0
-28.0 39.0 22.0 24.0 4.0 -22.0 6.0 -43.0
-33.0 -29.0 22.0 24.0 -20.0 -2.0 32.0 47.0
17.0 5.0 30.0 -23.0 11.0 -34.0 -31.0 -23.0
16.0 13.0 -24.0 11.0 20.0 -11.0 -2.0 8.0
21.0 32.0 -24.0 -11.0 15.0 33.0 35.0 37.0
11.0 -30.0 7.0 -18.0 -35.0 31.0 26.0 -38.0
6.0 -8.0 -9.0 -17.0 14.0 -23.0 13.0 17.0
25.0 12.0 -37.0 -24.0 17.0 6.0 -30.0 -22.0
47.0 33.0 -22.0 -14.0 -51.0 -1.0 -41.0 -43.0
-3.0 9.0 -25.0 29.0 -31.0 47.0 35.0 -48.0
-17.0 2.0 7.0 11.0 16.0 3.0 -19.0 20.0
-39.0 -24.0 -11.0 -21.0 -15.0 -33.0 -9.0 9.0
-26.0 -2.0 30.0 -4.0 2.0 -2.0 9.0 27.0
51.0 33.0 51.0 -4.0 -50.0 -26.0 36.0 -3.0
-29.0 -43.0 -53.0 -48.0 -12.0 30.0 30.0 -54.0
33.0 -44.0 -12.0 -22.0 -10.0 -8.0 -34.0 -34.0
-7.0 0.0 -20.0 11.0 -33.0 -2.0 28.0 -16.0
33.0 12.0 -35.0 19.0 -7.0 -18.0 28.0 -31.0
7.0 -22.0 58.0 19.0 35.0 22.0 -27.0 -26.0
-78.0 39.0 69.0 58.0 -66.0 0.0 -68.0 -48.0
-52.0 26.0 -55.0 -8.0 -2.0 17.0 -25.0 -22.0
-18.0 19.0 -14.0 22.0 7.0 -1.0 -2.0 -8.0
3.0 -7.0 0.0 2.0 -25.0 -17.0 24.0 -25.0
-7.0 37.0 12.0 -2.0 -38.0 18.0 -34.0 -15.0
-16.0 -9.0 -3.0 31.0 3.0 34.0 24.0 -28.0
16.0 -30.0 -19.0 11.0 20.0 44.0 -15.0 1.0
29.0 -56.0 41.0 -51.0 3.0 -6.0 -30.0 9.0
53.0 -15.0 -35.0 -20.0 -57.0 31.0 -25.0 -39.0
-32.0 31.0 29.0 46.0 21.0 -20.0 -13.0 18.0
45.0 16.0 -26.0 -28.0 -55.0 14.0 -31.0 -50.0
00000000: 0000 6041 0000 0c42 0000 10c1 0000 0c42
00000010: 0000 e0c0 0000 e040 0000 2842 0000 28c2
00000020: 0000 e8c1 0000 40c1 0000 98c1 0000 1442
00000030: 0000 e8c1 0000 98c1 0000 f8c1 0000 2cc2
00000040: 0000 e0c1 0000 1c42 0000 b041 0000 c041
00000050: 0000 8040 0000 b0c1 0000 c040 0000 2cc2
00000060: 0000 04c2 0000 e8c1 0000 b041 0000 c041
00000070: 0000 a0c1 0000 00c0 0000 0042 0000 3c42
00000080: 0000 8841 0000 a040 0000 f041 0000 b8c1
00000090: 0000 3041 0000 08c2 0000 f8c1 0000 b8c1
000000a0: 0000 8041 0000 5041 0000 c0c1 0000 3041
000000b0: 0000 a041 0000 30c1 0000 00c0 0000 0041
000000c0: 0000 a841 0000 0042 0000 c0c1 0000 30c1
000000d0: 0000 7041 0000 0442 0000 0c42 0000 1442
000000e0: 0000 3041 0000 f0c1 0000 e040 0000 90c1
000000f0: 0000 0cc2 0000 f841 0000 d041 0000 18c2
00000100: 0000 c040 0000 00c1 0000 10c1 0000 88c1
00000110: 0000 6041 0000 b8c1 0000 5041 0000 8841
00000120: 0000 c841 0000 4041 0000 14c2 0000 c0c1
00000130: 0000 8841 0000 c040 0000 f0c1 0000 b0c1
00000140: 0000 3c42 0000 0442 0000 b0c1 0000 60c1
00000150: 0000 4cc2 0000 80bf 0000 24c2 0000 2cc2
00000160: 0000 40c0 0000 1041 0000 c8c1 0000 e841
00000170: 0000 f8c1 0000 3c42 0000 0c42 0000 40c2
00000180: 0000 88c1 0000 0040 0000 e040 0000 3041
00000190: 0000 8041 0000 4040 0000 98c1 0000 a041
000001a0: 0000 1cc2 0000 c0c1 0000 30c1 0000 a8c1
000001b0: 0000 70c1 0000 04c2 0000 10c1 0000 1041
000001c0: 0000 d0c1 0000 00c0 0000 f041 0000 80c0
000001d0: 0000 0040 0000 00c0 0000 1041 0000 d841
000001e0: 0000 4c42 0000 0442 0000 4c42 0000 80c0
000001f0: 0000 48c2 0000 d0c1 0000 1042 0000 40c0
00000200: 0000 e8c1 0000 2cc2 0000 54c2 0000 40c2
00000210: 0000 40c1 0000 f041 0000 f041 0000 58c2
00000220: 0000 0442 0000 30c2 0000 40c1 0000 b0c1
00000230: 0000 20c1 0000 00c1 0000 08c2 0000 08c2
00000240: 0000 e0c0 0000 0000 0000 a0c1 0000 3041
00000250: 0000 04c2 0000 00c0 0000 e041 0000 80c1
00000260: 0000 0442 0000 4041 0000 0cc2 0000 9841
00000270: 0000 e0c0 0000 90c1 0000 e041 0000 f8c1
00000280: 0000 e040 0000 b0c1 0000 6842 0000 9841
00000290: 0000 0c42 0000 b041 0000 d8c1 0000 d0c1
000002a0: 0000 9cc2 0000 1c42 0000 8a42 0000 6842
000002b0: 0000 84c2 0000 0000 0000 88c2 0000 40c2
000002c0: 0000 50c2 0000 d041 0000 5cc2 0000 00c1
000002d0: 0000 00c0 0000 8841 0000 c8c1 0000 b0c1
000002e0: 0000 90c1 0000 9841 0000 60c1 0000 b041
000002f0: 0000 e040 0000 80bf 0000 00c0 0000 00c1
00000300: 0000 4040 0000 e0c0 0000 0000 0000 0040
00000310: 0000 c8c1 0000 88c1 0000 c041 0000 c8c1
00000320: 0000 e0c0 0000 1442 0000 4041 0000 00c0
00000330: 0000 18c2 0000 9041 0000 08c2 0000 70c1
00000340: 0000 80c1 0000 10c1 0000 40c0 0000 f841
00000350: 0000 4040 0000 0842 0000 c041 0000 e0c1
00000360: 0000 8041 0000 f0c1 0000 98c1 0000 3041
00000370: 0000 a041 0000 3042 0000 70c1 0000 803f
00000380: 0000 e841 0000 60c2 0000 2442 0000 4cc2
00000390: 0000 4040 0000 c0c0 0000 f0c1 0000 1041
000003a0: 0000 5442 0000 70c1 0000 0cc2 0000 a0c1
000003b0: 0000 64c2 0000 f841 0000 c8c1 0000 1cc2
000003c0: 0000 00c2 0000 f841 0000 e841 0000 3842
000003d0: 0000 a841 0000 a0c1 0000 50c1 0000 9041
000003e0: 0000 3442 0000 8041 0000 d0c1 0000 e0c1
000003f0: 0000 5cc2 0000 6041 0000 f8c1 0000 48c2

block2_conv1d_bn_relu_1.op.bias f4 [16]
-256.0 896.0 -2816.0 1408.0 1792.0 1152.0 2304.0 1920.0
1280.0 128.0 -384.0 2560.0 1280.0 1152.0 128.0 -2176.0
00000000: 0000 80c3 0000 6044 0000 30c5 0000 b044
00000010: 0000 e044 0000 9044 0000 1045 0000 f044
00000020: 0000 a044 0000 0043 0000 c0c3 0000 2045
00000030: 0000 a044 0000 9044 0000 0043 0000 08c5

block2_conv1d_bn_relu_2.op.weight f4 [16, 16, 5]
-15.0 17.0 -27.0 7.0 -27.0 -41.0 -33.0 28.0
20.0 38.0 27.0 -37.0 -29.0 -9.0 -27.0 25.0
-31.0 -18.0 -35.0 -21.0 33.0 33.0 30.0 31.0
34.0 -9.0 18.0 34.0 11.0 36.0 23.0 26.0
-13.0 17.0 3.0 -11.0 -22.0 -21.0 -29.0 27.0
28.0 -4.0 -20.0 33.0 26.0 0.0 -21.0 33.0
15.0 -29.0 32.0 25.0 -16.0 20.0 -24.0 -5.0
34.0 5.0 -24.0 -11.0 -11.0 -8.0 3.0 34.0
1.0 -23.0 1.0 16.0 16.0 -36.0 -8.0 -30.0
-18.0 13.0 -28.0 8.0 28.0 0.0 -27.0 -15.0
6.0 -39.0 19.0 -46.0 -47.0 -45.0 -7.0 34.0
-42.0 39.0 -22.0 10.0 -2.0 -47.0 35.0 26.0
46.0 20.0 -35.0 35.0 4.0 21.0 -40.0 -16.0
-48.0 -19.0 9.0 -39.0 12.0 22.0 5.0 -33.0
-38.0 -15.0 20.0 48.0 30.0 -3.0 18.0 -45.0
-37.0 19.0 -27.0 20.0 -35.0 -24.0 -37.0 28.0
-1.0 42.0 24.0 21.0 -2.0 -19.0 -13.0 9.0
25.0 -33.0 39.0 -6.0 -40.0 -24.0 41.0 43.0
-40.0 29.0 18.0 24.0 39.0 -23.0 11.0 18.0
-14.0 16.0 -13.0 24.0 -17.0 -21.0 9.0 14.0
-17.0 3.0 23.0 -1.0 14.0 -6.0 16.0 -27.0
-22.0 -18.0 32.0 -10.0 0.0 -20.0 35.0 43.0
-26.0 -28.0 -25.0 4.0 -7.0 -24.0 -11.0 9.0
-17.0 10.0 -8.0 -17.0 6.0 32.0 -25.0 2.0
-14.0 38.0 -35.0 -34.0 38.0 -22.0 8.0 -3.0
-7.0 -8.0 25.0 3.0 -36.0 -22.0 -13.0 17.0
-26.0 34.0 -5.0 -5.0 31.0 20.0 35.0 24.0
-11.0 -25.0 -1.0 32.0 -14.0 -36.0 13.0 33.0
-12.0 -30.0 -33.0 12.0 0.0 -18.0 9.0 16.0
32.0 30.0 -5.0 -33.0 -33.0 37.0 20.0 19.0
-49.0 49.0 50.0 51.0 -48.0 -21.0 -38.0 51.0
-24.0 -28.0 26.0 -28.0 -31.0 -8.0 -10.0 -44.0
00000000: 0000 70c1 0000 8841 0000 d8c1 0000 e040
00000010: 0000 d8c1 0000 24c2 0000 04c2 0000 e041
00000020: 0000 a041 0000 1842 0000 d841 0000 14c2
00000030: 0000 e8c1 0000 10c1 0000 d8c1 0000 c841
00000040: 0000 f8c1 0000 90c1 0000 0cc2 0000 a8c1
00000050: 0000 0442 0000 0442 0000 f041 0000 f841
00000060: 0000 0842 0000 10c1 0000 9041 0000 0842
00000070: 0000 3041 0000 1042 0000 b841 0000 d041
00000080: 0000 50c1 0000 8841 0000 4040 0000 30c1
00000090: 0000 b0c1 0000 a8c1 0000 e8c1 0000 d841
000000a0: 0000 e041 0000 80c0 0000 a0c1 0000 0442
000000b0: 0000 d041 0000 0000 0000 a8c1 0000 0442
000000c0: 0000 7041 0000 e8c1 0000 0042 0000 c841
000000d0: 0000 80c1 0000 a041 0000 c0c1 0000 a0c0
000000e0: 0000 0842 0000 a040 0000 c0c1 0000 30c1
000000f0: 0000 30c1 0000 00c1 0000 4040 0000 0842
00000100: 0000 803f 0000 b8c1 0000 803f 0000 8041
00000110: 0000 8041 0000 10c2 0000 00c1 0000 f0c1
00000120: 0000 90c1 0000 5041 0000 e0c1 0000 0041
00000130: 0000 e041 0000 0000 0000 d8c1 0000 70c1
00000140: 0000 c040 0000 1cc2 0000 9841 0000 38c2
00000150: 0000 3cc2 0000 34c2 0000 e0c0 0000 0842
00000160: 0000 28c2 0000 1c42 0000 b0c1 0000 2041
00000170: 0000 00c0 0000 3cc2 0000 0c42 0000 d041
00000180: 0000 3842 0000 a041 0000 0cc2 0000 0c42
00000190: 0000 8040 0000 a841 0000 20c2 0000 80c1
000001a0: 0000 40c2 0000 98c1 0000 1041 0000 1cc2
000001b0: 0000 4041 0000 b041 0000 a040 0000 04c2
000001c0: 0000 18c2 0000 70c1 0000 a041 0000 4042
000001d0: 0000 f041 0000 40c0 0000 9041 0000 34c2
000001e0: 0000 14c2 0000 9841 0000 d8c1 0000 a041
000001f0: 0000 0cc2 0000 c0c1 0000 14c2 0000 e041
00000200: 0000 80bf 0000 2842 0000 c041 0000 a841
00000210: 0000 00c0 0000 98c1 0000 50c1 0000 1041
00000220: 0000 c841 0000 04c2 0000 1c42 0000 c0c0
00000230: 0000 20c2 0000 c0c1 0000 2442 0000 2c42
00000240: 0000 20c2 0000 e841 0000 9041 0000 c041
00000250: 0000 1c42 0000 b8c1 0000 3041 0000 9041
00000260: 0000 60c1 0000 8041 0000 50c1 0000 c041
00000270: 0000 88c1 0000 a8c1 0000 1041 0000 6041
00000280: 0000 88c1 0000 4040 0000 b841 0000 80bf
00000290: 0000 6041 0000 c0c0 0000 8041 0000 d8c1
000002a0: 0000 b0c1 0000 90c1 0000 0042 0000 20c1
000002b0: 0000 0000 0000 a0c1 0000 0c42 0000 2c42
000002c0: 0000 d0c1 0000 e0c1 0000 c8c1 0000 8040
000002d0: 0000 e0c0 0000 c0c1 0000 30c1 0000 1041
000002e0: 0000 88c1 0000 2041 0000 00c1 0000 88c1
000002f0: 0000 c040 0000 0042 0000 c8c1 0000 0040
00000300: 0000 60c1 0000 1842 0000 0cc2 0000 08c2
00000310: 0000 1842 0000 b0c1 0000 0041 0000 40c0
00000320: 0000 e0c0 0000 00c1 0000 c841 0000 4040
00000330: 0000 10c2 0000 b0c1 0000 50c1 0000 8841
00000340: 0000 d0c1 0000 0842 0000 a0c0 0000 a0c0
00000350: 0000 f841 0000 a041 0000 0c42 0000 c041
00000360: 0000 30c1 0000 c8c1 0000 80bf 0000 0042
00000370: 0000 60c1 0000 10c2 0000 5041 0000 0442
00000380: 0000 40c1 0000 f0c1 0000 04c2 0000 4041
00000390: 0000 0000 0000 90c1 0000 1041 0000 8041
000003a0: 0000 0042 0000 f041 0000 a0c0 0000 04c2
000003b0: 0000 04c2 0000 1442 0000 a041 0000 9841
000003c0: 0000 44c2 0000 4442 0000 4842 0000 4c42
000003d0: 0000 40c2 0000 a8c1 0000 18c2 0000 4c42
000003e0: 0000 c0c1 0000 e0c1 0000 d041 0000 e0c1
000003f0: 0000 f8c1 0000 00c1 0000 20c1 0000 30c2

block2_conv1d_bn_relu_2.op.bias f4 [16]
-768.0 1024.0 256.0 256.0 -640.0 -512.0 -6016.0 2816.0
2304.0 9344.0 3456.0 -1152.0 -2432.0 6656.0 -3968.0 512.0
00000000: 0000 40c4 0000 8044 0000 8043 0000 8043
00000010: 0000 20c4 0000 00c4 0000 bcc5 0000 3045
00000020: 0000 1045 0000 1246 0000 5845 0000 90c4
00000030: 0000 18c5 0000 d045 0000 78c5 0000 0044

block2_conv1d_bn_relu_3.op.weight f4 [16, 16, 5]
-59.0 -54.0 40.0 64.0 10.0 -49.0 32.0 6.0
-77.0 -56.0 8.0 42.0 -34.0 33.0 -56.0 71.0
47.0 7.0 27.0 21.0 -55.0 -5.0 18.0 -18.0
74.0 -39.0 -79.0 -44.0 -80.0 60.0 -47.0 -68.0
-20.0 -66.0 -53.0 36.0 -65.0 31.0 53.0 -7.0
43.0 -39.0 67.0 78.0 15.0 77.0 -76.0 -7.0
17.0 -69.0 41.0 -32.0 -32.0 -70.0 30.0 -59.0
-19.0 32.0 56.0 12.0 -38.0 -44.0 37.0 7.0
63.0 25.0 63.0 -71.0 63.0 -41.0 -29.0 -6.0
-25.0 8.0 63.0 -44.0 25.0 -69.0 6.0 59.0
40.0 50.0 28.0 -11.0 8.0 -30.0 47.0 31.0
-41.0 57.0 -3.0 -3.0 -19.0 -22.0 -2.0 -35.0
-61.0 -33.0 -12.0 47.0 39.0 -42.0 -7.0 -22.0
-36.0 -18.0 -25.0 36.0 -27.0 15.0 -41.0 -23.0
43.0 -35.0 -9.0 52.0 18.0 -32.0 -38.0 -23.0
-24.0 23.0 -17.0 49.0 -34.0 -17.0 24.0 50.0
63.0 14.0 2.0 -29.0 32.0 -33.0 -8.0 -52.0
-63.0 28.0 0.0 46.0 41.0 31.0 29.0 -10.0
36.0 27.0 21.0 2.0 12.0 1.0 -48.0 11.0
-45.0 27.0 -40.0 -27.0 -35.0 44.0 -44.0 38.0
28.0 44.0 13.0 34.0 52.0 15.0 24.0 -56.0
-25.0 0.0 10.0 -23.0 -66.0 -17.0 26.0 58.0
-60.0 33.0 -64.0 -65.0 -44.0 -14.0 16.0 -54.0
53.0 64.0 4.0 53.0 -34.0 -31.0 -9.0 6.0
-49.0 -58.0 23.0 21.0 67.0 -25.0 27.0 -25.0
33.0 -4.0 54.0 42.0 62.0 39.0 5.0 62.0
-39.0 65.0 70.0 71.0 -27.0 -31.0 5.0 21.0
34.0 28.0 59.0 -16.0 -22.0 22.0 18.0 -43.0
3.0 -52.0 -22.0 -27.0 59.0 -61.0 -39.0 -65.0
18.0 -51.0 24.0 -47.0 -41.0 -30.0 15.0 65.0
63.0 -11.0 -77.0 -31.0 -35.0 -16.0 25.0 40.0
31.0 13.0 -36.0 -8.0 1.0 -45.0 -13.0 -15.0
00000000: 0000 6cc2 0000 58c2 0000 2042 0000 8042
00000010: 0000 2041 0000 44c2 0000 0042 0000 c040
00000020: 0000 9ac2 0000 60c2 0000 0041 0000 2842
00000030: 0000 08c2 0000 0442 0000 60c2 0000 8e42
00000040: 0000 3c42 0000 e040 0000 d841 0000 a841
00000050: 0000 5cc2 0000 a0c0 0000 9041 0000 90c1
00000060: 0000 9442 0000 1cc2 0000 9ec2 0000 30c2
00000070: 0000 a0c2 0000 7042 0000 3cc2 0000 88c2
00000080: 0000 a0c1 0000 84c2 0000 54c2 0000 1042
00000090: 0000 82c2 0000 f841 0000 5442 0000 e0c0
000000a0: 0000 2c42 0000 1cc2 0000 8642 0000 9c42
000000b0: 0000 7041 0000 9a42 0000 98c2 0000 e0c0
000000c0: 0000 8841 0000 8ac2 0000 2442 0000 00c2
000000d0: 0000 00c2 0000 8cc2 0000 f041 0000 6cc2
000000e0: 0000 98c1 0000 0042 0000 6042 0000 4041
000000f0: 0000 18c2 0000 30c2 0000 1442 0000 e040
00000100: 0000 7c42 0000 c841 0000 7c42 0000 8ec2
00000110: 0000 7c42 0000 24c2 0000 e8c1 0000 c0c0
00000120: 0000 c8c1 0000 0041 0000 7c42 0000 30c2
00000130: 0000 c841 0000 8ac2 0000 c040 0000 6c42
00000140: 0000 2042 0000 4842 0000 e041 0000 30c1
00000150: 0000 0041 0000 f0c1 0000 3c42 0000 f841
00000160: 0000 24c2 0000 6442 0000 40c0 0000 40c0
00000170: 0000 98c1 0000 b0c1 0000 00c0 0000 0cc2
00000180: 0000 74c2 0000 04c2 0000 40c1 0000 3c42
00000190: 0000 1c42 0000 28c2 0000 e0c0 0000 b0c1
000001a0: 0000 10c2 0000 90c1 0000 c8c1 0000 1042
000001b0: 0000 d8c1 0000 7041 0000 24c2 0000 b8c1
000001c0: 0000 2c42 0000 0cc2 0000 10c1 0000 5042
000001d0: 0000 9041 0000 00c2 0000 18c2 0000 b8c1
000001e0: 0000 c0c1 0000 b841 0000 88c1 0000 4442
000001f0: 0000 08c2 0000 88c1 0000 c041 0000 4842
00000200: 0000 7c42 0000 6041 0000 0040 0000 e8c1
00000210: 0000 0042 0000 04c2 0000 00c1 0000 50c2
00000220: 0000 7cc2 0000 e041 0000 0000 0000 3842
00000230: 0000 2442 0000 f841 0000 e841 0000 20c1
00000240: 0000 1042 0000 d841 0000 a841 0000 0040
00000250: 0000 4041 0000 803f 0000 40c2 0000 3041
00000260: 0000 34c2 0000 d841 0000 20c2 0000 d8c1
00000270: 0000 0cc2 0000 3042 0000 30c2 0000 1842
00000280: 0000 e041 0000 3042 0000 5041 0000 0842
00000290: 0000 5042 0000 7041 0000 c041 0000 60c2
000002a0: 0000 c8c1 0000 0000 0000 2041 0000 b8c1
000002b0: 0000 84c2 0000 88c1 0000 d041 0000 6842
000002c0: 0000 70c2 0000 0442 0000 80c2 0000 82c2
000002d0: 0000 30c2 0000 60c1 0000 8041 0000 58c2
000002e0: 0000 5442 0000 8042 0000 8040 0000 5442
000002f0: 0000 08c2 0000 f8c1 0000 10c1 0000 c040
00000300: 0000 44c2 0000 68c2 0000 b841 0000 a841
00000310: 0000 8642 0000 c8c1 0000 d841 0000 c8c1
00000320: 0000 0442 0000 80c0 0000 5842 0000 2842
00000330: 0000 7842 0000 1c42 0000 a040 0000 7842
00000340: 0000 1cc2 0000 8242 0000 8c42 0000 8e42
00000350: 0000 d8c1 0000 f8c1 0000 a040 0000 a841
00000360: 0000 0842 0000 e041 0000 6c42 0000 80c1
00000370: 0000 b0c1 0000 b041 0000 9041 0000 2cc2
00000380: 0000 4040 0000 50c2 0000 b0c1 0000 d8c1
00000390: 0000 6c42 0000 74c2 0000 1cc2 0000 82c2
000003a0: 0000 9041 0000 4cc2 0000 c041 0000 3cc2
000003b0: 0000 24c2 0000 f0c1 0000 7041 0000 8242
000003c0: 0000 7c42 0000 30c1 0000 9ac2 0000 f8c1
000003d0: 0000 0cc2 0000 80c1 0000 c841 0000 2042
000003e0: 0000 f841 0000 5041 0000 10c2 0000 00c1
000003f0: 0000 803f 0000 34c2 0000 50c1 0000 70c1

block2_conv1d_bn_relu_3.op.bias f4 [16]
3712.0 640.0 -1536.0 4352.0 -3072.0 128.0 5248.0 -3200.0
3200.0 1792.0 3712.0 5120.0 -1280.0 6016.0 4736.0 -4096.0
00000000: 0000 6845 0000 2044 0000 c0c4 0000 8845
00000010: 0000 40c5 0000 0043 0000 a445 0000 48c5
00000020: 0000 4845 0000 e044 0000 6845 0000 a045
00000030: 0000 a0c4 0000 bc45 0000 9445 0000 80c5

block2_conv1d_bn_relu_4.op.weight f4 [16, 16, 4]
-23.0 5.0 -7.0 1.0 29.0 -40.0 44.0 32.0
-1.0 -20.0 11.0 -32.0 32.0 -27.0 9.0 -49.0
26.0 34.0 38.0 6.0 30.0 17.0 34.0 31.0
-47.0 1.0 -19.0 -24.0 32.0 -8.0 7.0 35.0
35.0 28.0 -7.0 -45.0 -46.0 17.0 0.0 -31.0
23.0 46.0 30.0 -6.0 3.0 -35.0 19.0 -42.0
33.0 -24.0 -21.0 -45.0 -14.0 -7.0 -25.0 35.0
29.0 -43.0 -4.0 20.0 44.0 -14.0 30.0 -3.0
-25.0 44.0 -55.0 59.0 61.0 -24.0 18.0 59.0
17.0 24.0 21.0 -30.0 12.0 -39.0 49.0 -31.0
23.0 -10.0 42.0 8.0 32.0 -20.0 -41.0 21.0
-39.0 -56.0 22.0 -40.0 -26.0 -18.0 5.0 -22.0
-23.0 -16.0 50.0 24.0 -34.0 -48.0 -4.0 16.0
-2.0 36.0 54.0 15.0 21.0 37.0 -23.0 14.0
55.0 -27.0 9.0 -22.0 -52.0 32.0 50.0 -38.0
19.0 17.0 24.0 35.0 65.0 49.0 -56.0 -22.0
34.0 -37.0 10.0 -29.0 11.0 30.0 22.0 48.0
-10.0 30.0 18.0 -23.0 -47.0 57.0 -19.0 47.0
38.0 -5.0 -53.0 2.0 -35.0 11.0 -29.0 44.0
-58.0 -16.0 9.0 4.0 48.0 -23.0 -55.0 35.0
20.0 45.0 -36.0 -36.0 -27.0 5.0 22.0 -34.0
-8.0 -13.0 54.0 -25.0 71.0 -35.0 -25.0 -47.0
44.0 -42.0 29.0 -21.0 60.0 7.0 -56.0 7.0
3.0 -66.0 8.0 54.0 11.0 -3.0 -14.0 20.0
-20.0 40.0 36.0 19.0 -17.0 -41.0 -26.0 39.0
-37.0 -38.0 -2.0 14.0 -44.0 -41.0 -1.0 -15.0
25.0 9.0 -39.0 -41.0 31.0 -5.0 -17.0 13.0
-8.0 21.0 12.0 -16.0 -32.0 24.0 -23.0 -3.0
5.0 -25.0 21.0 -30.0 9.0 3.0 14.0 -42.0
4.0 23.0 -25.0 12.0 -1.0 34.0 -9.0 1.0
-18.0 -11.0 10.0 -42.0 33.0 32.0 19.0 32.0
-11.0 12.0 4.0 -28.0 -14.0 -13.0 -10.0 -37.0
00000000: 0000 b8c1 0000 a040 0000 e0c0 0000 803f
00000010: 0000 e841 0000 20c2 0000 3042 0000 0042
00000020: 0000 80bf 0000 a0c1 0000 3041 0000 00c2
00000030: 0000 0042 0000 d8c1 0000 1041 0000 44c2
00000040: 0000 d041 0000 0842 0000 1842 0000 c040
00000050: 0000 f041 0000 8841 0000 0842 0000 f841
00000060: 0000 3cc2 0000 803f 0000 98c1 0000 c0c1
00000070: 0000 0042 0000 00c1 0000 e040 0000 0c42
00000080: 0000 0c42 0000 e041 0000 e0c0 0000 34c2
00000090: 0000 38c2 0000 8841 0000 0000 0000 f8c1
000000a0: 0000 b841 0000 3842 0000 f041 0000 c0c0
000000b0: 0000 4040 0000 0cc2 0000 9841 0000 28c2
000000c0: 0000 0442 0000 c0c1 0000 a8c1 0000 34c2
000000d0: 0000 60c1 0000 e0c0 0000 c8c1 0000 0c42
000000e0: 0000 e841 0000 2cc2 0000 80c0 0000 a041
000000f0: 0000 3042 0000 60c1 0000 f041 0000 40c0
00000100: 0000 c8c1 0000 3042 0000 5cc2 0000 6c42
00000110: 0000 7442 0000 c0c1 0000 9041 0000 6c42
00000120: 0000 8841 0000 c041 0000 a841 0000 f0c1
00000130: 0000 4041 0000 1cc2 0000 4442 0000 f8c1
00000140: 0000 b841 0000 20c1 0000 2842 0000 0041
00000150: 0000 0042 0000 a0c1 0000 24c2 0000 a841
00000160: 0000 1cc2 0000 60c2 0000 b041 0000 20c2
00000170: 0000 d0c1 0000 90c1 0000 a040 0000 b0c1
00000180: 0000 b8c1 0000 80c1 0000 4842 0000 c041
00000190: 0000 08c2 0000 40c2 0000 80c0 0000 8041
000001a0: 0000 00c0 0000 1042 0000 5842 0000 7041
000001b0: 0000 a841 0000 1442 0000 b8c1 0000 6041
000001c0: 0000 5c42 0000 d8c1 0000 1041 0000 b0c1
000001d0: 0000 50c2 0000 0042 0000 4842 0000 18c2
000001e0: 0000 9841 0000 8841 0000 c041 0000 0c42
000001f0: 0000 8242 0000 4442 0000 60c2 0000 b0c1
00000200: 0000 0842 0000 14c2 0000 2041 0000 e8c1
00000210: 0000 3041 0000 f041 0000 b041 0000 4042
00000220: 0000 20c1 0000 f041 0000 9041 0000 b8c1
00000230: 0000 3cc2 0000 6442 0000 98c1 0000 3c42
00000240: 0000 1842 0000 a0c0 0000 54c2 0000 0040
00000250: 0000 0cc2 0000 3041 0000 e8c1 0000 3042
00000260: 0000 68c2 0000 80c1 0000 1041 0000 8040
00000270: 0000 4042 0000 b8c1 0000 5cc2 0000 0c42
00000280: 0000 a041 0000 3442 0000 10c2 0000 10c2
00000290: 0000 d8c1 0000 a040 0000 b041 0000 08c2
000002a0: 0000 00c1 0000 50c1 0000 5842 0000 c8c1
000002b0: 0000 8e42 0000 0cc2 0000 c8c1 0000 3cc2
000002c0: 0000 3042 0000 28c2 0000 e841 0000 a8c1
000002d0: 0000 7042 0000 e040 0000 60c2 0000 e040
000002e0: 0000 4040 0000 84c2 0000 0041 0000 5842
000002f0: 0000 3041 0000 40c0 0000 60c1 0000 a041
00000300: 0000 a0c1 0000 2042 0000 1042 0000 9841
00000310: 0000 88c1 0000 24c2 0000 d0c1 0000 1c42
00000320: 0000 14c2 0000 18c2 0000 00c0 0000 6041
00000330: 0000 30c2 0000 24c2 0000 80bf 0000 70c1
00000340: 0000 c841 0000 1041 0000 1cc2 0000 24c2
00000350: 0000 f841 0000 a0c0 0000 88c1 0000 5041
00000360: 0000 00c1 0000 a841 0000 4041 0000 80c1
00000370: 0000 00c2 0000 c041 0000 b8c1 0000 40c0
00000380: 0000 a040 0000 c8c1 0000 a841 0000 f0c1
00000390: 0000 1041 0000 4040 0000 6041 0000 28c2
000003a0: 0000 8040 0000 b841 0000 c8c1 0000 4041
000003b0: 0000 80bf 0000 0842 0000 10c1 0000 803f
000003c0: 0000 90c1 0000 30c1 0000 2041 0000 28c2
000003d0: 0000 0442 0000 0042 0000 9841 0000 0042
000003e0: 0000 30c1 0000 4041 0000 8040 0000 e0c1
000003f0: 0000 60c1 0000 50c1 0000 20c1 0000 14c2

block2_conv1d_bn_relu_4.op.bias f4 [16]
-1408.0 -2688.0 640.0 2816.0 -128.0 -768.0 2944.0 -512.0
5632.0 3968.0 2688.0 -2944.0 128.0 2432.0 -5504.0 1024.0
00000000: 0000 b0c4 0000 28c5 0000 2044 0000 3045
00000010: 0000 00c3 0000 40c4 0000 3845 0000 00c4
00000020: 0000 b045 0000 7845 0000 2845 0000 38c5
00000030: 0000 0043 0000 1845 0000 acc5 0000 8044

block3_conv1d_bn_relu_1.op.weight f4 [16, 16, 8]
-51.0 -28.0 9.0 -51.0 8.0 20.0 44.0 46.0
42.0 -20.0 -4.0 51.0 27.0 -21.0 52.0 -51.0
47.0 36.0 -46.0 -58.0 45.0 62.0 7.0 -25.0
37.0 21.0 -16.0 48.0 39.0 12.0 33.0 -48.0
-35.0 16.0 7.0 -15.0 11.0 30.0 -57.0 18.0
-8.0 -44.0 9.0 -11.0 -33.0 -63.0 63.0 -30.0
3.0 53.0 -2.0 -37.0 -58.0 10.0 -20.0 9.0
21.0 -16.0 39.0 -11.0 -22.0 -40.0 27.0 -32.0
20.0 -4.0 47.0 -24.0 -21.0 -10.0 -27.0 29.0
-20.0 17.0 32.0 33.0 -9.0 27.0 -22.0 -49.0
1.0 -43.0 -46.0 10.0 54.0 -31.0 -5.0 -43.0
-2.0 16.0 -17.0 41.0 -59.0 -8.0 -29.0 55.0
37.0 61.0 49.0 12.0 -56.0 -30.0 28.0 -56.0
36.0 18.0 12.0 -56.0 45.0 -14.0 -21.0 35.0
3.0 -34.0 12.0 -41.0 50.0 43.0 22.0 34.0
-58.0 -24.0 -58.0 -29.0 -58.0 46.0 21.0 31.0
-26.0 40.0 -10.0 -16.0 27.0 32.0 -41.0 49.0
-5.0 16.0 -54.0 6.0 -27.0 -35.0 -22.0 0.0
-15.0 -35.0 39.0 17.0 -50.0 10.0 14.0 2.0
13.0 -4.0 24.0 -38.0 -23.0 41.0 -33.0 28.0
50.0 -51.0 -23.0 45.0 -5.0 9.0 7.0 21.0
-23.0 7.0 37.0 -5.0 -49.0 19.0 -13.0 -10.0
28.0 8.0 -33.0 -25.0 -9.0 -15.0 -11.0 -37.0
39.0 29.0 10.0 12.0 6.0 40.0 12.0 9.0
-30.0 18.0 -51.0 15.0 -49.0 -24.0 27.0 -34.0
42.0 -29.0 52.0 15.0 -23.0 33.0 -48.0 -33.0
-35.0 6.0 4.0 -48.0 49.0 -3.0 -31.0 -1.0
-23.0 14.0 19.0 -15.0 3.0 31.0 -35.0 -12.0
-7.0 -36.0 5.0 4.0 -44.0 11.0 53.0 30.0
-30.0 50.0 -38.0 -28.0 24.0 43.0 51.0 46.0
-30.0 14.0 -33.0 1.0 47.0 28.0 -49.0 -22.0
-46.0 23.0 -7.0 -41.0 -21.0 15.0 3.0 48.0
00000000: 0000 4cc2 0000 e0c1 0000 1041 0000 4cc2
00000010: 0000 0041 0000 a041 0000 3042 0000 3842
00000020: 0000 2842 0000 a0c1 0000 80c0 0000 4c42
00000030: 0000 d841 0000 a8c1 0000 5042 0000 4cc2
00000040: 0000 3c42 0000 1042 0000 38c2 0000 68c2
00000050: 0000 3442 0000 7842 0000 e040 0000 c8c1
00000060: 0000 1442 0000 a841 0000 80c1 0000 4042
00000070: 0000 1c42 0000 4041 0000 0442 0000 40c2
00000080: 0000 0cc2 0000 8041 0000 e040 0000 70c1
00000090: 0000 3041 0000 f041 0000 64c2 0000 9041
000000a0: 0000 00c1 0000 30c2 0000 1041 0000 30c1
000000b0: 0000 04c2 0000 7cc2 0000 7c42 0000 f0c1
000000c0: 0000 4040 0000 5442 0000 00c0 0000 14c2
000000d0: 0000 68c2 0000 2041 0000 a0c1 0000 1041
000000e0: 0000 a841 0000 80c1 0000 1c42 0000 30c1
000000f0: 0000 b0c1 0000 20c2 0000 d841 0000 00c2
00000100: 0000 a041 0000 80c0 0000 3c42 0000 c0c1
00000110: 0000 a8c1 0000 20c1 0000 d8c1 0000 e841
00000120: 0000 a0c1 0000 8841 0000 0042 0000 0442
00000130: 0000 10c1 0000 d841 0000 b0c1 0000 44c2
00000140: 0000 803f 0000 2cc2 0000 38c2 0000 2041
00000150: 0000 5842 0000 f8c1 0000 a0c0 0000 2cc2
00000160: 0000 00c0 0000 8041 0000 88c1 0000 2442
00000170: 0000 6cc2 0000 00c1 0000 e8c1 0000 5c42
00000180: 0000 1442 0000 7442 0000 4442 0000 4041
00000190: 0000 60c2 0000 f0c1 0000 e041 0000 60c2
000001a0: 0000 1042 0000 9041 0000 4041 0000 60c2
000001b0: 0000 3442 0000 60c1 0000 a8c1 0000 0c42
000001c0: 0000 4040 0000 08c2 0000 4041 0000 24c2
000001d0: 0000 4842 0000 2c42 0000 b041 0000 0842
000001e0: 0000 68c2 0000 c0c1 0000 68c2 0000 e8c1
000001f0: 0000 68c2 0000 3842 0000 a841 0000 f841
00000200: 0000 d0c1 0000 2042 0000 20c1 0000 80c1
00000210: 0000 d841 0000 0042 0000 24c2 0000 4442
00000220: 0000 a0c0 0000 8041 0000 58c2 0000 c040
00000230: 0000 d8c1 0000 0cc2 0000 b0c1 0000 0000
00000240: 0000 70c1 0000 0cc2 0000 1c42 0000 8841
00000250: 0000 48c2 0000 2041 0000 6041 0000 0040
00000260: 0000 5041 0000 80c0 0000 c041 0000 18c2
00000270: 0000 b8c1 0000 2442 0000 04c2 0000 e041
00000280: 0000 4842 0000 4cc2 0000 b8c1 0000 3442
00000290: 0000 a0c0 0000 1041 0000 e040 0000 a841
000002a0: 0000 b8c1 0000 e040 0000 1442 0000 a0c0
000002b0: 0000 44c2 0000 9841 0000 50c1 0000 20c1
000002c0: 0000 e041 0000 0041 0000 04c2 0000 c8c1
000002d0: 0000 10c1 0000 70c1 0000 30c1 0000 14c2
000002e0: 0000 1c42 0000 e841 0000 2041 0000 4041
000002f0: 0000 c040 0000 2042 0000 4041 0000 1041
00000300: 0000 f0c1 0000 9041 0000 4cc2 0000 7041
00000310: 0000 44c2 0000 c0c1 0000 d841 0000 08c2
00000320: 0000 2842 0000 e8c1 0000 5042 0000 7041
00000330: 0000 b8c1 0000 0442 0000 40c2 0000 04c2
00000340: 0000 0cc2 0000 c040 0000 8040 0000 40c2
00000350: 0000 4442 0000 40c0 0000 f8c1 0000 80bf
00000360: 0000 b8c1 0000 6041 0000 9841 0000 70c1
00000370: 0000 4040 0000 f841 0000 0cc2 0000 40c1
00000380: 0000 e0c0 0000 10c2 0000 a040 0000 8040
00000390: 0000 30c2 0000 3041 0000 5442 0000 f041
000003a0: 0000 f0c1 0000 4842 0000 18c2 0000 e0c1
000003b0: 0000 c041 0000 2c42 0000 4c42 0000 3842
000003c0: 0000 f0c1 0000 6041 0000 04c2 0000 803f
000003d0: 0000 3c42 0000 e041 0000 44c2 0000 b0c1
000003e0: 0000 38c2 0000 b841 0000 e0c0 0000 24c2
000003f0: 0000 a8c1 0000 7041 0000 4040 0000 4042

block3_conv1d_bn_relu_1.op.bias f4 [16]
2176.0 2304.0 11008.0 -7040.0 -2048.0 14080.0 896.0 16000.0
5120.0 -7936.0 1152.0 6016.0 3712.0 3328.0 -6016.0 0.0
00000000: 0000 0845 0000 1045 0000 2c46 0000 dcc5
00000010: 0000 00c5 0000 5c46 0000 6044 0000 7a46
00000020: 0000 a045 0000 f8c5 0000 9044 0000 bc45
00000030: 0000 6845 0000 5045 0000 bcc5 0000 0000

block6_dense.op.weight f4 [2, 16]
57.0 33.0 56.0 -13.0 3.0 55.0 43.0 45.0
3.0 -39.0 52.0 39.0 47.0 -7.0 -31.0 33.0
-60.0 -17.0 -11.0 38.0 -22.0 -75.0 -54.0 -30.0
-39.0 24.0 -50.0 -11.0 -6.0 8.0 23.0 -66.0
00000000: 0000 6442 0000 0442 0000 6042 0000 50c1
00000010: 0000 4040 0000 5c42 0000 2c42 0000 3442
00000020: 0000 4040 0000 1cc2 0000 5042 0000 1c42
00000030: 0000 3c42 0000 e0c0 0000 f8c1 0000 0442
00000040: 0000 70c2 0000 88c1 0000 30c1 0000 1842
00000050: 0000 b0c1 0000 96c2 0000 58c2 0000 f0c1
00000060: 0000 1cc2 0000 c041 0000 48c2 0000 30c1
00000070: 0000 c0c0 0000 0041 0000 b841 0000 84c2

momentum_buffer f4 [4, 1, 4]
0.0061451164 0.005379265 -0.0038820421 -0.0051810206 0.01295178 0.017058155 0.009923518 0.013353668
0.05350941 0.034783315 0.0020598546 -0.0030459762 -0.015092211 -0.012428624 -0.0034509879 0.0060326494
00000000: f95c c93b 8c44 b03b dc69 7ebb 8dc5 a9bb
00000010: b433 543c 8bbd 8b3c 4096 223c 58c9 5a3c
00000020: af2c 5b3d f378 0e3d a0fe 063b 009f 47bb
00000030: 5245 77bc 6da1 4bbc f829 62bb 88ad c53b

momentum_buffer f4 [4]
-0.08153599 0.018439949 -0.09285033 0.19122833
00000000: 57fc a6bd 600f 973c 5028 bebd 5cd1 433e

momentum_buffer f4 [16, 4, 5]
0.008718831 0.005021899 0.0008140607 -0.0011885162 -0.00020443182 -0.0047419956 0.00028359564 -0.0011806736
0.0025602714 0.0014976319 0.0063919616 0.0037517757 -0.0008450197 -0.004169629 -0.002797693 0.0036907664
0.0028513067 0.0020794305 -0.0023241984 -0.0013734493 -0.003663784 -0.0045065796 0.003621067 -6.2421896e-05
-0.008159003 0.017954767 0.017813807 0.008083531 -0.0005816724 0.005219358 -0.0068740817 -0.0079643205
-0.000857783 -0.0009209097 -0.008443575 -0.008616708 -0.005838057 -0.0029896684 -0.0005589796 -0.0068768077
0.00470843 0.015841011 0.02130882 0.012158741 0.0075606983 0.007053692 -0.0019318685 -0.010629768
-0.0037456192 0.00113675 -0.0048120916 0.007638813 0.015332366 0.007327825 0.0016930457 -0.0030737007
0.0028495044 0.012532208 0.0077963164 0.0011454411 0.0052301325 0.0016571237 -0.00088144187 0.0002846499
0.00088024326 -0.001454761 0.0041420623 0.0028960104 -0.0047059082 -0.00028061494 0.0044818437 -0.00055595953
-0.0040992815 -0.0010294905 -0.0011715493 0.004498984 0.0036402969 -0.0035873083 -0.0018871957 0.00060704455
0.009667909 0.003388885 -0.0031778733 -0.0013629338 -0.00031793767 -0.0036191728 -0.001355711 -0.00027918865
-0.0027967347 -0.00638161 0.007711478 0.0027946031 -0.004138357 -0.001672863 0.00010607185 0.0052360552
0.0017695355 -0.0031133592 -0.0029993805 -0.00027218452 0.0021256073 0.0048515867 0.0054939035 0.0066165896
0.006289891 0.0014324245 -0.00024565164 -0.0007619285 0.00019517541 -0.00066939055 0.0011097109 0.00427094
0.005238899 0.006043445 0.007061256 -2.7281232e-05 0.0028369795 0.004535474 0.004800896 0.0058452245
0.0035037156 0.0031971775 0.000847718 -0.003775052 -0.0026029511 -0.006973192 -0.0065851808 -0.005290319
0.00014715552 -0.0019636834 0.0010428198 0.0014221418 -9.5264666e-05 -0.0030880189 -0.001291099 -0.00067196233
0.0014440506 -3.505178e-05 -0.002816232 -0.0024513225 -0.0021802867 -0.005544904 -0.0042428486 -0.0013529203
0.00078898977 0.00040202326 0.003839692 0.0062645487 0.0022435165 0.00028467947 -0.0013345238 -0.0054366332
-0.003250272 -0.0005532492 0.00023127592 -0.0016932385 -0.004520738 -0.0028447355 0.00011881594 -0.0006845959
0.0005216743 -0.0017632768 -0.002539188 -0.003011928 -0.0031649028 -0.0009669738 -0.0008302692 0.0033200858
0.0004826914 0.00063120073 -0.00042610336 -0.0017682104 -0.006131084 -0.0048194514 -0.0056320243 -0.0038355102
-0.0026376199 -0.0039293077 -0.005961158 -0.0029639895 0.008434449 0.0024642334 0.0016975702 0.0023227115
-0.0010010405 0.011768766 0.011501631 0.013533563 0.014865208 0.019071417 0.006113078 0.00082894607
0.0002174036 0.0012708171 -0.0020748067 0.0053646276 8.684702e-05 -0.0008623067 0.0022460816 -0.0012558601
0.006512386 0.0068964674 0.010126357 0.01612606 0.009688955 0.0042269467 0.010569601 0.0016669326
2.0002946e-05 0.0044166474 0.0035389806 0.0027892236 0.005503295 0.013393074 0.007841515 0.0016272152
0.0011939225 0.0021543228 0.009942528 0.009796532 -0.0007344242 0.0020388197 -0.0052430555 0.003705374
0.0059505375 -0.009172964 -0.0010182471 0.0030684143 -0.007851823 -0.009748686 -0.003752295 -0.00021592621
-0.0064504207 0.00039786287 0.0034368197 -0.0036182236 -3.9332546e-05 -0.0041990783 -0.0010891096 0.0031539905
-0.011583885 -0.0045483564 0.00025204336 -0.005490736 -0.008025171 -0.0043079285 -0.0055850754 -0.0064306855
-0.0016902238 -0.004623563 -0.008977719 -0.004167212 0.00084516034 -0.0038657254 -0.006917328 -0.0048649344
00000000: 6ed9 0e3c be8e a43b b066 553a fcc7 9bba
00000010: c05c 56b9 be62 9bbb 90af 9439 d5c0 9aba
00000020: 3aca 273b 304c c43a a973 d13b 5ae0 753b
00000030: 5084 5dba 62a1 88bb 8059 37bb c9e0 713b
00000040: fddc 3a3b 0e47 083b 9451 18bb 5005 b4ba
00000050: 181c 70bb eeab 93bb 6c4f 6d3b 80e8 82b8
00000060: 57ad 05bc e015 933c 43ee 913c c970 043c
00000070: 607b 18ba 2607 ab3b fa3f e1bb c87c 02bc
00000080: d8dc 60ba 3469 71ba ec56 0abc 182d 0dbc
00000090: 2c4d bfbb 50ee 43bb 7c88 12ba d856 e1bb
000000a0: 2c49 9a3b 02c5 813c d68f ae3c 7535 473c
000000b0: bcbf f73b a822 e73b c036 fdba 7a28 2ebc
000000c0: 1079 75bb 00ff 943a c0ae 9dbb 024f fa3b
000000d0: 9b34 7b3c 401e f03b 30e9 dd3a 2470 49bb
000000e0: c0be 3a3b e453 4d3c 3e78 ff3b a022 963a
000000f0: 8861 ab3b d833 d93a 9010 67ba 103d 9539
00000100: 20c0 663a aead beba 23ba 873b feca 3d3b
00000110: 0534 9abb 801f 93b9 6edc 923b d0bd 11ba
00000120: 4453 86bb f8ef 86ba ac8e 99ba 376c 933b
00000130: 0c92 6e3b 0c19 6bbb c85b f7ba 1222 1f3a
00000140: 2666 1e3c 0e18 5e3b de43 50bb 78a4 b2ba
00000150: dfb0 a6b9 a52f 6dbb 1db2 b1ba 1160 92b9
00000160: 6c49 37bb d31c d1bb 91b0 fc3b a925 373b
00000170: 0e9b 87bb f843 dbba e472 de38 3793 ab3b
00000180: c2ef e73a 8009 4cbb 4191 44bb fdb3 8eb9
00000190: c64d 0b3b 0ffa 9e3b 3406 b43b facf d83b
000001a0: 6e1b ce3b 31c0 bb3a ceca 80b9 28bc 47ba
000001b0: 00a8 4c39 0a7a 2fba b873 913a 3ef3 8b3b
000001c0: 12ab ab3b 1708 c63b 1c62 e73b 00da e4b7
000001d0: 9eec 393b 509e 943b d650 9d3b 4c89 bf3b
000001e0: 989e 653b bd87 513b 6439 5e3a dd66 77bb
000001f0: 4696 2abb 607f e4bb 80c8 d7bb 6a5a adbb
00000200: c24d 1a39 24b1 00bb 3aaf 883a 2967 ba3a
00000210: d4c8 c7b8 5c60 4abb 183a a9ba a126 30ba
00000220: 4c46 bd3a 9004 13b8 8890 38bb 5ea6 20bb
00000230: 24e3 0ebb 07b2 b5bb 9807 8bbb 7954 b1ba
00000240: 35d4 4e3a a6c6 d239 58a3 7b3b d846 cd3b
00000250: f607 133b 0841 9539 30eb aeba c925 b2bb
00000260: 8402 55bb ed07 11ba a882 7239 a8ef ddba
00000270: b322 94bb be6e 3abb d22c f938 7476 33ba
00000280: f8c0 083a c01d e7ba 8168 26bb c463 45bb
00000290: 426a 4fbb 837c 7dba 6ca6 59ba cc95 593b
000002a0: be11 fd39 2a77 253a a066 dfb9 4cc3 e7ba
000002b0: 43e7 c8bb 7dec 9dbb d88c b8bb 2f5d 7bbb
000002c0: ebdb 2cbb 6cc1 80bb d155 c3bb 7e3f 42bb
000002d0: a530 0a3c fa7e 213b 0181 de3a a238 183b
000002e0: 5835 83ba c8d1 403c 5671 3c3c e1bb 5d3c
000002f0: 348d 733c a93b 9c3c 3750 c83b a14d 593a
00000300: d6f6 6339 8c91 a63a 7bf9 07bb c2c9 af3b
00000310: a421 b638 6c0c 62ba ff32 133b ac9b a4ba
00000320: da65 d53b c3fb e13b 05e9 253c cd1a 843c
00000330: 6cbe 1e3c 3382 8a3b 1f2c 2d3c fa7c da3a
00000340: 00cc a737 86b9 903b 3eee 673b 68cb 363b
00000350: fc54 b43b a06e 5b3c b379 003c 4848 d53a
00000360: 647d 9c3a 8a2f 0d3b fce5 223c a281 203c
00000370: 6086 40ba b89d 053b f0cd abbb dcd5 723b
00000380: bafc c23b 334a 16bc b476 85ba 7317 493b
00000390: efa4 00bc f4b8 1fbc 10e9 75bb 406a 62b9
000003a0: 0d5e d3bb 4098 d039 443c 613b b81f 6dbb
000003b0: 00f9 24b8 6c98 89bb 74c0 8eba 2eb3 4e3b
000003c0: 56ca 3dbc 610a 95bb b024 8439 a2eb b3bb
000003d0: 027c 03bc 8629 8dbb 0203 b7bb 80b8 d2bb
000003e0: 808a ddba 4281 97bb 4817 13bc 1c8d 88bb
000003f0: c08d 5d3a 1c58 7dbb c1aa e2bb 076a 9fbb

momentum_buffer f4 [16]
-0.007697141 -0.0073970575 0.0037292317 -0.011211092 -0.002179881 0.009603492 -0.0051208567 0.0020558676
-0.011987433 0.012154538 0.0020585246 -0.023774285 -0.016532816 0.0039291885 0.016439917 0.007867195
00000000: 4c38 fcbb 0463 f2bb 2066 743b baae 37bc
00000010: 56dc 0ebb f757 1d3c dccc a7bb bcbb 063b
00000020: f066 44bc d423 473c 50e8 063b 4ac2 c2bc
00000030: d46f 87bc 6cc0 803b 01ad 863c 68e5 003c

momentum_buffer f4 [16, 16, 5]
0.0007342305 -0.0010017967 -0.0016227011 -0.0006931928 -0.0002989338 0.0008386922 0.0019324209 0.0034057703
0.0014808755 0.0002351572 0.001267553 0.00050403416 0.0019277448 0.0011663476 -3.453082e-05 0.0027945852
0.0027811606 0.00045558705 -0.0015581007 -0.0016111274 0.004011245 0.0018715981 0.00048501306 -0.0005995489
0.0009675155 0.00064151443 0.0005962669 0.00040790794 0.0003178653 0.0010390964 0.00024034997 -1.8514576e-05
-0.00013501174 0.0004853896 0.0004784634 0.00011428294 0.00031434395 0.00021295028 -2.9296796e-05 -0.00016500677
0.0024136868 0.0027503718 0.0008789657 -0.0005600997 -0.00027623872 0.00015334823 3.959673e-05 0.00064088823
0.0009826166 0.0013625459 0.004059271 0.0011716979 -0.00079778186 -0.0015414038 0.00029766248 0.0026345735
0.0028378635 0.00029369013 -0.00023146044 -0.0005697397 -0.0011520742 -0.000998378 0.00070023595 0.0015331332
0.0029348945 -0.0015319076 -0.0021104533 0.00031309738 0.00029368544 0.0004661658 -0.00075027795 -0.0002608055
-0.00026624114 0.00036543264 0.00061076664 -0.0016027867 -0.0017896615 -0.00082044106 -0.0006806265 -0.00048683627
-0.0009804781 -0.0011197103 0.0014128123 0.00039364642 -0.000665589 -0.0031143012 -0.0038710418 -0.0015472181
0.00029064604 0.00501995 0.001622458 0.0029750436 0.002807632 0.0019273211 0.0035291295 -0.0025114403
-0.00146122 0.0008552899 0.0033818088 0.0015059519 0.00047737797 0.00085433986 0.00063148106 0.00013312348
-0.00015724191 0.00041280492 0.0007105438 -0.00067148125 -7.12688e-05 4.2848114e-06 -0.00038958786 -0.0003237687
-6.352437e-05 9.649271e-05 -0.00014685963 -0.00032587527 -0.0008321166 -0.0012143716 -0.00011975909 -0.000179926
-0.0019351653 0.0006890956 5.3095573e-07 0.00018927176 -0.00024770747 -0.00041646458 -0.0016381573 -0.0015618828
-0.0006841603 0.00089901686 9.974837e-05 -4.238868e-05 -0.0003577761 0.0003910562 0.00054411823 -0.0017609552
-0.0009091342 0.001314168 0.0038622934 -0.00039733364 0.0008281475 0.0016178613 0.0028499207 0.001787329
0.0003107899 -0.0012125087 0.0012028291 0.0019594706 -0.00088022224 -0.0026612384 0.0008582259 0.0018445365
-0.00039547414 -8.080126e-06 -0.00049870834 -0.0010537886 0.00018221258 0.00081198337 -2.6721711e-05 -0.0007704632
-0.00037894692 0.00084892416 0.0015285935 -0.00071542227 0.0021937178 -0.003212494 -0.003850614 0.000502696
0.0005837977 -0.0014941569 0.006295817 0.004110592 0.004677205 0.006198895 0.0063575134 -0.0054349205
-0.0015067006 -0.0015524048 -0.002566591 -0.0052624205 -0.0019742004 -0.0017911561 -0.0026049626 -0.003148071
-0.0005910427 -0.0019261412 -0.0016295544 -0.0017130185 -0.0011463487 -0.00065126613 2.980337e-05 -0.00018263035
0.0006020225 0.0004105207 0.001024295 2.935472e-05 0.00020475624 -0.00093522243 -0.00015155118 -0.00013209894
0.0011218245 -0.00012662297 -0.00077368104 -0.0019182909 -0.00020300696 -0.00088473654 -0.00012218603 0.00018956768
-0.00026802556 0.00044887 -0.0041538524 -0.0028056644 -0.0013816663 -0.0007390998 0.00014126336 -0.0017370274
-0.00042240054 -0.0007380677 -0.0021916255 -0.0035924863 0.005546834 0.004594899 0.00766928 0.0038920874
0.0047069956 -0.00029765663 -0.00038420747 -0.0010032249 -0.003387901 0.0008650571 0.0019858717 -0.00025618123
-0.00020881207 0.0012998403 -0.0002142234 0.0013929326 0.0009386678 0.0018365611 0.0008969676 0.00075649354
-0.00047385704 0.0008212879 0.0008765705 -0.0021348428 -0.0017102847 0.0011086545 0.00044230666 0.0016920428
0.0003017757 0.0004573642 2.7456204e-05 -0.0014506207 -0.002316094 -0.0029603578 -0.0019470433 -8.068711e-05
00000000: 6079 403a b84e 83ba d0b0 d4ba 62b7 35ba
00000010: 37ba 9cb9 aedb 5b3a 4949 fd3a 5833 5f3b
00000020: f019 c23a 8894 7639 0524 a63a 2921 043a
00000030: 62ac fc3a 22e0 983a 30d5 10b8 5c25 373b
00000040: 2244 363b dcdb ee39 2f39 ccba 772c d3ba
00000050: c370 833b 6950 f53a 5a49 fe39 0c2b 1dba
00000060: dea0 7d3a 4e2b 283a cb4e 1c3a 7adc d539
00000070: 29a7 a639 4a32 883a 7406 7c39 c04f 9bb7
00000080: f091 0db9 e47b fe39 45da fa39 30ab ef38
00000090: 88ce a439 684b 5f39 64c2 f5b7 ab05 2db9
000000a0: f22e 1e3b 953f 343b 646a 663a a8d3 12ba
000000b0: 22d4 90b9 1acc 2039 aa14 2638 4801 283a
000000c0: 24cb 803a 7497 b23a a203 853b a893 993a
000000d0: 3c22 51ba ee08 caba 950f 9c39 cfa8 2c3b
000000e0: 73fb 393b 6cfa 9939 30b4 72b9 965a 15ba
000000f0: 3201 97ba 02dc 82ba 0a90 373a 6af3 c83a
00000100: 5c57 403b 4aca c8ba 884f 0abb 3827 a439
00000110: cbf9 9939 b767 f439 4dae 44ba b9bc 88b9
00000120: 4896 8bb9 8a97 bf39 db1b 203a 9914 d2ba
00000130: 1393 eaba de12 57ba 126c 32ba 0f3e ffb9
00000140: 6383 80ba 3ec3 92ba 1d2e b93a 5462 ce39
00000150: ec7a 2eba 4e19 4cbb 4eb1 7dbb 06cc caba
00000160: da61 9839 657e a43b a8a8 d43a f3f8 423b
00000170: 4000 383b 2a9e fc3a f848 673b fa96 24bb
00000180: 6886 bfba 8935 603a 56a1 5d3b 5c63 c53a
00000190: 9648 fa39 c7f5 5f3a fa89 253a 1097 0b39
000001a0: 4ee1 24b9 bd6d d839 ca43 3a3a 5806 30ba
000001b0: 2576 95b8 40c6 8f36 9941 ccb9 80bf a9b9
000001c0: 6338 85b8 215c ca38 55fe 19b9 3dda aab9
000001d0: 6622 5aba 8d2b 9fba 2c27 fbb8 85aa 3cb9
000001e0: 5fa5 fdba 6ca4 343a 0087 0e35 4077 4639
000001f0: bcde 81b9 ee58 dab9 70b7 d6ba 17b8 ccba
00000200: 3859 33ba 00ac 6b3a 0030 d138 80ca 31b8
00000210: e593 bbb9 ad06 cd39 28a3 0e3a dacf e6ba
00000220: f752 6eba 2940 ac3a 881e 7d3b 3851 d0b9
00000230: 0a18 593a 6b0e d43a bcc5 3a3b cf44 ea3a
00000240: 84f1 a239 0aed 9eba 3fa8 9d3a 766a 003b
00000250: b7be 66ba 2c68 2ebb 91fa 603a 60c4 f13a
00000260: a457 cfb9 e08f 07b7 c0bb 02ba 471f 8aba
00000270: 5110 3f39 48db 543a 7028 e0b7 e9f8 49ba
00000280: 65ad c6b9 568a 5e3a 165b c83a 2d8b 3bba
00000290: 7ac4 0f3b b588 52bb 955a 7cbb 5cc7 033a
000002a0: 000a 193a 96d7 c3ba 244d ce3b 25b2 863b
000002b0: 3d43 993b 1a20 cb3b b052 d03b 6b17 b2bb
000002c0: 7c7c c5ba 107a cbba 4034 28bb 6270 acbb
000002d0: 9661 01bb 3ac5 eaba 05b8 2abb de4f 4ebb
000002e0: 34f0 1aba 9376 fcba c696 d5ba 5d87 e0ba
000002f0: 1441 96ba bbb9 2aba 4002 fa37 7680 3fb9
00000300: 0cd1 1d3a 283b d739 a341 863a c83e f637
00000310: d6b3 5639 b729 75ba b6e9 1eb9 0a84 0ab9
00000320: 2f0a 933a 18c6 04b9 dbd0 4aba 296f fbba
00000330: 44de 54b9 aaed 67ba 101f 00b9 b0c6 4639
00000340: c885 8cb9 5056 eb39 0a1d 88bb 3ddf 37bb
00000350: 0719 b5ba 26c0 41ba 1820 1439 f8ac e3ba
00000360: a475 ddb9 e37a 41ba 60a1 0fbb eb6f 6bbb
00000370: 37c2 b53b ce90 963b 954e fb3b 6412 7f3b
00000380: 243d 9a3b cc0e 9cb9 746f c9b9 a47e 83ba
00000390: 8c07 5ebb 00c5 623a 6625 023b 1050 86b9
000003a0: 90f4 5ab9 675f aa3a 28a1 60b9 1093 b63a
000003b0: ee10 763a c4b8 f03a 7a22 6b3a 6c4f 463a
000003c0: 0470 f8b9 b34b 573a a7c9 653a b8e8 0bbb
000003d0: a22b e0ba 4650 913a 65e5 e739 89c7 dd3a
000003e0: a637 9e39 62ca ef39 c051 e637 c122 beba
000003f0: 9cc9 17bb 9002 42bb ef33 ffba 9036 a9b8

momentum_buffer f4 [16]
0.005380563 -0.00039830222 0.007412618 -0.005132356 -0.014580427 0.00032961555 0.003539998 -0.0034650632
-0.0024383077 -0.0035033599 -0.006330814 -0.0005104493 0.00021204958 -0.0032295259 0.0072087683 0.007790165
00000000: 6f4f b03b 38d3 d0b9 8ce5 f23b 532d a8bb
00000010: bee2 6ebc 40d0 ac39 50ff 673b 1d16 63bb
00000020: 04cc 1fbb a098 65bb b872 cfbb accf 05ba
00000030: a059 5e39 74a6 53bb 8837 ec3b a444 ff3b

momentum_buffer f4 [16, 16, 5]
-6.68159e-05 1.121551e-05 5.165767e-05 -0.00017767091 -0.0008505112 -0.00015368227 0.0005389046 0.000424103
-1.4663237e-05 -0.00019781162 -0.0011621867 -0.0008444564 -0.00039064905 0.00031465478 -0.000257679 -0.0010159439
0.00011697154 -0.0008960251 -0.00027417808 0.00028911076 0.00034938715 0.00019376972 7.5539865e-05 -0.000560827
-0.0007020138 0.0003584933 7.63792e-06 -4.1529667e-05 -0.00037107218 -2.6238093e-05 -0.0002980021 -0.0007707082
-7.907319e-05 -5.2020478e-06 -0.00011365244 -0.001513775 -0.002794337 -0.0016601668 -0.0021861754 -0.0021706584
-0.0009050548 -0.0016462051 -0.0005034386 0.00027007877 -0.0005319084 -0.00023423285 -0.0009909805 -0.00048780552
6.141326e-05 -0.00067975605 -0.0007996212 -0.00048068745 -0.0007849321 -0.0008004374 -0.00016672368 -0.0005431763
0.00016741511 0.00040842558 0.00013591361 0.00026902417 -0.000264606 3.8809867e-05 0.00039992243 -0.0002673514
0.00052243494 0.00040795526 -2.1523592e-05 -0.00017536219 -0.000674186 -0.00039288925 -0.0010939189 -0.0014231049
-0.0011663442 -0.00078094634 0.00073180033 -0.00051744434 -5.4909335e-05 -0.00029697054 -9.703319e-05 0.00019233409
2.420391e-05 0.00051593705 0.0004382558 0.00034954687 0.00015898987 0.00018593903 0.0014510689 0.0011398763
1.0393793e-05 0.00049711467 0.00048003186 2.1189895e-05 0.00025692303 0.001114795 0.00058830244 0.00015499009
0.000810616 0.00072714617 0.00071102066 0.00013809052 0.000979858 0.00011357991 0.00076697103 0.0003325981
0.00020185928 0.0012413401 0.0017117888 0.0011185844 0.00075845886 9.470421e-05 0.0005577161 0.00050312397
0.0014911362 0.0004790742 0.0014622698 0.00063139293 0.0004229172 -0.00015851762 5.149457e-05 -0.0002773977
-0.00021453742 2.921433e-05 0.00037547815 -0.00029780003 -0.00036452257 0.00024361614 -0.000107538304 0.00040315173
-0.00087264914 -0.00083016383 -0.0007564224 -0.0005476973 -0.0001956186 -0.00045048795 -0.0012560128 -0.00022824502
0.000136646 0.0010569249 0.00048815057 0.00046589738 6.161128e-05 0.00016199672 0.00011285895 0.00038095075
0.0007622591 -0.0002738965 0.0010415452 0.0005178163 0.00012157223 0.00023997598 0.0009940049 0.0011307722
0.0002935233 0.0010658595 0.0009926532 -0.00014335648 -0.00018247294 2.70815e-05 -0.00029803463 3.439089e-05
0.0017285722 0.0018599348 0.0019560514 0.0014500436 0.0015644723 0.00087019027 0.00060504227 0.00014937462
0.0010286195 0.00084952975 0.00075145165 0.0006144755 0.00060644856 0.0013415107 0.0015963839 0.001344079
-0.00059415086 0.00038132945 0.0006102151 -0.0007033743 0.00092090573 0.0019939495 0.0021637029 0.0008095228
0.0020666416 0.0006520233 0.00065746205 0.0013010594 8.642569e-05 0.000619643 0.0017359704 0.0022457442
0.0018713414 0.0018630218 0.0022758918 1.0952586e-05 0.00071455166 0.00023994758 0.0010183728 0.0006859198
-0.00051976857 -0.0003485086 -0.00040855806 -0.0010744105 -0.0008979185 -0.0010769818 -0.0011536435 -0.00038092048
-0.0012393569 0.00051590253 -0.0012693722 -0.0025124673 -0.0017990725 -0.0017512962 -0.0016946334 0.000522236
0.0006070157 0.0012266887 0.0013895007 0.0005248283 -0.0005492362 -8.872489e-05 -0.0006572398 -0.000965843
-0.0007553518 0.0010277136 0.001167199 0.00017633873 0.0008566035 0.0005292192 0.0017410598 0.00096867187
0.0023077251 0.0010661017 0.0016199248 -0.0005833524 -0.0004591782 -0.00060264335 -0.00033796372 -6.601891e-05
-0.0010409753 -0.0006210386 -0.00073925895 -0.00018038342 -0.00027031975 0.0002989557 0.00030004667 -0.0003183743
-2.9861287e-05 -0.000114442635 0.00076544157 0.000441607 -1.0094955e-05 0.0004121319 7.924248e-05 -6.7823814e-05
00000000: 831f 8cb8 402a 3c37 00ab 5838 2c4d 3ab9
00000010: d7f4 5eba c525 21b9 4745 0d3a 245a de39
00000020: 2002 76b7 a76b 4fb9 8454 98ba 825e 5dba
00000030: 07d0 ccb9 40f8 a439 1719 87b9 6c29 85ba
00000040: 9e4e f538 3ae3 6aba 8fbf 8fb9 ca93 9739
00000050: f32d b739 aa2e 4b39 286b 9e38 7604 13ba
00000060: 5907 38ba 28f4 bb39 9e24 0037 2430 2eb8
00000070: 778c c2b9 e019 dcb7 2a3d 9cb9 5a09 4aba
00000080: 18d4 a5b8 408d aeb6 b058 eeb8 dc69 c6ba
00000090: 3221 37bb f499 d9ba f045 0fbb 9b41 0ebb
000000a0: 3341 6dba 7ac5 d7ba 31f9 03ba 5c99 8d39
000000b0: c56f 0bba 679c 75b9 cae3 81ba 26c0 ffb9
000000c0: feca 8038 a831 32ba ac9d 51ba c704 fcb9
000000d0: e7c3 4dba 72d4 51ba 8cd2 2eb9 f263 0eba
000000e0: 278c 2f39 f421 d639 0884 0e39 d00b 8d39
000000f0: d1ba 8ab9 c7c7 2238 aeac d139 4c2b 8cb9
00000100: 04f4 083a d4e2 d539 908d b4b7 6ee1 37b9
00000110: dbbb 30ba b4fc cdb9 d461 8fba 7a87 baba
00000120: 04e0 98ba 6cb8 4cba 4ad6 3f3a 1aa5 07ba
00000130: 734e 66b8 b6b2 9bb9 4c7e cbb8 4aad 4939
00000140: 8009 cb37 f33f 073a b3c5 e539 6343 b739
00000150: 85b6 2639 a1f8 4239 cb31 be3a e767 953a
00000160: 0061 2e37 cd50 023a c9ac fb39 f4c0 b137
00000170: a0b3 8639 501e 923a 4f38 1a3a d684 2239
00000180: 857f 543a f49d 3e3a ca63 3a3a 64cc 1039
00000190: 946e 803a c031 ee38 8e0e 493a 9060 ae39
000001a0: 30aa 5339 76b4 a23a 1a5e e03a 779d 923a
000001b0: 50d3 463a f09b c638 b233 123a 14e4 033a
000001c0: 3a72 c33a 402c fb39 a2a9 bf3a 1084 253a
000001d0: fcba dd39 c037 26b9 e0fb 5738 b06f 91b9
000001e0: 73f5 60b9 4c11 f537 d3db c439 0b22 9cb9
000001f0: 641d bfb9 3673 7f39 3086 e1b8 1c5e d339
00000200: 7ec2 64ba 5a9f 59ba a64a 46ba 5893 0fba
00000210: f81e 4db9 782f ecb9 cca0 a4ba 0e55 6fb9
00000220: a248 0f39 8488 8a3a 76ee ff39 b043 f439
00000230: 4e35 8138 aadd 2939 b0ae ec38 58ba c739
00000240: 58d2 473a c499 8fb9 7584 883a 10be 073a
00000250: 98f4 fe38 10a2 7b39 4549 823a 6b36 943a
00000260: 08e4 9939 4fb4 8b3a ea1b 823a f651 16b9
00000270: 3556 3fb9 142d e337 8841 9cb9 f03e 1038
00000280: 4291 e23a 0ec9 f33a 1931 003b 640f be3a
00000290: fb0e cd3a 7b1d 643a b39b 1e3a 72a1 1c39
000002a0: bed2 863a fab2 5e3a 11fd 443a c114 213a
000002b0: 13fa 1e3a a1d5 af3a c13d d13a cf2b b03a
000002c0: cac0 1bba 2ced c739 d8f6 1f3a a662 38ba
000002d0: f068 713a ecac 023b e9cc 0d3b 2836 543a
000002e0: 7e70 073b 8bec 2a3a 8859 2c3a 4f88 aa3a
000002f0: 703f b538 8a6f 223a 8089 e33a 562d 133b
00000300: cc47 f53a a330 f43a 2127 153b 00c1 3737
00000310: c050 3b3a 709a 7b39 ec7a 853a 4ccf 333a
00000320: 1441 08ba 08b8 b6b9 bc33 d6b9 3cd3 8cba
00000330: 4a62 6bba 8329 8dba da35 97ba 48b6 c7b9
00000340: eb71 a2ba a23d 073a 1061 a6ba 35a8 24bb
00000350: dbce ebba c08b e5ba 761e deba aae6 083a
00000360: 2220 1f3a d8c8 a03a e81f b63a a294 093a
00000370: 9efa 0fba d011 bab8 9e4a 2cba a030 7dba
00000380: cd02 46ba 59b4 863a b3fc 983a 91e7 3839
00000390: b08d 603a 4dbb 0a3a 4634 e43a 78ee 7d3a
000003a0: 343d 173b 70bc 8b3a a853 d43a 1eec 18ba
000003b0: dbbd f0b9 b6fa 1dba b930 b1b9 a273 8ab8
000003c0: 5671 88ba 32cd 22ba d4ca 41ba 4e25 3db9
000003d0: b4b9 8db9 28bd 9c39 954f 9d39 7aeb a6b9
000003e0: a07e fab7 ec00 f0b8 eaa7 483a 7d87 e739
000003f0: 805d 29b7 6813 d839 fc2e a638 a23c 8eb8

momentum_buffer f4 [16]
-0.0038097643 -0.00029334635 0.0002640579 -0.002177781 -0.0010325611 9.035203e-05 -0.00077842316 0.0003889961
-0.0002952842 0.00016181963 -0.00095234875 -0.0018244636 -0.0016925344 0.002028039 0.00038999424 0.002112669
00000000: 3dad 79bb 48cc 99b9 4071 8a39 1ab9 0ebb
00000010: 0057 87ba 607b bd38 180f 4cba 2cf2 cb39
00000020: 60d0 9ab9 20ae 2939 0ba7 79ba d722 efba
00000030: 08d8 ddba d9e8 043b 2478 cc39 b474 0a3b
