trained_custom/checkpoints/energy_profiling/input_data_size/epidenet_b_v3.2_1016_baseline_qat_best.pth.tar (torch, 92175 bytes, 26 tensors)

block1_conv1d_bn_relu_1.op.weight f4 [4, 1, 4]
-0.49042162 2.0209253 -3.5651717 -3.132428 -1.9988495 1.9119278 -0.061462138 4.94124
-1.8792143 2.7837863 -3.9590595 -2.4130025 -2.4742436 -1.715184 -1.099048 0.020820687
00000000: 8b18 fbbe d756 0140 c62b 64c0 b379 48c0
00000010: 4dda ffbf 0dba f43f b9bf 7bbd a31e 9e40
00000020: 188a f0bf 8e29 3240 3b61 7dc0 a26e 1ac0
00000030: 025a 1ec0 268b dbbf 9bad 8cbf 2590 aa3c

block1_conv1d_bn_relu_1.op.bias f4 [4]
0.032274883 -0.031213237 0.08434251 -0.031748395
00000000: ab32 043d e7b2 ffbc c4bb ac3d 9b0a 02bd

block2_conv1d_bn_relu_1.op.weight f4 [16, 4, 5]
0.22289981 0.54662764 -0.14010775 0.55190724 -0.10540493 0.10748118 0.65867627 -0.66343117
-0.4609308 -0.18175665 -0.30106512 0.5803727 -0.44834536 -0.29631117 -0.47659868 -0.6763676
-0.4377441 0.6147613 0.3497864 0.37336054 0.06361157 -0.34574685 0.09201966 -0.67908007
-0.5152025 -0.4608457 0.33906013 0.36803558 -0.31053895 -0.03222174 0.49219397 0.734172
0.27262834 0.08103895 0.47364113 -0.359961 0.17856139 -0.5384585 -0.49173588 -0.35458797
0.2511321 0.20129602 -0.3760753 0.16694894 0.31715 -0.16814692 -0.0317326 0.12002502
0.32491305 0.50395405 -0.38147023 -0.17863812 0.22898328 0.50907147 0.5429262 0.57327956
0.17530759 -0.4618623 0.10813037 -0.27726045 -0.54522496 0.48557752 0.4052351 -0.59472513
0.08614751 -0.11791939 -0.13504235 -0.27015546 0.21140386 -0.36344948 0.1984497 0.2731222
0.38967744 0.19208758 -0.58202285 -0.37694848 0.2723083 0.099870495 -0.46491787 -0.34599414
0.7281499 0.5146201 -0.34429094 -0.22237405 -0.80336887 -0.019138139 -0.64031565 -0.67791176
-0.044471364 0.13535735 -0.3897738 0.44542217 -0.49030274 0.7379035 0.5479868 -0.7485813
-0.26417875 0.028116928 0.109905615 0.16847657 0.2448431 0.045409158 -0.29968017 0.3080232
-0.6133572 -0.381143 -0.1714236 -0.32664973 -0.23273306 -0.5185663 -0.14023305 0.14677334
-0.4019066 -0.024327924 0.46338436 -0.06953273 0.028008802 -0.038640894 0.14365734 0.41477796
0.7952483 0.5177715 0.8018501 -0.06826373 -0.77536505 -0.4100894 0.557675 -0.039621267
-0.45448405 -0.6773926 -0.8315614 -0.7574883 -0.18955992 0.47218394 0.4716584 -0.8514347
0.5156571 -0.6924434 -0.19053945 -0.34717813 -0.16348185 -0.11967359 -0.5265428 -0.5267393
-0.11107994 -0.0060655163 -0.31838906 0.17554021 -0.5228983 -0.032236475 0.44403845 -0.25217193
0.51109385 0.17989294 -0.5444374 0.2892245 -0.101695985 -0.27414608 0.43144998 -0.49036264
0.10280773 -0.34189004 0.89852 0.29561684 0.5453015 0.34883702 -0.4218998 -0.41381606
-1.2195683 0.616371 1.0704836 0.90861446 -1.029608 -0.007229246 -1.0655537 -0.75251395
-0.80646616 0.41327983 -0.864662 -0.11867521 -0.023609703 0.26907647 -0.3838305 -0.34053293
-0.2854381 0.29653665 -0.21162574 0.34407124 0.10243142 -0.019932907 -0.03652718 -0.12667032
0.042162362 -0.11623114 -0.00481445 0.036746223 -0.39763346 -0.2688121 0.38044828 -0.3841953
-0.113974445 0.5757126 0.18500867 -0.031021781 -0.59041166 0.28854075 -0.52893823 -0.23219518
-0.24586865 -0.14650516 -0.046309583 0.4900136 0.054149687 0.5359324 0.3674427 -0.44477242
0.25347942 -0.47150955 -0.29532582 0.16859767 0.30957898 0.6912829 -0.23462363 0.020421999
0.45354825 -0.8675548 0.647429 -0.80280477 0.041998535 -0.08705569 -0.46262777 0.13581476
0.82347727 -0.23384401 -0.5492316 -0.31424904 -0.887112 0.47717732 -0.384744 -0.60525906
-0.49594015 0.49172878 0.4539116 0.7158874 0.32829607 -0.31135 -0.20760097 0.27394333
0.7030624 0.25750107 -0.4044518 -0.43057048 -0.85393715 0.22256671 -0.4861842 -0.77912724
00000000: d93f 643e caef 0b3f 6878 0fbe cb49 0d3f
00000010: 8ade d7bd 181f dc3d 029f 283f a0d6 29bf
00000020: 1fff ebbe 6a1e 3abe 3525 9abe 4e93 143f
00000030: 868d e5be 19b6 97be be04 f4be 6d26 2dbf
00000040: ff1f e0be ff60 1d3f 3417 b33e 1d29 bf3e
00000050: c846 823d bb05 b1be ce74 bc3d 31d8 2dbf
00000060: 50e4 03bf f8f3 ebbe 4a99 ad3e 296f bc3e
00000070: f6fe 9ebe f1fa 03bd d900 fc3e b2f2 3b3f
00000080: f195 8b3e c0f7 a53d 1781 f23e cf4c b8be
00000090: ccd8 363e 6bd8 09bf cec4 fbbe 8e8c b5be
000000a0: 6394 803e 8b20 4e3e f18c c0be aaf4 2a3e
000000b0: 7c61 a23e b52e 2cbe 0bfa 01bd adcf f53d
000000c0: 015b a63e 2203 013f 1150 c3be e9ec 36be
000000d0: 987a 6a3e 8252 023f 36fd 0a3f 73c2 123f
000000e0: d583 333e 3779 ecbe 7573 dd3d 15f5 8dbe
000000f0: dd93 0bbf 9e9d f83e fa7a cf3e e83f 18bf
00000100: 1b6e b03d b97f f1bd 8b48 0abe d151 8abe
00000110: 417a 583e 0d16 babe 6636 4b3e acd6 8b3e
00000120: cd83 c73e 9bb2 443e 73ff 14bf 64ff c0be
00000130: fe6b 8b3e e788 cc3d b709 eebe 2526 b1be
00000140: 0868 3a3f 25be 033f e746 b0be 06b6 63be
00000150: 95a9 4dbf 96c7 9cbc baeb 23bf a08b 2dbf
00000160: 9b27 36bd 1e9b 0a3e 6e90 c7be 600e e43e
00000170: f608 fbbe 3ee7 3c3f dd48 0c3f 06a3 3fbf
00000180: 7042 87be 7955 e63c 3216 e13d 1f85 2c3e
00000190: 26b8 7a3e f4fe 393d ae6f 99be 38b5 9d3e
000001a0: fa04 1dbf 2d25 c3be ab89 2fbe a23e a7be
000001b0: 9351 6ebe c3c0 04bf 4199 0fbe c04b 163e
000001c0: b4c6 cdbe 5b4b c7bc b740 ed3e 2d67 8ebd
000001d0: b772 e53c ea45 1ebd e91a 133e c75d d43e
000001e0: 6595 4b3f ac8c 043f 0c46 4d3f dbcd 8bbd
000001f0: 537e 46bf 3df7 d1be cac3 0e3f e949 22bd
00000200: 22b2 e8be 9a69 2dbf 35e1 54bf c1ea 41bf
00000210: ff1b 42be 18c2 f13e 367d f13e a0f7 59bf
00000220: 1b02 043f f843 31bf c61c 43be 55c1 b1be
00000230: c967 27be 6d17 f5bd 82cb 06bf 63d8 06bf
00000240: e17d e3bd 3dc1 c6bb e403 a3be d0c0 333e
00000250: aadc 05bf 650a 04bd 0259 e33e ae1c 81be
00000260: 0cd7 023f db35 383e 4060 0bbf 3c15 943e
00000270: fc45 d0bd e05c 8cbe 03e7 dc3e d010 fbbe
00000280: dc8c d23d 360c afbe 6805 663f 175b 973e
00000290: e198 0b3f c49a b23e 4003 d8be b3df d3be
000002a0: d01a 9cbf 7dca 1d3f 9b05 893f f59a 683f
000002b0: 32ca 83bf 50e3 ecbb 1064 88bf c1a4 40bf
000002c0: 9174 4ebf 6a99 d33e 7d5a 5dbf fd0b f3bd
000002d0: 2369 c1bc 64c4 893e 6e85 c4be 555a aebe
000002e0: f124 92be a7d3 973e 6bb4 58be 1b2a b03e
000002f0: 90c7 d13d 564a a3bc 869d 15bd ddb5 01be
00000300: 71b2 2c3d 980a eebd 89c2 9dbb 3583 163d
00000310: 9d96 cbbe bda1 89be 1eca c23e 3fb5 c4be
00000320: 6f6b e9bd e761 133f ea72 3d3e 6421 febc
00000330: 3825 17bf 9dbb 933e 7f68 07bf 93c4 6dbe
00000340: fec4 7bbe 7305 16be 1eaf 3dbd 10e3 fa3e
00000350: 10cc 5d3d de32 093f 7321 bc3e 36b9 e3be
00000360: 0ec8 813e b369 f1be f234 97be dea4 2c3e
00000370: 2381 9e3e ebf7 303f 2d41 70be 094c a73c
00000380: 7a37 e83e 1218 5ebf e8bd 253f 9d84 4dbf
00000390: a806 2c3d 414a b2bd 8cdd ecbe 0613 0b3e
000003a0: 68cf 523f ce74 6fbe 719a 0cbf 40e5 a0be
000003b0: c619 63bf 9650 f43e 2afd c4be 42f2 1abf
000003c0: deeb fdbe e0c3 fb3e 1a67 e83e 6644 373f
000003d0: 6c16 a83e 4469 9fbe 5995 54be 4d42 8c3e
000003e0: e6fb 333f 2ed7 833e 4e14 cfbe bc73 dcbe
000003f0: a09b 5abf 87e8 633e 23ed f8be e274 47bf

block2_conv1d_bn_relu_1.op.bias f4 [16]
-0.027812088 0.10474766 -0.3503094 0.17888278 0.21376903 0.14595969 0.2801136 0.22774471
0.1571391 0.0086658755 -0.04418753 0.30588025 0.16009574 0.14462431 0.020815529 -0.26202422
00000000: 2dd6 e3bc f185 d63d c15b b3be 0c2d 373e
00000010: 45e6 5a3e 7576 153e 0d6b 8f3e e935 693e
00000020: 12e9 203e 51fb 0d3c fcfd 34bd 569c 9c3e
00000030: 23f0 233e 6518 143e 5485 aa3c 0a28 86be

block2_conv1d_bn_relu_2.op.weight f4 [16, 16, 5]
-0.11557864 0.13269074 -0.20818266 0.058577403 -0.21152122 -0.3186281 -0.25787985 0.22092421
0.15978184 0.29433614 0.20860608 -0.28601715 -0.2237527 -0.071720704 -0.2075671 0.19597903
-0.24066576 -0.14318426 -0.27565256 -0.16260059 0.2545241 0.25793427 0.23635823 0.24550427
0.26768988 -0.067884564 0.13907914 0.26253843 0.08583923 0.2822413 0.17839684 0.20098434
-0.10162994 0.1340732 0.024329513 -0.084118776 -0.17429692 -0.16401215 -0.22610657 0.21000211
0.21893594 -0.029800331 -0.15530016 0.25557286 0.20039196 0.0022552006 -0.1606177 0.26166385
0.11391058 -0.22269736 0.25126845 0.1961124 -0.12386892 0.15288119 -0.18534656 -0.040834617
0.26786965 0.04026458 -0.18739597 -0.08927988 -0.08284887 -0.06075362 0.023916291 0.2651137
0.011152519 -0.17698541 0.0075073196 0.12441088 0.12814093 -0.28499812 -0.065377645 -0.2327168
-0.13825989 0.09924002 -0.22116792 0.059058633 0.21873787 -0.0001218148 -0.21086156 -0.11571071
0.046537127 -0.30736524 0.1517097 -0.35882753 -0.36583313 -0.34959978 -0.05455637 0.26451036
-0.32545277 0.30224815 -0.17265931 0.077383466 -0.018831423 -0.3678802 0.2701328 0.20153762
0.35986272 0.15913643 -0.2740067 0.27456677 0.028975293 0.16375247 -0.3097511 -0.12532675
-0.37850946 -0.14794086 0.06650204 -0.3048596 0.095598996 0.1741704 0.037060656 -0.25503877
-0.2964633 -0.11359927 0.1549304 0.37876984 0.23653233 -0.021236194 0.13732105 -0.3533338
-0.28909296 0.14873739 -0.21080834 0.15521216 -0.27643612 -0.18944076 -0.29000175 0.2193774
-0.0068519576 0.3255122 0.18648405 0.16394185 -0.019211728 -0.15036719 -0.09923087 0.06916403
0.19749321 -0.2547984 0.30182692 -0.049995992 -0.31102973 -0.18926972 0.3226473 0.33578882
-0.31237423 0.22809178 0.14352477 0.19067875 0.30311707 -0.17674278 0.08847953 0.138067
-0.10566478 0.12234444 -0.103974275 0.18642703 -0.13255318 -0.16596536 0.066639036 0.109899364
-0.13135459 0.02516919 0.17601587 -0.011043676 0.11276344 -0.04687935 0.12700817 -0.20964442
-0.17232113 -0.14249074 0.25383812 -0.079770185 -0.0007160077 -0.15915687 0.27669677 0.33219182
-0.20551135 -0.22184731 -0.19544199 0.02924888 -0.05827447 -0.18532026 -0.087142736 0.06752444
-0.13565952 0.078025065 -0.058969654 -0.12920983 0.050443705 0.25192946 -0.19345278 0.013198266
-0.10549779 0.292983 -0.27298227 -0.26912034 0.29835767 -0.16991071 0.06305159 -0.019856198
-0.05425243 -0.06595481 0.19291607 0.025413254 -0.28215402 -0.17225076 -0.10388993 0.13592413
-0.2013706 0.2635297 -0.03637754 -0.039274994 0.24257529 0.15400517 0.27212548 0.18579295
-0.08913204 -0.19159265 -0.003944059 0.2511156 -0.11054083 -0.2829685 0.09810112 0.25910118
-0.09086287 -0.23183988 -0.25817057 0.09294013 -0.0017694785 -0.13921288 0.066656716 0.12191709
0.25307915 0.23668242 -0.04046775 -0.2546888 -0.25547022 0.28967363 0.15361631 0.15182988
-0.37924096 0.38125536 0.39148745 0.39750227 -0.37689975 -0.16384274 -0.2968069 0.39702055
-0.18639927 -0.21691944 0.20631044 -0.21832412 -0.24046722 -0.05914378 -0.07457348 -0.34461647
00000000: 7eb4 ecbd 15e0 073e d62d 55be dcee 6f3d
00000010: 0599 58be 3923 a3be d408 84be f539 623e
00000020: da9d 233e 3ab3 963e d59c 553e d770 92be
00000030: 6e1f 65be 4ee2 92bd 788c 54be baae 483e
00000040: 1671 76be e59e 12be 5522 8dbe c580 26be
00000050: fc50 823e f60f 843e e407 723e 7965 7b3e
00000060: a60e 893e 1007 8bbd c36a 0e3e 706b 863e
00000070: 7acc af3d ef81 903e a9ad 363e d7ce 4d3e
00000080: 5c23 d0bd 7c4a 093e b04e c73c 7746 acbd
00000090: e47a 32be cdf2 27be 7b88 67be cb0a 573e
000000a0: be30 603e d31f f4bc 0107 1fbe 72da 823e
000000b0: 8d33 4d3e fdcb 133b f778 24be cef8 853e
000000c0: f349 e93d c70a 64be 42a6 803e b0d1 483e
000000d0: fdae fdbd e38c 1c3e 7dcb 3dbe 3342 27bd
000000e0: 3626 893e 79ec 243d bbe4 3fbe 5fd8 b6bd
000000f0: abac a9bd cad8 78bd 19ec c33c fcbc 873e
00000100: 0eb9 363c aa3b 35be f6ff f53b 22cb fe3d
00000110: 6037 033e 46eb 91be b7e4 85bd 504d 6ebe
00000120: 0094 0dbe 5a3e cb3d d879 62be 77e7 713d
00000130: d2fc 5f3e d376 ffb8 18ec 57be bdf9 ecbd
00000140: b79d 3e3d fa5e 9dbe ca59 1b3e 3eb8 b7be
00000150: 7b4e bbbe befe b2be 8076 5fbd e76d 873e
00000160: bfa1 a6be 45c0 9a3e 9acd 30be 397b 9e3d
00000170: 5b44 9abc cb5a bcbe d94e 8a3e e15f 4e3e
00000180: ed3f b83e a9f4 223e 9b4a 8cbe 0494 8c3e
00000190: 985d ed3c baae 273e b297 9ebe a855 00be
000001a0: fecb c1be cf7d 17be 3932 883d 8f16 9cbe
000001b0: 68c9 c33d ba59 323e eacc 173d 7194 82be
000001c0: 0aca 97be bca6 e8bd 13a6 1e3e 1fee c13e
000001d0: 8835 723e 87f7 adbc e49d 0c3e 2be8 b4be
000001e0: fe03 94be 9d4e 183e 24de 57be f0ef 1e3e
000001f0: 0989 8dbe c2fc 41be 1c7b 94be 78a4 603e
00000200: 6386 e0bb 89a9 a63e adf5 3e3e 5fe0 273e
00000210: ea61 9dbc dbf9 19be 8e39 cbbd dfa5 8d3d
00000220: a93b 4a3e f074 82be 0f89 9a3e 99c8 4cbd
00000230: 4a3f 9fbe eccf 41be 0732 a53e 83ec ab3e
00000240: 84ef 9fbe e490 693e 28f8 123e 4a41 433e
00000250: 2932 9b3e 0ffc 34be c134 b53d 7061 0d3e
00000260: c766 d8bd b98f fa3d 77f0 d4bd bae6 3e3e
00000270: 05bc 07be d3f2 29be 0c7a 883d eb12 e13d
00000280: d181 06be 9e2f ce3c 813d 343e 89f0 34bc
00000290: 85f0 e63d 9004 40bd 6e0e 023e 07ad 56be
000002a0: f374 30be 18e9 11be 12f7 813e 8d5e a3bd
000002b0: 77b2 3bba 05fa 22be 33ab 8d3e 0c15 aa3e
000002c0: 9171 52be f12b 63be f221 48be 599b ef3c
000002d0: 36b1 6ebd 98c4 3dbe e477 b2bd 414a 8a3d
000002e0: 54ea 0abe 9bcb 9f3d 2a8a 71bd 954f 04be
000002f0: 0f9e 4e3d e6fc 803e 7c18 46be 8a3d 583c
00000300: 3a0f d8bd de01 963e 55c4 8bbe 24ca 89be
00000310: 56c2 983e 13fd 2dbe 3121 813d 77a9 a2bc
00000320: cc37 5ebd 5113 87bd ca8b 453e 752f d03c
00000330: 7e76 90be 8162 30be 3ec4 d4bd b22f 0b3e
00000340: 1834 4ebe 5ded 863e 9e00 15bd d1de 20bd
00000350: a865 783e 88b3 1d3e 0854 8b3e 8240 3e3e
00000360: dc8a b6bd dd30 44be 2a3d 81bb 3992 803e
00000370: 3b63 e2bd 3fe1 90be 3de9 c83d e9a8 843e
00000380: 5016 babd 6f67 6dbe ef2e 84be 6557 be3d
00000390: d9ed e7ba d28d 0ebe 5183 883d abaf f93d
000003a0: 9793 813e e05c 723e 83c1 25bd 9266 82be
000003b0: fecc 82be 1a50 943e 984d 1d3e 4b79 1b3e
000003c0: df2b c2be e733 c33e 0b71 c83e 6b85 cb3e
000003d0: 01f9 c0be 64c6 27be 13f7 97be 4746 cb3e
000003e0: 73df 3ebe 2120 5ebe 0b43 533e 5c90 5fbe
000003f0: 0a3d 76be c040 72bd fbb9 98bd 9271 b0be

block2_conv1d_bn_relu_2.op.bias f4 [16]
-0.047936957 0.06635089 0.017158499 0.011963234 -0.037524734 -0.030966606 -0.36380237 0.17460038
0.13965735 0.5664145 0.21358378 -0.07274288 -0.15088223 0.4080779 -0.23924066 0.028240768
00000000: 8b59 44bd fae2 873d fb8f 8c3c 7101 443c
00000010: 89b3 19bd aead fdbc 4e44 babe 71ca 323e
00000020: 5602 0f3e 8a00 113f b5b5 5a3e 38fa 94bd
00000030: df80 1abe 96ef d03e 81fb 74be 2f59 e73c

block2_conv1d_bn_relu_3.op.weight f4 [16, 16, 5]
-0.23209912 -0.211773 0.15530437 0.24868275 0.039325953 -0.18959732 0.12382513 0.02308654
-0.3001929 -0.21723521 0.031964477 0.16396847 -0.13275993 0.13016419 -0.2192206 0.2772688
0.18237679 0.027945748 0.107159734 0.0823342 -0.21431331 -0.018150618 0.07072209 -0.07053743
0.29055867 -0.15105683 -0.30831835 -0.1708589 -0.31267264 0.23602603 -0.18552898 -0.26639116
-0.07915185 -0.25725678 -0.2069528 0.13890089 -0.2539025 0.123010434 0.20895508 -0.028276775
0.1663116 -0.15384318 0.26307622 0.30477118 0.05679151 0.3022197 -0.2976906 -0.029039532
0.06687653 -0.27100086 0.16133462 -0.12367101 -0.12507549 -0.2720777 0.11828797 -0.23199816
-0.075547926 0.12639938 0.21846427 0.046897717 -0.14735483 -0.17098412 0.1437195 0.026557423
0.2447013 0.098868616 0.24596456 -0.27840996 0.24489921 -0.16099806 -0.11296522 -0.022997634
-0.09676454 0.03076666 0.24618569 -0.1720237 0.09953958 -0.26945412 0.022830216 0.22951044
0.15468036 0.19353363 0.1100443 -0.044019025 0.03141674 -0.11841568 0.18440667 0.119252995
-0.15901294 0.22086677 -0.013205396 -0.011715532 -0.07437454 -0.084342845 -0.008349744 -0.1372104
-0.23669146 -0.12817635 -0.045343738 0.18274505 0.15381578 -0.16429962 -0.028347593 -0.08576936
-0.13899478 -0.0703959 -0.09671809 0.14196478 -0.10528743 0.056840517 -0.15910915 -0.09090368
0.16712384 -0.13556392 -0.03660669 0.20454712 0.07039036 -0.12579684 -0.14725716 -0.088275425
-0.09294322 0.08909896 -0.06717554 0.19334888 -0.13465834 -0.06810481 0.09293836 0.19649991
0.24559489 0.05382976 0.0063973004 -0.114617676 0.12623648 -0.12812951 -0.030170914 -0.20477046
-0.24546272 0.109120786 -0.0012076142 0.17925353 0.16176715 0.119976446 0.11171002 -0.037618514
0.1390229 0.106453106 0.0833777 0.007181345 0.04817398 0.0022256384 -0.18874855 0.043669917
-0.17573994 0.10579566 -0.1557399 -0.104127206 -0.13856745 0.17157266 -0.17035514 0.149091
0.110899456 0.17073256 0.050495513 0.13391067 0.20433329 0.057222854 0.09336059 -0.21772537
-0.09749764 0.0013519273 0.037596326 -0.09088546 -0.25949505 -0.066566646 0.1008867 0.22646827
-0.23495531 0.12874301 -0.25171378 -0.25585073 -0.17279422 -0.054263227 0.06103303 -0.20979276
0.20894168 0.25180086 0.017045507 0.207644 -0.13412844 -0.12256129 -0.03617764 0.025104482
-0.1910515 -0.2272329 0.09095799 0.08378348 0.26275852 -0.09946923 0.10490608 -0.09889741
0.12850162 -0.015068969 0.21134515 0.16301322 0.2405856 0.15132786 0.018210858 0.24349327
-0.15061161 0.25517452 0.27374175 0.27906552 -0.10429281 -0.12248051 0.020453464 0.08020273
0.13377252 0.10884455 0.22889276 -0.0640228 -0.08627692 0.08562948 0.07077297 -0.1679999
0.010496816 -0.20210445 -0.08484165 -0.10737691 0.2314017 -0.23881872 -0.15379697 -0.25328818
0.07005148 -0.1988077 0.093972206 -0.18275654 -0.15923923 -0.116545066 0.058158413 0.25399008
0.24426916 -0.042749684 -0.30139256 -0.12201377 -0.13724646 -0.062944025 0.09910088 0.15493797
0.12143127 0.050698176 -0.1417352 -0.03168204 0.0049243374 -0.1776889 -0.0507502 -0.0599494
00000000: 64ab 6dbe 05db 58be 1c08 1f3e b1a6 7e3e
00000010: 4014 213d cd25 42be 0898 fd3d fc1f bd3c
00000020: e2b2 99be e872 5ebe 2fed 023d 5ae7 273e
00000030: 38f2 07be c349 053e 5d7b 60be 2df6 8d3e
00000040: fbc0 3a3e 7bee e43c 9076 db3d d59e a83d
00000050: f374 5bbe 9bb0 94bc bed6 903d ee75 90bd
00000060: 1bc4 943e a4ae 1abe e7db 9dbe a3f5 2ebe
00000070: a116 a0be cfb0 713e 4ffb 3dbe 6c64 88be
00000080: 5d1a a2bd 29b7 83be 6feb 53be 093c 0e3e
00000090: 82ff 81be e5ec fb3d 52f8 553e b2a4 e7bc
000000a0: 974d 2a3e 1189 1dbe edb1 863e f80a 9c3e
000000b0: 379e 683d 8abc 9a3e e76a 98be 50e4 edbc
000000c0: 90f6 883d a0c0 8abe e734 253e 3a47 fdbd
000000d0: ca13 00be c54d 8bbe f740 f23d ed90 6dbe
000000e0: dfb8 9abd d76e 013e 19b5 5f3e d217 403d
000000f0: 2fe4 16be 7616 2fbe 342b 133e f48e d93c
00000100: fa92 7a3e a17b ca3d 22de 7b3e c08b 8ebe
00000110: dcc6 7a3e addc 24be 4f5a e7bd 8965 bcbc
00000120: 7d2c c6bd 5d0a fc3c 1a18 7c3e fb26 30be
00000130: 68db cb3d e4f5 89be 6f06 bb3c c904 6b3e
00000140: 8764 1e3e ae2d 463e e85e e13d 4b4d 34bd
00000150: d7ae 003d ec83 f2bd 1ad5 3c3e ea3a f43d
00000160: 4ad4 22be e62a 623e 725b 58bc 81f2 3fbc
00000170: ae51 98bd f1bb acbd 5dcd 08bc e280 0cbe
00000180: 3f5f 72be a940 03be 5bba 39bd 8521 3b3e
00000190: e281 1d3e 293e 28be 3639 e8bc d9a7 afbd
000001a0: a654 0ebe ba2b 90bd 2214 c6bd 375f 113e
000001b0: f0a0 d7bd 9ad1 683d 82ed 22be b52b babd
000001c0: 8322 2b3e 45d1 0abe e6f0 15bd cd74 513e
000001d0: d228 903d e3d0 00be 95ca 16be bfc9 b4bd
000001e0: 0459 bebd 8479 b63d 5493 89bd 40fd 453e
000001f0: e0e3 09be 897a 8bbd 7856 be3d 4637 493e
00000200: 3a7d 7b3e 987c 5c3d 72a0 d13b acbc eabd
00000210: 2344 013e 6234 03be fe28 f7bc 59af 51be
00000220: 945a 7bbe b87a df3d cf48 9eba 3d8e 373e
00000230: 4aa6 253e 36b6 f53d 39c8 e43d df15 1abd
00000240: 055c 0e3e 1604 da3d edc1 aa3d 7d51 eb3b
00000250: 1452 453d 04dc 113b 4d47 41be 3adf 323d
00000260: 2cf5 33be 65ab d83d 487a 1fbe a540 d5bd
00000270: a0e4 0dbe beb0 2f3e 9471 2ebe 50ab 183e
00000280: 411f e33d 84d4 2e3e 62d4 4e3d e11f 093e
00000290: bf3c 513e 8362 6a3d d633 bf3d 66f3 5ebe
000002a0: d8ac c7bd 2733 b13a 9bfe 193d 2822 babd
000002b0: 89dc 84be 1854 88bd b09d ce3d 4ce7 673e
000002c0: 2098 70be 35d5 033e a1e0 80be defe 82be
000002d0: f8f0 30be 1e43 5ebd c5fd 793d ead3 56be
000002e0: cff4 553e 0bec 803e 05a3 8b3c a1a0 543e
000002f0: f758 09be 6a01 fbbd 012f 14bd eaa7 cd3c
00000300: 01a3 43be beaf 68be 2f48 ba3d ac96 ab3d
00000310: 4988 863e 86b6 cbbd 00d9 d63d ba8a cabd
00000320: ee95 033e d6e3 76bc dd6a 583e f0ec 263e
00000330: 125c 763e b1f5 1a3e f02e 953c 4d56 793e
00000340: ee39 1abe 3ca6 823e e127 8c3e ade1 8e3e
00000350: 7897 d5bd 10d7 fabd 068e a73c 5441 a43d
00000360: aafb 083e e4e9 de3d dd62 6a3e 631e 83bd
00000370: f4b1 b0bd 825e af3d 6bf1 903d 2a08 2cbe
00000380: d6fa 2b3c 78f4 4ebe 76c1 adbd 6de8 dbbd
00000390: 91f4 6c3e e58c 74be f47c 1dbe fdae 81be
000003a0: 2677 8f3d 3f94 4bbe 8074 c03d 8824 3bbe
000003b0: 9c0f 23be 2eaf eebd 8437 6e3d fd0a 823e
000003c0: b221 7a3e 4b1a 2fbd 2050 9abe 5be2 f9bd
000003d0: 568a 0cbe cce8 80bd 67f5 ca3d 0fa8 1e3e
000003e0: f5b0 f83d e4a8 4f3d 0823 11be 07c5 01bd
000003f0: 565c a13b 14f4 35be 71df 4fbd 818d 75bd

block2_conv1d_bn_relu_3.op.bias f4 [16]
0.11359858 0.021441381 -0.044972643 0.13226925 -0.09540627 0.0020848822 0.15969743 -0.096511826
0.09759094 0.055798292 0.11254516 0.15680729 -0.03779971 0.1854416 0.14539896 -0.1267325
00000000: 5fa6 e83d d6a5 af3c 3c35 38bd 9771 073e
00000010: 5d64 c3bd 85a2 083b b987 233e fea7 c5bd
00000020: c2dd c73d c08c 643d 147e e63d 1792 203e
00000030: ded3 1abd 67e4 3d3e 77e3 143e 2ac6 01be

block2_conv1d_bn_relu_4.op.weight f4 [16, 16, 4]
-0.17825656 0.035939626 -0.05856192 0.0052121663 0.22843835 -0.3086015 0.34321058 0.25000936
-0.0079608355 -0.15611087 0.0841554 -0.24927792 0.2516278 -0.20984665 0.07083484 -0.38571924
0.20110512 0.264888 0.2996454 0.04342765 0.23172882 0.13414645 0.26938298 0.24083856
-0.36631754 0.009106914 -0.14816357 -0.18709335 0.25133792 -0.06311742 0.058538288 0.2723309
0.27305493 0.2160243 -0.05369828 -0.34970334 -0.35605803 0.13008782 0.002673593 -0.24267405
0.17620212 0.36170614 0.23329107 -0.043966725 0.0269504 -0.2755214 0.14992012 -0.3242971
0.26124734 -0.18827628 -0.1669173 -0.35001832 -0.10577349 -0.051291496 -0.19352576 0.27685508
0.22833517 -0.33487982 -0.027475495 0.15888505 0.34477964 -0.11004688 0.23657821 -0.020277202
-0.1952867 0.3424564 -0.4323822 0.46256986 0.47417587 -0.18700014 0.14165847 0.4630521
0.13367027 0.18457335 0.16422567 -0.234496 0.09269116 -0.30726582 0.3817126 -0.2457095
0.1772429 -0.07887037 0.32938573 0.063048735 0.25360274 -0.1538445 -0.31737036 0.16153766
-0.3036517 -0.43491942 0.16861671 -0.31573275 -0.20530522 -0.13792542 0.03605752 -0.1737874
-0.17893387 -0.124052905 0.39375293 0.18438402 -0.2691843 -0.37244558 -0.02797446 0.12610975
-0.015860932 0.2835771 0.4192482 0.1205229 0.16424274 0.2858751 -0.17827453 0.11096569
0.4308014 -0.21002752 0.06729495 -0.17147551 -0.40512174 0.24866612 0.38804653 -0.2938249
0.15049703 0.13457532 0.18513191 0.27689075 0.5073396 0.38111144 -0.44135463 -0.16903947
0.2664787 -0.2921566 0.08069563 -0.22431378 0.089074634 0.2373507 0.17196882 0.37853634
-0.07882132 0.2364313 0.13919674 -0.18104401 -0.37095138 0.4436432 -0.14665812 0.36532962
0.29720438 -0.041867234 -0.4161118 0.01429925 -0.27407068 0.088794984 -0.22728996 0.34441283
-0.45034662 -0.12658127 0.07094437 0.03328914 0.37690356 -0.18304434 -0.42810553 0.27385643
0.154088 0.35133767 -0.2834477 -0.2804172 -0.20764929 0.035898596 0.17175975 -0.26729143
-0.061093677 -0.10467883 0.4221839 -0.19292696 0.5524791 -0.27415097 -0.1919064 -0.36524335
0.34435844 -0.32914123 0.2229431 -0.16366895 0.46753505 0.05856514 -0.43765622 0.054538675
0.021508818 -0.51303375 0.06487143 0.4204297 0.08255901 -0.02730027 -0.105704516 0.15851842
-0.15310857 0.31407475 0.27804217 0.15085866 -0.13047397 -0.3197627 -0.20376684 0.30492947
-0.28540167 -0.29712424 -0.012366428 0.11270691 -0.34380037 -0.31732222 -0.009658232 -0.118564926
0.19855738 0.06666339 -0.30602863 -0.31940717 0.23961651 -0.039736796 -0.1300205 0.10319416
-0.05879456 0.167803 0.09545792 -0.1259589 -0.24963373 0.19006234 -0.18298164 -0.026477067
0.04096219 -0.19720599 0.16556284 -0.23724863 0.06754932 0.022971798 0.10818072 -0.32981637
0.033981018 0.17990841 -0.19711702 0.09187866 -0.007942249 0.26941136 -0.068431936 0.010371351
-0.13703832 -0.083389014 0.08051948 -0.32489702 0.25826022 0.24867114 0.14751196 0.25307554
-0.08522878 0.092348196 0.027460262 -0.22241883 -0.110843286 -0.10103583 -0.07653588 -0.289128
00000000: e388 36be 6e35 133d a0de 6fbd d2ca aa3b
00000010: beeb 693e 0401 9ebe 4cb9 af3e 3a01 803e
00000020: 2a6e 02bc 87db 1fbe ab59 ac3d b642 7fbe
00000030: 5cd5 803e 0ae2 56be db11 913d fe7c c5be
00000040: 80ee 4d3e 669f 873e 1f6b 993e 31e1 313d
00000050: 524a 6d3e b05d 093e 91ec 893e 629e 763e
00000060: f98d bbbe 2a35 153c 31b8 17be 6695 3fbe
00000070: 5daf 803e b543 81bd d8c5 6f3d f56e 8b3e
00000080: dbcd 8b3e 7935 5d3e baf2 5bbd 510c b3be
00000090: 3d4d b6be be35 053e 7237 2f3b 8c7f 78be
000000a0: 546e 343e 8c31 b93e dbe3 6e3e 7416 34bd
000000b0: 16c7 dc3c 2411 8dbe a984 193e 450a a6be
000000c0: 36c2 853e 7fcb 40be 5eec 2abe 9a35 b3be
000000d0: c69f d8bd 0817 52bd 9e2b 46be f3bf 8d3e
000000e0: b2d0 693e 5e75 abbe 4a14 e1bc c3b2 223e
000000f0: f586 b03e 4260 e1bd 8f41 723e 601c a6bc
00000100: 3df9 47be 7256 af3e 3361 ddbe f5d5 ec3e
00000110: 2ec7 f23e f77c 3fbe eb0e 113e 2a15 ed3e
00000120: dce0 083e cc00 3d3e c62a 283e b81f 70be
00000130: ddd4 bd3d f251 9dbe d56f c33e 459b 7bbe
00000140: 2a7f 353e ca86 a1bd 3fa5 a83e b21f 813d
00000150: 38d8 813e 6a89 1dbe 5e7e a2be 216a 253e
00000160: 3c78 9bbe c2ad debe dca9 2c3e b9a7 a1be
00000170: 883b 52be 523c 0dbe 0db1 133d 53f5 31be
00000180: 713a 37be 730f febd fc99 c93e 2acf 3c3e
00000190: 86d2 89be 30b1 bebe b22a e5bc ea22 013e
000001a0: c9ee 81bc 0531 913e b3a7 d63e b6d4 f63d
000001b0: 402f 283e 395e 923e 998d 36be fb41 e33d
000001c0: 0092 dc3e 7411 57be efd1 893d 4797 2fbe
000001d0: 1e6c cfbe 55a2 7e3e 09ae c63e 3870 96be
000001e0: e51b 1a3e 1dce 093e 3893 3d3e a0c4 8d3e
000001f0: 02e1 013f 0a21 c33e 3cf9 e1be af18 2dbe
00000200: e56f 883e 8d95 95be c043 a53d 83b2 65be
00000210: c36c b63d 100c 733e 9818 303e 84cf c13e
00000220: 126d a1bd 0c1b 723e 9789 0e3e 9a63 39be
00000230: 57ed bdbe 3425 e33e 8c2d 16be 7c0c bb3e
00000240: 2c2b 983e fa7c 2bbd 9b0c d5be 6747 6a3c
00000250: fe52 8cbe 25da b53d b3be 68be e156 b03e
00000260: d593 e6be 859e 01be 484b 913d 315a 083d
00000270: 81f9 c03e fa6f 3bbe a630 dbbe e936 8c3e
00000280: 3fc9 1d3e 88e2 b33e 0f20 91be d892 8fbe
00000290: 04a2 54be 680a 133d cae1 2f3e 6cda 88be
000002a0: 5d3d 7abd db61 d6bd 7d28 d83e a58e 45be
000002b0: 456f 0d3f 845d 8cbe 1c83 44be 2d01 bbbe
000002c0: c04f b03e 3385 a8be 324b 643e d598 27be
000002d0: c160 ef3e 00e2 6f3d 7a14 e0be f263 5f3d
000002e0: 4333 b03c 2e56 03bf 50db 843d 9042 d73e
000002f0: b314 a93d d1a4 dfbc 9c7b d8bd a752 223e
00000300: 7ec8 1cbe 68ce a03e 8b5b 8e3e b17a 1a3e
00000310: f89a 05be f0b7 a3be 41a8 50be b71f 9c3e
00000320: 2b20 92be ab20 98be 8f9c 4abc e1d2 e63d
00000330: 9a06 b0be 0f78 a2be 903d 1ebc 2bd2 f2bd
00000340: a052 4b3e d186 883d c9af 9cbe 5689 a3be
00000350: 085e 753e 0dc3 22bd 1824 05be 7657 d33d
00000360: 91d2 70bd 8dd4 2b3e 717f c33d 5ffb 00be
00000370: fc9f 7fbe b49f 423e 8a5f 3bbe 6fe6 d8bc
00000380: f8c7 273d 5ef0 49be 4e89 293e 4ef1 72be
00000390: 4c57 8a3d 5a2f bc3c da8d dd3d b1dd a8be
000003a0: ae2f 0b3d e939 383e 0bd9 49be e12a bc3d
000003b0: 3520 02bc 49f0 893e 0b26 8cbd 99ec 293c
000003c0: c653 0cbe dcc7 aabd 66e7 a43d e758 a6be
000003d0: af3a 843e a6a3 7e3e 600d 173e 1e93 813e
000003e0: 6d8c aebd 0d21 bd3d 58f4 e03c c3c1 63be
000003f0: ce01 e3bd e0eb cebd d8be 9cbd 9608 94be

block2_conv1d_bn_relu_4.op.bias f4 [16]
-0.08739366 -0.16604525 0.03933823 0.17239621 -0.010665846 -0.04945454 0.17898558 -0.03444261
0.34337106 0.23845904 0.16468999 -0.18024743 0.008655693 0.14544153 -0.33285546 0.059057225
00000000: 72fb b2bd c407 2abe 2021 213d a288 303e
00000010: cdbf 2ebc d890 4abd ff47 373e b213 0dbd
00000020: 55ce af3e 9b2e 743e 7ea4 283e c892 38be
00000030: 9cd0 0d3c a0ee 143e 086c aabe fde5 713d

block3_conv1d_bn_relu_1.op.weight f4 [16, 16, 8]
-0.19814867 -0.10842059 0.03486965 -0.19744046 0.029682761 0.07775809 0.17096078 0.18064487
0.16430482 -0.07890249 -0.014841112 0.19795465 0.1062507 -0.0822269 0.20132385 -0.19773117
0.18519874 0.14203149 -0.17954212 -0.22674614 0.17429392 0.24209185 0.028200826 -0.0993793
0.14618398 0.08319341 -0.061638515 0.18705921 0.15111153 0.04535927 0.12997675 -0.18940865
-0.13484135 0.06097748 0.025880313 -0.059712894 0.04373463 0.11788983 -0.22419955 0.06859804
-0.029570572 -0.1711376 0.034486506 -0.043734126 -0.12800007 -0.24661838 0.24535544 -0.11826707
0.013092923 0.20764104 -0.007334696 -0.14625287 -0.22631177 0.040229656 -0.07975297 0.036473803
0.08282456 -0.0630299 0.15409718 -0.043866124 -0.08514229 -0.15485533 0.1058509 -0.12676083
0.07790888 -0.015304045 0.1833285 -0.09189479 -0.08134356 -0.04033777 -0.10611772 0.11281061
-0.078346916 0.06596425 0.123077504 0.12752925 -0.03561327 0.10573578 -0.08743133 -0.18980989
0.0019947197 -0.16690639 -0.18039604 0.037359666 0.21167755 -0.121349804 -0.017829759 -0.1660647
-0.006520803 0.06402211 -0.06445992 0.15907198 -0.230898 -0.03195199 -0.11417712 0.21471679
0.14473115 0.23919567 0.1919853 0.046002857 -0.2176925 -0.11804236 0.10936428 -0.21720038
0.1416198 0.06944577 0.046021715 -0.21707444 0.17434107 -0.054625895 -0.08337604 0.13531072
0.012501369 -0.13146573 0.045249157 -0.16040806 0.19529948 0.16858995 0.084885605 0.13394964
-0.22802126 -0.09330196 -0.2273843 -0.11348669 -0.22529775 0.17906119 0.08091823 0.11956276
-0.10080794 0.15728734 -0.039814364 -0.06320843 0.105611876 0.12659054 -0.16126718 0.19086578
-0.01949538 0.06065976 -0.21064821 0.025011975 -0.104506426 -0.13699915 -0.08718496 -0.0005706749
-0.05711618 -0.13514899 0.15053833 0.06552369 -0.19533168 0.039831623 0.05402668 0.00823489
0.050388873 -0.016053138 0.09559144 -0.14913143 -0.08858779 0.16143747 -0.12842853 0.10812452
0.19519117 -0.1997889 -0.09047683 0.17757803 -0.020908773 0.034808975 0.027636448 0.083764665
-0.08892328 0.028694265 0.14276928 -0.01869243 -0.19257541 0.072484866 -0.051441558 -0.04036303
0.11011919 0.032543644 -0.12768362 -0.099546574 -0.035933763 -0.05999403 -0.044860642 -0.14501101
0.15347148 0.11305615 0.040015243 0.048445 0.023483662 0.1558322 0.046324026 0.033705086
-0.117252015 0.06836122 -0.20057693 0.06027195 -0.19084777 -0.09568758 0.10586857 -0.13107851
0.16409807 -0.11437291 0.20151137 0.06022298 -0.0899525 0.13061431 -0.18641229 -0.13044971
-0.1362896 0.023305373 0.016571287 -0.18799715 0.19295217 -0.009966675 -0.12001531 -0.0025912803
-0.091111764 0.055014823 0.073767334 -0.05921301 0.012211581 0.12192714 -0.13528891 -0.045473535
-0.026948553 -0.14039262 0.019450832 0.014873044 -0.16994879 0.04243978 0.20561385 0.11647058
-0.11725921 0.19661821 -0.14712162 -0.11026156 0.092521995 0.16685674 0.1979294 0.17907268
-0.11525508 0.053217445 -0.12952891 0.0033613543 0.18211108 0.10992481 -0.18954149 -0.08452781
-0.18155926 0.09014009 -0.026655208 -0.16196582 -0.08158776 0.057571 0.010716292 0.1892655
00000000: 7ce7 4abe 9d0b debd 7ad3 0e3d d52d 4abe
00000010: 4329 f33c a23f 9f3d 5810 2f3e f8fa 383e
00000020: 863f 283e a197 a1bd 2328 73bc a0b4 4a3e
00000030: f899 d93d 9466 a8bd d727 4e3e 0a7a 4abe
00000040: bda4 3d3e b470 113e e4d9 37be 2430 68be
00000050: 1b7a 323e ede6 773e 6b05 e73c 6087 cbbd
00000060: 41b1 153e 4e61 aa3d ab78 7cbd 738c 3f3e
00000070: fbbc 1a3e a4ca 393d a018 053e 57f4 41be
00000080: da13 0abe 86c3 793d f302 d43c 8295 74bd
00000090: 1523 333d 3970 f13d 9194 65be 217d 8c3d
000000a0: fc3d f2bc b23e 2fbe b941 0d3d 8e22 33bd
000000b0: 7312 03be 8789 7cbe 753e 7b3e 0136 f2bd
000000c0: b383 563c da9f 543e e457 f0bb 50c3 15be
000000d0: 46be 67be dac7 243d 8655 a3bd 8e65 153d
000000e0: ec9f a93d d215 81bd a7cb 1d3e f7ac 33bd
000000f0: 155f aebd 6592 1ebe 5bc8 d83d 97cd 01be
00000100: b18e 9f3d d1bd 7abc 77ba 3b3e 5633 bcbd
00000110: 7497 a6bd 3839 25bd 3f54 d9bd 4009 e73d
00000120: 5974 a0bd 4418 873d 0f10 fc3d 0797 023e
00000130: 38df 11bd 008c d83d 320f b3bd 865d 42be
00000140: d8b9 023b 82e9 2abe bdb9 38be 7306 193d
00000150: 00c2 583e 3f86 f8bd b70f 92bc dd0c 2abe
00000160: 76ac d5bb 061e 833d 9003 84bd c4e3 223e
00000170: 8670 6cbe 17e0 02bd b2d5 e9bd b8de 5b3e
00000180: 6734 143e b6ef 743e cb97 443e 7e6d 3c3d
00000190: c8ea 5ebe 31c0 f1bd 61fa df3d c769 5ebe
000001a0: c804 113e 9539 8e3d 4481 3c3d c348 5ebe
000001b0: 7786 323e 67bf 5fbd 0fc1 aabd e58e 0a3e
000001c0: 8bd2 4c3c f49e 06be 2e57 393d 0342 24be
000001d0: 96fc 473e d8a2 2c3e 81d8 ad3d 182a 093e
000001e0: 687e 69be 1915 bfbd 6ed7 68be b66b e8bd
000001f0: 74b4 66be d15b 373e 75b8 a53d 52dd f43d
00000200: 6574 cebd ef0f 213e 6314 23bd 6c73 81bd
00000210: 0a4b d83d f3a0 013e 3923 25be 5272 433e
00000220: c6b4 9fbc 5e76 783d 2ab4 57be eae5 cc3c
00000230: 7707 d6bd 8149 0cbe 078e b2bd 5899 15ba
00000240: a8f2 69bd 7f64 0abe b826 1a3e 4931 863d
00000250: 0705 48be 7c26 233d 144b 5d3d a2eb 063c
00000260: 9064 4e3d df81 83bc 72c5 c33d e9b5 18be
00000270: 846d b5bd dd4f 253e c582 03be 6370 dd3d
00000280: 32e0 473e 7695 4cbe eb4b b9bd 04d7 353e
00000290: e048 abbc db93 0e3d d565 e23c cf8c ab3d
000002a0: 691d b6bd 3c10 eb3c 1c32 123e de20 99bc
000002b0: 7d32 45be f272 943d 62b4 52bd b453 25bd
000002c0: 2b86 e13d 7c4c 053d 7fbf 02be 13df cbbd
000002d0: 482f 13bd 4dbc 75bd cbbf 37bd c47d 14be
000002e0: a127 1d3e fc89 e73d 06e7 233d 446e 463d
000002f0: cf60 c03c 7a92 1f3e 43be 3d3d 580e 0a3d
00000300: d321 f0bd f800 8c3d 0a64 4dbe b8df 763d
00000310: 996d 43be daf7 c3bd 9fd1 d83d 7239 06be
00000320: 5309 283e 583c eabd ff58 4e3e 5fac 763d
00000330: 0439 b8bd c2bf 053e dde2 3ebe 9c94 05be
00000340: 808f 0bbe e9ea be3c 82c0 873c 5382 40be
00000350: 4195 453e 444b 23bc 96ca f5bd 78d2 29bb
00000360: ce98 babd 3957 613d 5413 973d 5789 72bd
00000370: 1513 483c f0b4 f93d 2d89 0abe 7542 3abd
00000380: 36c3 dcbc 15c3 0fbe 5a57 9f3c 11ae 733c
00000390: 0e07 2ebe 56d5 2d3d 708c 523e 2188 ee3d
000003a0: 9925 f0bd 4956 493e 0da7 16be d0d0 e1bd
000003b0: 2c7c bd3d 7edc 2a3e 01ae 4a3e d45e 373e
000003c0: db0a ecbd 89fa 593d 3aa3 04be 2b4a 5c3b
000003d0: 547b 3a3e 4220 e13d 2a17 42be eb1c adbd
000003e0: acea 39be 5e9b b83d 065c dabc 5eda 25be
000003f0: 7c17 a7bd 92cf 6b3d 6393 2f3c d1ce 413e

block3_conv1d_bn_relu_1.op.bias f4 [16]
0.065089725 0.07213905 0.33577392 -0.21545847 -0.06256414 0.42823866 0.028805895 0.4889334
0.15516172 -0.24349381 0.037073113 0.18286006 0.11344711 0.10183744 -0.18221961 -0.0014902703
00000000: c34d 853d a3bd 933d 8fea ab3e 25a1 5cbe
00000010: a121 80bd 1942 db3e 57fa eb3c 7b55 fa3e
00000020: b7e2 1e3e 7156 79be fad9 173d ab3f 3b3e
00000030: f556 e83d 2690 d03d c797 3abe 2c55 c3ba

block6_dense.op.weight f4 [2, 16]
0.44758666 0.2565392 0.43596917 -0.10505018 0.026996084 0.42947197 0.33224607 0.3546697
0.02639215 -0.30191013 0.40687275 0.3083128 0.36887205 -0.05570346 -0.24027768 0.25537184
-0.47202128 -0.13150819 -0.0879061 0.29658833 -0.17077279 -0.585833 -0.42504102 -0.23251657
-0.30163863 0.18800244 -0.38831046 -0.08392904 -0.043657072 0.060914293 0.17782068 -0.5159901
00000000: 142a e53e 1b59 833e 5a37 df3e 8c24 d7bd
00000010: e426 dd3c c0e3 db3e 281c aa3e 4497 b53e
00000020: 5a34 d83c f793 9abe a051 d03e 2ddb 9d3e
00000030: ccdc bc3e 5029 64bd 5a0b 76be 19c0 823e
00000040: c6ac f1be 15aa 06be 1d08 b4bd 6dda 973e
00000050: 10df 2ebe 27f9 15bf fa9e d9be d318 6ebe
00000060: 6170 9abe b683 403e a1d0 c6be fde2 abbd
00000070: c2d1 32bd 4481 793d a016 363e ed17 04bf

momentum_buffer f4 [4, 1, 4]
0.0061451164 0.005379265 -0.0038820421 -0.0051810206 0.01295178 0.017058155 0.009923518 0.013353668
0.05350941 0.034783315 0.0020598546 -0.0030459762 -0.015092211 -0.012428624 -0.0034509879 0.0060326494
00000000: f95c c93b 8c44 b03b dc69 7ebb 8dc5 a9bb
00000010: b433 543c 8bbd 8b3c 4096 223c 58c9 5a3c
00000020: af2c 5b3d f378 0e3d a0fe 063b 009f 47bb
00000030: 5245 77bc 6da1 4bbc f829 62bb 88ad c53b

momentum_buffer f4 [4]
-0.08153599 0.018439949 -0.09285033 0.19122833
00000000: 57fc a6bd 600f 973c 5028 bebd 5cd1 433e

momentum_buffer f4 [16, 4, 5]
0.008718831 0.005021899 0.0008140607 -0.0011885162 -0.00020443182 -0.0047419956 0.00028359564 -0.0011806736
0.0025602714 0.0014976319 0.0063919616 0.0037517757 -0.0008450197 -0.004169629 -0.002797693 0.0036907664
0.0028513067 0.0020794305 -0.0023241984 -0.0013734493 -0.003663784 -0.0045065796 0.003621067 -6.2421896e-05
-0.008159003 0.017954767 0.017813807 0.008083531 -0.0005816724 0.005219358 -0.0068740817 -0.0079643205
-0.000857783 -0.0009209097 -0.008443575 -0.008616708 -0.005838057 -0.0029896684 -0.0005589796 -0.0068768077
0.00470843 0.015841011 0.02130882 0.012158741 0.0075606983 0.007053692 -0.0019318685 -0.010629768
-0.0037456192 0.00113675 -0.0048120916 0.007638813 0.015332366 0.007327825 0.0016930457 -0.0030737007
0.0028495044 0.012532208 0.0077963164 0.0011454411 0.0052301325 0.0016571237 -0.00088144187 0.0002846499
0.00088024326 -0.001454761 0.0041420623 0.0028960104 -0.0047059082 -0.00028061494 0.0044818437 -0.00055595953
-0.0040992815 -0.0010294905 -0.0011715493 0.004498984 0.0036402969 -0.0035873083 -0.0018871957 0.00060704455
0.009667909 0.003388885 -0.0031778733 -0.0013629338 -0.00031793767 -0.0036191728 -0.001355711 -0.00027918865
-0.0027967347 -0.00638161 0.007711478 0.0027946031 -0.004138357 -0.001672863 0.00010607185 0.0052360552
0.0017695355 -0.0031133592 -0.0029993805 -0.00027218452 0.0021256073 0.0048515867 0.0054939035 0.0066165896
0.006289891 0.0014324245 -0.00024565164 -0.0007619285 0.00019517541 -0.00066939055 0.0011097109 0.00427094
0.005238899 0.006043445 0.007061256 -2.7281232e-05 0.0028369795 0.004535474 0.004800896 0.0058452245
0.0035037156 0.0031971775 0.000847718 -0.003775052 -0.0026029511 -0.006973192 -0.0065851808 -0.005290319
0.00014715552 -0.0019636834 0.0010428198 0.0014221418 -9.5264666e-05 -0.0030880189 -0.001291099 -0.00067196233
0.0014440506 -3.505178e-05 -0.002816232 -0.0024513225 -0.0021802867 -0.005544904 -0.0042428486 -0.0013529203
0.00078898977 0.00040202326 0.003839692 0.0062645487 0.0022435165 0.00028467947 -0.0013345238 -0.0054366332
-0.003250272 -0.0005532492 0.00023127592 -0.0016932385 -0.004520738 -0.0028447355 0.00011881594 -0.0006845959
0.0005216743 -0.0017632768 -0.002539188 -0.003011928 -0.0031649028 -0.0009669738 -0.0008302692 0.0033200858
0.0004826914 0.00063120073 -0.00042610336 -0.0017682104 -0.006131084 -0.0048194514 -0.0056320243 -0.0038355102
-0.0026376199 -0.0039293077 -0.005961158 -0.0029639895 0.008434449 0.0024642334 0.0016975702 0.0023227115
-0.0010010405 0.011768766 0.011501631 0.013533563 0.014865208 0.019071417 0.006113078 0.00082894607
0.0002174036 0.0012708171 -0.0020748067 0.0053646276 8.684702e-05 -0.0008623067 0.0022460816 -0.0012558601
0.006512386 0.0068964674 0.010126357 0.01612606 0.009688955 0.0042269467 0.010569601 0.0016669326
2.0002946e-05 0.0044166474 0.0035389806 0.0027892236 0.005503295 0.013393074 0.007841515 0.0016272152
0.0011939225 0.0021543228 0.009942528 0.009796532 -0.0007344242 0.0020388197 -0.0052430555 0.003705374
0.0059505375 -0.009172964 -0.0010182471 0.0030684143 -0.007851823 -0.009748686 -0.003752295 -0.00021592621
-0.0064504207 0.00039786287 0.0034368197 -0.0036182236 -3.9332546e-05 -0.0041990783 -0.0010891096 0.0031539905
-0.011583885 -0.0045483564 0.00025204336 -0.005490736 -0.008025171 -0.0043079285 -0.0055850754 -0.0064306855
-0.0016902238 -0.004623563 -0.008977719 -0.004167212 0.00084516034 -0.0038657254 -0.006917328 -0.0048649344
00000000: 6ed9 0e3c be8e a43b b066 553a fcc7 9bba
00000010: c05c 56b9 be62 9bbb 90af 9439 d5c0 9aba
00000020: 3aca 273b 304c c43a a973 d13b 5ae0 753b
00000030: 5084 5dba 62a1 88bb 8059 37bb c9e0 713b
00000040: fddc 3a3b 0e47 083b 9451 18bb 5005 b4ba
00000050: 181c 70bb eeab 93bb 6c4f 6d3b 80e8 82b8
00000060: 57ad 05bc e015 933c 43ee 913c c970 043c
00000070: 607b 18ba 2607 ab3b fa3f e1bb c87c 02bc
00000080: d8dc 60ba 3469 71ba ec56 0abc 182d 0dbc
00000090: 2c4d bfbb 50ee 43bb 7c88 12ba d856 e1bb
000000a0: 2c49 9a3b 02c5 813c d68f ae3c 7535 473c
000000b0: bcbf f73b a822 e73b c036 fdba 7a28 2ebc
000000c0: 1079 75bb 00ff 943a c0ae 9dbb 024f fa3b
000000d0: 9b34 7b3c 401e f03b 30e9 dd3a 2470 49bb
000000e0: c0be 3a3b e453 4d3c 3e78 ff3b a022 963a
000000f0: 8861 ab3b d833 d93a 9010 67ba 103d 9539
00000100: 20c0 663a aead beba 23ba 873b feca 3d3b
00000110: 0534 9abb 801f 93b9 6edc 923b d0bd 11ba
00000120: 4453 86bb f8ef 86ba ac8e 99ba 376c 933b
00000130: 0c92 6e3b 0c19 6bbb c85b f7ba 1222 1f3a
00000140: 2666 1e3c 0e18 5e3b de43 50bb 78a4 b2ba
00000150: dfb0 a6b9 a52f 6dbb 1db2 b1ba 1160 92b9
00000160: 6c49 37bb d31c d1bb 91b0 fc3b a925 373b
00000170: 0e9b 87bb f843 dbba e472 de38 3793 ab3b
00000180: c2ef e73a 8009 4cbb 4191 44bb fdb3 8eb9
00000190: c64d 0b3b 0ffa 9e3b 3406 b43b facf d83b
000001a0: 6e1b ce3b 31c0 bb3a ceca 80b9 28bc 47ba
000001b0: 00a8 4c39 0a7a 2fba b873 913a 3ef3 8b3b
000001c0: 12ab ab3b 1708 c63b 1c62 e73b 00da e4b7
000001d0: 9eec 393b 509e 943b d650 9d3b 4c89 bf3b
000001e0: 989e 653b bd87 513b 6439 5e3a dd66 77bb
000001f0: 4696 2abb 607f e4bb 80c8 d7bb 6a5a adbb
00000200: c24d 1a39 24b1 00bb 3aaf 883a 2967 ba3a
00000210: d4c8 c7b8 5c60 4abb 183a a9ba a126 30ba
00000220: 4c46 bd3a 9004 13b8 8890 38bb 5ea6 20bb
00000230: 24e3 0ebb 07b2 b5bb 9807 8bbb 7954 b1ba
00000240: 35d4 4e3a a6c6 d239 58a3 7b3b d846 cd3b
00000250: f607 133b 0841 9539 30eb aeba c925 b2bb
00000260: 8402 55bb ed07 11ba a882 7239 a8ef ddba
00000270: b322 94bb be6e 3abb d22c f938 7476 33ba
00000280: f8c0 083a c01d e7ba 8168 26bb c463 45bb
00000290: 426a 4fbb 837c 7dba 6ca6 59ba cc95 593b
000002a0: be11 fd39 2a77 253a a066 dfb9 4cc3 e7ba
000002b0: 43e7 c8bb 7dec 9dbb d88c b8bb 2f5d 7bbb
000002c0: ebdb 2cbb 6cc1 80bb d155 c3bb 7e3f 42bb
000002d0: a530 0a3c fa7e 213b 0181 de3a a238 183b
000002e0: 5835 83ba c8d1 403c 5671 3c3c e1bb 5d3c
000002f0: 348d 733c a93b 9c3c 3750 c83b a14d 593a
00000300: d6f6 6339 8c91 a63a 7bf9 07bb c2c9 af3b
00000310: a421 b638 6c0c 62ba ff32 133b ac9b a4ba
00000320: da65 d53b c3fb e13b 05e9 253c cd1a 843c
00000330: 6cbe 1e3c 3382 8a3b 1f2c 2d3c fa7c da3a
00000340: 00cc a737 86b9 903b 3eee 673b 68cb 363b
00000350: fc54 b43b a06e 5b3c b379 003c 4848 d53a
00000360: 647d 9c3a 8a2f 0d3b fce5 223c a281 203c
00000370: 6086 40ba b89d 053b f0cd abbb dcd5 723b
00000380: bafc c23b 334a 16bc b476 85ba 7317 493b
00000390: efa4 00bc f4b8 1fbc 10e9 75bb 406a 62b9
000003a0: 0d5e d3bb 4098 d039 443c 613b b81f 6dbb
000003b0: 00f9 24b8 6c98 89bb 74c0 8eba 2eb3 4e3b
000003c0: 56ca 3dbc 610a 95bb b024 8439 a2eb b3bb
000003d0: 027c 03bc 8629 8dbb 0203 b7bb 80b8 d2bb
000003e0: 808a ddba 4281 97bb 4817 13bc 1c8d 88bb
000003f0: c08d 5d3a 1c58 7dbb c1aa e2bb 076a 9fbb

momentum_buffer f4 [16]
-0.007697141 -0.0073970575 0.0037292317 -0.011211092 -0.002179881 0.009603492 -0.0051208567 0.0020558676
-0.011987433 0.012154538 0.0020585246 -0.023774285 -0.016532816 0.0039291885 0.016439917 0.007867195
00000000: 4c38 fcbb 0463 f2bb 2066 743b baae 37bc
00000010: 56dc 0ebb f757 1d3c dccc a7bb bcbb 063b
00000020: f066 44bc d423 473c 50e8 063b 4ac2 c2bc
00000030: d46f 87bc 6cc0 803b 01ad 863c 68e5 003c

momentum_buffer f4 [16, 16, 5]
0.0007342305 -0.0010017967 -0.0016227011 -0.0006931928 -0.0002989338 0.0008386922 0.0019324209 0.0034057703
0.0014808755 0.0002351572 0.001267553 0.00050403416 0.0019277448 0.0011663476 -3.453082e-05 0.0027945852
0.0027811606 0.00045558705 -0.0015581007 -0.0016111274 0.004011245 0.0018715981 0.00048501306 -0.0005995489
0.0009675155 0.00064151443 0.0005962669 0.00040790794 0.0003178653 0.0010390964 0.00024034997 -1.8514576e-05
-0.00013501174 0.0004853896 0.0004784634 0.00011428294 0.00031434395 0.00021295028 -2.9296796e-05 -0.00016500677
0.0024136868 0.0027503718 0.0008789657 -0.0005600997 -0.00027623872 0.00015334823 3.959673e-05 0.00064088823
0.0009826166 0.0013625459 0.004059271 0.0011716979 -0.00079778186 -0.0015414038 0.00029766248 0.0026345735
0.0028378635 0.00029369013 -0.00023146044 -0.0005697397 -0.0011520742 -0.000998378 0.00070023595 0.0015331332
0.0029348945 -0.0015319076 -0.0021104533 0.00031309738 0.00029368544 0.0004661658 -0.00075027795 -0.0002608055
-0.00026624114 0.00036543264 0.00061076664 -0.0016027867 -0.0017896615 -0.00082044106 -0.0006806265 -0.00048683627
-0.0009804781 -0.0011197103 0.0014128123 0.00039364642 -0.000665589 -0.0031143012 -0.0038710418 -0.0015472181
0.00029064604 0.00501995 0.001622458 0.0029750436 0.002807632 0.0019273211 0.0035291295 -0.0025114403
-0.00146122 0.0008552899 0.0033818088 0.0015059519 0.00047737797 0.00085433986 0.00063148106 0.00013312348
-0.00015724191 0.00041280492 0.0007105438 -0.00067148125 -7.12688e-05 4.2848114e-06 -0.00038958786 -0.0003237687
-6.352437e-05 9.649271e-05 -0.00014685963 -0.00032587527 -0.0008321166 -0.0012143716 -0.00011975909 -0.000179926
-0.0019351653 0.0006890956 5.3095573e-07 0.00018927176 -0.00024770747 -0.00041646458 -0.0016381573 -0.0015618828
-0.0006841603 0.00089901686 9.974837e-05 -4.238868e-05 -0.0003577761 0.0003910562 0.00054411823 -0.0017609552
-0.0009091342 0.001314168 0.0038622934 -0.00039733364 0.0008281475 0.0016178613 0.0028499207 0.001787329
0.0003107899 -0.0012125087 0.0012028291 0.0019594706 -0.00088022224 -0.0026612384 0.0008582259 0.0018445365
-0.00039547414 -8.080126e-06 -0.00049870834 -0.0010537886 0.00018221258 0.00081198337 -2.6721711e-05 -0.0007704632
-0.00037894692 0.00084892416 0.0015285935 -0.00071542227 0.0021937178 -0.003212494 -0.003850614 0.000502696
0.0005837977 -0.0014941569 0.006295817 0.004110592 0.004677205 0.006198895 0.0063575134 -0.0054349205
-0.0015067006 -0.0015524048 -0.002566591 -0.0052624205 -0.0019742004 -0.0017911561 -0.0026049626 -0.003148071
-0.0005910427 -0.0019261412 -0.0016295544 -0.0017130185 -0.0011463487 -0.00065126613 2.980337e-05 -0.00018263035
0.0006020225 0.0004105207 0.001024295 2.935472e-05 0.00020475624 -0.00093522243 -0.00015155118 -0.00013209894
0.0011218245 -0.00012662297 -0.00077368104 -0.0019182909 -0.00020300696 -0.00088473654 -0.00012218603 0.00018956768
-0.00026802556 0.00044887 -0.0041538524 -0.0028056644 -0.0013816663 -0.0007390998 0.00014126336 -0.0017370274
-0.00042240054 -0.0007380677 -0.0021916255 -0.0035924863 0.005546834 0.004594899 0.00766928 0.0038920874
0.0047069956 -0.00029765663 -0.00038420747 -0.0010032249 -0.003387901 0.0008650571 0.0019858717 -0.00025618123
-0.00020881207 0.0012998403 -0.0002142234 0.0013929326 0.0009386678 0.0018365611 0.0008969676 0.00075649354
-0.00047385704 0.0008212879 0.0008765705 -0.0021348428 -0.0017102847 0.0011086545 0.00044230666 0.0016920428
0.0003017757 0.0004573642 2.7456204e-05 -0.0014506207 -0.002316094 -0.0029603578 -0.0019470433 -8.068711e-05
00000000: 6079 403a b84e 83ba d0b0 d4ba 62b7 35ba
00000010: 37ba 9cb9 aedb 5b3a 4949 fd3a 5833 5f3b
00000020: f019 c23a 8894 7639 0524 a63a 2921 043a
00000030: 62ac fc3a 22e0 983a 30d5 10b8 5c25 373b
00000040: 2244 363b dcdb ee39 2f39 ccba 772c d3ba
00000050: c370 833b 6950 f53a 5a49 fe39 0c2b 1dba
00000060: dea0 7d3a 4e2b 283a cb4e 1c3a 7adc d539
00000070: 29a7 a639 4a32 883a 7406 7c39 c04f 9bb7
00000080: f091 0db9 e47b fe39 45da fa39 30ab ef38
00000090: 88ce a439 684b 5f39 64c2 f5b7 ab05 2db9
000000a0: f22e 1e3b 953f 343b 646a 663a a8d3 12ba
000000b0: 22d4 90b9 1acc 2039 aa14 2638 4801 283a
000000c0: 24cb 803a 7497 b23a a203 853b a893 993a
000000d0: 3c22 51ba ee08 caba 950f 9c39 cfa8 2c3b
000000e0: 73fb 393b 6cfa 9939 30b4 72b9 965a 15ba
000000f0: 3201 97ba 02dc 82ba 0a90 373a 6af3 c83a
00000100: 5c57 403b 4aca c8ba 884f 0abb 3827 a439
00000110: cbf9 9939 b767 f439 4dae 44ba b9bc 88b9
00000120: 4896 8bb9 8a97 bf39 db1b 203a 9914 d2ba
00000130: 1393 eaba de12 57ba 126c 32ba 0f3e ffb9
00000140: 6383 80ba 3ec3 92ba 1d2e b93a 5462 ce39
00000150: ec7a 2eba 4e19 4cbb 4eb1 7dbb 06cc caba
00000160: da61 9839 657e a43b a8a8 d43a f3f8 423b
00000170: 4000 383b 2a9e fc3a f848 673b fa96 24bb
00000180: 6886 bfba 8935 603a 56a1 5d3b 5c63 c53a
00000190: 9648 fa39 c7f5 5f3a fa89 253a 1097 0b39
000001a0: 4ee1 24b9 bd6d d839 ca43 3a3a 5806 30ba
000001b0: 2576 95b8 40c6 8f36 9941 ccb9 80bf a9b9
000001c0: 6338 85b8 215c ca38 55fe 19b9 3dda aab9
000001d0: 6622 5aba 8d2b 9fba 2c27 fbb8 85aa 3cb9
000001e0: 5fa5 fdba 6ca4 343a 0087 0e35 4077 4639
000001f0: bcde 81b9 ee58 dab9 70b7 d6ba 17b8 ccba
00000200: 3859 33ba 00ac 6b3a 0030 d138 80ca 31b8
00000210: e593 bbb9 ad06 cd39 28a3 0e3a dacf e6ba
00000220: f752 6eba 2940 ac3a 881e 7d3b 3851 d0b9
00000230: 0a18 593a 6b0e d43a bcc5 3a3b cf44 ea3a
00000240: 84f1 a239 0aed 9eba 3fa8 9d3a 766a 003b
00000250: b7be 66ba 2c68 2ebb 91fa 603a 60c4 f13a
00000260: a457 cfb9 e08f 07b7 c0bb 02ba 471f 8aba
00000270: 5110 3f39 48db 543a 7028 e0b7 e9f8 49ba
00000280: 65ad c6b9 568a 5e3a 165b c83a 2d8b 3bba
00000290: 7ac4 0f3b b588 52bb 955a 7cbb 5cc7 033a
000002a0: 000a 193a 96d7 c3ba 244d ce3b 25b2 863b
000002b0: 3d43 993b 1a20 cb3b b052 d03b 6b17 b2bb
000002c0: 7c7c c5ba 107a cbba 4034 28bb 6270 acbb
000002d0: 9661 01bb 3ac5 eaba 05b8 2abb de4f 4ebb
000002e0: 34f0 1aba 9376 fcba c696 d5ba 5d87 e0ba
000002f0: 1441 96ba bbb9 2aba 4002 fa37 7680 3fb9
00000300: 0cd1 1d3a 283b d739 a341 863a c83e f637
00000310: d6b3 5639 b729 75ba b6e9 1eb9 0a84 0ab9
00000320: 2f0a 933a 18c6 04b9 dbd0 4aba 296f fbba
00000330: 44de 54b9 aaed 67ba 101f 00b9 b0c6 4639
00000340: c885 8cb9 5056 eb39 0a1d 88bb 3ddf 37bb
00000350: 0719 b5ba 26c0 41ba 1820 1439 f8ac e3ba
00000360: a475 ddb9 e37a 41ba 60a1 0fbb eb6f 6bbb
00000370: 37c2 b53b ce90 963b 954e fb3b 6412 7f3b
00000380: 243d 9a3b cc0e 9cb9 746f c9b9 a47e 83ba
00000390: 8c07 5ebb 00c5 623a 6625 023b 1050 86b9
000003a0: 90f4 5ab9 675f aa3a 28a1 60b9 1093 b63a
000003b0: ee10 763a c4b8 f03a 7a22 6b3a 6c4f 463a
000003c0: 0470 f8b9 b34b 573a a7c9 653a b8e8 0bbb
000003d0: a22b e0ba 4650 913a 65e5 e739 89c7 dd3a
000003e0: a637 9e39 62ca ef39 c051 e637 c122 beba
000003f0: 9cc9 17bb 9002 42bb ef33 ffba 9036 a9b8

momentum_buffer f4 [16]
0.005380563 -0.00039830222 0.007412618 -0.005132356 -0.014580427 0.00032961555 0.003539998 -0.0034650632
-0.0024383077 -0.0035033599 -0.006330814 -0.0005104493 0.00021204958 -0.0032295259 0.0072087683 0.007790165
00000000: 6f4f b03b 38d3 d0b9 8ce5 f23b 532d a8bb
00000010: bee2 6ebc 40d0 ac39 50ff 673b 1d16 63bb
00000020: 04cc 1fbb a098 65bb b872 cfbb accf 05ba
00000030: a059 5e39 74a6 53bb 8837 ec3b a444 ff3b
